NeuralNetworksV1/weights_300_hidden.npz (npz, 14774 bytes, 8 tensors)

b1 f8 [200, 1]
0	0xbfec774cec44150b	-0.8895630468911419
1	0xbff2343466a46194	-1.1377452859361243
2	0x3fe1653dca5128d7	0.5436085654739838
3	0xbfebf7ca10cc3f2c	-0.8739977195818702
4	0x3fe8654705f45f4e	0.7623629680920005
5	0x3fe620e734a13b44	0.6915164974142063
6	0x3ff94657e28863f0	1.579673657315876
7	0xbfd8654c5e904f75	-0.38118275866258183
8	0xbfe00ea844637222	-0.5017892204010119
9	0xbfdddf94edc40f00	-0.4667713472301642
10	0xbfee9f626f978460	-0.9569561175850474
11	0xbfe659ec502dbeed	-0.6984769407262924
12	0x3fcf3a772a94d951	0.24397172526523517
13	0x3fd009408efc819f	0.2505647083617308
14	0xbfbde5120ee348a2	-0.11677658904526081
15	0x3fd17b6f2b0225bf	0.27315882873571334
16	0x3fd0845333b86e7d	0.25807647753547497
17	0x3fe2635f5b5028f3	0.5746304305514783
18	0xbf7aa7b7bf3657de	-0.006507604371469326
19	0x3fe1811e6f753f97	0.547011583033952
20	0xbfeb6e0a06496144	-0.8571825144563623
21	0x3fcbcfeaf681ff4b	0.21728264843477016
22	0x3fcb629f9e23ed9f	0.213947250573125
23	0xbfc4dcf284a54d80	-0.16299277760354514
24	0xbfc5b94c59312481	-0.1697173533923753
25	0xbfe6e234bf92d4cb	-0.7151130429907878
26	0x3fecd7f67fd6fafb	0.9013626572485401
27	0x3fe0dcbfe4f913cf	0.5269469711425873
28	0xbfbfb854154738b5	-0.12390637893188024
29	0x3fe39c084b48a28e	0.6127969236741408
30	0xbfd28dc0075df0d3	-0.28990174025944987
31	0xbfcb7e8f2c6387b8	-0.2147997824422967
32	0xbff64952fbd86693	-1.3929014051158546
33	0x3fe6e664f80b3424	0.7156243176083348
34	0xbfe213117a6801aa	-0.5648276701686445
35	0x3f773e9ea2860c13	0.005674953143514311
36	0xbfdc289d7ccc5210	-0.43997895419423205
37	0x3fd8bfee741fd1fb	0.38671456661475617
38	0x3fc4fd0460e83b3c	0.1639714692286932
39	0x3fe1fd383108701e	0.5621605832743659
40	0x3fd4cb840a019590	0.32492161729018054
41	0x3fed707b3f974294	0.9199806444176652
42	0x3fe03ac2beb7bc3a	0.5071729397731197
43	0x3fea6d63d61f35a4	0.8258532697743033
44	0xbfe2b36f8119f650	-0.5844037553321844
45	0x3fe6b43ab3d49962	0.7095006477655199
46	0xbfab3a6ec048e14c	-0.053180180523158954
47	0x3fb914dd871646a5	0.09797462986014212
48	0x3fe351ed37b91531	0.6037508095111318
49	0xbfa6e148425ee300	-0.04468751726330389
50	0xbfe5b8c9a8e0cba2	-0.678807096328786
51	0xbfdb81c2dcab2b70	-0.4297949938742738
52	0x3f98e8a00d233447	0.024324894716120118
53	0xbfed643a7e43ac30	-0.9184849229908476
54	0x3fd4791773d7650a	0.3198908454192667
55	0xbfe8b82920eb9bf0	-0.7724805491424132
56	0xbfe416edd12b5a60	-0.6277989468897651
57	0xbfecf99623f54f24	-0.9054671003636696
58	0x3fe3a934fb769a96	0.6144051467316156
59	0x3fdcea5af22a5558	0.4518039097686901
60	0xbfb17388cd6c8948	-0.06816916480287205
61	0x3f81aee6d177e961	0.008634379641979608
62	0xbf75e28cc9c26047	-0.005343007997133559
63	0xbfd7a2f9ff0c4904	-0.3693222990706462
64	0xbfd33cdc7996a8a1	-0.30058967470052705
65	0x3fe304ad0ae2a6d9	0.5943207943539291
66	0x3fd21d936d92ae50	0.2830551691101606
67	0xbfc098fbeb7ef30d	-0.1296687030679994
68	0xbfd807f53333b4e5	-0.3754857063311888
69	0x3fd9fdb21e468cb6	0.40610936123466546
70	0x3fe97f9e94c20abd	0.7968285470418192
71	0xbfde08c3b3afe8c8	-0.46928494021962
72	0x3fe682d11bd5e75b	0.703468851438838
73	0xbfb3829e475c71f0	-0.07621182672705351
74	0xbfe205225f3fb1f8	-0.5631267414406116
75	0xbfd7997a5b04f584	-0.3687425507412956
76	0x3fe7d8dd2ee44057	0.7452226558543867
77	0x3feea4c21c408e11	0.9576120902824546
78	0xbfe90e49f40df11c	-0.7829942480744054
79	0x3fe27406b9ea0f1d	0.5766633635653055
80	0x3fdf63d24f592311	0.49046762226912316
81	0x3fe81c396e30273d	0.7534453537093452
82	0xbfd0cee9ae96334e	-0.26262895631298455
83	0x3fe88ead2f39b221	0.7674165651674835
84	0x3fa52e1e89d9a55e	0.04136748726598215
85	0x3fe9569a7164e0c6	0.7918216910102494
86	0xbfeb57015677b012	-0.8543707550829842
87	0x3fe656f22be34c42	0.6981135232148363
88	0x3fe82df65e88b3f7	0.7556106420867071
89	0xbfccd9a2fe10cae8	-0.22539174466654477
90	0x3fe3c1ae290a6b9a	0.6173926164222963
91	0xbffa7cad239dbb35	-1.655438555837191
92	0xbfccb44d3e0fc218	-0.22425237207745918
93	0x3fdaa282e96c9ccd	0.4161689071210731
94	0x3fe781fd9045311a	0.7346179788378635
95	0x3fe2b119505120a8	0.5841185158433477
96	0xbfed82557786f62c	-0.922159894420195
97	0x4002e3bb5ff86c59	2.3611972329795603
98	0xbfe0ce26ea1a4288	-0.5251650402370425
99	0x3fe19187889ce46b	0.5490148227901391
100	0x3fc017c446714137	0.12572530211992625
101	0x3fe46215eb8bda0e	0.6369733429444879
102	0xbfe91c1ccb836f9a	-0.7846816992637173
103	0x3fd4ecd1c650e9bc	0.32695431105426187
104	0xbfcf8f1855fe92d8	-0.24655441473910034
105	0x3fbfae4a56885fc4	0.12375321018805524
106	0xbfe0b3137dc45316	-0.5218598801025986
107	0x4002e638f301a4da	2.362413309562368
108	0x3fe3af0f60f55981	0.6151196378439608
109	0xbfcb81ce97664320	-0.21489889519264072
110	0x3feb429b09c0eaad	0.8518805685519816
111	0xbfc5db522df70b05	-0.17075564617524477
112	0xbfc9fbfdf8bad797	-0.2030026878834945
113	0x3fd1762cf12827e9	0.27283786344980726
114	0xbfedb6da21103267	-0.928570808960626
115	0xbfe16f0d11ed5576	-0.5448060369623551
116	0xbff99a4b104834d1	-1.6001692424791154
117	0xbfed464ebc62eecc	-0.9148324660704588
118	0x3fd88a816f3d2345	0.3834537111584278
119	0x3ff615ee2c1500f9	1.3803540918307233
120	0x3fe71c6b9d4a085c	0.7222192832998746
121	0x3fe3262e27c43c03	0.5984106804552315
122	0x3fe21d4642cfeb94	0.5660735421109728
123	0x3fd05a298a164790	0.25550306782781096
124	0xbfed444cdf6aab26	-0.9145874370200076
125	0xbffca5c8a277ee7b	-1.7904745432305436
126	0x3fe07527571712c2	0.5143009854296781
127	0xc0037d24c19c328c	-2.4361052633087805
128	0xbf66a2dabf0a190c	-0.0027632019412663408
129	0x3fe12b1192ce3e92	0.5365074031160069
130	0x3fd7e6d88937289c	0.3734647121424446
131	0xbfe78a9706e43e56	-0.7356677183724496
132	0x3fe87e1088327073	0.7653887424562654
133	0x3fb7bc4e310ad99d	0.09271706292461208
134	0xbfd36951e98c7252	-0.30330322082025873
135	0x3fc0aebe7ee4c65d	0.1303327674482259
136	0xbfe61b902805b538	-0.6908646375356176
137	0x3fe797b662c87b5c	0.7372695855482152
138	0x3feb7aacb65d89a0	0.8587249337982037
139	0x3fc9cf480bdbaa8f	0.2016382272625674
140	0xbff3f474839fd83f	-1.247181429059779
141	0xbfe15e27d1b6dbba	-0.5427435966474754
142	0xbfee69c5c814583a	-0.9504116924097226
143	0xbfc27fc2f27a2c1c	-0.1445239719363095
144	0xbfe9f16d127533cc	-0.810720954943116
145	0x3fdbe9878c99720d	0.4361285088578207
146	0x3ffa14e27793cfc0	1.630098788355994
147	0xbfe48cdb941bab60	-0.6421945469604502
148	0xbfe0bba00d52261a	-0.5229034671949109
149	0xbff624159de08378	-1.3838096777983235
150	0xbfcabc2a33be1dc4	-0.20886733557220627
151	0x3fe328d5720d9303	0.59873459125501
152	0x3fd1724f5c022390	0.2726019285697072
153	0xbfd5649c2b55dd34	-0.33426574928258224
154	0xbfdf54fddefd6c94	-0.4895624807010759
155	0x3fc1b2dac53328a6	0.13827070835970295
156	0xbfef1a6b3dfef5e2	-0.9719749651773635
157	0xbfe4a5d19dcdcac6	-0.6452415544611874
158	0x3ff1af98b20e6771	1.1053702311823737
159	0x3fd1003c2b778e41	0.26563934559655783
160	0xbfdcbb8c757022c6	-0.44894706219251324
161	0x3fe7d13051eb6c94	0.7442857360832869
162	0x3fe7d405b1eba1c2	0.7446316218384299
163	0x3fe3802a67b29d29	0.6093952203126821
164	0xbfed5852c6f00188	-0.9170316586969856
165	0xbfe38a03f7bf50a8	-0.6105975951018268
166	0x3fd7129dbd771a20	0.3605112409826763
167	0xbfe1dd5525e75fa2	-0.558268140822282
168	0x3fb8fafb1543c749	0.09757966298255129
169	0xbff43f9eaf315608	-1.2655321925607286
170	0xbfea9268cf42369c	-0.8303722427387643
171	0xbfd536c2413fd9e8	-0.33146721241010235
172	0x3fd37216c444d158	0.30383843581082237
173	0x3fed3152cf683e6f	0.9122709322854926
174	0x3fe27281ebb9f834	0.5764779666931248
175	0xbff2a6f06b23aad4	-1.165756624711027
176	0xbfc1fb5c87abcc9e	-0.14048344254078854
177	0xbfdfeed7dd3b6658	-0.49895283322039097
178	0x3fd5521dec5dc78e	0.3331370170845894
179	0xbfaaf8aa629a1e45	-0.05267841771734231
180	0x3fdf81c3ef09e01c	0.49229524940119673
181	0x3fe074526c5bbc6f	0.5141994587301165
182	0xbfd2cdbc6bbab44c	-0.2938071300548628
183	0x3fe32b3f2211775d	0.5990291276354857
184	0xbfd354914879f765	-0.3020365913179062
185	0x3fdfd0e2a08da747	0.49712434462582106
186	0xbfdbf4db72c0fb4f	-0.43681989866666
187	0x40020548d226592c	2.252580301089571
188	0x3fe4db54d3e25d54	0.6517738474239345
189	0xbfe31be52440e020	-0.5971551616739852
190	0xbfcee97bd2df11e4	-0.24150035664037184
191	0x3fe2fff82c819986	0.5937462682020829
192	0xbfd2eb1653450aa3	-0.2955985844784356
193	0xbff4be72f8d2d5e3	-1.2964963645621246
194	0xbfe6bbd3674c2bf2	-0.710427953484553
195	0xbfefd2540f4aad98	-0.994424848429321
196	0x3fea8baaa3491cf1	0.8295491398975213
197	0x3fb4d86198a156ed	0.08142671562503852
198	0xbfd2ef243175f0c3	-0.29584603147646876
199	0x3fe57386be61c398	0.6703523367306046

W1 f8 [200, 2]
0	0x3fe32411c49eff65	0.5981530037169988
1	0x3fe62998bfe01e22	0.6925777194564413
2	0x3ff4ae0b6b780ff6	1.2924913595206795
3	0xbfe94805ca1216e6	-0.7900418230717292
4	0xbfb94a8bf6bc0e6e	-0.09879374288362339
5	0x3fb6d5eba3c1fd21	0.0892016672896614
6	0x3fcdfedcd1503bc0	0.23434028835660392
7	0xbfcb8218f01836d0	-0.21490775798195338
8	0x3fc464e531383991	0.15932907965948265
9	0xbfda3c168a628d26	-0.4099174834647833
10	0xbff0d56882fc4015	-1.0521016232123703
11	0x3fc0f9c324009619	0.13262213952946025
12	0xc001b37917d4eeec	-2.2126333104950984
13	0xbfeb622981338baf	-0.8557326816047545
14	0x3fe5829a0d5a9076	0.6721925984206922
15	0xbfee99798c198f6a	-0.9562347160649385
16	0x3fdd7dda6c67c0e0	0.46080647074178493
17	0xbfeccab79604dc56	-0.8997457437570897
18	0x3fcf534ba08c0480	0.24472947444158777
19	0xbfe390b31841424c	-0.6114135240296235
20	0xbfee6ee653359952	-0.9510375619109175
21	0xbfe7a18643fcce5a	-0.7384673431283304
22	0x3fe2bb78fc1bcb76	0.5853848384852955
23	0x3fea6fbdf01d3793	0.8261403741578185
24	0x3fe99a9df37bb562	0.8001241450817071
25	0x3fb524aa7737a4c2	0.08259072695331596
26	0xbff09546cd453c07	-1.036444475019154
27	0xbfc2d7206400669c	-0.14719014056099844
28	0xbfe2a037ffc757f1	-0.5820579524686292
29	0x3fd3a1bc625deafc	0.30674657446040476
30	0x3fc20f0453bd25d9	0.14108327950297797
31	0xbff0ea0889f999b8	-1.057137049641467
32	0x3fe92809ef213628	0.7861375494482603
33	0x3fd19816e749d60f	0.2749078043628694
34	0xbfe963ff88237be8	-0.7934568079907622
35	0xbfe62299dc6c67a1	-0.6917237572808866
36	0x3fdb2412b5efe181	0.42407672660149137
37	0x3fe2cb352782e6e0	0.5873056194024819
38	0x3fe138328ac3fb49	0.5381100378288944
39	0xbfdea1c276976526	-0.4786230238074317
40	0xbfb752b27f19ebf0	-0.09110560992296235
41	0xbfefc5561a5e84c2	-0.9928389086745926
42	0x3fea6a55ca0ef828	0.8254803606466838
43	0xbfc578f2ebecf0d8	-0.1677535678844666
44	0x3fd423937e57bbd8	0.3146713956656959
45	0xbfe5c3b188585bbf	-0.6801383650771341
46	0xbfce1f39bd17d560	-0.23532792790471557
47	0xbfd2749a89187958	-0.28836692226641025
48	0xbfe83d1e7b7c8a10	-0.7574608241887422
49	0x3fc5f43d60e1bea6	0.17151610594327343
50	0xbfd9ecfda4106085	-0.4050897695719942
51	0x3fe6fc2fb590e0c5	0.7182844682893338
52	0xbfdcf28c092499a3	-0.45230389492862794
53	0xbfdd5a2b421d8e56	-0.4586284776362154
54	0xc001f0eb0c412fcc	-2.242635818232861
55	0xbff4ad5c3cf06bf9	-1.2923242931781245
56	0x3fd741c832e24275	0.36339001626132666
57	0xbfd6342a1ebfebc5	-0.34693387034320394
58	0xbff281f1a47970e6	-1.1567245888500621
59	0xbfc81d3040e7293f	-0.18839076203432545
60	0x3fcb08ec6572ab9b	0.21120982125770812
61	0x3ff0552a3950ce42	1.0207922209637137
62	0x3fc7705b151a4808	0.1831163266220417
63	0xbfeefdc6e5cf99d4	-0.9684786308760587
64	0x4003d9b15c519995	2.4812953197862933
65	0x3ff41d67686a0ae5	1.2571786955529032
66	0x3fecd1e33c936397	0.9006210501785173
67	0xbfc8fd6005398cc5	-0.19523239379041094
68	0xbfe4fe7d9b5ae2d8	-0.656065753391057
69	0xbfb4320ca7e4b730	-0.0788886937995954
70	0xbfe445010533327f	-0.633423338085393
71	0xbfeed89d9aad82ec	-0.9639423390436526
72	0xbfca66ae2d43afa0	-0.20625855646300995
73	0x3fc964ae2bfed6c0	0.1983850207158664
74	0x3fe62974904a12e1	0.6925604646827105
75	0xbfec9b6f816fed28	-0.8939740684576565
76	0xbfd2826c66b44156	-0.28921041516971024
77	0x3fda6501379dc036	0.41241484099646486
78	0xbff0f2b641ec377d	-1.0592558455568615
79	0x3fe0b05486f56adb	0.5215246807013857
80	0xbfbb81653b325d30	-0.1074431676409986
81	0x3f72f0ca26d4d897	0.004624166159649465
82	0xc00297b9e3c7675e	-2.3240850253322796
83	0xbff4c742ea4cb43d	-1.2986477997140036
84	0xbfd443a1444bcfeb	-0.31662780446572353
85	0x3fe8fc98f1ae19b8	0.7808346481622754
86	0xc000596b8b43e57e	-2.043662155160461
87	0xbfe985f28daed18c	-0.7976010100597235
88	0xbfe23d472311bc32	-0.5699802098223528
89	0xbfcd5c5c4b551fe8	-0.22938111952157603
90	0xbfc29bc265b8f0c2	-0.1453783985797426
91	0xbfd409ba0ecdcd2d	-0.3130936760491803
92	0xbfd3c709d388fbbd	-0.3090233388683677
93	0x3fe14db319c595ff	0.5407348159175739
94	0xbfe4d5e09f7e2519	-0.6511080851643413
95	0xbfeb4c8b1dfecd8f	-0.8530936799856351
96	0xbfe67fce1580856a	-0.7031011981927524
97	0xbfe106138cf23163	-0.5319917443135121
98	0xbfea5dd06ad5dede	-0.8239519201879053
99	0xbfdbc2f2df2612f0	-0.43377372543208903
100	0xbfd5fc4c4dacb0cc	-0.34352405152709475
101	0xbfdbedb511cfac78	-0.4363835023820637
102	0xbf9fb1627c0c1700	-0.030950106450311488
103	0xbfd91e26e76886d8	-0.39246533010928664
104	0x3fc7ed28e316fa85	0.18692504013411707
105	0xbfe26ae42c7fd01f	-0.5755482548834187
106	0x3ff49e8c4e39e2d9	1.2887080245692941
107	0xbfe82d30170022b4	-0.7555160950879185
108	0x3fd4941032cd99d7	0.3215370651363662
109	0xbfbec3bdcb83fe27	-0.12017427652971745
110	0xbfeb805df5bc840a	-0.8594198035754073
111	0x3fc70d6cefded5f8	0.18009721481728014
112	0x3fe2ba787c866180	0.5852625305297323
113	0xbfe01e3cf2d277c0	-0.5036911718959729
114	0x3ff547e033cb2593	1.3300478003678549
115	0x3fcf0c903936ca4d	0.24257090371755155
116	0xbf9b699d1937ab4a	-0.02677007166304727
117	0xbff341065a331386	-1.2033751986902828
118	0xbff344c5aff673ea	-1.2042900918524944
119	0x3fe0648c23d6a55d	0.5122738552064835
120	0x3fe9ba60ebf6859e	0.8040012940074808
121	0xbfda3b7094c909f8	-0.4098779156667258
122	0xbfbfefa76f60aba7	-0.12475058049373776
123	0x3fe6a4d8cf9034be	0.7076229146929547
124	0x3fe59e2f0d472f19	0.6755595454537541
125	0x3fdfd1163cfc7bc7	0.49713664966287435
126	0xbfe07a9fc6f29d22	-0.5149687658021416
127	0xbfea383995c6d780	-0.8193633961989093
128	0xbfde2b65289818dc	-0.4713986298014683
129	0x3fe4b6346807eb1e	0.6472417861799362
130	0xbff268760a40ee54	-1.1505031967671089
131	0x3fca9cd74f393439	0.20791140907604858
132	0x3fc857a7259ceb6b	0.1901749547631327
133	0x3fe3e8eae98adcd0	0.6221823274016973
134	0xbfee1e6c6b46c148	-0.9412138076059273
135	0x3fe7f431bef133b0	0.7485588769283051
136	0x3ff978f189990ed4	1.5920272231023107
137	0x3ff0080e1397feea	1.0019665494327747
138	0x3fd1c0cb329b6b5d	0.2773921961030988
139	0xbfd448e2dfdb8f44	-0.3169486223325644
140	0x3fc49264ac05902f	0.16071756743906593
141	0xbfeb49edd8281fe6	-0.8527745458422913
142	0x3fa7aed3572a1440	0.04625568808572966
143	0xbfe8da920be78e72	-0.776680968523989
144	0xbfd25107fe0a4629	-0.2861957531796145
145	0xbfcd279766f69e7c	-0.22777073409564597
146	0xbfee8ba885f9155c	-0.9545481316242035
147	0xbfeb5fca413e79c4	-0.8554431223199619
148	0xbfee4389b131a070	-0.9457443676774471
149	0xbfe3d6edf3df86cc	-0.6199865115306351
150	0xbfde3dd7afa3d3a7	-0.4725245681032057
151	0x3fd7e34ccaf6c3e1	0.3732482893056482
152	0xbfde273792573bc2	-0.47114362040604985
153	0xbfd0e3e6ca34499d	-0.26391000505932444
154	0xbfec0f95203a7c6f	-0.8769021634542592
155	0x3fe402b4cbce203d	0.6253303509302054
156	0x3fb40d473ca79350	0.07832761030983915
157	0xbfe1b70d36822404	-0.5535951676002928
158	0x3fd1de2ccc39b6b7	0.279185485304747
159	0xbfdbdbe75548efe2	-0.4352968533382847
160	0xbfc1bdcb3d1cac07	-0.13860455020889637
161	0x3fd5943112f55aab	0.3371699032917756
162	0xbfffffaca0daa414	-1.999920490585514
163	0xbff5f94aaae1c542	-1.3733622241091585
164	0x3fe79789db4e864b	0.737248352368803
165	0xbfd0b052fe3bcf1d	-0.2607619745970043
166	0xbfd847d6e696856b	-0.3793847324214627
167	0xbfc5c37a2aba2157	-0.17002799116404319
168	0x3fe2335e47069045	0.5687705409259328
169	0xbf96897b669c0889	-0.022008827340876756
170	0x3febee527654f394	0.8728420554322036
171	0x3fddd9bde00de7b2	0.4664148986845432
172	0x3fdb7f64a4a56414	0.4296504600402511
173	0xbfc57ea1af8eb928	-0.16792698928970506
174	0xbffada5a1ed02382	-1.6783086017260023
175	0xbfe1b975a11749a3	-0.5538890978153187
176	0xbfecf8ab11a67262	-0.9053550095300802
177	0x3fe1dcd64a31f368	0.5582076501010365
178	0xbfda705ea33b28bb	-0.4131085008672348
179	0x3fcd10c4c8b1b913	0.22707423972628557
180	0xbfdc0cbcba6339f3	-0.4382774181548534
181	0xbfc7508e55ada393	-0.18214587386617306
182	0x3ff60e20a2d2e06c	1.3784490928938125
183	0x3fea21f7b4fd3f8c	0.8166464362093264
184	0xbfe474579325bc10	-0.6392019151661561
185	0xbfcecbfc24c90ca8	-0.24060012622985494
186	0x3fd0f8c0a9464d0d	0.2651826527664561
187	0x3fd79e49d7c10f00	0.36903616018047103
188	0xbff0ffef2d8c2492	-1.0624839572140314
189	0x3fc682f568ab15d7	0.1758715401721662
190	0x3feb1d765c3cba73	0.8473464776523784
191	0x3fcc0ab96a047209	0.21907727886799958
192	0x3f92f9d4aa009a80	0.0185311535607533
193	0x3fd045ded054b778	0.25426454872910353
194	0xc00b11581cd3b21f	-3.3834688427071025
195	0xbffbcd27d865a2e6	-1.7375868275650475
196	0xbfd201e5f2e0fe8f	-0.28136585920945206
197	0x3fe0e9aec1a2ef9b	0.5285257131540563
198	0xbff6c391d1a6fcb9	-1.4227464856665348
199	0xbfec344b54ee8151	-0.8813835772344111
200	0x3feaa7ee6b5cc6ef	0.8329994294092254
201	0xbfe50acf92ed993b	-0.6575696820916969
202	0xbffbcd9071c7bff2	-1.7376865810911082
203	0xbfe57679905d047f	-0.6707122630688359
204	0xbf93fd1cb3642ec0	-0.019520233582666746
205	0xbfe68560562c42aa	-0.7037812884392072
206	0x3fe7aa8ddb78d15d	0.7395695959626597
207	0x3fe164263aa35ab1	0.5434752602839891
208	0xbfc1748ea9630938	-0.13636954565851922
209	0xbfe86984b07067f6	-0.7628806539607911
210	0x3fe3e75f1424ea3f	0.6219935792390244
211	0xbff04f81b485dd74	-1.019410805862063
212	0xbfd79df97c8593fc	-0.3690170017273997
213	0x3fe6ff4ad3e92ccf	0.7186636103519052
214	0xc0060bbd20d663cf	-2.7557318272997473
215	0xbff73d05d638b8ea	-1.4523981445341243
216	0xbfecf614c78f8cf8	-0.9050392053290173
217	0x3fdf780b5c1c64a8	0.4917019271393408
218	0xbfe922ff835703ea	-0.7855222287399759
219	0xbfe0ff47b1928712	-0.5311621158800526
220	0xbfccf1e50e8d2f66	-0.22613204203150444
221	0x3f8428f806455f33	0.009843766871810189
222	0x3ff7f30efef7d9e3	1.496840473145874
223	0x3fe8d08e97b1bb0c	0.7754586184290431
224	0x3fedf1fffaea7c9c	0.9357910061552448
225	0xbfe774414088cf20	-0.7329412708699898
226	0xbfe4d763d50f7e1a	-0.6512927209223023
227	0x3fe28ffcdb74ab36	0.5800766264195321
228	0x3ff0a15c9d29157e	1.0393949641305364
229	0x3fe8209a92aed389	0.7539799561405839
230	0x3fdcc8f3e0f8c2a3	0.4497651764859631
231	0x3febaf910c6de049	0.8651814692266352
232	0x3ffa0d7ba589d7b4	1.628291746744691
233	0x3fe2ea5fe7e51ce6	0.5911101845930744
234	0x3fe00f0389866f62	0.5018327413595041
235	0xbfd799a69d3735b4	-0.3687531028088771
236	0x3fd44a1ff51f37ee	0.3170242208260551
237	0xbfe67ccd66976377	-0.7027346614587334
238	0xbffb08d23ce28286	-1.6896536234200155
239	0xbfc158210847b6c9	-0.1355019846372925
240	0x3fe6a2dfad46fd93	0.7073820480654142
241	0xbfe890cd128867fb	-0.7676759111375299
242	0xbfd313011801af8a	-0.29803492874520343
243	0xbfd9a80a5d464e7f	-0.40088137730456447
244	0xbfa7032cfa95e95c	-0.04494610365778115
245	0xbfd2f1f7fb5f76b9	-0.29601859615454945
246	0x3fddff1f3c217d99	0.4686964118208948
247	0x3fec429d50695d27	0.8831316538370729
248	0xbfe37c292f024572	-0.608906356634334
249	0x3fd6d428b16a526c	0.3566991550990568
250	0x3ffc2866f775e371	1.7598638216424798
251	0x3feae5abed51df03	0.840536082759144
252	0x3fe677319697cecd	0.7020500127095716
253	0x3fb6ce3e1f3e0fad	0.08908451330904539
254	0x400316f99046b37a	2.3862181922508485
255	0x3ff61989e6c3816b	1.3812350286680963

b2 f8 [1, 1]
0	0xbfd4003b2e089c66	-0.3125141095683318

W2 f8 [1, 200]
0	0x3ff3aec042e9ae88	1.230163823488427
1	0x3ff6d858504075ed	1.4278185973010935
2	0xbfc691751f08d8be	-0.1763140107665943
3	0xbfd01eb35714fcf0	-0.2518738127145772
4	0xbfda1f90547f160a	-0.4081765008125734
5	0xbfe641d0db6f90dc	-0.6955341611724424
6	0xc0061d0c31c86826	-2.7641834153446494
7	0x3feaa0fc45ae5324	0.8321515427547621
8	0x3fd9630f9accdc28	0.3966712009163893
9	0xbfa144c7f60ed880	-0.033727883135200365
10	0xbfe8d9a1055d788c	-0.7765660385882867
11	0xbfe4f914a1a32fc5	-0.6554053456288719
12	0xbfdcd21e1a4c91d4	-0.4503245598628187
13	0x3fe16ac271eb6341	0.5442821717252643
14	0xbfe031813f36591b	-0.5060430750479868
15	0x3ff0f23c0eb84d3f	1.0591393065449919
16	0xbfe9384bce2bb5f9	-0.7881220843098041
17	0xbfde93b7f24c63ad	-0.4777660242266915
18	0x3f94465360f2a026	0.019799521248074957
19	0x3fc9bcdb795c5e3f	0.20107596803494407
20	0xbfda3a8b77a18288	-0.40982329065995105
21	0x3fe3282233d59e4e	0.5986491215125598
22	0xbfcc25de072b65b7	-0.21990561819147356
23	0xbfcc41cff34dabf8	-0.22075843219803892
24	0xbfe81e480a66f0a0	-0.7536964610258288
25	0xbfec61a63e132baf	-0.8869200909042457
26	0xbf7126d0e547e2ff	-0.004187408445880391
27	0x40037c087bf8c206	2.435563057450284
28	0xbfdda657e41b2416	-0.4632777907941671
29	0x3fee2bffe2a5e845	0.94287103907778
30	0xbfe8e67563e8edac	-0.7781321479191567
31	0xbfe19a4d6f4920ae	-0.5500857518718669
32	0x4007d8841c6001d9	2.9807207314299657
33	0xbfc761bfd16ea232	-0.18267057157687955
34	0xbfde5afff8f1b884	-0.4743041926475444
35	0x3fde24d5e5c2d053	0.4709982627639466
36	0x3fe09c93a0e0bd3e	0.5191133634706728
37	0x3fd14e8f7957633e	0.2704199490522575
38	0x3fdbabdf74e81e93	0.4323652879397539
39	0x3feb4f2360afcd4f	0.8534104240810992
40	0x3fe8c468e2dedd02	0.7739757948938009
41	0xc004cc02f55857d6	-2.5996150176606347
42	0xbfe4b3cc5dd0846c	-0.6469480354609352
43	0xc003077a36488b4f	-2.3786510697258687
44	0xbfe60a8c067fcb80	-0.6887874724328498
45	0xbfe3289e2abd3805	-0.5987082323788405
46	0xbfe72944cf11f646	-0.7237876934374945
47	0xbfe99603b296241c	-0.7995623100297311
48	0x3fee8b84d1e193c8	0.9545311068765097
49	0x3fee5b5342837c52	0.9486480998128946
50	0x3fc1c18b0e9143b8	0.13871896945286522
51	0x3fedb91ae9497986	0.9288458401095319
52	0x3fdb9d86488f5034	0.4314895351974457
53	0xbff6dc2fed3e9a70	-1.4287566439976693
54	0x3fcfdae829adb35a	0.2488680079944981
55	0x3feab2abbe29f1ba	0.8343104089868156
56	0xbfcd9f948383dca8	-0.23143249913821262
57	0xbff3daacd51c2d30	-1.2408874821292777
58	0x3ff14b8ac903332a	1.0809429027605781
59	0xbfe6c1efb343ed84	-0.711173868301032
60	0xbfc88c719bbd563d	-0.19178600410912053
61	0xbfc832ee5b309ee4	-0.1890542931807807
62	0x3fa1438569b6c684	0.03371827044919676
63	0x3fc16fa7702a3890	0.13621991135409361
64	0xbfe35a366dbbaa49	-0.6047622817253081
65	0x3feb98a12247d57b	0.8623815221350662
66	0xbfa0cd3303d2d62f	-0.0328155462424714
67	0xbfb385ffb218c836	-0.07626340959612396
68	0x3ff7a55315c7c0e4	1.4778624392311537
69	0xbfe16ac4f8cf61b9	-0.5442833766529055
70	0xbfa8ef2045eaff3f	-0.04869938710680665
71	0x3fede854fb7df2de	0.9346108352616189
72	0xbfd385622bea3cf8	-0.3050160817010261
73	0x3fd9cf106aa38584	0.40326319135609645
74	0x3fe2cd85131dbb9c	0.5875878690111338
75	0xbfe44edb4b142d05	-0.6346260515578314
76	0x3fc5742b2d23efc9	0.16760768608207702
77	0xbfe2a34ed24fa25f	-0.5824350459707367
78	0x3feb8afcb9ed4890	0.8607162124046841
79	0xbfea7bdcbd6df729	-0.827619905452342
80	0x3fe8dd303726fbdf	0.777000529975222
81	0xc001885894b49053	-2.191575204620713
82	0xbfea011c17094524	-0.8126354646612168
83	0xbfaed71855703a7b	-0.060234795026293995
84	0xbfca6c7d968edfa5	-0.20643586970777253
85	0xbfe18e6c4fa34209	-0.5486356311249106
86	0x3fe9a29aeeb8baae	0.8010992682009908
87	0xbffa1f28d208102e	-1.632607288775954
88	0x3fe9197f40450d29	0.7843624358432965
89	0xbfe37cd9f5a01e3d	-0.6089906499264043
90	0x3fe5e7503891997e	0.684486494527661
91	0x4002999231dacee3	2.324985875596995
92	0xbfbf9913b0e680a0	-0.12342951840264726
93	0x3fd580f39d13a667	0.3359955820038522
94	0xbff0b7cc392dd7e6	-1.0448724969442025
95	0xbfc61126714231ba	-0.17239838152126002
96	0xbfef7c4ba590a698	-0.9839227899257876
97	0xc0118704e3b93ac8	-4.381854589634436
98	0xbfe4c083f3f3e49c	-0.648500420065051
99	0xbff974dd366c6718	-1.591031277267069
100	0xbfd57a95affe1089	-0.3356069773365183
101	0xbffd0ea73a9ad4d5	-1.8160774506807702
102	0x3fe1125660552226	0.5334884530539667
103	0xbfc510d961812d04	-0.16457669506994688
104	0x3fd24ed9fe3236b0	0.2860627157577751
105	0xbfd6feef1dc4ca99	-0.35930993945218287
106	0x3fef90b61f4b0b40	0.9864149676508092
107	0x400d742d937da4af	3.6817275545805255
108	0xbfe60feb23e34349	-0.6894431782658127
109	0x3fc74f6e3a493d20	0.1821115288353008
110	0xbfde93d5ab74cde8	-0.47777311080719054
111	0xbff7fc631692f53b	-1.4991179353522301
112	0x3fd00a66904a337a	0.25063480463796106
113	0xbfeb2814c8969977	-0.8486427228679493
114	0x3ff26656a297025c	1.1499849654357126
115	0xbfed120c59437ec0	-0.9084531539374083
116	0xc000a0c1fab8dffd	-2.0784949863118514
117	0x3fecae0999a9a600	0.8962448121284865
118	0x3fe0ba848881fb40	0.5227682748953626
119	0x3ffc6cb90f33629e	1.776543673875643
120	0xbfd3a9de6daa4b1f	-0.3072429724644951
121	0xbfd8c18110432ced	-0.3868105562984983
122	0x3fe751ccc3a443ca	0.7287353345037613
123	0xbfe602c8d23c75cd	-0.6878398996520275
124	0x3fc14c2d7fafa850	0.13513725981403235
125	0xc0022f0f31d6c593	-2.2729782003086227
126	0xbfe4551b207d340e	-0.6353889116813904
127	0xc00b3f8cb3309d67	-3.406030082627399
128	0x3fdcb8d6a2c27713	0.44878164190764486
129	0xbff9a7f9647d3c1a	-1.6035093236312208
130	0xbfcfadb86a36b124	-0.24748902498448289
131	0xbfeb0baf510d23a8	-0.8451763709100435
132	0xbff8cbcc713ee6ed	-1.549755518308696
133	0xbff21c2a2b758a6c	-1.1318761537192144
134	0x3fe83160c38d7437	0.7560275859247046
135	0x3fe1fbf550c7f75b	0.5620066240078175
136	0xbfc449bd9cbd05f8	-0.15850038674584233
137	0xbfe538c80633d62c	-0.6631813164846725
138	0x3fdadf873d593f3a	0.4198930834872844
139	0x3fdff27bcc912ad7	0.49917502381565043
140	0x3ffa84833f280f89	1.6573517291116977
141	0x3fe81096c88b1ef2	0.7520250241149979
142	0xbfb99d4caf085cb0	-0.10005645058878332
143	0xbfe39437da7a0509	-0.6118430392381536
144	0x3fcc70f0eabafc70	0.22219668828435912
145	0xbfc1ff01618add7e	-0.14059464705290375
146	0x400d694995dac381	3.6764098842035655
147	0xbf84c2a3db819e80	-0.010136871467877784
148	0xbff52ea710c7e873	-1.323889794874529
149	0xbff8ebefff17bf91	-1.5576019253312305
150	0xbfe769944af91434	-0.7316380943599428
151	0x3fbb986ff345de89	0.10779475869446221
152	0x3fd9ed3a3811a84d	0.4051042125271394
153	0x3ff6dd9bd43ea2e6	1.4291036883170647
154	0x3fdb9707aeae54e8	0.4310931402081466
155	0xbfc233ae912fabba	-0.1422022065083562
156	0x3fe3502898a39b44	0.6035349827987848
157	0x3fe92357a353af94	0.7855642499903177
158	0x3ff8acd9edfa0a09	1.5422000213590101
159	0x3fcd54fc4a65cf9c	0.22915605194759514
160	0xbfd1de8595b9b3cf	-0.27920665380116544
161	0xbfe08acf2eae0ebc	-0.5169444953648603
162	0xbfe1edde1249e27d	-0.5602865559768159
163	0x3fce82ffdbc70233	0.2383727858669019
164	0x3fec000c365541c6	0.8750058232490623
165	0xbfecf4057ddcc030	-0.9047877748726076
166	0xbfe874f77a49e8de	-0.7642781628085478
167	0x3fe4c2d61867d248	0.6487837292357392
168	0xbfe47ac4061e6c59	-0.6399860496052369
169	0xbffa2d94e411b9b8	-1.6361283215479556
170	0xbfd2fa452013fce8	-0.296525269819496
171	0xbfb20fcda861e570	-0.0705536399927007
172	0xbfe445cd98470a7b	-0.6335208868188852
173	0xbfee29426fc1cb00	-0.9425365622285824
174	0x4002cb0a89810ca8	2.349141191721703
175	0x4002d7b8c98d2bbe	2.3553329225737505
176	0x3fd8de2cd7fcba4a	0.388560496258752
177	0xbfd8b28f746fe39c	-0.38589846010978035
178	0x3fe6b205c9729e68	0.7092312750364274
179	0xbfc3c4c8dc3969ef	-0.15444288972032846
180	0xbfe3040bc944247b	-0.5942439013462172
181	0x3fc441d764800dbb	0.15825931937443535
182	0xbfecb79adc2f5f1a	-0.8974127102364691
183	0x4005df06db3158df	2.7338997959551388
184	0x3fecb43c2ccb947e	0.8970013499171186
185	0x3fb4dd1071d5ff62	0.08149817256162131
186	0x3fee470230d5a1ea	0.9461680368231644
187	0x400b84c5397fb25b	3.4398293010802212
188	0x3feedda6dbebe496	0.9645571036663962
189	0xbfe17e04477cfe62	-0.5466328998808871
190	0x3fe7c6f6dac742e3	0.7430376313223771
191	0x3fc26db72973adac	0.14397325061814337
192	0xbfd34abbe60da039	-0.3014364000905548
193	0x3ffc6322b5d2b7fb	1.774203024145662
194	0xbfe244e57d6d9ad0	-0.5709102105873516
195	0x3fcbfb3c463f78a0	0.21860459737849158
196	0xbfc26e7ce76cb9d7	-0.143996823311183
197	0x3fb9134542a26c0d	0.0979502952272215
198	0x3ff375bc8a811ef2	1.2162442598655017
199	0xbfe4cae817e136d4	-0.6497688738251903

p_b1_old f8 [200, 1]
0	0x3f6126a176185c9a	0.0020936158696361453
1	0x3f43c027c6748b38	0.0006027406897469506
2	0x3f15b6a29ad784a5	8.283011876343784e-05
3	0x0000000000000000	0.0
4	0x3f290aa3c695b8dc	0.0001910519525085201
5	0x3f5dc9e6676625d4	0.0018181562460049998
6	0x3f82e062a8ade9da	0.00921704365986369
7	0x3f5292b6e18876f8	0.00113361224624192
8	0x0000000000000000	0.0
9	0x0000000000000000	0.0
10	0x0000000000000000	0.0
11	0x3f25772f9c15df1d	0.00016376930401995
12	0x3f2b9a0dd9f324e0	0.00021058482250272455
13	0xbf4bffd15ea386c4	-0.0008544704735664256
14	0x3f49936ba3f2b334	0.0007805133426664669
15	0x3f615421097d8256	0.0021153111701297895
16	0x3f3821a9332f9a8a	0.0003682172857097174
17	0x3f43e1d0633dec4b	0.0006067531125916263
18	0xbee2803c4b7a206b	-8.82192612940165e-06
19	0xbf186f7269af54ac	-9.321342297082213e-05
20	0x0000000000000000	0.0
21	0xbf32447e97a63f0e	-0.00027874079355515245
22	0xbf0f191c5f5f37fc	-5.931489788189856e-05
23	0x0000000000000000	0.0
24	0x0000000000000005	2.5e-323
25	0x0000000000000005	2.5e-323
26	0x3ee38d187a59a4ae	9.322717072284634e-06
27	0x3f70c021b2291370	0.004089480995905656
28	0xbf44984b876cb975	-0.0006285065454443699
29	0xbf69516619cb0fcc	-0.003090571799789976
30	0x3f67a510de7b4cba	0.0028863267396928823
31	0x0000000000000000	0.0
32	0x3f7dba458c928901	0.0072577206384798485
33	0x3f1697e653cdaf26	8.61868220007304e-05
34	0x0000000000000000	0.0
35	0x0000000000000005	2.5e-323
36	0x0000000000000000	0.0
37	0x3f27a9ed22686f6a	0.00018054027278046762
38	0xbf49e5789152df8d	-0.0007902945241289192
39	0xbf5509304c056c0d	-0.0012839290285089372
40	0xbf37a22f7c6b8067	-0.00036061915709063034
41	0x3f6ddbe032bedfa5	0.003644884001882747
42	0x3f33d375641bc7e2	0.0003025209044685823
43	0x3f78d02471d5f9b1	0.006057875024792756
44	0x0000000000000000	0.0
45	0x3f32561c5563e6cc	0.00027979079949567716
46	0x3f547f929a777dbe	0.0012511188195886004
47	0xbf61ada4a03cbd9c	-0.002157994780553186
48	0xbf62fc7216205b97	-0.0023176410914049306
49	0x0000000000000000	0.0
50	0x0000000000000000	0.0
51	0x0000000000000000	0.0
52	0x3f547eb5a0dbb089	0.0012509130205513883
53	0xbf0ed61667eeadd4	-5.881553533212581e-05
54	0xbf1e518334d40cd2	-0.00011565554924080075
55	0x0000000000000000	0.0
56	0x0000000000000000	0.0
57	0xbf688f9e52d7b442	-0.00299817011431583
58	0x3f2df6bfece862f8	0.00022860615577326832
59	0x3f61fb52ca3fa591	0.0021950356476636086
60	0xbf37f54fc37844c5	-0.0003655738578070662
61	0x3f3b4e429afbdf63	0.00041665197475947694
62	0xbef002ce21219ff6	-1.5269239220933006e-05
63	0x0000000000000000	0.0
64	0x3f417b3a98d01471	0.0005334888570592955
65	0xbf6516ebdc22e317	-0.0025744063032927633
66	0x3ef0bf2e83df1823	1.5970996393631483e-05
67	0x3f2e62676a6915ad	0.00023181450269952938
68	0xbf6f1eb26456a840	-0.003798817083141365
69	0x3f30a90d386581e1	0.00025421688805773833
70	0xbeed12b4fccdb810	-1.3863122058057508e-05
71	0x0000000000000000	0.0
72	0x3f22b80a235d54af	0.00014281390911700028
73	0x0000000000000000	0.0
74	0x0000000000000000	0.0
75	0x3ea3c36f43350ad6	5.88995709462375e-07
76	0xbf145972c3dc54b8	-7.762682886565647e-05
77	0x3f31de9fd5963345	0.0002726688595309677
78	0x0000000000000000	0.0
79	0x3f39541bdd89e827	0.0003864830046392841
80	0xbf37b45a6710157e	-0.0003617020329900951
81	0x3f2d57ab7e5a3715	0.00022386520793243243
82	0xbf6157e85a100f0f	-0.002117112934230898
83	0x3efe1f3adce07b02	2.8726570057919898e-05
84	0x3f194bdc6d770d23	9.649784930503397e-05
85	0x3f30dbc1fc4efe3b	0.0002572392079933404
86	0x0000000000000000	0.0
87	0x3f75abd812437c8a	0.005290836361580573
88	0xbf49ea5ce64b9168	-0.0007908776866228208
89	0x0000000000000005	2.5e-323
90	0xbf34e3f702ad9a7b	-0.0003187635472187489
91	0x3f7277004f320077	0.004508019646095921
92	0x0000000000000000	0.0
93	0xbf2471826c976c58	-0.00015597073642834264
94	0x3f6e02aea3394f2a	0.00366338833718229
95	0x3f1558918604bf3a	8.142841534630472e-05
96	0x0000000000000000	0.0
97	0x3f868e37765c61fe	0.011013444232546906
98	0x0000000000000005	2.5e-323
99	0x3f53ca66d76d4ecf	0.0012079243003499278
100	0xbf482eb55a7318d3	-0.0007379899515391981
101	0x3f7141c71eb9c202	0.004213121235452368
102	0x0000000000000000	0.0
103	0x3f145896f3975618	7.761403403291239e-05
104	0x0000000000000000	0.0
105	0xbf4d0a81100592c2	-0.0008862619579700015
106	0xbf509a55d62f2457	-0.001013358902797875
107	0xbf835f5bd238d4ba	-0.009459225991216836
108	0x3f358e86803e270d	0.0003289297458129871
109	0x0000000000000000	0.0
110	0x3f2d5140304527ad	0.00022367390205096701
111	0x3f6a509aeb1bd934	0.0032122636556507714
112	0x3f2ce75874db144e	0.00022051768103473413
113	0x3f4a67ee225961bc	0.0008058464779408451
114	0x3f6671fe0c532fda	0.0027399026754206636
115	0xbf3307c8f910957e	-0.0002903810173527573
116	0xbf68a47d895ea033	-0.003008122624084586
117	0x0000000000000000	0.0
118	0xbf3b35544653f290	-0.0004151659725975332
119	0xbf7479aedc801d65	-0.004998858501500923
120	0x3ef1f59cf2623e70	1.7127443378726936e-05
121	0x3f589fef74e5425e	0.001502975315435993
122	0xbf363dca18eef572	-0.00033937629717314185
123	0x3f35140018b08b90	0.0003216266856630951
124	0x0000000000000000	0.0
125	0xbf6baf8c90760dd7	-0.003379606761599634
126	0x3f337975aca9aa50	0.00029715655242649065
127	0xbf69d745b5abe516	-0.003154407645862843
128	0xbf2b61e5fccfa848	-0.0002089112516892608
129	0x3f65972de5feae9f	0.002635564465853182
130	0xbf21963355cadb0a	-0.00013417603158468627
131	0x0000000000000000	0.0
132	0x3f628e93f10af0a9	0.0022652520641185015
133	0xbf5f8b77e4010454	-0.0019253416831051156
134	0xbf64f679d5e8186c	-0.0025589351273565455
135	0xbf31229c8fa9d228	-0.00026146242422634075
136	0x0000000000000000	0.0
137	0x3f34566118d4c441	0.00031032438785688973
138	0xbf298e49cf1b444f	-0.00019497538555993335
139	0x3f43120853477bb8	0.0005819836283612522
140	0x3f681aec4437be7e	0.0029425253467179604
141	0x0000000000000000	0.0
142	0x0000000000000000	0.0
143	0x0000000000000005	2.5e-323
144	0x0000000000000000	0.0
145	0x3f115fb940d09d9e	6.62762469835127e-05
146	0xbf849b2035b0ac18	-0.010061504019253362
147	0x0000000000000000	0.0
148	0xbf6643852ac1cc74	-0.0027177430075027657
149	0xbf722a61e3a21f96	-0.0044349502369484175
150	0xbf39e2189b30f359	-0.00039494610536277213
151	0xbefff4f06bf9d18c	-3.0476373238789943e-05
152	0x3f3393858ec79575	0.0002987099713024002
153	0xbf60d913a6602946	-0.002056635264129944
154	0x0000000000000000	0.0
155	0x3f117ad42af59506	6.668014497320318e-05
156	0x0000000000000000	0.0
157	0x0000000000000000	0.0
158	0xbf6f8ff2bb8b12b6	-0.0038528195258059296
159	0xbf1bdd35794f274b	-0.0001062930953842609
160	0x0000000000000005	2.5e-323
161	0x3f61f4a3f9befa1a	0.0021918490074022247
162	0x3f3136fb88900582	0.00026267662957487486
163	0xbf1cff5ccb595414	-0.00011061672088293089
164	0x0000000000000000	0.0
165	0x0000000000000000	0.0
166	0x3f3766cc609d8312	0.0003570794075269816
167	0x0000000000000000	0.0
168	0xbf5409a4158858b9	-0.0012230017074493073
169	0xbf6314083c77e1a6	-0.0023288880217899486
170	0x0000000000000000	0.0
171	0x0000000000000000	0.0
172	0x3f3367b2962b122a	0.00029609785103115965
173	0x3f623207fe983550	0.0022211223738454536
174	0x3f43f053bc816918	0.000608483206643559
175	0x3f768c7f66381123	0.0055050827536471695
176	0x3f37de666d57cd6d	0.00036420822775014885
177	0x0000000000000000	0.0
178	0xbf49c6c427994740	-0.0007866342340980617
179	0x3f40db2dbfde9766	0.000514409388178133
180	0x3f3234196ca38152	0.00027776356422572646
181	0xbf134017b94855c9	-7.343430326785869e-05
182	0x0000000000000000	0.0
183	0x3f6d9b28e2fd10c2	0.0036140249793864274
184	0xbf636de013049e17	-0.0023717285586320014
185	0xbf038c714b8106c0	-3.7286002623660493e-05
186	0x3f482179a7cdd379	0.0007364124318046526
187	0xbf806c8ed95d0706	-0.008019557960895717
188	0xbf66742015700f3b	-0.00274091974597637
189	0x0000000000000000	0.0
190	0x3f4016225f8220e6	0.0004909198605824977
191	0x3f14b79749bbc5a8	7.902966393282548e-05
192	0xbf3b8cd282a2f94e	-0.00042038096820453264
193	0x3f6d70b703de36f8	0.0035937857164246544
194	0x0000000000000000	0.0
195	0x0000000000000000	0.0
196	0x3f11cffe911d2b7b	6.794921162371445e-05
197	0xbf07b8b66f9aca67	-4.524523496964445e-05
198	0x3f62d5f51dc37f42	0.00229928850431796
199	0xbf36131e3396fb30	-0.0003368328794656648

p_W1_old f8 [200, 2]
0	0x3f60b6d530e95d19	0.0020403064620883146
1	0x3f654437aee7d84a	0.002596005207347073
2	0x3f40956429ecb6bc	0.0005060900765323155
3	0x3eed72afdbd186b1	1.4041898675101876e-05
4	0xbf350e15f9331485	-0.0003212741514285261
5	0x3f0efcd8cb877f10	5.910431486077898e-05
6	0x0000000000000000	0.0
7	0x0000000000000000	0.0
8	0xbf4860c3b8ada63c	-0.0007439571066758031
9	0x3f21e221b95f2d7f	0.00013643895789381894
10	0x3f24020864594fcc	0.00015264847222573456
11	0x3f5998a748a0ef77	0.0015622743253649021
12	0x3f5965a0f13f0298	0.0015501090719995166
13	0x3f805723e38b453a	0.007978706723778307
14	0x3f4d5f62d6382305	0.0008963806726010887
15	0x3f1648ac19593cc1	8.50062409309847e-05
16	0x0000000000000000	0.0
17	0x0000000000000000	0.0
18	0x0000000000000000	0.0
19	0x0000000000000000	0.0
20	0x0000000000000000	0.0
21	0x0000000000000000	0.0
22	0xbf46344026be1774	-0.0006776154746013078
23	0xbf4338b7cd79fe86	-0.00058659529436507
24	0xbf4ae4ebdd4de18c	-0.0008207465822201317
25	0x3f23bbbbb0c3663c	0.0001505533804280634
26	0xbf1506e84d268793	-8.021157126461417e-05
27	0xbf509f20409dce0d	-0.001014501091472722
28	0x3f01955123233894	3.3537424671701736e-05
29	0x3f449860b3be3d51	0.0006285164049461366
30	0x3f3ea8deee5fc301	0.00046782915740010983
31	0xbf305e858229df0a	-0.00024977454646756046
32	0xbf57896e7fe21021	-0.0014365748498059788
33	0x3f314239c3b35442	0.00026334676995293596
34	0xbefb8f611d1c3210	-2.6283336246145773e-05
35	0x3f4813a44745abad	0.0007347633495958704
36	0x3f03072b98749362	3.629304688449496e-05
37	0xbeda81bd2de1ce01	-6.319711898783703e-06
38	0x3f380a249a80e37e	0.00036681550637101396
39	0xbf118af25bf6e2fb	-6.692032092460089e-05
40	0x0000000000000000	0.0
41	0x0000000000000000	0.0
42	0x3f51e2c986bc4711	0.0010916679411291967
43	0xbf2a28a4a47f4457	-0.0001995755176254245
44	0x3f12727ed7416244	7.037066626603647e-05
45	0x3f3060dff030fd10	0.00024991481058474294
46	0x0000000000000000	0.0
47	0x0000000000000000	0.0
48	0x0000000000000005	2.5e-323
49	0x0000000000000005	2.5e-323
50	0x0000000000000005	2.5e-323
51	0x0000000000000005	2.5e-323
52	0xbeaae1cec6b345c6	-8.011478604080285e-07
53	0x3ee14b5d193487d6	8.24660745607837e-06
54	0x3f30ab7869c5e07d	0.00025436105513377394
55	0xbf30e3fde769d2a2	-0.00025772999598609226
56	0xbf36b8e202b05ccf	-0.00034671323618469264
57	0x3ec0c8c2deb6bb98	2.000835356695063e-06
58	0xbf41882a5150de38	-0.0005350309971907169
59	0xbf6297f202d7402a	-0.002269718816684492
60	0xbf411a2d956251e4	-0.0005219194961392751
61	0x3f3293522faacecd	0.0002834392213728443
62	0x0000000000000000	0.0
63	0x0000000000000000	0.0
64	0x3f7c46d134dd6911	0.006903474057106133
65	0x3f764dcf73666e7b	0.0054452994867478744
66	0xbf35ccae39dd4014	-0.00033263448300591245
67	0x3f101701bceecaae	6.137798412346004e-05
68	0x0000000000000000	0.0
69	0x0000000000000000	0.0
70	0x0000000000000005	2.5e-323
71	0x0000000000000005	2.5e-323
72	0x0000000000000000	0.0
73	0x0000000000000000	0.0
74	0x3f3b31771e24d530	0.00041493566654378627
75	0x3f1edf76b940d8c8	0.0001177707875406913
76	0x3f352519a78e83ee	0.00032264591532721223
77	0xbf28ad1f4e665c74	-0.0001882649150501712
78	0x3f5421dd44d60878	0.0012287770108234935
79	0xbf0170f64083b87c	-3.3266558661413655e-05
80	0x3f571eea65a6f194	0.0014111794504137786
81	0xbf30eab5992a9117	-0.00025813039352785963
82	0x3f4f7eb184afde4e	0.0009611479557624732
83	0x3f66ca23028a078d	0.0027819331920122038
84	0xbf53522d772d64c8	-0.0011792606353167468
85	0x3f2c5b66faebe2f1	0.00021634704668096292
86	0x3f5301b6e1779171	0.0011600767082820785
87	0x3f71d0dc6576327b	0.004349575923140332
88	0x0000000000000000	0.0
89	0x0000000000000000	0.0
90	0xbf51e1a779349dbc	-0.0010913978083609685
91	0x3f2a360306e57c25	0.00019997393560353227
92	0xbf56e9d6e40bb4c2	-0.0013985250990871533
93	0xbf2887a2234bc588	-0.00018714765760522952
94	0xbef9d53620fa1492	-2.4636132421669366e-05
95	0xbf118b3029290c6a	-6.692391824807275e-05
96	0xbec5c7425d646540	-2.5961823936325598e-06
97	0xbf637a202a960934	-0.0023775699853000546
98	0x0000000000000000	0.0
99	0x0000000000000000	0.0
100	0x0000000000000000	0.0
101	0x0000000000000000	0.0
102	0x0000000000000000	0.0
103	0x0000000000000000	0.0
104	0x3f2bc260003448ed	0.00021178647885073486
105	0xbf05991f9d16a3c5	-4.1195180198023584e-05
106	0x3f1ecdc17e243730	0.00011750691877329407
107	0x3f353d22e893920b	0.00032407858141272954
108	0x3f3dbef7f0df4718	0.0004538874935607769
109	0xbf15ba10d9542ced	-8.28812392976057e-05
110	0x0000000000000000	0.0
111	0x0000000000000000	0.0
112	0x0000000000000000	0.0
113	0x0000000000000000	0.0
114	0xbf66acbf7c64bc94	-0.002767919536516292
115	0xbf64a47a2743e81e	-0.0025198350723458903
116	0x3f470730804429e0	0.0007027613469586212
117	0xbf502341b9ce5b04	-0.0009849683621944725
118	0x3f332618046f2a34	0.00029218756065732825
119	0x3f57b05ba6e3f6e2	0.0014458556211702158
120	0xbf3a07649959142c	-0.00039716917067195395
121	0xbf3507f577fead4e	-0.0003209089554682868
122	0xbf225ec5175ac006	-0.00014015346430573688
123	0x3f12f20e1bd98dec	7.227145302973027e-05
124	0x3f102d405d7026cf	6.170945503938405e-05
125	0xbee6f80aada1dfc8	-1.0952431171981541e-05
126	0x0000000000000000	0.0
127	0x0000000000000000	0.0
128	0xbf213ef81cf05080	-0.00013157633517891024
129	0x3f3c33ffe539b84a	0.00043034551092702557
130	0xbf3809e56be2794f	-0.00036680079564090513
131	0xbf5e828139ce1b4b	-0.0018621694536890717
132	0xbf0f3ce12c629481	-5.958139586085491e-05
133	0x3ee7cab39a53f862	1.134481574149529e-05
134	0x3e99f002370bc960	3.864993721034806e-07
135	0x3f1ffa552c8247f3	0.0001219858633041691
136	0x3f64a0da9200d6b0	0.002518107314268679
137	0xbf41ce514d20bb4f	-0.0005433938006314895
138	0xbf5041827f6047a0	-0.0009921812429678281
139	0x3f27d24e4a08caaa	0.0001817436759821896
140	0xbf17b9d3699c84e4	-9.050705775994237e-05
141	0xbef459256b3c18a4	-1.9405581681141427e-05
142	0x0000000000000000	0.0
143	0x0000000000000000	0.0
144	0xbf4237c366200b5e	-0.0005559639068909263
145	0x3f1abb838a241f4c	0.00010197630266272939
146	0x0000000000000000	0.0
147	0x0000000000000000	0.0
148	0x0000000000000000	0.0
149	0x0000000000000000	0.0
150	0x3e2a082efc150910	3.0305198078934388e-09
151	0x3ea3b0e3f916b40d	5.868368921267917e-07
152	0x3f34086f1d506439	0.000305678489270603
153	0xbf0d3bc3fd96d26d	-5.5758398683468425e-05
154	0xbf5164d916b7098b	-0.0010616416937954977
155	0x3f298af10894f02c	0.0001948756437658584
156	0x0000000000000000	0.0
157	0x0000000000000000	0.0
158	0xbf58b803a3c043ba	-0.0015087161582452006
159	0x3f321bfcee288486	0.000276326418459823
160	0x3f57367f1990aca2	0.0014168015679938768
161	0xbf30f8624a941c0a	-0.00025894546213617363
162	0x3f3d639f00d01270	0.00044844276345682495
163	0x3f531e005591b147	0.0011668208374216603
164	0xbf5e3679a7badfb0	-0.0018440425910011098
165	0xbf57f8977157e0cf	-0.0014630774434163834
166	0xbf1cc015710d586e	-0.00010967379445267638
167	0x3ef5517d6985694f	2.0330734146292464e-05
168	0xbf38a8239348a9fa	-0.00037623280084866895
169	0x3f1216482c1ff5c4	6.899657731192834e-05
170	0xbf50611d6a2fcac5	-0.000999716496832435
171	0x3f2816474c5259a4	0.00018376942003746094
172	0x0000000000000000	0.0
173	0x0000000000000000	0.0
174	0x3f502f2248077142	0.0009878001002255475
175	0x3f6ee0d7e80e0c5c	0.0037693230555660272
176	0x3f5125cd4c45a74f	0.0010466103422807798
177	0xbf34abea75664fdb	-0.0003154227646515719
178	0x0000000000000005	2.5e-323
179	0x0000000000000005	2.5e-323
180	0x3f5472906945a18c	0.0012480173364456141
181	0xbf2deb150ceb4ff0	-0.0002282584377640835
182	0x3f7140190d77b853	0.0042115191094876546
183	0x3f75c8ac36b3fc62	0.00531832953424702
184	0x0000000000000000	0.0
185	0x0000000000000000	0.0
186	0x3f4414e528c8291d	0.0006128424589076118
187	0xbf1d4abbccbcc41e	-0.0001117398380159483
188	0x3f4f0647a7c0f480	0.0009467935447059622
189	0x3f67b53f23752876	0.0028940423177675157
190	0xbf3492316897c540	-0.0003138895632153922
191	0x3f0e6cce6f590864	5.803112973669434e-05
192	0x0000000000000000	0.0
193	0x0000000000000000	0.0
194	0x3f487ae5b7f035d9	0.0007470723793418468
195	0x3f84e76a047ddd0f	0.010207012426447308
196	0x0000000000000005	2.5e-323
197	0x0000000000000005	2.5e-323
198	0x3f3b2cd316c1e3ca	0.00041465905702114654
199	0x3f55d1040896efa7	0.001331571520821287
200	0xbf42f5e15dc01fcb	-0.0005786276265107247
201	0xbf376d321bdb4373	-0.00035746072158553756
202	0x3f47db809390ccbf	0.0007280710043517032
203	0x3f6b22005781765f	0.003312111537566761
204	0x0000000000000000	0.0
205	0x0000000000000000	0.0
206	0xbf33a3d6dc0ad41f	-0.0002996825751709359
207	0x3f0d0bb66bec35c0	5.540037590466172e-05
208	0x0000000000000000	0.0
209	0x0000000000000000	0.0
210	0xbf2f3b9f35b5dffd	-0.00023828810195047892
211	0xbeb0cb951ba9d940	-1.0010745500589423e-06
212	0xbf11d5a7db91f273	-6.803357145374906e-05
213	0xbf4f9a402c4289e4	-0.0009644330352965272
214	0xbf2f250b49d08f20	-0.0002376152305326668
215	0xbf832f2f03ee893e	-0.00936733942746015
216	0xbf56395c78462b54	-0.0013564494157402756
217	0x3f02f833d2bbf1ce	3.618152763171547e-05
218	0x0000000000000000	0.0
219	0x0000000000000000	0.0
220	0xbf4c890256311d66	-0.0008708249482731023
221	0x3f24f1ae59815ba8	0.0001597905472887327
222	0xbf66891c8a03ff01	-0.0027509267239337336
223	0x3f3e317dd47946d9	0.0004607135965431892
224	0x3f2e209e243ea9d4	0.00022985392035697208
225	0x3f22757bd7630dd5	0.0001408303903130808
226	0xbf59afebaa21b710	-0.0015678216373333255
227	0xbf1fda51639acadf	-0.00012150880584264498
228	0x3f62b95ad4588d9c	0.0022856496823508553
229	0x3f66ed7b06e69791	0.002798786437057062
230	0xbf567cdfc96cf514	-0.00137254575902485
231	0xbf4e7f087512e9b6	-0.0009306708617693924
232	0xbf69248379abe1f0	-0.0030691688419859295
233	0xbf727210253faa4e	-0.004503310268754902
234	0x0000000000000000	0.0
235	0x0000000000000000	0.0
236	0x3f3c6ea1e1a407d6	0.00043384029562798293
237	0xbf350cdcc7851ef6	-0.0003212012302537948
238	0xbf45d6daa391eebc	-0.0006664817402816862
239	0xbf7307f4d3565cb2	-0.004646259641410898
240	0xbf425af83e51f79c	-0.0005601608396685778
241	0xbef19c134374dba0	-1.679388898631238e-05
242	0x3f44673b3d283c5d	0.0006226577045839278
243	0x3f576a6dd06c1f45	0.0014291832355314987
244	0x3f55c52405b50c52	0.0013287402897084366
245	0xbf2fda6827ee6a13	-0.00024302026210139323
246	0xbf548a6d6a7324bc	-0.0012537067903386897
247	0x3f2e27315bfbabd2	0.00023004987269045638
248	0x0000000000000000	0.0
249	0x0000000000000000	0.0
250	0xbf6c40d0d2d77a0a	-0.0034488752923913556
251	0xbf74046ead037128	-0.004887039496875446
252	0xbf52f9579c1f0ada	-0.0011580806317261134
253	0x3f2bd7997b3e8685	0.0002124190192463357
254	0xbf6eb1c40f7c0cd7	-0.003746874743116284
255	0xbf793403dfa5eaa9	-0.0061531211198323854

p_b2_old f8 [1, 1]
0	0xbf3e9006eb53062e	-0.0004663483517327341
