NeuralNetworksV1/weights_(1000)_hidden.npz (npz, 65974 bytes, 8 tensors)

b1 f8 [1000, 1]
00000000: 1095 52a3 ba0b eebf abd8 0dbc 6f42 f0bf
00000010: 14fa 61f3 adf1 d63f 9589 9753 2767 f4bf
00000020: acf0 9221 6478 dcbf e9b6 aed5 06ab d73f
00000030: 8756 eb56 6f9e e73f ac81 4dc0 18b9 d3bf
00000040: 1470 c829 b34d ecbf 0849 1fe2 03cb d0bf
00000050: c508 dcfc 0028 e83f 4d70 1528 c786 ebbf
00000060: 9061 ea7c 1e17 ccbf 68b0 8077 4199 debf
00000070: 062f 6e41 4a68 e73f 428b 5c6a 71f4 d33f
00000080: d18b e69a f55f ec3f e5cf 2e97 6957 e4bf
00000090: 80e5 3817 5dc0 e33f 4488 cf60 394a d4bf
000000a0: 2ae3 c256 81c3 ebbf 82b6 54ee c31d a23f
000000b0: d7db 7d8c f9b9 b83f f253 e59d a59e edbf
000000c0: f922 7bae 2dde bebf e6ed 38d7 9961 d83f
000000d0: 662f ce57 e889 e8bf a084 8932 c88c d4bf
000000e0: 3ca9 d84e e2d3 e6bf 04f8 2b21 f726 e4bf
000000f0: 78e5 8548 9695 e13f 819c d2c1 de5c c0bf
00000100: a072 bf76 82df d2bf bc14 61d3 c560 dabf
00000110: 8e12 08d4 dd83 e1bf 51dd cf97 72a7 e63f
00000120: 739b 932f c77e da3f 9483 8ba7 c70a e8bf
00000130: bc11 1f17 a4d0 e0bf 81c9 02d5 7e74 e4bf
00000140: e8fa b108 eb6f d43f 0c5c 27ae 9858 d4bf
00000150: 6d7d 665c dd36 dabf 8178 df7d 2dbc df3f
00000160: 3d9f 42d2 9a69 e43f 7229 9cc9 6971 eabf
00000170: fca7 e682 3ce8 e03f 003b b897 097b e8bf
00000180: de0a 81a0 272f e6bf ac80 a618 ca17 d23f
00000190: a970 9c47 79d1 e83f e05b f708 374f efbf
000001a0: b93e e94e e57f d13f e45c ca10 15c1 c83f
000001b0: 36ab 3826 d8ec e93f ce43 df4a 8c1c eabf
000001c0: 57f8 ac23 8741 e8bf c5b4 5265 0033 e43f
000001d0: 0dab 9ab2 4378 eb3f 83a2 56fd 93e5 e5bf
000001e0: e376 f421 cb0b ccbf 9aa0 e57a f4b7 db3f
000001f0: 0d7d b291 c683 e0bf 7d01 d47e 40b8 d9bf
00000200: 9991 ba1e 42d1 df3f 3afd 2566 9ae6 e83f
00000210: b3f7 111b bae2 e63f 68fb cc7c 99d0 cabf
00000220: 54c9 019f 5068 e43f 4353 a811 e18d d03f
00000230: fcef 2c2f 7422 debf 0149 062d 8232 d2bf
00000240: 5fc2 dd46 195e e13f bb89 7e4d a765 b13f
00000250: a746 a30e 8685 eb3f 5860 99b1 13f1 c2bf
00000260: 5bd0 1afc 2b97 b4bf 4c16 4ef9 9196 e2bf
00000270: d5d4 b553 38b8 eb3f 8867 4c6c 4126 edbf
00000280: 4f6a 9f3e 5b16 d73f 8df5 10c7 0dda b53f
00000290: cd09 70fb d348 e73f 80d4 2da1 0b83 c5bf
000002a0: 930f 7801 226d cb3f c633 52fe 3fe7 e3bf
000002b0: 6dcb c11b 07b6 e53f e82e 7358 75bf d73f
000002c0: ce61 09ce b6f8 c5bf 2a6a a647 c3f2 e3bf
000002d0: 3399 b95f 5142 dc3f e4d3 0006 5d6e d0bf
000002e0: afad 6369 3de7 dfbf 7c2c 803b e113 df3f
000002f0: 00c7 6d81 8440 71bf 1281 aa32 6d96 edbf
00000300: 0040 51cd 5a63 81bf 7faf 0dbc 241d ef3f
00000310: 7c11 acc3 119f e7bf d8c8 1837 1c2c f13f
00000320: e7ab fd3b 2526 cf3f c35a bd0c 9938 e4bf
00000330: a8df ce55 1880 c4bf 1308 adb0 d5d3 e6bf
00000340: e318 10a7 0baf f2bf d552 9efe c80c ee3f
00000350: a176 6002 5ec6 e33f d8c6 b4ad ea49 dabf
00000360: 12c6 cb31 16cc e5bf faff 854f 55b9 eabf
00000370: ef69 42fd 20ed cc3f fc52 38e4 cab7 ea3f
00000380: 766c 9dcb 85a1 9cbf 2c19 20bf 1c2b d5bf
00000390: bee6 276d d0c3 e8bf 88d9 5878 5e4f dbbf
000003a0: 3fda d88d 15dd e43f eb42 a6de 6398 e23f
000003b0: b440 0cbf 7de0 d23f 6c3d 15cc d79b e73f
000003c0: 4b17 d4f8 d3ab d03f f96f 8f8c 4333 c7bf
000003d0: 8ef8 75a6 25c9 d5bf b815 a6c0 41f3 c9bf
000003e0: f485 cca5 00fc d7bf 06a6 beb7 51ae e5bf
000003f0: fe5d ae4f 9103 ec3f 31c5 c1b5 5bec d1bf
00000400: 3eeb aab9 8757 d73f 9e58 9d36 125b e73f
00000410: 50cd aa52 7a9e ca3f 5d68 ac0a 540e 7f3f
00000420: 1249 b254 fe5e eabf 06ae b3b5 cc6a eebf
00000430: 60d9 0bc0 f89f d5bf 9093 d492 70fa ed3f
00000440: 6008 3aff c920 c7bf 0c0b 3111 b252 e5bf
00000450: 731f f212 88a7 d6bf 4315 47aa ba6e e83f
00000460: 60c9 29a9 2001 bbbf d657 3844 d14b e83f
00000470: e072 e9c8 009c a6bf 5957 759f 052d e1bf
00000480: a498 083b 7001 d23f 66df 3918 bf0a e8bf
00000490: c90c 2b97 a714 d3bf ed32 1657 4df6 e33f
000004a0: f81e 1db6 97fe d9bf d041 5aa2 f777 ec3f
000004b0: 7bf0 b9d5 5cd0 e83f 2a28 409c 62de c3bf
000004c0: 9a91 6fe0 0d47 eb3f b4ad 4a88 067b ddbf
000004d0: a603 0e1a 447e e03f 3af6 4472 dce9 e8bf
000004e0: fe80 731d 2c2f e9bf 4509 1085 4f7f e13f
000004f0: 26a8 2a18 a901 d1bf 86ef d258 0402 e5bf
00000500: fc7c 80d3 4cff ec3f 2c40 a1c7 6863 eebf
00000510: cce5 cd43 9da8 e2bf c3bb 56c9 28c7 f13f
00000520: 4a92 3bfc d576 c03f 3269 4a62 3449 d93f
00000530: 8c06 7405 fa41 efbf 5f6f 5419 6358 e03f
00000540: 5e0b 1fe9 24de eb3f d35b 4da3 a614 eb3f
00000550: f271 2ba2 951a f1bf 6cde 24ad 259e e1bf
00000560: d71f 71f7 fe41 d33f 133d 3dc2 5b4c e4bf
00000570: be86 5c07 c033 bfbf e3ca 2096 de9c d73f
00000580: 39bc b72c e5ab ea3f 3173 b2ca 4282 ebbf
00000590: dcde dc65 84fa e8bf d833 91b6 0bde e83f
000005a0: 947e 6ea5 e6b7 ee3f 1077 c606 dac0 e5bf
000005b0: bcd2 3c1e 811a e73f 024c 7a9b 1a53 d7bf
000005c0: e438 4cb8 ecd1 e93f 5af9 5a98 3ed7 e73f
000005d0: f633 05eb 2215 efbf af36 cdb8 7a85 e53f
000005e0: b941 d64a bcd8 c43f eb89 c512 2228 f03f
000005f0: 981c 922c 9535 d2bf c9e6 3107 9787 d83f
00000600: e1b2 326a 701b ed3f abde 31e1 d2b8 e9bf
00000610: b95b 2016 7537 eb3f c200 1bf8 6c90 e6bf
00000620: bcdb 2aa3 6059 e4bf 2f8a 1d6b 97c0 c93f
00000630: ec32 2e7e 7fde eebf 10a9 f8eb df93 eb3f
00000640: f071 bef1 4901 e53f 4286 9c5f a19e e3bf
00000650: b4a0 02d6 63b0 eb3f 77a0 04e1 a897 d2bf
00000660: 17ee 81cd a4b9 7e3f 57bf 215e 68b1 d73f
00000670: 20e5 9de1 c8f0 ed3f edde d6a4 e373 f23f
00000680: fcba e808 8646 c2bf 96f3 6c96 5aeb e8bf
00000690: 56bd c172 485b eebf 9226 3f1b 1386 d2bf
000006a0: f808 130d 1658 e1bf a613 9cfb 237c ec3f
000006b0: 805c 069c 3681 dabf f65b 2c73 94f5 e63f
000006c0: ca1f e481 6b82 b23f 6616 ac1e 0fda c1bf
000006d0: 3279 d58e 4321 e8bf 0d86 fe21 25c3 ddbf
000006e0: 28f6 1e56 24b5 e1bf 9c0c 0f24 ab46 d73f
000006f0: 25ec 355d 5211 cc3f 58e1 581a 1cc1 dabf
00000700: 103a c150 a9f6 913f 9c11 1609 6ebe e03f
00000710: 886d a93a 5b1c e43f b403 b9c0 ded3 d43f
00000720: 6895 8f82 dbc8 ed3f 41bd 1dfe 7825 e63f
00000730: c86d 762a 2880 ebbf e32c ffd7 fbaa e23f
00000740: 6016 cf96 19b5 adbf ebc6 f5a4 61ce a63f
00000750: 4534 353b b221 cbbf b5f4 01df 3590 ca3f
00000760: 47b4 5177 38dc ed3f 9a6b 4827 08cc dc3f
00000770: 1616 77ec f299 e8bf c650 fdaf ed20 e0bf
00000780: 4da6 939c a067 d0bf cf7b 2867 0c8f ed3f
00000790: c69c 0261 4ae6 e1bf f8c1 b2b2 7f74 cebf
000007a0: 3cc4 fe3c d8cb ed3f b3a8 8b95 5a4e d43f
000007b0: 46bc 0420 9e50 ea3f 08b8 5c5b 5617 edbf
000007c0: 0048 0603 73ba e7bf e996 e437 8baa dc3f
000007d0: 65e1 75a9 6460 c3bf c757 c7ec f949 e83f
000007e0: bd78 e8d4 b52f dc3f 595b 5ca2 4497 e3bf
000007f0: 697e d780 61c0 d23f 6cae 21f5 5d58 d43f
-0.9389317693609502 -1.0162198396551883 0.35850094573825797 -1.2751839890775944 -0.4448480918761202 0.3698136412375406 0.7380902001993527 -0.3081724050480499
-0.8844848457406465 -0.26239106256720435 0.7548832834875375 -0.8602023871312753 -0.2194555387438979 -0.47810398740944615 0.7314807203233336 0.3117946184813044
0.8867137933160568 -0.6356704666891316 0.6172318891105277 -0.317030281583474 -0.8676153845363832 0.03538334163964142 0.09658775024386955 -0.9256160816099721
-0.12057767400541398 0.38095708864031363 -0.7668344225835255 -0.32109265265723685 -0.7133647479979923 -0.6297565124402813 0.5495101372209055 -0.12783417190550853
-0.2948919448515799 -0.41215654032232485 -0.5473469868889695 0.7079403843953661 0.41398791929389417 -0.7513159057963201 -0.5254688693608425 -0.6392206344956294
0.3193309388079073 -0.31790749556734066 -0.40959867499801456 0.49586045543936313 0.6378912073750836 -0.8263443887420137 0.5283491665516062 -0.7650192225717944
-0.6932562002988012 0.2827019921042033 0.7755705259946996 -0.9784197974321351 0.2734311361900655 0.19339240379188205 0.8101616617690073 -0.8159848654123552
-0.7579990097799606 0.6312257746664264 0.8584307182657952 -0.6842746685043298 -0.21910990865665445 0.4331027221837843 -0.5160858960770455 -0.40187084565697956
0.49714711190088107 0.7781497950635761 0.7151766327585761 -0.20949095338616108 0.637733755646233 0.2586596176563953 -0.47085289580331824 -0.2843327941601644
0.5427366623026265 0.0679573597140352 0.8600492750067205 -0.14798208400566426 -0.08043169884587213 -0.58088015262974 0.8662377963034041 -0.9109198680118746
0.36073952785014723 0.08535848722472945 0.7276401434794991 -0.16806168909139174 0.2142679698155204 -0.6219787566384347 0.678470186436568 0.3710606921929256
-0.17165265140898928 -0.6233841323294815 0.441547721368255 -0.25673604570630304 -0.4984887627785736 0.4855883675633732 -0.004211919403006581 -0.9246126164980828
-0.00849028529242446 0.9723075554770587 -0.7381676503869552 1.0732690956324884 0.2433516066479051 -0.6319089173146825 -0.16015915098045963 -0.7133587313367137
-1.1677357221502056 0.9390606854454641 0.617964748995025 -0.4107615181302271 -0.6811629269197417 -0.8351236870948917 0.22598659864600232 0.8349356133863632
-0.027959909966153572 -0.33075636543834963 -0.773903096385048 -0.42671930077212794 0.6519878168535981 0.5811023090955961 0.2949518552495747 0.7377737985606649
0.26048754977852145 -0.18125194896026622 -0.34040204292239984 -0.20273610979726953 -0.3747560137872761 -0.6775292004360274 0.8754355007430943 -0.2800511622400164
0.3647174180184044 0.7298670832340297 0.2079613593719878 0.007582023895134152 -0.8240958837725734 -0.9505370663513879 -0.33788889650840837 0.9368212573796075
-0.18068814241638886 -0.6663446746609636 -0.35397531366515195 0.7635167432532984 -0.1054859555240788 0.7592550594733847 -0.04415895893609956 -0.5367458452626394
0.28133779301641426 -0.7513118241467793 -0.2981356598140335 0.6238161755478281 -0.4061641004995944 0.889644448370797 0.7754348921148585 -0.1552241576139875
0.8524236091148396 -0.46063388166177366 0.5154133328324988 -0.778547499830615 -0.7870083403795716 0.5467908476714817 -0.2657263504030446 -0.6564962134211647
0.9061645632645248 -0.9496349238415909 -0.5830828022291654 1.111122881393144 0.12862658325242854 0.39509305571268094 -0.9768037897594737 0.5107894415591366
0.8708672097348928 0.8462708653922796 -1.0689903578523823 -0.5505550748557204 0.3009030739235618 -0.6343210977301247 -0.1218833940479511 0.36894955311724525
0.8334833024399649 -0.8596509894301559 -0.7805807103640876 0.7771051946416447 0.9599488478742892 -0.6797914631203827 0.7219853964403096 -0.36444726165171926
0.8068755721631331 0.7450249648752945 -0.9713301267853456 0.6725438699156338 0.16286424307010153 1.0097981198565502 -0.28452042915928066 0.383275753999993
0.9095995020084865 -0.8038114927612318 0.8505196983486406 -0.7051300855455553 -0.6359103381026823 0.20118992548221246 -0.9646604027235219 0.8618011101546319
0.6564073297082 -0.6131140582476251 0.8652819805038434 -0.2905065724794506 0.007501262436672393 0.370203105855571 0.9356426626756367 1.1532932700192149
-0.14277720866217425 -0.7787297189712372 -0.9486429444640787 -0.2894332662659532 -0.5420027022703655 0.8901538767100774 -0.4141365550689855 0.717478012988862
0.07230255051774673 -0.1394671344534572 -0.7540605344509343 -0.4650357086157733 -0.5533620531129531 0.3636882640968879 0.21927861739445223 -0.41803648541419625
0.017542501024133073 0.5232458283867802 0.628461470197565 0.3254315263803236 0.9307687330262242 0.692074295349734 -0.8593941525791076 0.583372041577061
-0.058022308024686664 0.044543315302588336 -0.21196582690245883 0.207525953188371 0.9331323938801085 0.4499531158086768 -0.768792592855507 -0.5040195882125083
-0.25632491388987405 0.923711968880406 -0.5593616385202942 -0.23793026185514043 0.9311333838760514 0.3172823391347592 0.8223410249100958 -0.9090987953584326
-0.7415099200318309 0.44790916879934045 -0.15137918734013592 0.7590303062995581 0.4404120043926801 -0.6122153445347563 0.29299199659542424 0.3178934949744192

W1 f8 [1000, 2]
00000000: 667a d965 d230 e43f 76b1 654b 6a3b eabf
00000010: dd50 f508 c390 e13f bdc1 8135 de3a e03f
00000020: c45f 7ae2 7cea e53f d415 555f 0df1 eabf
00000030: d8fa e7ff 56d7 f33f 5185 54da 5879 e23f
00000040: b87b 0499 77ea cfbf 6868 e169 d065 e1bf
00000050: afbb f443 c97f e83f 6dc9 ce69 a9ef e73f
00000060: 7f6f 62f7 4000 f7bf bfc6 39c8 30cc e4bf
00000070: 504e 5605 0339 d1bf d047 c4de 2a99 b6bf
00000080: 900d 35fd 84a3 e13f 16e3 978a c331 efbf
00000090: 187c 8fde ca30 f33f 2898 da49 e8e6 ed3f
000000a0: fb4a 0b83 2ef9 f0bf 8466 da17 8c26 dcbf
000000b0: a833 f177 ef32 e83f 6523 47e2 44c9 d33f
000000c0: 9c5e c802 c2b8 dbbf 2428 ad40 7519 dabf
000000d0: b4c8 7532 b2e8 ddbf 9e45 61a6 56a2 edbf
000000e0: f4e8 2ca8 db13 ac3f ba27 4c69 dc32 e0bf
000000f0: c345 5919 abe4 cc3f 66d7 d5a4 b198 eebf
00000100: a9c4 3169 dcb2 e93f fb16 9356 43e2 e63f
00000110: 8f02 fa95 e788 f13f c1d5 cf98 2fe2 d43f
00000120: 27e4 c252 87b7 d13f 7758 6d2a afb7 ee3f
00000130: 0049 2f29 062d 8cbf 0ae9 67f6 28d4 e8bf
00000140: b053 97fd 547d efbf 68de 244e 7f4c e13f
00000150: a58a 10db 2294 80bf d4b5 10b2 711c e1bf
00000160: b3e7 d123 d284 ed3f e838 37f3 ecbc d03f
00000170: 7060 cc60 b0c4 c13f 409a 68ea b7a9 bc3f
00000180: 26c7 dcbf 4d4f d43f c8b9 8801 8e05 c5bf
00000190: aecf 5729 711b dbbf b25c 2bea fd80 d53f
000001a0: d44a 8b77 1646 de3f 8496 9e4d 4e3e d4bf
000001b0: 7295 0232 c1dd e6bf 3841 7a88 e752 d23f
000001c0: d2e1 0366 4e87 f03f 92b8 b034 c8af e13f
000001d0: 80bd c297 4108 b93f 0a67 1878 ac4d e1bf
000001e0: d2f9 0581 4d7a c13f 2441 8672 0c73 c6bf
000001f0: 8806 9392 25e6 cdbf c6ea b6fd b63a e53f
00000200: 7c13 bd67 6192 e7bf a677 4d58 996c eebf
00000210: 949f 369d 4544 debf 581b 5409 9346 d83f
00000220: c073 44ea c0d5 9b3f c0bd 4e7b be3c b7bf
00000230: 41de 8ec8 2c97 cc3f 8c55 e4d5 41e0 cc3f
00000240: 2ad9 651f 964a f1bf 3bbe 7fc4 0618 b33f
00000250: d45f a723 e54b dc3f 049b c11e 256c d3bf
00000260: ac4a 595f fac9 ecbf 40bd 41f8 5e8e 953f
00000270: b58e 5cd3 8725 ee3f 7d0e f366 48f7 e4bf
00000280: d25f ef38 3b74 b53f 63e4 4dfa 8a3f d9bf
00000290: c6df 942b 0bb6 f53f 502d 24f9 ed04 e43f
000002a0: 8ceb ad64 208f eb3f 4826 c225 9500 e0bf
000002b0: 3eb8 b8d0 097f d6bf 4859 cac0 d7d6 ca3f
000002c0: e1f3 4214 b6d0 cdbf 8807 650d 1899 bc3f
000002d0: 004e e7ac 345b 963f 4867 9358 e455 e7bf
000002e0: 1989 7c2d d544 d7bf b758 3ae2 1a12 c63f
000002f0: 980b aa0b cb01 c03f 70d6 2bbe 08da ecbf
00000300: 8cf7 6db1 6598 dbbf 40ae 3528 83b8 a03f
00000310: 0bac 96bd 50c1 ef3f 879d 4196 1b9b e4bf
00000320: af5f b0fa e7a2 e53f a421 ff29 9182 d1bf
00000330: f4a6 50df 16d2 d3bf 4465 c3cf 1cee debf
00000340: 2e5e caee adec b23f 753a d596 c067 ea3f
00000350: 5506 8516 a65c cc3f 2a2e 8cf7 4caf de3f
00000360: 3301 8456 acc1 e7bf b4d1 1859 05b7 e0bf
00000370: f04b 78e5 db96 c93f 9299 084f de0f e13f
00000380: f5f0 6827 adf0 e4bf 3e6a 2871 ef62 ef3f
00000390: 155e cebb 62bc c4bf c0ef 2ad4 1271 e2bf
000003a0: 01d0 95ac 65c8 d2bf 6df4 da74 277b dd3f
000003b0: 667d 1f34 627d ea3f 0a56 29ff 7b05 e13f
000003c0: dc19 a510 2cac b8bf 9563 fd2f 5527 e23f
000003d0: 1d18 72ff f637 debf 1d7a 8ca0 29b5 f0bf
000003e0: 0f33 4b87 e202 b53f 5994 9f71 237f e13f
000003f0: 7029 3f4b d42d e73f fcd6 a2f7 cc9a debf
00000400: d583 7028 4a5a a93f 0abb 2c05 ec5b d9bf
00000410: 1252 226a 28c7 cfbf 6fee 24b7 14ff d53f
00000420: 3510 128b 5577 e2bf 7f58 911e b938 d5bf
00000430: be4e a14f 4b91 e7bf fa61 e7db 6149 eebf
00000440: 16a7 60f7 1c87 ec3f b978 eb2b 1749 d2bf
00000450: e041 4774 23bd bfbf 1e08 8f82 8d14 ebbf
00000460: c8f3 28ea 32e8 ce3f e00f fc05 6f22 b33f
00000470: 5953 e0ad d926 e23f f33a b431 bdd8 c03f
00000480: 0c6d 6526 f093 e13f 6ddf 1e0f 1b37 bdbf
00000490: c1a8 f829 087b f03f c70b c05c a662 98bf
000004a0: b0a6 45e2 bed4 ed3f 396b f937 d211 ec3f
000004b0: 3ccb 9278 e8bb ecbf d695 ead2 c82c e8bf
000004c0: ad2b e4a5 8609 f03f 7a74 f5b9 757c e23f
000004d0: f640 37eb a39c e3bf eed6 c971 5e78 e3bf
000004e0: a5a8 367a 391f cdbf bd99 3983 bf45 e53f
000004f0: 80fd 7fbd 586b a9bf 90c8 7da4 e90c c43f
00000500: 7553 7244 0e75 e03f 0633 2c55 406d e23f
00000510: 1c78 1031 b088 d6bf fb85 12ba 1176 d8bf
00000520: 43dd 71d6 11e9 95bf 813c c6db e7af dbbf
00000530: 3046 772a beb0 bc3f 5093 79d0 216a ccbf
00000540: eb7e d4b7 88cf dd3f 9239 9b4f 9e73 e5bf
00000550: e05a 4e18 1e1c a9bf 508e 1152 fefe d1bf
00000560: 6ddb 051c 6a2c ce3f 8eed 6966 4a98 e7bf
00000570: 282f e9bc 3704 c83f 5576 d4e5 2dc2 edbf
00000580: 4c8c 5f1d 56ce d9bf 2645 a035 95f8 d93f
00000590: c251 12ab 47fa ec3f adbd 25e0 4c78 e4bf
000005a0: 80d6 4e90 1770 cfbf 71c9 6234 28d7 de3f
000005b0: 00ab 4a6a 64fe a43f 7861 1cc9 db26 cdbf
000005c0: e99e 852f 9485 68bf 90f2 34a1 0cf4 df3f
000005d0: efbc 623d b2d0 e4bf ec99 e310 6997 dcbf
000005e0: 60fa 4bef a2d1 b2bf 548b 3c69 9de4 d1bf
000005f0: 2629 4301 4e21 e8bf 10b1 bd78 62b3 e63f
00000600: 14ae 9d39 1d38 d5bf 6477 c6fe fe4e d0bf
00000610: a31f a2f2 b280 f2bf 2b41 304b 9c74 cbbf
00000620: 0004 4681 0abc e3bf 2072 e9ad f57e cabf
00000630: eb07 88cd 812c f1bf fad4 9db7 e2a4 e0bf
00000640: c2d0 8c9c cb32 c63f 55f9 2019 a74a ab3f
00000650: 2153 7671 d8a0 e93f d0e7 eab0 8fdc e8bf
00000660: d980 f998 f280 d73f ee7b 1693 e466 dbbf
00000670: 061c 0423 85dd ea3f 992e 77bd 1a18 e3bf
00000680: c828 ffec 5f87 f23f cf43 d2d7 1ee0 d93f
00000690: 055d ed6c 7317 dd3f 2ab0 80f1 8c1e e7bf
000006a0: 7d25 58bb 3bc6 e43f b049 f321 1750 d9bf
000006b0: 4ac8 3090 a161 e5bf 1840 a480 0b44 e3bf
000006c0: fc68 124f 7e31 c0bf cc5b 7709 d4a1 e73f
000006d0: 4042 a466 cce4 c1bf 9471 4009 3662 d63f
000006e0: 266a 3308 2a2f da3f 8024 92a1 41a2 eb3f
000006f0: 9a1f 47f9 0a6d f03f 58a3 7d42 91f9 d13f
00000700: ff6e dfc4 0501 d13f 489c 6fb6 0d39 d6bf
00000710: e486 f8bf 2555 d1bf 28ff b695 86ed eabf
00000720: 5069 300b ec87 e2bf 0006 a523 fe42 95bf
00000730: 7069 090e 6cb2 debf ecef 441d 6bea d7bf
00000740: 7d3b 7882 6ed9 d43f a253 2dc4 dca5 e53f
00000750: 5359 b587 66a0 ccbf 9a75 856c d809 eb3f
00000760: bb70 6686 6332 e93f 877e 7ce5 9b4d bf3f
00000770: fba6 3e07 243d e63f 7ced bdad d288 e1bf
00000780: 5c1d 9868 ab9e e1bf c746 438c 591e e73f
00000790: 536e 9bc3 57d6 fc3f 2872 a5fd 4e55 e53f
000007a0: 8851 3e10 6ef1 f43f 5686 490b adb8 e53f
000007b0: 70cc cd3d 05ac b63f 52eb 8647 5690 ecbf
000007c0: b08a 00ca d5b5 b73f dc98 e001 ecca d5bf
000007d0: b00a 3c25 ea7e c5bf 3001 a232 3adc cabf
000007e0: 20e4 8e70 5374 b2bf 389b 1644 9fa7 bf3f
000007f0: 6067 94cd cb60 f43f 9de2 53f3 6594 e23f
0.6309597005127443 -0.8197528336145712 0.5489211249319187 0.5071860356384189 0.6848740027808096 -0.8419253217659226 1.2400732036909883 0.5773128761540339
-0.24934287044103853 -0.5436784809092048 0.7655989005341918 0.7480055872495491 -1.4375619567353792 -0.6499256048830019 -0.26910472413257924 -0.08827464998856205
0.5512108750776168 -0.974824686708504 1.1994122213143381 0.9344369356592823 -1.060835372820917 -0.43985273675352965 0.7562177031155572 0.30915948960733025
-0.4331517245459311 -0.4078038341145904 -0.4673276417517045 -0.9260667085274468 0.054839004782893414 -0.5062086159316472 0.2257284044049311 -0.9561393947067074
0.8030836157396567 0.7151199999723014 1.0959239824734686 0.32630529330284835 0.27682669717938996 0.9599223927168755 -0.013757751590592893 -0.7758984387030818
-0.98404931573406 0.5405880476236691 -0.008095047293015975 -0.5347221830212967 0.9224634837730633 0.2615311026719511 0.1388149712227036 0.11196469757906247
0.317340314260138 -0.1642320163241051 -0.4235499290218695 0.3359980379877455 0.47302781748036904 -0.3163028486254478 -0.7145696617850901 0.28631008460890284
1.0330337510077823 0.5527077702625027 0.0977822299489528 -0.5407316537486804 0.1365448837277215 -0.1753860053254438 -0.23358602196644918 0.6634173350679127
-0.7366187120575058 -0.9507567143116276 -0.4729169879233208 0.3793075171565099 0.027182592676684214 -0.09077063093604121 0.2233634928977484 0.22559378570501243
-1.080709574363548 0.07458536431635647 0.44213226777855863 -0.3034756470064368 -0.8996555197030225 0.021050914671318255 0.942081368270428 -0.6551858912211653
0.08380479946151745 -0.3945033497216796 1.3569442465213668 0.6256017557183586 0.8612215010065127 -0.5000711190670666 -0.3515038049980638 0.20968148149104082
-0.23293186177571015 0.1117110283567212 0.02183229737586423 -0.7292348604198446 -0.36357621614492214 0.172427521193361 0.12505472249548855 -0.9016154970438048
-0.4311765892706425 0.0326577173790068 0.9923480704213729 -0.6439340529149583 0.6761360069531203 -0.27359418011885794 -0.3096978359995852 -0.4832832364023327
0.07392394142004186 0.8251650758700878 0.22157741641608433 0.4794495027024107 -0.7423917474516543 -0.5223414173292924 0.1999163504084147 0.5331870597481603
-0.654379441235078 0.9808270654787703 -0.161999074651917 -0.5763029235745236 -0.29348127225898685 0.4606417313733065 0.8278056161906704 0.5319194778082317
-0.09637713819856891 0.5673013627339168 -0.47216582246653777 -1.0442291518626299 0.08207526972837463 0.5467698306280325 0.7243443936979883 -0.4781982820817203
0.04951698058744795 -0.3962354708227599 -0.24826531584098227 0.34369390378171877 -0.5770671573850509 -0.33158710465557556 -0.7364861064219992 -0.9464577956196643
0.8914933044045223 -0.28571109093708064 -0.12397977436854246 -0.8462588834738687 0.24146114762871052 0.07474416633709735 0.5672424694081243 0.13161435057596513
0.5493088483739554 -0.1141220962443847 1.030037082624901 -0.02381381932356044 0.9322199267746409 0.8771754353759668 -0.8979379992436871 -0.7554668540439546
1.002325675976617 0.5776928550727825 -0.6128711313304211 -0.6084434721403491 -0.22751539676148017 0.6647641718853304 -0.04964711487991291 0.1566440632992152
0.5142890297744162 0.575836340287055 -0.35209278861464255 -0.3822063748467312 -0.0213969027649601 -0.4326114317163459 0.11207188164487358 -0.22198889426649737
0.4657918734755941 -0.6703635744868726 -0.049042644946146075 -0.28118856443891094 0.2357304226713625 -0.7373401642102395 0.1876287147919069 -0.9299535263887245
-0.4032187735412591 0.40579729306144185 0.9055517522088439 -0.6396850946311382 -0.24560827776229033 0.4818821441250725 0.041003358817155444 -0.22774836845270463
-0.0029933828592908396 0.49927058928350565 -0.6504756163539279 -0.4467413582737254 -0.07351129858214156 -0.279578545351048 -0.7540655159621437 0.7093975408766102
-0.33154993654781717 -0.2548215377845422 -1.1564206579077811 -0.214496170724041 -0.616704227912237 -0.20699950210372808 -1.0733659771508381 -0.5201276384601947
0.17342515129133146 0.05330393010852911 0.8008844581659994 -0.7769239859983319 0.3672453397648617 -0.4281550823597503 0.8395410236270215 -0.5966924381732098
1.1580504663166256 0.40430422855666576 0.4545563281767076 -0.7224793164109589 0.6491984042233266 -0.3955133277460403 -0.6681678596708107 -0.602056266072398
-0.12651041851933786 0.7385044274222934 -0.13979487430380466 0.34974432853211934 0.40912867356169824 0.8635566859894794 1.0266217935004307 0.28085738652457826
0.26568741060121676 -0.34723227325452344 -0.27082198855542416 -0.8414948391073027 -0.5790920465981717 -0.020763369489264605 -0.4796400200917992 -0.3736827646096106
0.3257709764592887 0.676496871145549 -0.22364503504167974 0.8449518317753928 0.7874009728434638 0.12227796890919694 0.6949634686945666 -0.5479520219227392
-0.5506188433509283 0.7224548091419017 1.8023297921089536 0.6666636423138401 1.3089428553113027 0.6787934513524287 0.08856232413181586 -0.8926192662250776
0.0926183336419324 -0.34051037009557006 -0.16793562715618782 -0.20984580490404303 -0.07208749292375716 0.12365146076500089 1.2736318617303013 0.580615020036095

b2 f8 [1, 1]
00000000: a2f1 f8d8 6b3d e53f
0.6637477147810851

W2 f8 [1, 1000]
00000000: 2804 a47d e8ab d63f 79bf fe70 2edd b33f
00000010: 99a3 336b 2028 e6bf 25ca 5e3e f4e7 f8bf
00000020: c49f 1618 41dd debf ede2 f02a 380b dd3f
00000030: b47c ec91 9760 f93f a85a acf8 ce14 eb3f
00000040: 8085 192b 12a0 d33f 0e39 4119 9e84 f63f
00000050: ab69 ee2e 82d8 eebf 31c4 d7f0 8193 f23f
00000060: 2042 2c38 be2e ee3f 6eb8 5c99 26f4 eebf
00000070: a5a0 bfd5 8859 ca3f 0a88 8e8c b2ba edbf
00000080: 519b a028 b94f d13f ffe9 6256 a45c f33f
00000090: 1826 65f0 c3a6 d53f d407 44ec e8d7 d9bf
000000a0: 4870 3f2e eeaf d83f bece d6e9 ab4d edbf
000000b0: 304f 9a85 d2a5 e6bf 482d 75a8 ff04 d63f
000000c0: 6a24 db89 85aa efbf 4e87 e3b3 3a11 c83f
000000d0: 56fb 6d23 0c40 ef3f 44a0 b389 bc9d df3f
000000e0: 006e 0943 9257 ecbf 8e98 0d1d f583 e63f
000000f0: 9e93 264d 03a8 e9bf 3e54 6cbb 26e7 b6bf
00000100: 9e66 f044 92a6 ec3f 6add ec15 c7c0 e1bf
00000110: 0ef7 be83 54b6 e0bf 1775 79fc c44e cc3f
00000120: 1ac8 9d4e f965 e7bf b21d 72ba 20a5 e2bf
00000130: 10bf 0274 8492 e53f 418d a9f7 579e d4bf
00000140: c4f6 ef20 7de2 bf3f 2b81 37df 25b5 f43f
00000150: 43b0 f426 efcc ef3f 9f91 56ef d38e e1bf
00000160: 15a9 88a5 c7db c1bf 4030 a8ee e07d 9fbf
00000170: 9492 0f4b 5a9c db3f c06c 06b8 e638 d3bf
00000180: a8e8 772f 6ba4 eabf d67e 635a 5ac8 c1bf
00000190: 24ba 4a17 06d2 d9bf 5609 f0f8 0c14 ef3f
000001a0: fba6 80ca 1174 d03f 91f6 0e5f 4f21 d23f
000001b0: 94a2 2f27 61e2 e7bf ec7f 1811 f7ee d83f
000001c0: 9a02 fc86 7000 b8bf 6d10 a788 8920 c9bf
000001d0: 1524 edb8 ee29 ec3f e1ea 6141 c589 f33f
000001e0: 9450 5362 4fa8 e93f 22f3 18b3 1df2 ec3f
000001f0: aad3 e0ac fcd2 d23f 8fb5 878c a695 e93f
00000200: 39d2 7bcd 95a0 ecbf 9849 7461 dcbe e73f
00000210: f009 c1bd 0668 e33f 341f e3b1 131c d1bf
00000220: b440 3f5d f836 e7bf 77c3 5a51 156e c93f
00000230: 50c0 40a2 2aa9 d8bf bb1d 4bc6 f170 de3f
00000240: c1ac 9288 c470 abbf 6ecf 9613 33d8 e83f
00000250: 9ffc ef6f 9fc0 d13f f0ee b5de d2e6 df3f
00000260: 4e51 cae0 d569 edbf a4e1 8c56 a36b e03f
00000270: 8662 5735 3d37 ddbf 76e2 c381 291e ec3f
00000280: 7fab 59e2 f263 d83f b76c 1739 98e2 cf3f
00000290: 0e78 7f49 4acc b2bf a46c 190b 6f37 e53f
000002a0: 8115 dc50 0866 ea3f 1c4f 3992 6284 dbbf
000002b0: c234 08b6 561b e53f a03c ec28 1bc7 e6bf
000002c0: 4103 c2aa 2913 c6bf b3b0 b15d f292 d7bf
000002d0: 48d2 3aa2 5a78 cbbf 20d8 7584 c1b2 ee3f
000002e0: d240 1fdd 0683 ef3f 88d8 2ee2 d4cc e3bf
000002f0: dae8 523f 8202 e1bf f6cb 1eaf f185 ecbf
00000300: 0415 8003 b91b d6bf eef7 4074 b040 ef3f
00000310: c4c3 cd36 ba53 e83f f846 3ffc e7c9 f9bf
00000320: 54ce 9c89 7432 ed3f 8392 7213 eb65 ba3f
00000330: ca09 0d94 ef2c e7bf d5a2 37d6 5a26 f03f
00000340: 015a cab7 57ae f7bf 7eda 97ae cb16 cdbf
00000350: 6d47 dc73 6f06 ed3f 40e3 f2a9 0472 a9bf
00000360: 9cd8 ee46 1a1a b73f aca8 d9cd b325 ed3f
00000370: e110 8ccf c23d d9bf ac63 f61a 003e e93f
00000380: 3b86 4522 dd5f d7bf aed9 a33f cbfe e33f
00000390: 302c ea9a 6858 e83f e01b cd37 c19c ca3f
000003a0: fb9c d0d3 97cf b1bf c363 9967 bfcc e73f
000003b0: 8b28 7281 08e6 b3bf fb7b 2216 06e3 ea3f
000003c0: dc8b 6303 ab26 dbbf 361c 5456 1b05 fcbf
000003d0: 49ca 1f88 e5fa f23f 0cc0 d9aa 8ffb e8bf
000003e0: 746b 39a3 4e78 dabf e02b 5790 5206 d73f
000003f0: 5c6e c9c8 4e7e e43f 1c3f cf42 eb70 f23f
00000400: 3c7d 8320 2fcf e2bf 9001 7345 60d7 cbbf
00000410: 0fd7 a3cd a4c7 f03f cde2 86f2 1bb4 973f
00000420: 1420 d144 6a3c efbf e069 f065 788d b53f
00000430: 0e38 c280 cfc3 e23f 7136 ec51 749a ebbf
00000440: 52b8 9598 1093 debf 184d bc37 9bd2 b53f
00000450: 4b15 5a50 3696 e9bf e298 c4df a162 e33f
00000460: 1ef9 b1e9 8d9e e83f 4239 e7de eaa2 e8bf
00000470: 3e5d 8a09 4ec1 e6bf 16b1 be22 b9aa f2bf
00000480: 131a f5fe 5114 ed3f f44a c1a6 c4ae dc3f
00000490: 1ede 6d0c be53 f03f 408a 5cdf 875f c0bf
000004a0: d479 aee7 82e2 e13f e806 b1de 7a7c e9bf
000004b0: 6403 6ea3 1d9a d13f 3e88 fe9c 2e6e fcbf
000004c0: a450 cb27 8e1b debf d0f7 5fb4 3598 ba3f
000004d0: 6bbd b792 fd6e d5bf fc30 c5ac 64ad dcbf
000004e0: d47e 8b6f 93dc d93f a80e 048e 14eb ed3f
000004f0: 4ede b2cd 749d ccbf dc64 50b2 c511 efbf
00000500: dc89 c80c ed88 dc3f 5040 8c1e 0173 ecbf
00000510: 92ed a89d 4191 e93f 55ee 0e4e 3225 fa3f
00000520: c171 5911 0d34 e63f 8605 d095 1547 d9bf
00000530: bb8d 31ef e0aa efbf 4151 a6d2 e5ec b63f
00000540: 4d03 e2d3 63e9 d63f 7718 71b2 8368 ea3f
00000550: a096 7290 6ace f2bf 38e0 29a5 9272 ee3f
00000560: f0d5 1b9c 7701 d53f 9e94 1029 5816 e8bf
00000570: e907 6897 d7a0 d13f 9431 416c 8f25 d63f
00000580: 79d6 eadf 5128 c0bf 6bcc a708 df77 ef3f
00000590: f875 f77c 157d e53f b484 44a1 fa02 d6bf
000005a0: 36ab f069 96ff df3f 5933 21ac 8bd6 e9bf
000005b0: f1bb 4ec0 2147 ec3f a254 70cd 8ff4 f1bf
000005c0: 6cb2 de76 7f25 dc3f 1b7f 084c b843 d53f
000005d0: 0e00 d1a6 d6c1 ef3f 5a71 6e6c ced9 ca3f
000005e0: 30da b6e1 9226 bbbf 2807 6475 5098 e73f
000005f0: aa8b 20a5 c31c e33f 36cd 422e cf73 e2bf
00000600: 11b8 21c9 9159 df3f 8af8 602a 38e8 c33f
00000610: a8bb e58b 2a48 e73f 5eb7 50c2 a424 e5bf
00000620: 44be f2ea eabb e0bf a29a 6d15 9ed8 d13f
00000630: 984d 00fd 7cf2 d4bf 419e d2eb 101c ccbf
00000640: c4e7 b70f 054b c23f a88a 5326 cfaf d73f
00000650: 8b9c 7dc2 8dff cdbf 6d83 7ee6 460f d4bf
00000660: e6e1 df8f 4abc d03f bed6 dbc5 2e25 a43f
00000670: 2ae3 e53d be08 eb3f a5ff b9c7 4fa8 f63f
00000680: f9de 0e5b 3c5b e03f a918 bfde 5c5e e03f
00000690: 0055 273b de36 e23f 17b4 079f 504f e7bf
000006a0: c46e 222c 86a8 dfbf 1e32 b6b7 96b3 e4bf
000006b0: cb12 225d 70b7 e03f 0b80 a5dd aa78 eabf
000006c0: a15c 066d df7b ebbf 04b3 fec2 3c8d e9bf
000006d0: 9d7d 5be7 0034 f1bf 0d6e 61b8 63c5 f1bf
000006e0: c233 ab85 3620 eabf 88f7 4bcf 7aa4 e13f
000006f0: 8569 420a 1e77 e53f 5544 68dd 8b1e e53f
00000700: fa2f beb5 4bc3 d2bf 9640 e188 3cb5 eb3f
00000710: 88f5 cad4 f53e d3bf 6c23 6e77 9661 de3f
00000720: 43a8 2000 56c1 e63f 55b5 28e6 5a79 dabf
00000730: 6342 6e32 dfa4 e83f 4b9d 76b1 2b58 e93f
00000740: 045d a8ec b460 d83f 57fe be2d 0be1 e73f
00000750: cc31 de2c f321 e8bf b349 22d9 52ae ed3f
00000760: cfa5 2360 5f1d dcbf cecf 1a9f e229 ec3f
00000770: 64aa 0b92 e7e9 e0bf 08be 99f3 1e3d c9bf
00000780: 3848 35a8 b453 c9bf cc44 b78d 8f61 df3f
00000790: e877 dfc2 c743 c53f 3e97 15a8 1243 e03f
000007a0: dd28 1388 1f57 e03f 7820 884a f6ed ed3f
000007b0: 6901 cb3c 57f9 c13f 0ec0 a6fd d3ee ee3f
000007c0: e800 f88c 9c1a edbf 7b33 c281 3b6a c43f
000007d0: e9a1 bf95 69f4 f8bf 1a4b ed2c 2f99 e9bf
000007e0: 87a1 a957 7f21 dabf 9ce2 b78c 27fd f8bf
000007f0: 3c22 1b70 fdd9 e43f e679 17b3 cd4c e83f
0.354242441841111 0.07759371050519616 -0.692398270967817 -1.5566294132555722 -0.48225428917293933 0.45380977815106754 1.5860820484302112 0.8462900978946282
0.30664495667414116 1.4073773371233673 -0.9639292637469244 1.161012593071302 0.9432059380652085 -0.9673035617213495 0.20585737645092653 -0.9290402169465335
0.27049092261807056 1.2101176619022451 0.3383035514458199 -0.403803091743723 0.3857379390372029 -0.9157313887758034 -0.7077419862202756 0.34405509425115044
-0.9895656292438961 0.18802579673416137 0.9765682880387014 0.49400247046878953 -0.8856898602784327 0.7036080901568924 -0.801759386715833 -0.08946458888779404
0.8953334185091142 -0.5547824314334495 -0.5222570965922573 0.22115385368207605 -0.7311979804492268 -0.5826572076338634 0.6741354242167024 -0.3221645277573835
0.12454969457754844 1.2942255706221413 0.9937663803916695 -0.5486850428174427 -0.13951964934069197 -0.030753626409975476 0.4314180119529649 -0.3003479764099204
-0.8325706412427012 -0.1389267865515566 -0.4034438350162495 0.9711975919783906 0.257084319836039 0.28328308375407923 -0.7463842168190973 0.3895852724981512
-0.093756707148723 -0.19630545780649147 0.8801187145082873 1.2211353830340885 0.8017956657809173 0.9045551774976028 0.2941276252998316 0.7995178932884971
-0.8946026814797455 0.7420484450724869 0.6064485269674247 -0.26733867999836325 -0.7254602261764576 0.19867197487249275 -0.3853251060963929 0.47564358105270416
-0.05359472434187174 0.7763915426826153 0.2773817628039498 0.49846336125459256 -0.919169367831765 0.5131394091068171 -0.4564965268050759 0.8786819014049587
0.38110038857001166 0.24910261905356432 -0.07342972082503271 0.6630168167861439 0.8249551371851994 -0.42995514182733685 0.6595872454942298 -0.7118049430154265
-0.1724598010805725 -0.3683439173680753 -0.21461041375518364 0.9593207919231226 0.9847444838324242 -0.618753854526191 -0.5315562474054574 -0.8913505955046037
-0.34544205991581145 0.9766466398793889 0.7602206297288991 -1.6117935040860498 0.9124090850586506 0.10311764931481986 -0.7242353335971583 1.0093639724602117
-1.480064123088255 -0.22725816750581268 0.9070355666064934 -0.049698014970493976 0.0902420447517635 0.9108523388397507 -0.39439459102892555 0.7888184095964923
-0.36522606226762705 0.6248527758569276 0.7607920671156361 0.207908775564845 -0.069573868954297 0.7437436126157241 -0.07772877846051267 0.8402128631895488
-0.4242351086706415 -1.7512467739304731 1.1862540547705456 -0.7807081543851395 -0.4135929674136414 0.35976089568856473 0.6404184266679738 1.152568112349349
-0.5877910265952901 -0.21751025572849558 1.0487411530315887 0.023147999456088187 -0.9761248916702265 0.08418991554973543 0.5864026560609561 -0.862604293828282
-0.47772612477172516 0.08524484740000948 -0.7995864457485963 0.6057900782077719 0.7693547787055512 -0.7698873857096162 -0.7110967813813784 -1.1666804654333354
0.908730504955033 0.44816700253174635 1.0204449162973854 -0.12791536718676078 0.5589003109960751 -0.7964453076785647 0.27503148040709946 -1.7768999226177722
-0.4704318417182185 0.10388503698047136 -0.3348993237295505 -0.4480830847940209 0.4040878857904151 0.9349463247057956 -0.22355518382913647 -0.9709194643684458
0.4458572983586728 -0.8890386196744746 0.7989814833921847 1.634081177630738 0.6938538874488175 -0.39496364240775284 -0.9896092101811783 0.08955227272810352
0.3579949921768744 0.8252581105414397 -1.1753945963368224 0.9514859414912342 0.3282145523547504 -0.7527275850340123 0.2754420260026778 0.34604249545807275
-0.12623046334708812 0.9833827179958353 0.6715190354113352 -0.3439318251494783 0.49997482629503354 -0.8074396478565219 0.8836830860144557 -1.1222074532463826
0.4397886906470265 0.33225829529873047 0.9924119241841269 0.20977192205908574 -0.10605733881571022 0.7373430531299379 0.5972612595690994 -0.5766368773969706
0.48984188691872627 0.15552427357937787 0.7275593502398481 -0.6607230944843925 -0.5229391659576739 0.27884628384200927 -0.32730030734202264 -0.21960650934964757
0.14291442172526392 0.3701055406838045 -0.23436138149847738 -0.3134324313087323 0.26149238634346117 0.03934618153827561 0.8448172768540634 1.4160917093104015
0.5111371782759014 0.5115188932911866 0.5691977649063631 -0.7284319978767851 -0.49466089544305825 -0.6469224537009415 0.5223924464231343 -0.8272299126656447
-0.858871186198389 -0.7984908874983323 -1.0751961743734235 -1.1106908037535306 -0.8164322481840076 0.5513280915035788 0.6707906914119098 0.6599788021432099
-0.2931699061234664 0.8658735917506586 -0.30071779041812663 0.47470628417118266 0.7111005785457184 -0.41365692593065734 0.7701259598707789 0.7920130220490277
0.38090251074886816 0.7462211507299327 -0.7541442753150078 0.9275297394654473 -0.43929275883291735 0.8801129443659137 -0.528552804227115 -0.19717776197965997
-0.19786699498451 0.49032963599627233 0.16613099112777197 0.5081876070878264 0.5106351525985492 0.9352981048296121 0.14042177647025803 0.9666538194778711
-0.9094984772964638 0.1594919570528893 -1.5596710061600965 -0.7999492528418586 -0.40829452095797375 -1.5618052956398634 0.651610106427206 0.7593754289517249

p_b1_old f8 [1000, 1]
00000000: 0000 0000 0000 0000 4dbb 4249 4c84 b23e
00000010: c0fc 8ad9 9adc 1b3f 089a f3a2 a93a 0a3f
00000020: 0000 0000 0000 0000 c247 62bb 2d53 03bf
00000030: ced2 24ed a156 2a3f 0000 0000 0000 0000
00000040: 0000 0000 0000 0000 2072 5cfc 8dce 113f
00000050: 8efb 03c0 14c9 19bf c0f0 89a1 ed25 1abf
00000060: 0000 0000 0000 0000 0000 0000 0000 0000
00000070: 4eb4 62fd 3d88 f1be e605 3c5b 1615 0a3f
00000080: a2bd bff3 d308 f7be 7842 fedd fbc4 2bbf
00000090: abd3 d1dc b2cf fcbe 0000 0000 0000 0000
000000a0: 0000 0000 0000 0000 5415 cb5a 2b40 073f
000000b0: 10c4 a51c 2a24 0e3f 0000 0000 0000 0000
000000c0: 8084 34c5 829d 1b3f 7808 6c37 7718 f6be
000000d0: 0000 0000 0000 0000 0000 0000 0000 0000
000000e0: 7c35 7d5c e8cc 293f 0000 0000 0000 0000
000000f0: 5acd 195c 9212 113f 4788 0fe8 ff5b 93be
00000100: 0000 0000 0000 0000 0000 0000 0000 0000
00000110: 0000 0000 0000 0000 344c ea3d 81d5 f2be
00000120: 1ec1 915e 5927 1bbf 0000 0000 0000 0000
00000130: 0000 0000 0000 0000 48ce d6d5 8f88 e4be
00000140: 70ae 292e ffcd e2be 97f2 20f9 a396 0f3f
00000150: 211d 605b 656f 0dbf f27c 6a24 0c5e 073f
00000160: 5802 63d8 23c5 e73e 0000 0000 0000 0000
00000170: a6bd 3267 405f 02bf 0000 0000 0000 0000
00000180: 0000 0000 0000 0000 dcff dbe3 fbae f63e
00000190: b2fa b370 c12e 013f 0000 0000 0000 0000
000001a0: 4c32 507f 19e5 f5be 0c2f 9c52 7a20 f8be
000001b0: 0c7a 69af 57c6 f3be 0000 0000 0000 0000
000001c0: f484 8eba 842a abbe 89dc 19d5 0c40 f43e
000001d0: 31f6 0507 75bd 12bf 4f1a b111 5aff 2dbf
000001e0: 7cf3 8165 38c0 ddbe 69c0 515c d00c 023f
000001f0: 5848 7398 7424 e8be 82f9 42ea ea44 0bbf
00000200: f95c bd40 a30c 133f 60c8 40b4 ae99 0fbf
00000210: e4d1 b2d5 40e6 c2be 0000 0000 0000 0000
00000220: 2c41 37ee 6de5 0e3f 6fa5 1b7f e373 de3e
00000230: 0000 0000 0000 0000 ab88 2087 56b9 1abf
00000240: 1e70 efae 6444 d23e 4353 2ed4 1d88 10bf
00000250: e9f0 b264 029f f7be 0000 0000 0000 0000
00000260: 540d 72b7 bad1 183f 0000 0000 0000 0000
00000270: 4f72 0888 3571 033f 0000 0000 0000 0000
00000280: 0d28 e4e3 8c3a 00bf 5600 4109 6428 02bf
00000290: 1c09 3c15 d605 d93e 0000 0000 0000 0000
000002a0: 07dd 1b76 964e 21bf 0000 0000 0000 0000
000002b0: 86d3 5deb 67e4 0fbf 2ed3 0d8c bbe1 0e3f
000002c0: 9205 736d 1377 efbe 408b 10a8 1a1a 01bf
000002d0: 471f 91a6 dc47 f23e 0000 0000 0000 0000
000002e0: 0500 0000 0000 0000 c4d1 de37 644b 15bf
000002f0: 0000 0000 0000 0000 0000 0000 0000 0000
00000300: 0000 0000 0000 0000 4cac 4db8 5df9 f8be
00000310: 0000 0000 0000 0000 d00e f44c b083 043f
00000320: 0298 15be 956d 13bf 48ba eb9f 783e db3e
00000330: ec78 1650 6202 e4be 1376 57aa 86c9 fa3e
00000340: e895 9dfc e894 103f 7f74 3fb0 c95b f33e
00000350: e833 0240 3b50 13bf 0000 0000 0000 0000
00000360: c8da c223 51e5 b63e 0000 0000 0000 0000
00000370: b320 a4f4 0dcc 003f d5d9 0d82 b2cb 10bf
00000380: f6d4 16d8 7ba0 003f 0000 0000 0000 0000
00000390: 0000 0000 0000 0000 0000 0000 0000 0000
000003a0: e9c5 9149 27b7 d73e 9a84 e7ca 25ac 0fbf
000003b0: fcff 5357 2f7d da3e 7a64 3f2f f6e3 11bf
000003c0: 9e23 e940 fcff 0b3f e44d b3da 8c6d 293f
000003d0: f896 6888 1062 fa3e 0000 0000 0000 0000
000003e0: 0000 0000 0000 0000 0000 0000 0000 0000
000003f0: 88bb 02b4 aa45 0bbf fa95 e77b 1143 113f
00000400: 8686 adbe dfd3 0dbf 5dd9 8d72 4187 f23e
00000410: 4496 3a74 97d9 1cbf 0500 0000 0000 0000
00000420: 0000 0000 0000 0000 0000 0000 0000 0000
00000430: 0000 0000 0000 0000 c7a0 b8a7 665e 123f
00000440: 2cb1 f73e 51be 003f 56b0 80d0 c2c2 d5be
00000450: 590b 2ba9 9a6e 183f 8045 da67 efcb 09bf
00000460: 0000 0000 0000 0000 412a eded e064 103f
00000470: 0000 0000 0000 0000 b50e 6ea4 8503 293f
00000480: d06f 364d 8459 13bf 0000 0000 0000 0000
00000490: ad07 e23c 6f6b 023f 8a04 c2be 06cb e53e
000004a0: 0000 0000 0000 0000 6675 fc06 9af5 103f
000004b0: efca 3ab4 f76b f7be 9657 10c9 6337 283f
000004c0: 8804 c667 e967 073f 0000 0000 0000 0000
000004d0: 6b9f 4859 9c86 fc3e 0000 0000 0000 0000
000004e0: 0000 0000 0000 0000 08cd c177 6ee8 13bf
000004f0: 0d9c 6db0 2a92 babe 0000 0000 0000 0000
00000500: 5cac c451 85fc 02bf 0000 0000 0000 0000
00000510: 0000 0000 0000 0000 8cb3 99ee 825b 213f
00000520: 2d9e b6d5 1568 0cbf b42f 1732 d00b d83e
00000530: a6ee 3236 3cbf e9be 0840 6b43 e57f debe
00000540: d418 96c8 507d febe 0c7f cb44 8da5 e13e
00000550: f0e3 a000 b153 d4be 0000 0000 0000 0000
00000560: 05ba 16b2 30f4 fbbe afab 57de ba6a eebe
00000570: 8392 dcb1 39ab ef3e 8cec eac3 0779 fdbe
00000580: 20c6 2fdf aa82 e53e de0b adef b900 d33e
00000590: 0000 0000 0000 0000 509d 7c67 1c4c fd3e
000005a0: d3cd 871e bfe1 0abf ef3d f343 2442 073f
000005b0: 1ea8 ce12 ebd0 12bf 7365 8be8 548e 253f
000005c0: 905e cc2c ae92 123f 650e 50d2 7557 00bf
000005d0: 0000 0000 0000 0000 5bb3 050b 4c43 00bf
000005e0: 7193 734c 9ae4 e93e 0fbb d524 d008 113f
000005f0: 0000 0000 0000 0000 c6d3 6fde d78e 083f
00000600: 59ac 8ead ebdb 04bf 6c87 b346 b473 ba3e
00000610: 3423 a7a2 645f 11bf 0000 0000 0000 0000
00000620: 0000 0000 0000 0000 d439 f5ec 33ec 07bf
00000630: 0000 0000 0000 0000 9c67 4980 dcb4 f23e
00000640: 3781 cc4b 4657 e8be 0000 0000 0000 0000
00000650: cc51 52a8 a4f6 f33e 5603 126e 7fc4 c4be
00000660: c42f 4974 ef48 d1be a42c f515 d2cb cabe
00000670: faf3 7192 0dfd 11bf 04a8 5a92 809f 103f
00000680: 9ec6 8476 9afe 09bf a062 10a3 4143 d23e
00000690: 0000 0000 0000 0000 f183 6593 ee90 153f
000006a0: 0000 0000 0000 0000 487c e6a3 398d 0b3f
000006b0: 31ae b2a5 a810 19bf 1819 0cbb 6595 113f
000006c0: 1672 a03f 5618 213f ec5e 42d2 85e2 083f
000006d0: 4e54 9e70 b674 153f a0b4 26d4 2fe4 303f
000006e0: 0000 0000 0000 0000 46de 11d4 1b3e ddbe
000006f0: 3a5b f456 276c 0dbf 110f 3153 6806 11bf
00000700: b24c 2abe c3f8 f83e 8916 ff8b d36f 12bf
00000710: a8c8 3c9a 366f fb3e 0206 3533 1437 04bf
00000720: 738c 1abd 4748 0ebf 39ff f863 129e 013f
00000730: 0500 0000 0000 0000 fc1d c338 35dd 10bf
00000740: 0000 0000 0000 0000 22ae c4a2 66c7 0fbf
00000750: 10fe 025d 57ef 18bf 26da e319 86ae 13bf
00000760: b4a6 127a abb5 023f 52a8 c8c7 65bd 12bf
00000770: 0000 0000 0000 0000 0000 0000 0000 0000
00000780: 7024 1058 656c e2be a805 41cc 64e1 04bf
00000790: 0000 0000 0000 0000 0000 0000 0000 0000
000007a0: f06c 0ef8 85be 05bf 3b7a d7d7 bbdc 17bf
000007b0: 74b2 3069 21ea e7be 0000 0000 0000 0000
000007c0: 0000 0000 0000 0000 c4e6 3524 2e2a ebbe
000007d0: 0639 35f2 0ce7 263f 969c fe21 d408 113f
000007e0: 477e 4cab 9563 013f 19a7 2755 6146 253f
000007f0: 541f 0ed4 319b e23e 9c49 247e 612b 10bf
0.0 1.103686632790863e-06 0.00010628409507783525 5.002813520054236e-05 0.0 -3.685935318843661e-05 0.0002009461082451897 0.0
0.0 6.792775738202099e-05 -9.836377285308962e-05 -9.974730381573631e-05 0.0 0.0 -1.6720004929627733e-05 4.9748177302088266e-05
-2.1967395909370414e-05 -0.00021186422872833724 -2.747661874421033e-05 0.0 0.0 4.434711749960277e-05 5.748990550358973e-05 0.0
0.00010534392031448687 -2.1071976756388962e-05 0.0 0.0 0.0001968415874621757 0.0 6.512659367690268e-05 -2.88477146224751e-07
0.0 0.0 0.0 -1.796150524542243e-05 -0.00010358317344283773 0.0 0.0 -9.79110944396908e-06
-8.966767784466411e-06 6.0250166953744796e-05 -5.61430746728825e-05 4.456972651678018e-05 1.1334456541668331e-05 0.0 -3.504195492475973e-05 0.0
0.0 2.1632700955897966e-05 3.2773283317401826e-05 0.0 -2.0880623157681127e-05 -2.3009172912798754e-05 -1.885869547845792e-05 0.0
-8.096125060261205e-07 1.931209164359992e-05 -7.148768214012485e-05 -0.0002288625190393794 -7.0931578975947435e-06 3.442774645001716e-05 -1.1511995366229332e-05 -5.201188949531794e-05
7.266756455003358e-05 -6.027283100741641e-05 -2.2529872417359455e-06 0.0 5.892984134059568e-05 7.2604870966300875e-06 0.0 -0.00010194388031029243
4.355230642762884e-06 -6.306345043889405e-05 -2.2526865262704433e-05 0.0 9.467794540012525e-05 0.0 3.708309759906504e-05 0.0
-3.0953812244119504e-05 -3.463321004959555e-05 5.965899919637451e-06 0.0 -0.000132041804185447 0.0 -6.082956444589727e-05 5.890229795727505e-05
-1.5003748030986337e-05 -3.261941765966012e-05 1.7433844196084664e-05 0.0 2.5e-323 -8.123206313721045e-05 0.0 0.0
0.0 -2.3817144682619203e-05 0.0 3.9128129737190536e-05 -7.411219077865797e-05 6.495482465436612e-06 -9.541183774438838e-06 2.5546275215995446e-05
6.325408972215169e-05 1.846174838237126e-05 -7.367478974824838e-05 0.0 1.3646941985753033e-06 0.0 3.203790272904416e-05 -6.407048250687356e-05
3.171327535815033e-05 0.0 0.0 0.0 5.654202277148473e-06 -6.041040738914115e-05 6.315470604478787e-06 -6.824674693407972e-05
5.340565268292036e-05 0.0001939997140199954 2.516085126038397e-05 0.0 0.0 0.0 -5.201747126314717e-05 6.584924901849995e-05
-5.689169468926524e-05 1.7670004271741274e-05 -0.00011005389120074491 2.5e-323 0.0 0.0 0.0 7.007123525027129e-05
3.193555300726384e-05 -5.188175471498236e-06 9.320086455048611e-05 -4.920315130364349e-05 0.0 6.253836498363535e-05 0.0 0.00019083982826028292
-7.381315236049059e-05 0.0 3.513272496126429e-05 1.0391746364970281e-05 0.0 6.469490631074367e-05 -2.233671990721058e-05 0.0001847562130314311
4.464322134634888e-05 0.0 2.7204344933334285e-05 0.0 0.0 -7.59427475161453e-05 -1.5837528637098415e-06 0.0
-3.621370180647489e-05 0.0 0.0 0.00013242696086326574 -5.418125757766473e-05 5.7330478581799815e-06 -1.227713227646501e-05 -7.2716693952507084e-06
-2.9077066334725506e-05 8.4145960043687e-06 -4.8463152869044e-06 0.0 -2.6658885990899303e-05 -1.450391477938136e-05 1.5100884009530392e-05 -2.8107428301932027e-05
1.0256967447805235e-05 4.530629435009279e-06 0.0 2.794009057463287e-05 -5.127300738996432e-05 4.436181233702016e-05 -7.177767538615916e-05 0.00016445909957133915
7.08502586345089e-05 -3.116920769488384e-05 0.0 -3.10189801691954e-05 1.2346734719456791e-05 6.498117837392909e-05 0.0 4.6840632243950626e-05
-3.978550893831622e-05 1.5766602484080932e-06 -6.627132157811523e-05 0.0 0.0 -4.562886680991069e-05 0.0 1.7839898662642622e-05
-1.1606653396223881e-05 0.0 1.9038629507210807e-05 -2.4756871970791636e-06 -4.12104219955559e-06 -3.1943529134374587e-06 -6.862063729502757e-05 6.34119247374943e-05
-4.958065875583266e-05 4.354171822228706e-06 0.0 8.226829672743054e-05 0.0 5.2550622501750454e-05 -9.561566678211658e-05 6.707604803688307e-05
0.00013042500342032363 4.7464093115566e-05 8.184779667737391e-05 0.00025774161999942737 0.0 -6.971982032692351e-06 -5.611891799100215e-05 -6.494533299511116e-05
2.3814904020880066e-05 -7.03308933217244e-05 2.6163508336903577e-05 -3.855734248726582e-05 -5.775898865791823e-05 3.3602653726648485e-05 2.5e-323 -6.433141078609339e-05
0.0 -6.06134602512932e-05 -9.511919711523869e-05 -7.507985580788214e-05 3.5685821111753306e-05 -7.148679464622054e-05 0.0 0.0
-8.784971898394815e-06 -3.982628689459404e-05 0.0 0.0 -4.147383061267075e-05 -9.102722648133496e-05 -1.140335669987914e-05 0.0
0.0 -1.2953170090968128e-05 0.00017473252328632105 6.498141055876131e-05 3.31668901820651e-05 0.0001623147787335681 8.872141394680441e-06 -6.168158100575697e-05
