NeuralNetworksV2/weights_(30,30,30,30)_hidden.npz (npz, 51438 bytes, 20 tensors)

b1 f8 [30, 1]
000000 e5 43 b9 2c 21 3a d5 3f da 5f 08 e2 49 8e c7 3f
       0.33167294852779455 0.18402980362657112
000010 9d 15 52 32 e6 1b a5 3f 28 73 93 a1 e7 10 b4 bf
       0.04122847904458669 -0.07838294691778158
000020 d8 59 f2 e7 67 43 dc bf c1 34 3b 40 5a 38 eb bf
       -0.4416141285995798 -0.8506289724843087
000030 e0 18 bf 5f 9b 52 9d bf 25 93 77 84 ec 17 e3 3f
       -0.02863543292894455 0.5966703974960167
000040 cb b8 cf 07 ce b9 70 bf d6 87 86 25 72 e4 c1 bf
       -0.004083447272007666 -0.13978411514568617
000050 ba bb fa ba 4b d2 db bf ea ee 20 c2 24 89 db bf
       -0.43471043834409395 -0.4302455802714876
000060 04 ac 46 f6 07 08 c3 3f e4 67 90 3c ff e0 ce 3f
       0.14868258977125504 0.24124136407118535
000070 c0 41 8b 04 46 00 d9 bf 3e 98 cf b2 c5 5e c8 3f
       -0.3906416935324408 0.1903922198391132
000080 e4 44 25 a2 b6 da d9 3f 3d 7d 76 a2 e9 d3 e1 3f
       0.4039742072537378 0.557118241605998
000090 38 13 82 9c 6d e1 d6 bf f2 a9 2f c2 c3 81 ab 3f
       -0.35750904354090407 0.053724400953644294
0000a0 e2 fa ef 3f 18 db ed 3f 69 b5 e7 24 fb fb cd 3f
       0.9329949616220257 0.23425235082633414
0000b0 2c 03 48 e3 73 e2 e2 3f 32 c5 13 a3 ee 9d e1 3f
       0.5901431502426013 0.5505288300611595
0000c0 0c b1 94 ba b0 90 a0 bf 20 6f 88 e5 b4 58 a6 bf
       -0.0323538997421072 -0.04364552785793152
0000d0 80 99 20 4b c0 53 df bf 20 25 20 c8 af 64 c0 bf
       -0.4894867643037273 -0.1280727126289003
0000e0 17 2b 07 f1 52 33 e9 3f c6 6f 5d 45 70 a5 cf bf
       0.78751513553411 -0.24723628413164372

W1 f8 [30, 2]
000000 7e 49 49 d5 60 7b d1 3f 57 d6 d4 a1 b8 ad e1 3f
       0.273155411040669 0.5524562035340733
000010 08 7a cc 00 4b d3 e0 bf fe 72 a0 68 d9 5e d9 bf
       -0.5257926002121289 -0.39641413896042355
000020 8d 5f f6 ae 35 b4 d7 3f 26 00 c6 90 04 96 da 3f
       0.370374127256121 0.41540636194258906
000030 aa 3d 62 67 68 55 f3 3f d8 7a d3 e3 ae dd e1 3f
       1.2083515203883999 0.5583109330871947
000040 5b 34 d6 c3 c7 cf d1 bf a4 10 0f 7e 7f d6 dc 3f
       -0.27830690502816474 0.45059191999849646
000050 0f 70 87 c8 e3 3f ea 3f 9c 70 ec 06 74 31 d9 3f
       0.8202990452368811 0.3936433856595245
000060 58 da 63 df 5a 0b dd bf 7c af 19 4c e6 c9 d9 bf
       -0.45381805243906603 -0.4029479735534023
000070 d8 a7 04 3c 1d 38 e5 3f 31 52 22 03 49 ab af 3f
       0.6630998775701711 0.06185367739923143
000080 f5 50 9c 86 73 04 e3 3f ca a4 02 b4 af f2 c6 3f
       0.5942933682549937 0.17928119935576198
000090 42 e6 b3 98 e6 24 e0 3f dd f4 64 a8 69 4d bc bf
       0.5045044882273901 -0.11055622445288145
0000a0 0e 45 e5 1f 23 e4 d2 3f 74 50 b3 f6 ac 49 de bf
       0.29517438998034684 -0.47324680415955034
0000b0 a0 e9 d7 20 49 f9 c8 3f f0 5f 88 a2 4c 72 a5 3f
       0.19510759452516613 0.04188765987436216
0000c0 ea f6 47 7f a0 e3 dc 3f 14 af 8f ea 17 2e db bf
       0.4513932459811786 -0.4246883192670208
0000d0 12 e7 5e 0f 07 bc c8 3f 65 8d 20 ff 72 54 db bf
       0.19323814631007302 -0.42702937044869876
0000e0 c2 d6 4f a9 af bb d0 bf 2c 6b 92 7f ed 53 c6 3f
       -0.2614554551540601 0.17443627099131598
0000f0 0b df 7b 18 ae 30 d5 3f 63 63 e5 c6 33 3a 68 3f
       0.3310961951351465 0.0029574404972376052
000100 ff 97 4c 08 0d 2d be bf 0d 6a 36 e3 f3 2a d8 bf
       -0.11787492230050133 -0.37762162388540405
000110 9e 2a 94 fe e4 40 e1 bf 10 9f d4 fd fa 77 e5 bf
       -0.5391716930619912 -0.6708960492732974
000120 b6 95 53 13 88 df df 3f 9a af fc c2 bc bc da 3f
       0.4980182827697165 0.4177696136637167
000130 ee 45 c7 53 a0 39 d3 3f 70 d4 6b d4 ad 97 d3 bf
       0.3003922289036315 -0.30613275284060304
000140 ab a9 59 5a 31 01 f1 bf df 79 f2 2b 0d 49 de bf
       -1.0627912072473957 -0.4732087067767718
000150 ef e1 7d b4 3c ed ba bf 4f 21 aa 3a eb 5d b3 3f
       -0.1051824513105044 0.07565183813324448
000160 2d 57 82 db a3 1b e3 bf a2 4c 45 ad 44 95 c7 bf
       -0.597124031761927 -0.18424280605777194
000170 89 1c 5d f7 68 5a d7 bf 64 36 6d 84 ef 45 d0 bf
       -0.36489318997014003 -0.25426853115354775
000180 01 f7 0a af cb 75 d2 3f 2f 6e 97 76 f5 6d da bf
       0.2884396752741481 -0.4129613550300943
000190 00 a5 1a 87 5e f3 cd bf dc 41 83 70 89 b1 d2 bf
       -0.23398954007033268 -0.2920859907872264
0001a0 ce 17 1e 03 21 76 d8 bf 94 90 e7 66 b1 37 df bf
       -0.3822100191540557 -0.48777422951958127
0001b0 16 9d f8 b2 27 46 cf bf 2b e0 08 bb f6 b0 d5 3f
       -0.24432846297097716 0.3389260126600699
0001c0 75 15 b8 32 a2 1a e9 bf 1d f6 71 91 be c4 dd bf
       -0.7845011702162724 -0.4651333256113917
0001d0 8f 66 39 85 1d f9 cf 3f e5 27 c4 3d 74 c7 d2 bf
       0.2497898960598843 -0.2934237101732136

b2 f8 [30, 1]
000000 f7 70 70 c5 e2 60 cd 3f 64 89 41 0d 3a 52 d7 3f
       0.22951922073924155 0.3643937234357024
000010 73 ca f2 54 bc fd d8 bf ff ad a8 58 e4 1c c6 bf
       -0.3904867963384852 -0.1727567131905374
000020 c8 f7 81 98 43 fc d2 bf b8 d7 8b 9b 35 e2 c0 3f
       -0.2966469754536516 0.13190336318046803
000030 6c ab d1 63 6c 5b e1 3f 48 bc 4f ff a7 52 bf bf
       0.542410082778003 -0.12235498412313561
000040 ed a4 39 47 0d 22 c8 3f c0 86 11 d2 93 77 bb bf
       0.18853918054381982 -0.10729335669159479
000050 8a bf bf 4f d5 b6 d0 3f e0 7e d1 89 e9 e4 b2 bf
       0.2611592558669079 -0.07380542387681599
000060 95 ff 45 58 a8 28 d4 3f 20 08 eb 49 02 d5 d6 3f
       0.3149815427823282 0.35675103395999663
000070 56 5d d8 16 ae ad de bf 8a d7 69 ff 0a 5d d8 bf
       -0.4793505881402401 -0.3806788915893483
000080 73 ce 7f 25 35 a0 a8 bf 56 21 1a b9 4b cf be 3f
       -0.048097287013573096 0.12035058278173003
000090 d4 dc 9a 2e 28 b2 d6 3f b7 e2 70 41 28 9d e1 3f
       0.3546238379598894 0.5504342344421137
0000a0 b4 16 f8 fb 58 4d d2 3f 0a b5 9a a5 7b 49 dd 3f
       0.28597092253071854 0.45761004612252576
0000b0 ac 8d 33 91 97 a0 c8 bf 94 e1 00 7f 7e 93 c4 bf
       -0.19240088071738393 -0.16075116349544472
0000c0 9c 24 3d 9e 4f 20 cf bf 7e ca 82 0d 3a 31 d2 bf
       -0.24317355371957639 -0.2842545635168462
0000d0 7a 95 3e c5 c5 ac dd 3f 03 9e 48 30 a9 c7 a1 bf
       0.4636701990333091 -0.03472641672516021
0000e0 92 13 e5 25 17 9b c6 bf 88 90 3a 2c 2d 9f bb 3f
       -0.17660798406918993 0.10789758996776488

W2 f8 [30, 30]
000000 b2 c3 3d 6c 30 e7 d5 3f 54 13 0a d0 5e 52 cb bf
       0.34223566599308264 -0.21345124395534276
000010 82 db 61 25 04 75 7e bf fd 54 76 4d 43 76 d1 bf
       -0.007435814090164141 -0.2728431946246273
000020 3b 95 1a 16 c4 17 c7 bf ce 69 dc 54 ec 98 e2 bf
       -0.18041277961052934 -0.5811673791352463
000030 22 90 23 c2 b0 70 d4 3f 21 5a 11 90 88 7a c5 bf
       0.31937807997587886 -0.1678019240814175
000040 26 42 21 95 dd 1e c6 3f d0 8b 4a 0e c1 58 d8 3f
       0.1728169420407692 0.38041712184547993
000050 4c 40 8c 5c af 24 c3 bf 5c 3a 4b b7 eb dc cb bf
       -0.1495570375341252 -0.21767946672339888
000060 20 d5 09 1a be 01 6f bf f0 7a 70 be 81 7e d5 bf
       -0.003785010616690912 -0.33584636304469395
000070 d0 9b a1 5d 8d be d4 3f db b3 e0 48 5c fc 88 bf
       0.3241303839080816 -0.012200089429905183
000080 88 98 15 10 12 d6 c6 3f 22 7c 00 7b f2 4a a1 3f
       0.1784079149758251 0.03377492667663541
000090 86 fb 8b 3c b1 01 d9 bf 49 c4 16 1e 12 ae d3 3f
       -0.39072829163335887 0.307499436744426
0000a0 18 0b 03 63 3b df df 3f ea c6 09 07 c0 b0 df bf
       0.49799999875192347 -0.49516297042201407
0000b0 b8 52 2d 8c 61 7d e2 bf ce e8 b6 8d c2 0f d3 3f
       -0.5778053033669357 0.2978369125299992
0000c0 a3 e6 e0 8c 9c 0f cf 3f f0 23 9f b1 ca 03 b8 3f
       0.24266392592271754 0.09380785786119339
0000d0 00 bc a5 d5 1a eb d6 bf a7 b6 48 95 83 bc b6 bf
       -0.3580996595764532 -0.08881399531011401
0000e0 83 6d 1d 88 58 43 e0 bf b1 f9 22 18 d0 31 bf 3f
       -0.5082209261412775 0.12185383404992113
0000f0 93 c1 de 38 eb 88 c1 bf 4e be 6c f6 f9 b4 d5 3f
       -0.1369909312902676 0.33917092385215575
000100 67 c1 5e c4 0b 7e c1 3f 49 54 91 04 c5 92 e0 bf
       0.13665911758790658 -0.517916211053156
000110 b2 f7 0c af 55 6a a2 bf 32 60 54 06 b7 47 e2 bf
       -0.03596751939629374 -0.5712542651772365
000120 88 2f 1a 91 96 77 c9 3f d9 f1 c7 e5 49 47 d9 3f
       0.19896204075882573 0.39497611465028865
000130 07 76 25 45 87 33 cd 3f 39 bc 20 16 96 ac de 3f
       0.22813502193723442 0.479283830270052
000140 a6 1b 79 8b f9 06 d1 bf 70 95 8c d6 39 30 ca 3f
       -0.2660507070581225 0.2045967385867402
000150 de bd ec 79 f8 95 c6 3f 40 1c ed 98 dd e7 a4 3f
       0.17645173982007994 0.04083149425292065
000160 e0 61 d9 1a f8 48 bf bf 37 1b 9f 1a 16 1a b0 bf
       -0.1222071710157091 -0.06289804601611314
000170 b0 34 5c 36 60 f3 d5 bf 22 fa e4 78 81 42 da bf
       -0.34297948177920556 -0.4103091889009268
000180 5a f6 01 07 d4 65 c4 bf 99 87 af 5c 39 96 d5 bf
       -0.1593575510232082 -0.3372939496167589
000190 3e 8c 02 04 47 1f e0 3f 9d f1 8d 6c 63 75 c5 3f
       0.5038180425948509 0.16764490890990383
0001a0 2c ad fa 7f 79 ce b0 bf b0 cb 3b 8d 8f d9 c8 3f
       -0.06565055250637347 0.19413942714853993
0001b0 24 af 70 a4 16 e0 c4 bf 1c b1 6a 75 d1 26 cd 3f
       -0.1630886366777925 0.22774713738670804
0001c0 2e af c0 53 07 bb d1 bf 7e 86 66 bb dc 5f e0 bf
       -0.2770403211495588 -0.5117019329229178
0001d0 1a fd be 22 16 0a aa 3f fc dc 70 6f 01 5b ce 3f
       0.05085820364137757 0.23715227071236444
0001e0 e6 36 b4 5a e0 10 e2 3f 70 d9 6f 02 c1 fe d7 bf
       0.5645601054727336 -0.37492394674281737
0001f0 af 55 f6 88 11 ce c5 bf b8 dd e9 4a b6 31 e8 3f
       -0.17035121142968765 0.7560683692126338
000200 58 b1 eb 5b 96 50 c8 bf 8b 57 e3 c7 b2 00 b9 bf
       -0.18995933044733238 -0.09766690616683442
000210 38 1d 48 94 19 cf b6 bf fb 13 fd e8 a5 c9 e5 3f
       -0.08909759397657957 0.6808652449186633
000220 d8 8e ad 02 8b 8a d1 3f 03 85 93 ab 04 3f c8 3f
       0.27408099423904053 0.18942316415544988
000230 00 5b 52 3f c0 40 cd bf d4 9d 27 6c 44 da ca bf
       -0.22853854267005858 -0.2097859886264205
000240 e0 de fb d6 ca ab d7 3f 14 04 05 10 59 3b da bf
       0.3698603724910594 -0.4098723083916991
000250 80 a1 b0 72 19 00 d8 bf 1a ea 49 e9 8a 84 d9 3f
       -0.37500606727783037 0.39871475965597514
000260 b5 9f 9c 63 7d f3 cf 3f 85 0f 6d 5f 57 e1 e3 bf
       0.24961821903093342 -0.6212574828900733
000270 f2 bb cb 89 ac 0b cb 3f eb b7 98 8a 10 63 ba 3f
       0.21129376152336438 0.10307410606102933
000280 85 68 40 88 61 dc e1 bf 33 83 3b a9 40 fb dc bf
       -0.5581519757427179 -0.4528352406178328
000290 59 4e 7f 85 df bb cc bf ca a0 52 13 79 68 d5 3f
       -0.22448343294546438 0.3345015228937994
0002a0 61 9a 9c c1 1e cc b6 bf 46 1e 91 51 f8 d6 dd 3f
       -0.08905212618683712 0.46624572721018287
0002b0 7c 76 1c f1 fc 54 c8 bf 7a 35 52 95 17 e7 bd bf
       -0.19009362957961062 -0.11680743594680179
0002c0 c1 0e c8 25 23 94 b1 bf bd 13 ae 42 67 bd c9 3f
       -0.06866664574050231 0.2010926318727381
0002d0 f0 5c eb d9 2e 1b d2 bf a8 11 6d f4 b9 f8 b9 3f
       -0.2829091194266331 0.10145151345665815
0002e0 c6 4c 43 c6 7d ed b5 3f d4 d2 19 33 fe 36 d7 bf
       0.08565507975008577 -0.3627315043479886
0002f0 50 29 2a f3 24 59 bb 3f d0 96 67 3a f1 48 bf bf
       0.10682898460996637 -0.12220676113028195
000300 04 a3 5b bc 46 3d d2 bf 38 5f f3 89 d9 3b d9 3f
       -0.2849900092538038 0.39427793952698975
000310 21 2d 80 54 d1 9d c4 bf d1 6f e1 76 3a 0a b5 bf
       -0.16106621385584055 -0.08218732263907148
000320 72 65 95 3c 67 99 d5 3f 18 ad 0b 50 0f cd c3 3f
       0.3374879924427524 0.15469542892911003
000330 0e d6 13 2f 3a 29 84 bf 6c 5b 88 ee 0a 86 c1 3f
       -0.009844259797755075 0.13690315863706404
000340 30 60 09 b2 b5 90 ba bf ff c1 44 e3 e1 64 d7 bf
       -0.1037705955180861 -0.3655323714656617
000350 3e 42 32 93 c3 74 d8 3f 9c 5f e5 e6 15 df ba bf
       0.38212670683518357 -0.10496651541813978
000360 ee d1 8b a0 8d 7b b9 3f 87 eb 87 d8 7a bd d9 bf
       0.0995415226896694 -0.4021899332580507
000370 c5 28 8d 1d 87 5a db bf 0a 06 fd 89 47 b1 b5 3f
       -0.42740037809256776 0.08473631972176335
000380 8d dc c9 5f 69 f5 b8 3f e9 4a d1 12 3f df ce 3f
       0.09749468411051705 0.24118793886972092
000390 1e 35 8f 1e e6 d2 c4 3f 9c 01 fb c8 17 ba c3 3f
       0.1626861237731782 0.1541166049337449
0003a0 80 5e 51 55 2b 7b a1 3f 0a c9 e7 a0 a4 c1 d4 3f
       0.03414283195951118 0.32431903565806464
0003b0 0e 97 03 58 84 86 8f 3f 3b 66 9d ad a1 b7 cf 3f
       0.015393289504980891 0.2477914903382031
0003c0 ce 9b 49 51 26 ac c0 bf 4f 3c 23 4f 20 86 d8 3f
       -0.1302535912429605 0.38318641403470094
0003d0 0f fc ce 92 07 d0 c5 bf 25 b9 41 0b 0a ae c8 bf
       -0.1704110590780776 -0.1928112559284695
0003e0 c4 ac 32 72 1a 63 d4 bf b2 7e 94 f2 a3 50 db 3f
       -0.31854878570693423 0.4267969006486779
0003f0 58 ac ab 5b 08 d3 df 3f fe 74 4d 30 da 3f d8 bf
       0.49725541069228063 -0.37889723507926465
000400 d2 0e db 36 6f 5e dc bf 00 34 41 8d 6b ad 5c 3f
       -0.44326382023812727 0.001750330954581658
000410 5c 89 ed 0a ab e1 cb 3f 18 fd 51 56 e5 06 b1 3f
       0.21782434495532754 0.06651147229603216
000420 ac 59 0a c5 99 5b d2 bf 39 0e 5f 45 7f a2 db 3f
       -0.28684086076955384 0.43179303907911365
000430 30 80 52 f1 7a 8d de bf 00 32 e5 40 39 d2 d1 3f
       -0.4773852688467768 0.27845603310996125
000440 89 10 f4 db 52 a0 da bf 30 ed 75 2a 28 39 de 3f
       -0.416035380171032 0.47223858019397635
000450 c8 11 4f 29 da e0 bd 3f f8 3c 93 34 61 8c da bf
       0.11671222218053068 -0.41481809744159603
000460 39 34 77 fc bc af e0 3f 75 d6 16 20 5e e6 d3 bf
       0.521452420327143 -0.3109355271693411
000470 00 62 99 89 26 05 d8 bf 32 07 f8 19 43 03 b7 3f
       -0.375314363836452 0.08989352592473379
000480 3d dd db b3 0f e9 dc bf fc 16 53 04 ef a1 c4 bf
       -0.4517249351915387 -0.16119182311211222
000490 c6 54 64 19 a2 d6 d6 bf d0 49 22 10 92 b0 c2 3f
       -0.3568501708953814 0.14601350581922512
0004a0 e6 cc ed 67 ca 1a d4 3f fc 6c 36 b0 e1 99 c7 bf
       0.31413517140681646 -0.1843835935986603
0004b0 2e 0e ce 1d ef 4c e0 3f c1 9d f8 77 e3 a7 cf bf
       0.5093913633467702 -0.2473110519215265
0004c0 18 3e e8 1c 91 02 c4 bf 5e 35 ab 9a f2 d6 d6 bf
       -0.15632833396419765 -0.35686936478017184
0004d0 b6 68 9a db e6 d6 93 3f 23 3a 3b 3b 36 66 d8 bf
       0.019374472764504623 -0.3812385157042703
0004e0 28 b6 28 c0 f4 7f b6 bf 16 b8 7c 42 c9 65 d4 3f
       -0.08788995448477321 0.31871253483666473
0004f0 0c 27 ff ea 52 f7 de bf 54 1b 73 a0 6b 12 a0 3f
       -0.4838454527749583 0.031390536628853966
000500 e0 b9 9a cf 53 bd 93 3f 9c 70 1e 18 f5 eb c5 bf
       0.01927691416374866 -0.17126334836655566
000510 af 68 43 3b 52 37 cc 3f 0b 8a 2e ca 3d 57 d0 bf
       0.22043826955525023 -0.255324790423544
000520 38 a9 d0 53 ec c9 b5 bf 67 b7 cd 35 8e 16 cc 3f
       -0.085112352812449 0.21943833949211042
000530 b1 57 f7 b6 42 0a dc 3f 14 c0 c2 6f 36 f1 d7 3f
       0.4381262575892562 0.37409745134482475
000540 38 11 2d b9 8c b8 d0 bf 2e a7 d8 f1 a4 70 c8 bf
       -0.26126401980970426 -0.19093763169194616
000550 66 09 42 65 0a d5 a9 3f fc 56 d8 95 55 1a cc bf
       0.05045349584635765 -0.2195536595979134
000560 fe 45 12 9b 1b 63 ce 3f f8 a4 4a 4b cf f6 e2 3f
       0.23739953109593154 0.5926281424082438
000570 dd a6 f4 a9 c9 42 c4 bf 48 f0 0b d1 df 2a c8 3f
       -0.1582882003652263 0.18880841929774506
000580 d6 f2 f4 f1 fd e5 db bf 05 25 75 c6 16 0d dc 3f
       -0.4359125960216209 0.4382988870680296
000590 fa 64 6b 32 5b 2a d3 3f c8 50 bc de 2a 83 d9 bf
       0.29946021961002567 -0.3986308264877718
0005a0 57 e8 35 61 7f eb d2 bf a2 17 d9 69 0c fa c5 bf
       -0.29562363141270026 -0.1716933743320484
0005b0 1c d6 db 26 72 8a d9 3f e2 15 57 22 8a aa d7 bf
       0.39907506747053545 -0.3697839103081987
0005c0 31 56 86 cc 73 a1 d3 bf 21 53 52 e2 e6 b9 e2 bf
       -0.3067292687713659 -0.5851931019156816
0005d0 48 a4 60 b0 73 6e d9 3f e3 57 f8 b4 f6 4a c1 3f
       0.39736644958845035 0.13510021053724505
0005e0 5b ff e5 11 36 5c c2 bf 25 7c 59 da 09 6e d1 bf
       -0.1434390628237406 -0.2723412163085775
0005f0 40 1b 11 53 71 df 8d 3f be e4 59 cd 7e 73 d1 3f
       0.014586339328287345 0.27267427495787533
000600 e3 92 f7 0e d0 ec a5 3f 32 a9 66 9b 76 6e 9b bf
       0.042822362734829665 -0.026788571581769456
000610 f8 00 58 28 72 82 d6 3f ac 78 39 db 63 42 d9 3f
       0.35171178760357646 0.39467712792055454
000620 93 2f 0c 4b d9 73 d4 3f 6d 55 42 e8 19 81 dc 3f
       0.31957084969393995 0.4453797119288854
000630 08 3a b8 8a 60 ca d0 bf b6 16 90 c4 4e ff de bf
       -0.2623521189388218 -0.48433274455633624
000640 2c d0 5e 5f 8e 8d e7 3f ad 3e 4a 8a f0 57 c6 bf
       0.7360298025801106 -0.1745587039226754
000650 e9 73 56 a7 5a 5b d4 bf 83 19 10 f9 2f fb c8 3f
       -0.31807581273625246 0.19516563092492953
000660 1a fd 74 9a fe 61 cc 3f 00 2e c4 68 90 1e cd bf
       0.2217405561623103 -0.22749524226706797
000670 78 c9 2f 14 f9 1c d7 bf af 72 7a 80 11 ed d4 3f
       -0.36114336940149583 0.32696950480184744
000680 f8 09 fd 42 bd ee bd bf b0 48 df df 34 9b c8 bf
       -0.1169241226716976 -0.19223652774104982
000690 c4 b8 46 c4 d4 b1 db bf 80 1f d1 60 4a c3 bb 3f
       -0.43272895019152835 0.10844864715283897
0006a0 64 b8 81 7b 44 71 c9 3f f0 b7 7d 67 27 88 b0 3f
       0.1987691500721126 0.06457754398954285
0006b0 90 87 7a 5a 6c 92 b1 bf 24 d4 0e 26 be 97 d5 bf
       -0.06864049157095864 -0.33738664356798354
0006c0 54 7c 6d 97 8e 4c d3 bf 30 01 c5 56 33 39 b9 bf
       -0.3015476683412477 -0.09852906101605607
0006d0 6e 12 ed f3 e5 43 dc 3f c6 5d 88 65 da 6f d7 3f
       0.44164418049721277 0.3662019721536719
0006e0 52 cf 4c 67 e4 c1 dc bf b2 77 a1 ea 3b 91 d0 3f
       -0.44933424079794293 0.258864382869315
0006f0 ec ef 02 c3 ad c3 de bf 06 9f d1 ba e3 9f d9 3f
       -0.4806932835015221 0.40038388484980236
000700 d4 e2 ba 15 35 fe c1 3f 40 e2 c2 0d 9a f5 8f 3f
       0.14057029305492696 0.015605166954956506
000710 00 8a 29 66 5c 61 79 3f 20 71 56 5f 19 d0 a2 bf
       0.00619636624705544 -0.03674392021932449
000720 44 17 4d 63 4a 7b d9 bf 54 55 78 a7 2d c5 d0 bf
       -0.3981500596749934 -0.2620348105859496
000730 44 9e e2 bd f9 c3 c4 bf dc 29 ed 77 9d 70 cf bf
       -0.1622306992696726 -0.24562424045355058
000740 5c 47 50 85 02 82 c0 bf 60 a0 63 c4 27 8b b6 bf
       -0.1289675856538065 -0.08806084198624964
000750 38 2c 5d 83 3a a3 d8 3f 4c 81 c8 46 17 f3 cb 3f
       0.3849626810885556 0.21835604625904137
000760 10 d3 0c ee 0c 6d dd 3f 88 25 b9 98 4a 55 bb bf
       0.4597809147556271 -0.10677019337267357
000770 50 a8 4b ca cf 92 cd bf 9c 3d 3b 7c f4 34 d8 3f
       -0.23104283693038719 0.3782321179578163
000780 94 27 5d 92 ea 46 dd 3f 23 dd ba 83 f1 f6 bf 3f
       0.4574533871970001 0.12486180749953184
000790 32 c9 f8 af cb 34 da bf 1a c7 2f 2a ae ff df 3f
       -0.4094723909830861 0.4999804889658762
0007a0 12 7e 1c 9f 99 32 d5 bf 02 8d 66 e7 cb 57 d1 bf
       -0.3312133840390469 -0.27098367307390003
0007b0 92 db e8 31 fe e5 d5 3f 3d 41 c7 99 0e 30 d9 3f
       0.3421626555822793 0.3935581685773462
0007c0 9f 10 b7 c0 44 4a d9 bf 21 39 4f 4e c9 7a 85 bf
       -0.39515799350579955 -0.010488102629008513
0007d0 f0 98 5a a2 d5 83 c8 bf c0 29 48 8f 04 17 aa 3f
       -0.1915232699149736 0.050956861963715294
0007e0 e4 83 6f 1e 4a 50 db 3f 09 e5 71 71 82 fb b7 3f
       0.4267754838202207 0.09368148107195763
0007f0 34 23 b0 1c 8b b4 d9 bf 64 19 44 f0 1c cb d3 3f
       -0.40164449502531174 0.30927203620412613

b3 f8 [30, 1]
000000 30 2e ed 20 84 77 b0 3f d8 68 b2 11 67 f5 86 3f
       0.06432367137784278 0.01121025583988848
000010 e9 73 60 57 3d 90 a5 bf ea cb 86 d1 64 0f b0 3f
       -0.04211608592616029 0.0627348910846163
000020 fc 77 0d 92 62 d8 5f 3f 4f 87 e0 d2 8d bf d4 bf
       0.0019436800577845572 -0.3241915282579741
000030 4b 8f 9d c9 4e de cd 3f cd 3e c5 a6 85 0f cf 3f
       0.2333467945528532 0.24266119616594609
000040 7f a6 80 97 53 59 d2 3f 3c ed af 48 cb 63 a5 bf
       0.28670205874605154 -0.04177699339194382
000050 07 0f 3a 09 a8 71 c1 3f e5 b7 f1 c3 db e8 d1 3f
       0.13628101778532928 0.2798375524060915
000060 10 62 dd 68 c4 6f be 3f a0 ce b2 35 7d 5d da bf
       0.11889293251204713 -0.4119561218642307
000070 44 92 a0 ab 36 54 c4 bf 7e 3f 98 9f 49 c0 b7 3f
       -0.15881999378429346 0.09277782579760971
000080 68 94 75 51 12 48 d9 bf 4b 4c fe c8 5c 4a d6 3f
       -0.39502389864930487 0.34828872326142307
000090 10 ec cc 33 21 ae d9 bf 40 09 20 92 09 be df bf
       -0.401253033243564 -0.4959739615443546
0000a0 d4 88 b8 81 88 69 c0 bf 2f 54 ee 95 be 84 d4 3f
       -0.12822061857247624 0.3206020797891282
0000b0 d9 c7 a4 f2 a2 d3 de 3f fd e5 2b ad 7e 51 d6 bf
       0.48166726775809604 -0.3487240496757236
0000c0 78 1c 93 66 24 fe c7 3f 1d 34 6f 68 a1 33 be 3f
       0.18744330414321886 0.11797531890552233
0000d0 af 56 7e 7a b9 99 df bf 86 d7 50 2a 87 54 ce bf
       -0.49375760042435507 -0.23695458952141396
0000e0 65 04 08 70 b4 5b dc bf 2c b1 f5 70 aa 29 cc 3f
       -0.4430972189002829 0.2200215388833241

W3 f8 [30, 30]
000000 50 73 88 3b c7 a7 dc bf b2 4b 46 4a bc b9 d0 3f
       -0.4477403718354269 0.2613363957727258
000010 14 9c 90 16 5b 04 c7 3f 7a 1c 56 78 5c 9a d6 bf
       0.17982042886544092 -0.35317146064375715
000020 58 4f 85 d3 4f bd c9 bf 24 f1 d8 f2 3c 29 c3 3f
       -0.2010898382965205 0.1496959863451447
000030 02 30 41 4f 19 86 dd bf 14 49 7d 27 3e ff cb bf
       -0.4613097452136118 -0.21872689178651028
000040 00 35 38 b6 5a 78 87 bf b8 1e 81 c7 4a 9b c3 3f
       -0.011460026441478366 0.15317663899826583
000050 be ac 48 5c 7a 89 d4 bf a0 a5 fc 5a 96 44 9b 3f
       -0.32089098941896654 0.02662882738437633
000060 60 22 31 e5 38 02 db bf fe 53 5e b6 98 8b d1 bf
       -0.42201063520454873 -0.2741452961866456
000070 02 51 53 ed 88 79 d1 bf e0 1b 59 4e 11 92 9f bf
       -0.2730428998595614 -0.030830641180980112
000080 30 ce 0e 27 14 5d da 3f ec 80 a6 45 1f 1e c1 bf
       0.41193107427827425 -0.13373175526522318
000090 ce 64 79 97 9e 6f d1 bf 00 e7 bd ba b1 fc a4 bf
       -0.27243771355058477 -0.04099040417254507
0000a0 40 27 af ca 66 1f 9c bf 60 31 d6 65 d4 73 bd 3f
       -0.027463537331448906 0.11504867063758217
0000b0 d2 24 99 07 91 0b dd 3f 00 a8 99 a1 e6 29 4b bf
       0.45383096448911175 -0.0008289695862917501
0000c0 b6 8b 6e 93 64 b1 d3 bf 70 0f 75 6b 21 52 bd bf
       -0.3077022018207417 -0.11453446267574718
0000d0 38 ea 17 f3 ea c7 c4 bf 6e d8 5f d1 fe aa df bf
       -0.16235100621982368 -0.49481172987669353
0000e0 4c cc 15 6a 51 38 c7 3f 00 d1 8c c1 9f b7 7b 3f
       0.18140618972720046 0.006766914412583924
0000f0 9d 6f dc d2 12 3b da 3f 41 43 af 8d bc d5 b3 bf
       0.40985556213285596 -0.07748011073205154
000100 96 20 fa 78 a3 9c ce 3f 7f 92 5b f3 72 fa ab 3f
       0.23915522963603014 0.05464514942813014
000110 bd cb 80 bb cc ae aa bf 8c 0b 37 26 27 75 c8 3f
       -0.052114866150439344 0.19107522359817286
000120 6f 5f b6 50 19 3f c8 3f 00 1e 7c de 97 ad b1 3f
       0.18942562523875092 0.0690550726104604
000130 69 81 e1 05 85 f5 d1 3f 8b 11 de 5c 9e 54 dc 3f
       0.28061032842926764 0.4426647097500555
000140 c6 a9 2d 53 18 56 bb bf a4 7b ca dd 0a 3c cc 3f
       -0.10678245573732345 0.22058235005985438
000150 6d 55 55 9d 4c ca 94 bf 03 5e f2 68 a9 23 e4 bf
       -0.02030296049391238 -0.6293532418957856
000160 a4 ed 39 a3 e7 8e da 3f 04 78 6e e9 f0 11 d6 bf
       0.414972218895594 -0.34484503551527745
000170 2b 1a 38 8d e1 86 bf 3f cd d2 a6 28 c8 94 c4 bf
       0.12315187165959489 -0.16079046235031172
000180 57 c3 a5 68 0b 8d d1 bf db e9 5c fa cb 86 b1 3f
       -0.2742336770962103 0.06846308576942965
000190 80 e1 a3 c7 c8 9d d5 bf e9 ed 56 f4 f2 6c d2 3f
       -0.33775538917645775 0.28789972173009787
0001a0 18 24 df 21 0f 77 d6 3f 2c 9a 51 1f d4 a0 d9 bf
       0.3510167914178637 -0.40044119890663654
0001b0 a2 5f 9a ae 90 c1 de 3f 2d 3a f8 22 b9 39 cd 3f
       0.48056428004337637 0.2283240719556984
0001c0 2d 53 97 d2 40 d1 c2 bf fd 3f 95 ca 42 e2 c0 bf
       -0.14701090128678498 -0.13190493480442447
0001d0 67 78 6c 57 90 9c a0 bf 3c d9 1c f0 fa f0 cf 3f
       -0.03244448725875842 0.2495416328835719
0001e0 cd 24 83 03 88 a1 b4 bf c8 0a 71 c0 e3 8c d7 3f
       -0.08058977208851843 0.3679742221176352
0001f0 1d 47 24 fd 2b 61 c2 3f 07 91 f0 ac 4c bc d0 bf
       0.14359044895587028 -0.26149289024967043
000200 f4 c2 db 7e 8b 5f df bf db 68 15 9e 5f 66 dd bf
       -0.49020659817237733 -0.4593733829293691
000210 83 94 ef d5 d9 b7 b6 3f 02 7a c9 c0 be b2 df bf
       0.08874284241717771 -0.4952847368894312
000220 dc cf be e8 b7 d9 cf bf 8a 1c eb 1b 31 2d c0 3f
       -0.24883173813361636 0.12637914527133304
000230 7b 19 6d dd 1e 3a df 3f 60 b2 fa 7c 58 dd c3 bf
       0.4879223978390638 -0.15519243338111988
000240 18 92 ca b3 64 b4 cc bf 86 0d eb 8d 34 03 b7 3f
       -0.22425516871329942 0.08989265885161588
000250 d4 10 74 19 6f 8e c8 3f a2 a3 80 a6 8a 27 dd 3f
       0.19184674017754466 0.45553842792520005
000260 3b fa ff 90 1d c5 d5 3f 50 ad 50 b0 45 fd df bf
       0.3401559749617353 -0.49983350961948236
000270 70 64 56 f2 32 7e db 3f 67 a8 97 99 8a 8b ad bf
       0.4295775763108116 -0.057705241440843484
000280 96 35 25 da 93 3d d9 bf 61 ee b2 89 5e 6b d9 3f
       -0.3943833952260659 0.39717830130732606
000290 c0 2c fe c9 f8 e9 bd bf c4 ff b7 da 29 42 db bf
       -0.11685137683359681 -0.4259132991719492
0002a0 4c 45 3b f0 4d 28 c0 3f 57 a5 a1 f9 c0 8c 89 3f
       0.12622999410681712 0.01247549783529915
0002b0 71 d9 6d db c6 5f c7 bf 71 b1 e2 c7 c5 71 a6 3f
       -0.18261037554084283 0.04383676590927877
0002c0 a8 6f dc 1b f3 7d d2 3f d4 de 18 f9 22 63 df bf
       0.28893735619362326 -0.4904258186902386
0002d0 8f 20 3c 46 3d e2 be bf 00 8e be 14 b2 4c c2 3f
       -0.12063963856428671 0.14296556485088274
0002e0 79 55 2f b3 67 b8 cc bf 8b 51 a3 2d bf 18 c6 bf
       -0.22437759637129398 -0.1726302121011368
0002f0 d0 52 a6 c2 9e 8b cc 3f 75 47 e0 2d 90 0c d0 3f
       0.22301086906795442 0.2507667968758292
000300 9f fd ab 6e 2b 03 b5 bf 80 e1 82 6c b3 1a b7 bf
       -0.08207961513470828 -0.09025117301178476
000310 30 7f 5d 8f 3f 32 af 3f bc 41 98 b2 13 e7 dc 3f
       0.06093023896278138 0.45160381737607813
000320 85 fb 01 31 d3 d1 c8 bf c0 db 9f 45 e2 ca 8e bf
       -0.19390334980922944 -0.015035407781381127
000330 dd 1a 58 00 f1 94 da bf 32 b3 a7 cc dc 65 c0 3f
       -0.41534066232308736 0.12810859673427327
000340 34 a2 77 50 45 c1 c3 3f 83 58 07 6d 90 2b e1 bf
       0.15433565548961925 -0.5365678910700499
000350 a7 36 0b b0 58 77 ce bf 5a 87 72 f4 06 a8 cf 3f
       -0.23801716419113925 0.24731528221041793
000360 b7 b8 2c e3 00 6b 93 3f 39 fb a3 08 9e d0 a6 3f
       0.018962873330729404 0.04456037383532991
000370 b5 76 60 f5 ae 8c bf 3f 07 b5 2b d7 4c 33 a8 3f
       0.12324040880818184 0.04726638914676511
000380 a0 a1 0e e3 70 36 c0 bf de 9c b7 b7 ba e4 d3 3f
       -0.12666140639090617 0.3108355325807234
000390 f4 44 f8 31 84 94 da bf 98 d7 be 14 89 fd d4 3f
       -0.4153147209154462 0.32797457719731815
0003a0 0e cb 70 60 ee 89 d0 3f c3 2a 9e f3 a4 a7 da 3f
       0.25841864984538254 0.4164821986275166
0003b0 f3 e3 d2 c4 e4 c9 e0 3f de c6 9e 54 0f ea d9 bf
       0.5246452182974494 -0.4049108816499095
0003c0 67 50 06 4a a1 9f bf bf 47 53 63 7d 38 d3 d1 3f
       -0.12352951104395658 0.27851688618584486
0003d0 7f 0b 5a 1f 8a b5 db bf f8 3c cd 1c b6 ce 83 3f
       -0.4329552942437473 0.009671614412268145
0003e0 4f 53 b4 ad 37 92 d7 3f 5e c9 d7 d0 5e d5 b3 3f
       0.36829940760917607 0.07747452353195203
0003f0 e1 67 3a e3 27 aa bd 3f a8 38 f6 10 5a ae c4 3f
       0.1158776216274471 0.16157079532826413
000400 dd c3 49 c7 ae eb b6 3f 8c 57 98 da 3a 51 c2 bf
       0.08953373303826546 -0.14310393975818803
000410 5d c2 c0 c7 c1 14 bc 3f f8 aa 17 b5 59 20 b7 3f
       0.10969172598630324 0.09033737822725729
000420 26 6f 33 7a 9e 24 da 3f 1a e9 4a ef f8 ae af bf
       0.4084850495689686 -0.06188180848171694
000430 34 30 b4 77 89 aa c5 3f 2e d1 fa 9d a1 a9 d9 bf
       0.16926687569537224 -0.4009784739275969
000440 f1 e4 e9 cf 4f 3f d5 3f 60 f2 88 e3 7b 5c ac 3f
       0.3319892435461745 0.055393096471082925
000450 5b 27 e8 51 be 60 b9 bf fc 7a b3 72 ba 9a b1 bf
       -0.09913243770293205 -0.06876721668548308
000460 e4 19 e9 41 a5 a2 d8 3f c9 92 e3 1a c0 e9 d2 bf
       0.3849270957620361 -0.29551699281573157
000470 b0 86 dd 85 7f 10 aa bf ec 9b 9b fb 09 db c4 bf
       -0.05090712079141946 -0.16293453965701532
000480 86 e4 ab 95 da 2a d4 bf 79 ac 27 00 b5 a5 c2 3f
       -0.31511559120514965 0.14568197734419977
000490 f5 51 ed 47 5c 08 dc 3f 91 3b a0 36 36 0d d6 3f
       0.4380102827465458 0.3445563825088636
0004a0 cd 73 ce 17 fc 8b c0 3f e8 ab ce 3f 4c fc ba bf
       0.12927199518608604 -0.10541225965305012
0004b0 ba 81 f0 68 35 b1 c0 bf 2f a5 b6 de 7c aa da bf
       -0.1304079782867243 -0.4166557478843797
0004c0 81 1c 0b 06 80 6e d1 3f a8 81 65 1c e3 67 c2 3f
       0.2723693903939833 0.14379538427875826
0004d0 fe 0d 4f 39 fe 70 73 bf 3c df 7e 47 44 9b d3 3f
       -0.004746430456126214 0.3063517282675894
0004e0 4c 85 bb 16 ac f8 d0 bf a0 2d 1b e6 2a ba d2 bf
       -0.2651777479168984 -0.2926127669458882
0004f0 28 3a 69 bd 46 3b de bf 18 43 a3 d5 77 60 c2 3f
       -0.47236793992206794 0.14356897288828274
000500 e1 e8 f1 17 49 d9 d1 3f 32 f8 54 0e e8 e6 d4 bf
       0.27888705576300593 -0.3265934123954849
000510 d4 3a 2e a0 ba 7d db 3f 95 04 f0 a8 56 2b c0 3f
       0.42954888956675785 0.12632258652596265
000520 7e a1 b9 da c4 bc d8 3f 78 24 1f e2 06 00 95 bf
       0.3865215431201462 -0.020507915068979504
000530 04 1d dd ba 4d 89 46 bf d4 ef 59 14 2d 6c c8 bf
       -0.0006877545872407136 -0.19080127233234967
000540 6a 50 7a 58 fc 15 d3 3f 41 ce 19 b7 2b 8e 31 bf
       0.2982169021645463 -0.0002678734518674932
000550 23 27 35 90 51 58 c3 3f 4f 8a 1a ac ee 19 a8 3f
       0.1511327699793635 0.04707284785151399
000560 6a 19 88 37 fc f2 d1 3f 7c b2 30 1d 52 58 d2 3f
       0.28045564101230147 0.2866406712590004
000570 b4 7e 5a 44 cd c9 dc bf 7b 78 c8 5e a8 f0 ca bf
       -0.44981700587411955 -0.21046929004745948
000580 36 63 8d c3 f2 49 ce bf 35 d3 9b 0c a6 2c a4 3f
       -0.23663172291232976 0.03940314201273624
000590 77 68 61 90 88 f3 c1 bf c8 85 25 4e e7 3c b8 bf
       -0.14024455118016352 -0.09467931421160991
0005a0 28 ef dd a6 79 0e db bf c3 22 17 12 ba 72 dd bf
       -0.4227584962425106 -0.46012737051618674
0005b0 24 fe 63 33 a8 0d df bf 00 34 1f 13 cb 0c b3 bf
       -0.4852085592137618 -0.07441395966380071
0005c0 dd e8 52 38 4b 99 e4 3f 2f 0a 78 11 d1 92 dc 3f
       0.6437126255107405 0.44646097856471817
0005d0 f7 ea 78 9f b8 e8 c7 bf 4e 9e 0e 77 6f 77 db 3f
       -0.18678958689437028 0.429164758936598
0005e0 e6 3e 71 47 d5 ed c0 bf 22 a4 24 c5 69 db 9b 3f
       -0.13225809086224344 0.02720418229833766
0005f0 1e dc db 23 29 45 d0 3f ec 6c aa b5 be a8 d3 3f
       0.2542212343391287 0.3071743749694196
000600 2d 28 c3 4d d3 12 d2 3f d4 9a f5 d7 32 78 b8 3f
       0.2823990115545055 0.09558408520170342
000610 38 ee 99 a5 d2 a8 bb bf 51 48 21 4a 2c 3e d4 bf
       -0.10804478209495805 -0.31629473914393197
000620 8b ad 9d 4f 25 f2 d5 3f 13 48 98 1b 6e 46 da 3f
       0.342904403448039 0.4105487126809077
000630 55 8b 0b 94 34 42 e0 3f 4e a2 74 03 61 c6 d5 3f
       0.5080817119127042 0.3402330907579526
000640 44 f1 ed 36 f2 d8 e0 3f 81 ea db 64 9a 08 a2 3f
       0.5264826844063824 0.03522188645543612
000650 a8 86 fa 62 db d5 b9 3f 3e 4f a7 6b 1c 23 de bf
       0.10091944853277346 -0.4708930064491489
000660 a4 5b 09 a8 11 9b cd bf 25 cc 3a d7 d8 9c db bf
       -0.23129482941541568 -0.4314481832363433
000670 bf 9a 1d ec 64 73 e1 bf 12 2c ca 1d 87 f5 cb 3f
       -0.5453362094529765 0.21843041376664069
000680 b9 5b 55 87 68 2d d8 bf 80 74 7f 4d fa cd 74 3f
       -0.3777715036025558 0.005079248185180352
000690 17 60 04 dc fd b5 e0 bf 7f 75 06 e6 51 08 d8 bf
       -0.5222157761772931 -0.375507807382597
0006a0 92 31 0f 08 4d 2e c8 3f 45 0b da 00 be b9 ca 3f
       0.18891299146197277 0.2087934021147594
0006b0 18 66 0a ac 28 5a c6 bf ab 19 7f 2a 32 68 ca 3f
       -0.17462643051548876 0.20630480837844564
0006c0 fb 23 e4 6b a0 16 e2 bf 78 c7 e8 fc ad fd cb bf
       -0.5652620417832844 -0.21867918824278454
0006d0 97 90 65 7f 80 c4 cb 3f 6a b6 61 fb 11 14 c6 bf
       0.2169342634252913 -0.17248749517914358
0006e0 47 b0 6d a4 3a bf c5 3f bc 6c 7b 91 0d bb d3 bf
       0.16989834812864243 -0.30829180915106824
0006f0 a5 c6 b3 31 33 bb d2 3f 19 8e 61 b1 5b 5d d0 bf
       0.29267577985511145 -0.2556981308209472
000700 aa 3d 0d a4 42 14 dc bf f8 36 f7 21 50 30 ba bf
       -0.43873659153629296 -0.10229969815483375
000710 df d1 93 95 82 d5 d3 3f dc 59 75 02 8d 5f d5 bf
       0.30990662200136215 -0.33395695915296897
000720 89 56 d9 9d ce 9a b9 3f 7e bb 8d f2 3f 2d b5 3f
       0.10001841882452757 0.08272170707435397
000730 57 ca 4d cf 9f 9b d6 3f df 84 64 83 4f 89 d1 3f
       0.3532485508395999 0.2740057738429424
000740 68 93 2d 57 25 42 dc bf 74 12 ab 58 0f 4d ce 3f
       -0.44153722299079456 0.23672668294433985
000750 00 a7 a9 65 ba e3 ad bf c2 71 c0 11 a7 06 d1 3f
       -0.05837805262565432 0.26603104337280226
000760 93 4e 14 94 01 63 be 3f 57 97 5f 2e 15 9e de 3f
       0.11869821419923658 0.4783986046662582
000770 3a 73 67 45 80 1f db bf 20 c7 62 04 00 cd 94 3f
       -0.42379767205948193 0.020313263194743247
000780 55 a8 5c a4 35 a8 b8 3f 48 c9 bd 7d 9e 68 d1 3f
       0.0963166738771702 0.27201044349125825
000790 4f f6 aa 0c 55 61 cd 3f 13 49 81 86 fb 05 c5 bf
       0.2295328437666506 -0.1642450720560836
0007a0 c1 f0 5d f7 04 79 bc 3f d5 92 e1 e0 ee 96 c0 3f
       0.11122160948974892 0.12960611324810736
0007b0 a2 9d 88 f5 b8 00 dd bf 7c 7d ca 8f 1f a8 db bf
       -0.4531690976895907 -0.4321364311417353
0007c0 16 d0 c9 c8 cc eb e0 3f 9e b8 5f 41 8c a9 db 3f
       0.5287841722151849 0.4322233808915231
0007d0 30 16 ea aa 7f 97 d9 3f 5c 1d 13 88 b6 a8 cb 3f
       0.3998717469297359 0.21608621258040273
0007e0 6d 17 ba 47 0f 0c d0 bf e3 c5 2e 36 3d b4 d9 bf
       -0.2507360649545863 -0.4016259221199034
0007f0 84 a4 9d 80 d8 0d d8 3f 62 a1 e3 ed d8 56 d2 3f
       0.37584507522712607 0.2865507434021507

b4 f8 [30, 1]
000000 64 92 ea 5f a7 17 d4 bf 4c a4 13 60 74 08 de bf
       -0.3139437138254719 -0.46926602728359934
000010 67 29 47 45 a3 de b1 bf 0e f7 9b d5 17 94 d2 3f
       -0.06980343285900902 0.2902888856914253
000020 02 a6 ad a2 92 88 d2 bf ec fd 86 68 63 f1 c2 bf
       -0.28958574186853536 -0.1479915867221132
000030 5f c6 32 86 8e 88 d8 bf 02 10 45 9f a1 1b 6b bf
       -0.3833347616701754 -0.0033090740854806464
000040 d8 ea 4a be 8a ca dd 3f ea f4 44 62 af 6d d5 3f
       0.46548718055025295 0.3348196468030681
000050 21 b8 b1 e2 1e 4c 93 bf 22 27 31 50 1f aa d1 bf
       -0.018845064722363362 -0.2760084422230752
000060 d8 5f f7 5c 2d e4 dc bf ca f8 69 15 28 b6 bb 3f
       -0.4514268310426792 0.10824823878099035
000070 ab 7a 3a f5 cd bb d8 bf d8 a2 95 39 03 fd d9 bf
       -0.3864626784142426 -0.40606766341674705
000080 04 51 6a 26 19 f4 d1 bf 04 75 e9 b3 72 b8 dd bf
       -0.28052357436651243 -0.4643828160240704
000090 00 1d 97 f4 56 ee b0 3f 28 ef 7a a2 be c7 d8 bf
       0.06613677474443946 -0.3871914469452684
0000a0 57 6e a4 cc bd 6a db bf 6a 1c 75 84 1b a4 d6 3f
       -0.42838997826195196 0.3537663262872629
0000b0 07 d0 03 76 c5 a6 e0 bf b8 4e 14 25 82 44 d2 bf
       -0.520357828615034 -0.2854314195730967
0000c0 8f 03 d0 0a 17 e7 dd 3f 19 77 90 a7 03 64 dc 3f
       0.46722961479104524 0.4436043869371687
0000d0 a9 2d b4 cd f6 f5 e0 3f 3c df 79 a9 6d 34 c7 bf
       0.5300249116566437 -0.18128748679350248
0000e0 1a 56 54 ff 81 b9 dd 3f f5 44 7c 2d 1b 5d df bf
       0.4644474976970244 -0.4900577491944909

W4 f8 [30, 30]
000000 ac 79 e4 80 b4 14 d3 3f 20 b3 03 b1 f2 a3 b4 bf
       0.29813873850971606 -0.08062664815561194
000010 48 50 1e 6a ec d0 d2 3f 25 6b 3e 00 ed 7e aa bf
       0.2940016781151411 -0.051749616889728046
000020 a3 b9 4f 3e 8b 03 d3 bf 47 25 1e a7 93 06 d1 bf
       -0.2970913036832831 -0.266026414109167
000030 fa 2f 98 29 07 45 67 3f 42 0f dc 5c 4f cf c2 bf
       0.0028405322925717487 -0.14695159944687403
000040 65 42 3a 49 13 1d c6 bf bc 2e c0 61 8c 3c cc bf
       -0.17276230884137359 -0.22059778950676
000050 5b 03 54 b1 1a cc 97 3f 3c b7 b3 59 f3 e1 d2 bf
       0.02323953349423689 -0.29504092941248294
000060 dc 6a 14 e2 73 e8 c8 bf c7 e6 8e 0c 05 c8 df bf
       -0.19459389246988834 -0.49658323503863894
000070 00 3c 7e 6f 47 75 bc 3f c1 3d 8f 13 60 31 d9 3f
       0.1111645362091025 0.3936386290560812
000080 00 6f cc c1 e7 57 ae 3f bb 6e dd 91 7f 64 d0 3f
       0.059264414221813055 0.2561339306318861
000090 e0 5a 27 ae 51 50 c3 3f 7c 39 8c ff 7d 7c d6 bf
       0.1508886432991039 -0.35134839969477816
0000a0 30 64 1a c1 17 20 cb bf 34 af de 69 cd aa c9 bf
       -0.21191689423429372 -0.20052497548510362
0000b0 1b 72 03 f5 b7 ab d0 3f c0 27 97 7e 42 17 dd bf
       0.26048087050529184 -0.4545446621165148
0000c0 90 15 ba 10 d6 5e aa 3f b5 87 46 91 0f 10 cc bf
       0.051504792730194926 -0.21924013703852344
0000d0 00 a1 2d c1 8a 0a a3 bf c8 4c ce 4a c5 73 c1 bf
       -0.03718980415470874 -0.13634554054860915
0000e0 a0 3e 72 fb 87 be de 3f fa bd 30 b3 70 37 d1 3f
       0.4803791003732645 0.26900880335867294
0000f0 18 8c 49 d4 c8 90 ba 3f 02 14 bf bb ca 00 d2 3f
       0.10377173598094236 0.28129833540543825
000100 14 ad f9 0a 43 d6 c1 bf 28 1e af 4e 3f e3 c1 3f
       -0.13935125385192093 0.13974753705973453
000110 78 1f 8a 23 be 3e dc bf 60 54 13 0d 50 4c c8 3f
       -0.4413295123163077 0.18982887876942112
000120 8a 67 2f d1 da cb da 3f 18 a6 f0 8f 07 8c cd bf
       0.4186923067878686 -0.23083586242982856
000130 fe 65 ff c8 9b 2f d9 bf 94 c1 62 b3 ee 20 dc bf
       -0.39353079441715966 -0.43951003568783986
000140 98 a4 97 45 82 bd bb bf 54 c1 5d 14 52 c0 d1 bf
       -0.10836042593986617 -0.2773633192910172
000150 d8 6d 24 43 e8 41 ce bf c4 bb 9a 95 36 d8 cd bf
       -0.23638633039887114 -0.23316080384162607
000160 14 e8 e1 fd 11 5d d9 3f 88 81 10 9e af 20 cd bf
       0.39630555909354936 -0.227559997730179
000170 ec 20 2e 9f 91 53 dc bf fc 0b 15 9a 23 39 c1 bf
       -0.44260063691082396 -0.13455624602838145
000180 d0 5b 02 f8 a7 75 d0 3f 26 11 e2 40 18 44 d2 bf
       0.25718116016053916 -0.2854061730979701
000190 e4 78 3d 3e 12 5d c9 3f b2 cc cf 5a d1 04 d8 bf
       0.19815280951565406 -0.37529405468303445
0001a0 a4 5b a3 76 57 61 c5 3f 98 2c 12 01 4c fa bb 3f
       0.16703313153149424 0.1092879774679879
0001b0 00 83 0b e5 f9 ac b6 3f d8 2d 62 5d 4b f7 b3 bf
       0.08857690660398632 -0.07799216298933886
0001c0 78 77 48 6f 5d f0 c9 bf 60 39 a7 80 3f 56 a6 bf
       -0.20264785703414723 -0.043626770453203845
0001d0 d2 45 bb 79 7a 0d d2 bf ae f9 63 c1 d6 44 d9 3f
       -0.28207265746922616 0.3948265923098927
0001e0 9c b5 1a 59 2e 18 d3 bf 31 a4 ba 8d b4 f5 d8 3f
       -0.2983508939895161 0.38999666062096866
0001f0 90 bd 04 aa 25 2e c0 bf 9c ee 63 81 84 4b c7 bf
       -0.1264082985085051 -0.18199211423767714
000200 8a bf 54 98 e7 7c c3 3f 7f 74 6c c1 5b ae d0 3f
       0.15224928796805798 0.26064199341801236
000210 ac 08 7d ce e5 90 9a 3f 34 db 6a f7 c9 a0 e5 3f
       0.02594336579137095 0.6758775551196323
000220 ce 75 96 2e 80 06 a9 3f af a2 d2 4f 38 b7 d3 3f
       0.048877721487979295 0.3080578593749505
000230 9d 93 81 7a 5e e2 bd 3f a9 8b bf e3 ae 53 d0 3f
       0.11673536768792166 0.25510761490857675
000240 b9 50 76 9e 6c 95 df 3f 5c f7 1f 13 08 8f ab bf
       0.4934951350671884 -0.05382561906297553
000250 b8 ce ef 16 01 f4 db 3f 2a 4c 5f ff 0d f3 d8 bf
       0.43676783790509033 -0.3898348802442252
000260 42 7e 94 f2 df 9b d9 bf 82 34 2b 2a 9a 98 cd 3f
       -0.4001388424821678 0.23121954974195452
000270 a7 f0 36 34 d3 91 d3 3f 1e 7a dd 61 8b b8 dd 3f
       0.30577545260508504 0.46438870007651356
000280 e0 d5 ce ec 8b 95 b9 3f 96 f6 f0 d8 52 99 dd bf
       0.09993814975208393 -0.46248313127203156
000290 c5 ae 8d 70 f0 b1 c9 3f 1d f9 83 f2 a8 86 c6 3f
       0.20074277396940068 0.17598449555948373
0002a0 a8 7c e5 e5 47 d5 c0 bf 28 81 61 ae 2c 7c e6 bf
       -0.1315088150540522 -0.7026580243946556
0002b0 4a 89 20 b4 d2 94 d8 3f 87 8b 2a 3e f2 a6 a4 3f
       0.3840834387830411 0.040336198891302515
0002c0 e5 99 73 bd 9f 5b bb bf 0c ab f9 cf 47 82 ca 3f
       -0.10686682105333707 0.2071008458618383
0002d0 ce c8 35 04 61 e0 d7 bf f6 75 0f af 80 3e dc 3f
       -0.37307000552312963 0.44131486030332157
0002e0 63 3c 86 85 43 8b d8 3f 7e dd b9 37 c2 2a 8a bf
       0.38349998511779954 -0.01277686817705503
0002f0 54 c7 a9 81 eb 2e d2 bf 4e 97 5a b6 0c 9e c1 bf
       -0.28411376631185203 -0.13763579277036303
000300 63 37 1d 74 59 7f d8 bf f1 e9 54 f6 5e ab c3 bf
       -0.3827727922369972 -0.15366732623972681
000310 31 8c 83 72 9c c3 a9 3f 51 36 d0 b5 18 a8 be bf
       0.05032051942705385 -0.11975244940568898
000320 6f 6c 26 cc 72 09 e4 bf e2 8d 5d 4c 8c 91 90 bf
       -0.6261533725077139 -0.016180221711136762
000330 97 36 16 44 66 5f df bf 2a fb 8c d9 3d 22 dc 3f
       -0.49019772194956474 0.4395899414557102
000340 c0 ff 20 e2 af 45 a1 bf 24 da 0e 0c 0d a1 e0 3f
       -0.03373479495394305 0.5196595416553618
000350 b8 ef f1 89 0b 27 dc bf 58 d4 cf 7a 56 a6 81 bf
       -0.43988312216947234 -0.008618045447273001
000360 02 34 9e 2f 70 17 d3 3f e0 9a cd b2 83 fd ac 3f
       0.2983055558223101 0.056621661736064643
000370 30 f8 c2 77 55 f9 dc bf d3 d2 4a ad b7 da d9 3f
       -0.45271813102215486 0.4039744560534874
000380 5b 5b cf 09 8f fb c0 3f 29 de e7 46 58 06 d5 3f
       0.13267696360591227 0.32851225780857135
000390 e0 94 d1 37 a7 ed b9 3f bc 7f 7e d2 9d 49 d2 3f
       0.1012825499797887 0.28574319416111016
0003a0 da 9f 86 3e 00 1f b7 bf ee ff 55 61 19 a6 df bf
       -0.0903167870188776 -0.49451288705313245
0003b0 1b a5 db 57 53 45 da bf 84 fd 99 f4 e7 a5 d6 bf
       -0.41048129634744307 -0.3538761032759441
0003c0 00 00 91 a5 0f 9f 1a bf e7 fc bd 6f 33 d1 be 3f
       -0.0001015523242964278 0.12037965276794048
0003d0 80 3b 15 45 7a ee 96 bf 9c 5d 49 27 fb e4 d7 bf
       -0.022394094912040696 -0.3733508952768376
0003e0 a7 da 05 1d 5b aa d0 bf f8 e5 25 0b 02 d5 b4 bf
       -0.26039769968285004 -0.08137524387520745
0003f0 a1 ab 53 e4 7c 9d cf bf 91 02 e5 8b d9 0f e0 bf
       -0.24699364804049842 -0.5019347889247731
000400 5f 5a 93 60 b9 e4 d2 3f 87 89 96 38 70 eb cc bf
       0.2952102130051681 -0.22593500865066238
000410 c4 dc 1e 82 ac 92 d2 3f 70 a7 c4 58 7d 5e de 3f
       0.2902022619923168 0.47451718968169754
000420 15 50 32 89 ff fe c9 bf 0c b9 dc d0 a4 82 df 3f
       -0.2030944270997003 0.4923488654775532
000430 1c a5 63 4f 6b ac c1 3f da 28 95 1c 50 c9 c4 bf
       0.13807431579997675 -0.1623935832561248
000440 52 70 91 e8 06 c0 d3 3f 1c 1e 0b 60 5e cb d2 3f
       0.308595397107415 0.29366263751259836
000450 f8 ef 9b ce 65 5e dc bf 48 62 c9 09 23 e7 b3 bf
       -0.4432615773837365 -0.07774561871463803
000460 a8 82 6d f5 fc db db 3f 74 45 16 f7 08 97 d9 bf
       0.4353020092731108 -0.39984344606008126
000470 b5 6f 66 08 c6 c4 d9 3f 88 45 f4 b7 35 b5 b6 3f
       0.402635105326904 0.08870254269665712
000480 60 79 cd 8c ab a5 9f bf 6d f9 d3 8b 08 3e df bf
       -0.030905418843184207 -0.48816121726112877
000490 52 f1 35 77 b3 5c 88 bf 29 9d 32 e5 bd 6d dd bf
       -0.011895563197633994 -0.4598231065997021
0004a0 cc f0 2d 4f b5 65 cd bf 80 11 6d c2 16 d4 b4 bf
       -0.22966638914284088 -0.08136121985177702
0004b0 00 69 32 1c b4 e9 77 bf 40 61 9a e1 ef b7 c4 bf
       -0.005838111453295491 -0.16186331287168265
0004c0 4c 3c 20 83 ae ed c1 bf 44 64 ed 9f 0e 40 c1 3f
       -0.14006596949227157 0.1347673684020113
0004d0 88 5d 4c 36 2e 69 c4 bf f2 e1 b4 64 56 45 d1 bf
       -0.15945985461506162 -0.26985702356935726
0004e0 48 34 08 c4 a7 e1 c5 bf f0 b3 38 e5 e8 cd d4 bf
       -0.1709489543140157 -0.32506773362075503
0004f0 5a 18 b8 4e 44 31 d0 3f ce db 42 d3 cf 9e dc bf
       0.2530070084325239 -0.4471931040856675
000500 c0 d6 7e 47 60 e1 c1 bf c8 92 d0 25 45 3e bc 3f
       -0.13969043246259183 0.11032516644679469
000510 40 08 d8 68 76 ee d4 bf dc 2d a8 2c 66 c8 d1 3f
       -0.3270545982233024 0.2778563915350938
000520 40 36 d8 80 df f8 cd bf 4a b5 3d d3 ad 41 da bf
       -0.23415750304450178 -0.4102587283039908
000530 60 dc 43 27 7b a0 9e 3f 60 3c 6a 38 4f d0 d1 3f
       0.029909061690855387 0.27833920010829694
000540 72 e8 3c 21 4c b3 d9 3f c4 71 6c 66 59 12 c1 3f
       0.40156844373598866 0.13337247372773053
000550 98 70 3e 48 7f ea db bf 88 88 26 dd 63 e6 d5 3f
       -0.436187573004426 0.34218689533930347
000560 8e 8c e0 af 07 f2 d7 3f c0 ea 82 4c 55 77 d2 3f
       0.3741473405409089 0.28853352042976255
000570 6c 7a 72 90 ef 53 db bf 92 4a 71 22 ba 04 d9 3f
       -0.4269980345360753 0.39091351855783174
000580 28 31 b1 7e b9 dd d8 3f 90 39 05 83 02 1b ce bf
       0.388532994959649 -0.2351992740390867
000590 b8 e1 b7 53 92 1b b3 3f 00 35 59 6f 7a 1a ba bf
       0.07463945907500757 -0.10196652620762237
0005a0 10 40 ec e8 37 7e c3 3f 3d db 48 f5 47 1e c0 3f
       0.15228937981783064 0.12592410542284851
0005b0 f8 12 e3 f0 7a 9b ca bf ac b1 05 ce 94 70 cd 3f
       -0.20786988031445452 0.22999820766143608
0005c0 49 2d d4 d8 23 86 dd bf 48 91 38 2e 1f 46 b1 3f
       -0.4613122575253397 0.06747622374002049
0005d0 fb 03 c4 ba 22 04 c4 3f 20 a0 37 c0 2a 58 cb 3f
       0.15637621039789437 0.21362814317331047
0005e0 91 24 a0 c6 d3 30 be bf 4e 2a ef ee 41 f3 e1 bf
       -0.11793254470116411 -0.560944525402485
0005f0 1f 1e 71 57 f0 b1 d6 3f 63 cd d6 48 42 ab a0 3f
       0.354610524551818 0.03255660189770528
000600 c4 ec cf ea c0 f1 d1 3f 40 63 ea 98 21 5b d8 bf
       0.2803804677093462 -0.38056220944558916
000610 9a 08 80 62 51 09 d8 3f 4a 77 6b 37 b7 06 da bf
       0.37556872004655306 -0.4066598931511761
000620 68 21 5c 6d 26 11 ca bf 9d 79 0a 74 82 5f d3 bf
       -0.20364837970579264 -0.3027044423305599
000630 82 18 31 57 7f 85 da bf 08 1a 92 34 e3 de d4 bf
       -0.41439803614446913 -0.32610397466524477
000640 b0 ec 90 cf 75 4a ba bf 0c e5 21 ff 05 f1 df bf
       -0.10269867246181508 -0.4990859023597103
000650 86 e4 86 e5 03 83 ab 3f 54 c1 c1 bc 44 bd cf bf
       0.053733941811011696 -0.2479635163940751
000660 be 12 86 77 b9 c4 d9 bf f0 54 a2 63 2b 22 d8 3f
       -0.40263210937727567 0.37708554010289586
000670 98 e6 eb ae 1d 92 d0 3f bd 17 a9 f0 bf 76 e1 bf
       0.2589182098596239 -0.5457458210373641
000680 15 08 be 23 02 10 ea 3f a4 eb 45 eb ec 3c ca bf
       0.8144541452495583 -0.2049842976374211
000690 32 14 bd dd a6 86 d7 3f 64 f7 37 fc 08 a0 b7 bf
       0.36759349493178484 -0.09228569181138152
0006a0 9b 64 cf af b7 e8 c9 3f d5 62 57 2b e4 26 d9 3f
       0.20241447529295872 0.3929987357383145
0006b0 fb 0c 91 e7 52 e6 db 3f fe 8e 21 ee af c5 d9 3f
       0.43593285192419245 0.4026908708094509
0006c0 77 59 26 eb 2f c1 db 3f 05 b0 4c 11 aa 7a d5 3f
       0.4336662098297874 0.3356118363324188
0006d0 b1 83 98 b2 94 73 d6 3f ec 07 db a5 72 ba d4 3f
       0.35080449524871954 0.3238798732455723
0006e0 f5 84 3f a0 0d 38 d8 bf 10 6c 3d e3 8a 10 dc 3f
       -0.37842121743422236 0.4385096758975928
0006f0 e5 0f ea 51 4d 2e cd 3f a9 7a ff 06 b8 d7 81 bf
       0.22797552585336614 -0.00871223231655212
000700 f4 ec 97 5a 4d e8 ce 3f a9 b0 21 04 82 0e b8 bf
       0.24146429942616232 -0.09397137261265932
000710 28 02 b9 89 e3 cc bf bf 3b 15 5a 3f 7d c7 b6 bf
       -0.12422010528917637 -0.08898146435429492
000720 ac 35 83 9b 60 96 a8 3f e0 77 95 02 ad fa dc 3f
       0.048022288306678845 0.4528000378830921
000730 04 3b 02 56 c6 87 d0 3f b3 0e 1c aa ca 6e ce bf
       0.25828703307426815 -0.23775609308369425
000740 f1 65 90 6c 37 9b d6 3f a8 b1 06 14 95 49 b9 bf
       0.35322366334875627 -0.09877902735633504
000750 08 d3 1b 1a c8 72 d3 bf cb c5 6e 21 2a 1e d0 3f
       -0.3038807158439316 0.2518410994044557
000760 a8 39 87 50 b6 8c da 3f 0b b9 a8 4c 3f ec cc 3f
       0.41483838905414894 0.22595969431990456
000770 b6 85 42 be cf 3e d4 bf 30 31 40 dd 32 e3 d2 3f
       -0.31633370952666995 0.2951171074535237
000780 24 22 70 44 6c 27 c8 bf c9 91 82 0a 1a bf d5 bf
       -0.18870309201908342 -0.33978892351504136
000790 fa 67 38 50 b0 58 c3 bf d4 4a 0b a9 24 45 a6 3f
       -0.15114406506546613 0.04349627078558674
0007a0 e8 16 b4 72 dc ee bc bf bd 3c 7c 70 bb 66 d0 3f
       -0.11301973152520939 0.25627027497189286
0007b0 f1 fd eb 29 5a 34 d7 bf 12 48 16 b8 29 21 de 3f
       -0.36257032483987844 0.4707741067624066
0007c0 27 1c 74 08 e3 d7 d6 3f 78 d8 a7 a7 2c 55 d0 bf
       0.35692668748419226 -0.2551986348402191
0007d0 61 ee 2d 90 92 bb c8 3f 8d c8 49 79 45 d1 cb 3f
       0.1932242588044231 0.217323955748331
0007e0 95 f1 51 cf 47 a3 d9 bf 53 82 9a 8d 64 f8 d5 bf
       -0.4005908512697485 -0.34328569248649393
0007f0 00 73 cf c0 c3 c1 da bf 75 4d e5 e1 50 16 b7 bf
       -0.418076456347805 -0.09018426432640132

b5 f8 [1, 1]
000000 b6 8a 0e 15 c0 a9 c9 3f
       0.20049286869205724
