NeuralNetworksV2/weights_(30,30,30,30)_hidden.npz (npz, 51438 bytes, 20 tensors)

b1 f8 [30, 1]
000000 d8 3e ae 88 97 45 d4 3f ed 16 3c 12 be 0d ca 3f
       0.31674755428046586 0.20354438677184508
000010 36 d3 71 0a 13 a0 a5 3f e8 fb 33 49 15 f7 b3 bf
       0.04223689558504022 -0.07798893963989395
000020 f9 b5 d5 6d 8e bd db bf 1d 23 c6 cd 71 ac ed bf
       -0.43344460226111853 -0.9273003596327701
000030 e0 18 bf 5f 9b 52 9d bf c7 35 1f 9d b3 02 e2 3f
       -0.02863543292894455 0.5628297871386899
000040 fd c5 01 1b db 2e 73 bf 18 20 48 7c b7 da c3 bf
       -0.0046833571251325675 -0.1551122052044327
000050 ba bb fa ba 4b d2 db bf ea ee 20 c2 24 89 db bf
       -0.43471043834409395 -0.4302455802714876
000060 12 58 60 2e 49 14 c8 3f 45 4a d6 30 e3 4b d1 3f
       0.18811907543630518 0.27025680321927253
000070 c0 41 8b 04 46 00 d9 bf d5 20 32 6b da 5d c6 3f
       -0.3906416935324408 0.17473917230768757
000080 bb d8 87 dd 51 ef d7 3f ce 00 11 0d 81 54 e5 3f
       0.3739819205651533 0.6665654425815093
000090 3b ee 96 b3 a0 c9 dd bf 93 b8 95 7a 11 26 aa 3f
       -0.4654313806347294 0.05107168790242258
0000a0 3e 4b 73 fc 3b cf ee 3f e1 73 03 41 e3 e8 ce 3f
       0.9627971583052852 0.24148216890799204
0000b0 2e 3f 27 f2 d3 15 e5 3f 36 ad ee 32 4c ed e1 3f
       0.658914540248565 0.5602169985553818
0000c0 b3 9b 2b af fa c4 98 bf 20 6f 88 e5 b4 58 a6 bf
       -0.02418891615061698 -0.04364552785793152
0000d0 80 99 20 4b c0 53 df bf 11 d1 bc 87 b0 5b b1 bf
       -0.4894867643037273 -0.06780532182603262
0000e0 a1 c4 d4 4d 52 1c e9 3f c6 6f 5d 45 70 a5 cf bf
       0.7847072143687407 -0.24723628413164372

W1 f8 [30, 2]
000000 6d 9b 26 13 06 37 d2 3f c5 fe 78 54 70 02 df 3f
       0.28460838194080545 0.4845238518646336
000010 fa 51 e8 5d f5 e1 e1 bf 6c ee 34 84 96 03 dd bf
       -0.5588328203326107 -0.45334399138275816
000020 0f 3d 03 47 07 7e da 3f 9f 67 b3 78 33 a1 da 3f
       0.41394216475323814 0.4160889319151639
000030 4b 38 04 bf e7 20 f3 3f 07 f4 55 d9 8b 07 e2 3f
       1.1955335103589444 0.5634211773718797
000040 0f 5b 43 3b 0e d2 d1 bf ae 1c e9 45 df 58 dd 3f
       -0.2784457758656779 0.4585493262024539
000050 56 db cc e9 83 09 ed 3f 71 39 e5 a3 e7 21 da 3f
       0.9074115339670736 0.40831938748751556
000060 58 da 63 df 5a 0b dd bf 7c af 19 4c e6 c9 d9 bf
       -0.45381805243906603 -0.4029479735534023
000070 fa b5 cf 94 40 8e e3 3f e3 f3 16 5b e5 25 a9 3f
       0.6111147791359024 0.04911724793371499
000080 01 bc 9b 33 94 1e e3 3f 63 aa bc aa 44 80 c8 3f
       0.5974827774024335 0.19141443573728897
000090 1c 62 53 ce fd 46 df 3f da 05 51 3c 31 92 b7 bf
       0.4887079729938095 -0.09207446787424747
0000a0 0e 45 e5 1f 23 e4 d2 3f 74 50 b3 f6 ac 49 de bf
       0.29517438998034684 -0.47324680415955034
0000b0 a0 e9 d7 20 49 f9 c8 3f f0 5f 88 a2 4c 72 a5 3f
       0.19510759452516613 0.04188765987436216
0000c0 1e db e8 47 5f e9 d8 3f 4c 89 34 8a a2 6a dc bf
       0.38924390814229237 -0.44400847908595575
0000d0 bf 60 c2 0c bc 13 c0 3f 41 5d 8e f2 6a ae dd bf
       0.12560225127231736 -0.46377061545486603
0000e0 c2 d6 4f a9 af bb d0 bf 2c 6b 92 7f ed 53 c6 3f
       -0.2614554551540601 0.17443627099131598
0000f0 6a cb 1f 00 01 4a d5 3f 00 63 af 5e 86 06 a0 bf
       0.33264184009674713 -0.03129978090118435
000100 39 5b da 2a 07 53 c6 bf f4 19 f6 a5 f5 ba d4 bf
       -0.1744088134043638 -0.3239111061779163
000110 2e 57 41 e6 8d ec e4 bf 25 e5 22 e9 74 66 e6 bf
       -0.653876256673106 -0.7000069192355666
000120 18 a8 aa 6e 50 e7 e4 3f 57 ad f1 91 9b 37 de 3f
       0.653236595292813 0.47214402439450026
000130 cf 6a c3 83 dc c3 d1 3f 4d 0c df c0 7c 7c d1 bf
       0.2775794302703333 -0.273223102904187
000140 f5 ca 04 f9 21 7c f1 bf ec e2 57 90 98 c0 df bf
       -1.0928058364194702 -0.4961301240542031
000150 5d 40 51 08 07 b8 b0 bf 65 f2 ef ad 96 c4 9f 3f
       -0.06530803635655631 0.031023363462724513
000160 da 77 65 2b 0c 6b e4 bf da 6c 5b 8b 24 db ce bf
       -0.638067326315418 -0.24106270603701924
000170 b2 cc 11 e0 c7 d9 d5 bf 56 4f 96 2f 8c de d3 bf
       -0.34141728288450246 -0.3104582276075595
000180 1c 51 a8 f0 02 ba d2 3f b6 05 da 9a d2 b4 de bf
       0.2926032400294092 -0.47978654024344836
000190 00 a5 1a 87 5e f3 cd bf dc 41 83 70 89 b1 d2 bf
       -0.23398954007033268 -0.2920859907872264
0001a0 ce 17 1e 03 21 76 d8 bf 94 90 e7 66 b1 37 df bf
       -0.3822100191540557 -0.48777422951958127
0001b0 8c 40 cc 66 e7 eb cf bf c7 c4 5e 1e d3 2b d1 3f
       -0.249386716074245 0.26829984632338405
0001c0 1c 84 a0 2b c0 0e e9 bf a2 a0 f7 45 4e 18 de bf
       -0.7830506183710244 -0.47023350556129107
0001d0 8f 66 39 85 1d f9 cf 3f e5 27 c4 3d 74 c7 d2 bf
       0.2497898960598843 -0.2934237101732136

b2 f8 [30, 1]
000000 30 cc 93 c8 ed ae c8 3f ca d3 7a cc c8 49 d7 3f
       0.19283840459647328 0.36387844055871865
000010 3e f2 a6 a1 bc 9b d8 bf ff ad a8 58 e4 1c c6 bf
       -0.38450542246190256 -0.1727567131905374
000020 f6 52 c9 a9 32 18 d4 bf 46 2c 0a 9c dc d6 c1 3f
       -0.3139769228048829 0.13936956042411647
000030 52 38 7c bc 84 85 e2 3f 48 bc 4f ff a7 52 bf bf
       0.5787986451484903 -0.12235498412313561
000040 c3 9d bd fb f8 68 ca 3f b2 73 a4 ff 0c d4 c1 bf
       0.20632850925470167 -0.1392837761167392
000050 c9 5e d1 61 ed 4d d0 3f e0 7e d1 89 e9 e4 b2 bf
       0.25475630333447136 -0.07380542387681599
000060 e1 20 78 79 17 66 d1 3f 19 b1 65 39 d1 95 d7 3f
       0.27185618269187556 0.36851912121962155
000070 9b a3 bf 02 b2 e7 de bf 02 63 16 05 50 34 d9 bf
       -0.48289156216065415 -0.3938179063493835
000080 eb a3 49 08 44 ff ab bf e8 c3 f6 44 42 5b c1 3f
       -0.05468189812820142 0.13559749953631628
000090 23 20 97 4d 57 f6 d3 3f bd 0f e8 77 37 bc e0 3f
       0.31191046311551157 0.5229756681369434
0000a0 bf 9d 28 67 bd 37 d0 3f 1a 98 d2 d5 fc 08 dd 3f
       0.25340209077918624 0.45367356186977903
0000b0 ac 8d 33 91 97 a0 c8 bf 94 e1 00 7f 7e 93 c4 bf
       -0.19240088071738393 -0.16075116349544472
0000c0 9c 24 3d 9e 4f 20 cf bf a2 de 5c 45 a9 55 d3 bf
       -0.24317355371957639 -0.30210334562023367
0000d0 ff 44 ae fe ad c2 db 3f 1f 7e 55 14 46 a5 a4 bf
       0.43375730391660733 -0.040323438627407386
0000e0 19 94 a6 ba b2 30 c9 bf b5 cf 50 27 87 d9 b7 3f
       -0.19679864991954402 0.09316296300749978

W2 f8 [30, 30]
000000 dc a4 5d 1e 82 72 d6 3f bb f4 23 d6 92 38 c9 bf
       0.35073903050813526 -0.19703898864819344
000010 3d df 5e ae 73 c1 7e 3f c1 e6 00 6a 1a 91 cc bf
       0.007508708838876829 -0.22317819763138938
000020 d8 e5 64 5f 9a 23 c7 bf c5 77 bb 90 1f 12 e5 bf
       -0.1807740178863202 -0.6584623171618139
000030 22 90 23 c2 b0 70 d4 3f e5 a3 e3 bf 2c 02 c5 bf
       0.31937807997587886 -0.16412886972037125
000040 3c 51 a9 65 be 60 c8 3f 4e 30 e2 8a 57 f8 d4 3f
       0.19045238460479108 0.3276575905117668
000050 4c 40 8c 5c af 24 c3 bf 5c 3a 4b b7 eb dc cb bf
       -0.1495570375341252 -0.21767946672339888
000060 b5 39 ac b6 77 18 a2 3f 8d d1 c7 bb 2d 5c d1 bf
       0.03534292321102176 -0.2712511380953167
000070 d0 9b a1 5d 8d be d4 3f 1c f8 1d fa 49 99 81 bf
       0.3241303839080816 -0.008593156762568603
000080 da 3e b2 60 2e 8b c3 3f 35 d3 99 30 ac 1e c0 3f
       0.15268497201440462 0.12593605397310062
000090 45 27 0f d5 2e 4f d8 bf 3d ec f4 bf 6c 95 cf 3f
       -0.3798329430252248 0.24674758313071435
0000a0 33 d1 21 d5 e2 f9 e2 3f 83 08 25 90 b6 1e e0 bf
       0.5930036699997231 -0.5037491622281468
0000b0 c7 e4 c0 11 a2 88 e5 bf f6 d0 f5 de 3d 71 d0 3f
       -0.6729288431880825 0.2569117238374611
0000c0 5e b4 1f b5 0d 92 b8 3f f0 23 9f b1 ca 03 b8 3f
       0.09597860023468871 0.09380785786119339
0000d0 00 bc a5 d5 1a eb d6 bf b4 bc c4 3a 2e be bb bf
       -0.3580996595764532 -0.10837067541864337
0000e0 d8 34 4f 2d bc 97 e0 bf b1 f9 22 18 d0 31 bf 3f
       -0.5185223469685765 0.12185383404992113
0000f0 c7 a5 22 34 db 79 bc bf 5a 90 9a c4 46 61 d4 3f
       -0.11123437903247356 0.31843728255831183
000100 93 a8 38 61 ca ef c2 3f 72 97 07 5d a4 7e e0 bf
       0.14794282672057033 -0.5154592339501802
000110 ff db be 00 39 57 a2 bf 0f 6d 75 7e 79 b9 e1 bf
       -0.03582170614338764 -0.553890940656318
000120 88 2f 1a 91 96 77 c9 3f 68 5b 84 3d 59 50 d9 3f
       0.19896204075882573 0.39552908904572925
000130 1d a6 cf 36 20 eb cc 3f 38 27 5d 7b ae 28 e1 3f
       0.22592547108006125 0.5362160119486594
000140 a6 1b 79 8b f9 06 d1 bf 70 95 8c d6 39 30 ca 3f
       -0.2660507070581225 0.2045967385867402
000150 1a dd 4e ed 6b e9 c7 3f c2 b5 ae 96 35 cb a2 3f
       0.18681096160228422 0.03670661415467748
000160 e0 61 d9 1a f8 48 bf bf 48 89 82 2a 9b 6e b1 bf
       -0.1222071710157091 -0.06809396541442425
000170 fb cd 46 c9 31 02 d6 bf fb 60 b3 b5 8a e9 dc bf
       -0.34388394027629915 -0.4517542623921284
000180 5d bd 53 a7 4f 76 ca bf 17 e9 8d fb f1 28 d4 bf
       -0.20673556967038112 -0.3149990994057971
000190 43 d5 f9 12 9a 2d df 3f 68 b0 b0 a9 cb c6 c5 3f
       0.48715831616512534 0.17012925897268194
0001a0 70 57 0e e2 2d 78 a8 bf 3a 36 83 79 0a 29 c5 3f
       -0.04779189476464196 0.1653149693797092
0001b0 22 88 c7 7b 08 3e b1 bf 1c b1 6a 75 d1 26 cd 3f
       -0.06735280057867546 0.22774713738670804
0001c0 2e af c0 53 07 bb d1 bf dd 50 29 24 1c 07 de bf
       -0.2770403211495588 -0.4691839554918838
0001d0 97 83 a7 84 65 3a b8 3f fc dc 70 6f 01 5b ce 3f
       0.09464106072074539 0.23715227071236444
0001e0 3a 5f 0d c9 55 16 e1 3f 83 2a b4 31 cb 99 d9 bf
       0.5339764525224162 -0.4000118241680541
0001f0 c5 e5 1d 7e 87 ba c9 bf 59 51 cc d5 9d a7 e6 3f
       -0.20100492151304486 0.7079610038513621
000200 d2 f6 f7 a2 cb 4e c8 bf d3 bf 20 2e 6d bb c1 bf
       -0.1899046464677015 -0.1385323024019259
000210 38 1d 48 94 19 cf b6 bf 96 b7 a3 2a df 7d e5 3f
       -0.08909759397657957 0.6716152031710745
000220 ea e8 ce 08 61 10 d0 3f 59 d9 a0 57 e6 42 c8 3f
       0.250999697305487 0.18954161909796133
000230 00 5b 52 3f c0 40 cd bf d4 9d 27 6c 44 da ca bf
       -0.22853854267005858 -0.2097859886264205
000240 59 9b 4e e4 e1 1c d5 3f b3 32 53 19 f6 40 d8 bf
       0.32988784118281483 -0.37896492455619607
000250 80 a1 b0 72 19 00 d8 bf f5 29 41 f1 0f 3e d9 3f
       -0.37500606727783037 0.3944129806519919
000260 17 70 85 dc ab c9 d2 3f 9c b5 4c 59 a0 02 e2 bf
       0.29355904135968686 -0.5628206009038652
000270 bc 21 9f 02 20 7e c4 3f 15 d6 46 95 76 03 b9 3f
       0.1600990307617972 0.0977090944714621
000280 72 be 7e 97 b0 29 e0 bf 32 7f 48 94 d7 e6 dc bf
       -0.5050890883339447 -0.4515894840314899
000290 f0 47 ee bf 61 3f cc bf 29 16 eb b8 7f ec d6 3f
       -0.22068426009769793 0.35818474825313956
0002a0 8c f0 eb 38 94 6a b3 3f 46 1e 91 51 f8 d6 dd 3f
       0.07584501638115365 0.46624572721018287
0002b0 7c 76 1c f1 fc 54 c8 bf aa 29 93 fe fd a5 c4 bf
       -0.19009362957961062 -0.1613156788865358
0002c0 9a 07 94 59 0a 75 91 3f bd 13 ae 42 67 bd c9 3f
       0.01704803630582994 0.2010926318727381
0002d0 f0 5c eb d9 2e 1b d2 bf a8 11 6d f4 b9 f8 b9 3f
       -0.2829091194266331 0.10145151345665815
0002e0 c6 4c 43 c6 7d ed b5 3f d4 d2 19 33 fe 36 d7 bf
       0.08565507975008577 -0.3627315043479886
0002f0 50 29 2a f3 24 59 bb 3f d0 96 67 3a f1 48 bf bf
       0.10682898460996637 -0.12220676113028195
000300 04 a3 5b bc 46 3d d2 bf 38 5f f3 89 d9 3b d9 3f
       -0.2849900092538038 0.39427793952698975
000310 21 2d 80 54 d1 9d c4 bf d1 6f e1 76 3a 0a b5 bf
       -0.16106621385584055 -0.08218732263907148
000320 72 65 95 3c 67 99 d5 3f 18 ad 0b 50 0f cd c3 3f
       0.3374879924427524 0.15469542892911003
000330 0e d6 13 2f 3a 29 84 bf 6c 5b 88 ee 0a 86 c1 3f
       -0.009844259797755075 0.13690315863706404
000340 30 60 09 b2 b5 90 ba bf ff c1 44 e3 e1 64 d7 bf
       -0.1037705955180861 -0.3655323714656617
000350 3e 42 32 93 c3 74 d8 3f 9c 5f e5 e6 15 df ba bf
       0.38212670683518357 -0.10496651541813978
000360 ee d1 8b a0 8d 7b b9 3f 87 eb 87 d8 7a bd d9 bf
       0.0995415226896694 -0.4021899332580507
000370 c5 28 8d 1d 87 5a db bf 0a 06 fd 89 47 b1 b5 3f
       -0.42740037809256776 0.08473631972176335
000380 8d dc c9 5f 69 f5 b8 3f e9 4a d1 12 3f df ce 3f
       0.09749468411051705 0.24118793886972092
000390 1e 35 8f 1e e6 d2 c4 3f 9c 01 fb c8 17 ba c3 3f
       0.1626861237731782 0.1541166049337449
0003a0 80 5e 51 55 2b 7b a1 3f 0a c9 e7 a0 a4 c1 d4 3f
       0.03414283195951118 0.32431903565806464
0003b0 0e 97 03 58 84 86 8f 3f 3b 66 9d ad a1 b7 cf 3f
       0.015393289504980891 0.2477914903382031
0003c0 54 20 1e ef 0b 23 c0 bf ea ad 5d d5 25 73 d8 3f
       -0.1260695378844071 0.38202806316868865
0003d0 74 3a b6 8b 33 93 c5 bf b7 19 b4 60 c8 c4 c6 bf
       -0.16855472871653243 -0.17788033220149455
0003e0 c4 ac 32 72 1a 63 d4 bf b2 7e 94 f2 a3 50 db 3f
       -0.31854878570693423 0.4267969006486779
0003f0 58 ac ab 5b 08 d3 df 3f e5 e9 f4 9e 9c 39 da bf
       0.49725541069228063 -0.4097663452445473
000400 6b ba 44 8c 21 3f dd bf 00 34 41 8d 6b ad 5c 3f
       -0.4569782132920525 0.001750330954581658
000410 5c 89 ed 0a ab e1 cb 3f 18 fd 51 56 e5 06 b1 3f
       0.21782434495532754 0.06651147229603216
000420 9a 05 cf 25 3a ab d4 bf 8b 4e f9 3c cd c0 d9 3f
       -0.32295087520841437 0.4023926825950432
000430 30 80 52 f1 7a 8d de bf ec bd 0e ce 1a bc d0 3f
       -0.4773852688467768 0.26148100016413767
000440 eb 6f 2d 0b 5f a1 db bf 85 b5 8c 63 3d 36 dd 3f
       -0.43172432033111247 0.45643553468365666
000450 c8 11 4f 29 da e0 bd 3f 5c 88 c1 00 f4 03 dc bf
       0.11671222218053068 -0.4377412803061185
000460 ba 2b 7a 61 71 d0 e0 3f ef a4 63 6e ac db d3 bf
       0.525444689164366 -0.3102828100223424
000470 64 d8 d1 5d a3 d2 d7 bf 4e 7f 38 ca 5d 97 b4 3f
       -0.37223133241730566 0.08043466746357561
000480 85 de cb 69 0f e9 dc bf fc 16 53 04 ef a1 c4 bf
       -0.45172486621547875 -0.16119182311211222
000490 c6 54 64 19 a2 d6 d6 bf d0 49 22 10 92 b0 c2 3f
       -0.3568501708953814 0.14601350581922512
0004a0 87 66 fe 27 4c da d3 3f fc 6c 36 b0 e1 99 c7 bf
       0.31019882112159575 -0.1843835935986603
0004b0 ba 21 75 24 8c 9a e0 3f ac d4 d7 16 8d 3a cf bf
       0.5188656532346194 -0.24397433867821883
0004c0 83 4c ce 7d 06 43 c2 bf 90 01 1f 64 d1 11 d5 bf
       -0.14267045157302868 -0.32921252038433924
0004d0 81 6b 37 e3 1d a8 93 3f ad 32 e9 e3 a9 b9 da bf
       0.019196002000039684 -0.4175820089047118
0004e0 28 b6 28 c0 f4 7f b6 bf 98 6c 72 8b 50 00 d5 3f
       -0.08788995448477321 0.3281442033564388
0004f0 d6 77 57 db 0d 11 de bf 89 60 30 0d a8 45 95 3f
       -0.4697909013756293 0.02077353077410796
000500 e0 b9 9a cf 53 bd 93 3f 9c 70 1e 18 f5 eb c5 bf
       0.01927691416374866 -0.17126334836655566
000510 7c 62 e3 11 70 29 ca 3f 20 65 6b 97 7d 80 d0 bf
       0.20438958047340694 -0.25784244334279727
000520 38 a9 d0 53 ec c9 b5 bf bd ac 85 9a bb d7 cc 3f
       -0.085112352812449 0.2253336433890122
000530 d4 6e 8d f1 28 1f d8 3f c3 cd 0a 06 fc f9 d8 3f
       0.3769018515501845 0.3902578410154229
000540 16 ed 15 bc 21 70 c8 bf 1d 66 8f c8 1c 8d c8 bf
       -0.19092199024076056 -0.19180640976883093
000550 1a 21 76 b6 cc 0e b5 3f 66 06 3c f7 27 c4 cb bf
       0.0822570748770243 -0.21692370960231527
000560 ce c7 5d c4 53 85 ca 3f 25 f8 7d f1 34 d9 e2 3f
       0.20719382370185574 0.5890145031587549
000570 7b 1e e1 24 ab 33 ce bf 48 f0 0b d1 df 2a c8 3f
       -0.23595179844618372 0.18880841929774506
000580 d6 f2 f4 f1 fd e5 db bf bd 22 41 f2 72 8e db 3f
       -0.4359125960216209 0.4305693975225429
000590 78 a7 62 64 10 15 d1 3f c8 50 bc de 2a 83 d9 bf
       0.2669106464696749 -0.3986308264877718
0005a0 f7 a5 d0 6c d3 45 d1 bf e5 82 54 c6 ef f5 c9 bf
       -0.2698868334433366 -0.2028178900154877
0005b0 26 59 e2 ca 21 57 d9 3f c7 e1 24 e9 8b aa d8 bf
       0.3959431153574705 -0.38540933387733073
0005c0 27 51 e1 ee f5 a4 d3 bf d9 ae 70 cc 27 7b e4 bf
       -0.3069434006513511 -0.6400336258861571
0005d0 48 a4 60 b0 73 6e d9 3f af 27 9c 75 4a d5 c2 3f
       0.39736644958845035 0.1471341203944667
0005e0 e3 e7 18 4c 64 7d c4 bf 1d fd 6f d6 55 e5 d1 bf
       -0.1600766536301413 -0.2796225160709172
0005f0 40 1b 11 53 71 df 8d 3f be e4 59 cd 7e 73 d1 3f
       0.014586339328287345 0.27267427495787533
000600 81 52 03 f2 8d 64 b1 3f b7 14 6c 1a eb 84 83 bf
       0.06794058950920069 -0.009530865424958497
000610 f8 00 58 28 72 82 d6 3f 2c da fb 86 fd 0d d9 3f
       0.35171178760357646 0.3914789026452208
000620 60 b9 06 77 1b 2b d3 3f 37 54 13 26 7d 4a df 3f
       0.29950605987223433 0.4889214393454639
000630 d3 76 7e cf 66 79 d4 bf 9f 49 2c 8b b4 ed dd bf
       -0.31990976584516523 -0.46763337699044344
000640 4d 1e 5c bd ad 58 e7 3f be 57 bb 55 6f e9 c4 bf
       0.7295750330385516 -0.16337386785624902
000650 6c c3 23 e4 56 72 d3 bf 34 43 45 4d ee 0f cb 3f
       -0.3038537242819561 0.21142367146469498
000660 3b f9 3d e8 83 c5 ca 3f 00 2e c4 68 90 1e cd bf
       0.20915268745370405 -0.22749524226706797
000670 78 c9 2f 14 f9 1c d7 bf 6e 5e be 1f 00 a6 d6 3f
       -0.36114336940149583 0.3538818655010577
000680 85 e5 01 f2 be 65 a4 bf b0 48 df df 34 9b c8 bf
       -0.03983875946228025 -0.19223652774104982
000690 c4 b8 46 c4 d4 b1 db bf 80 1f d1 60 4a c3 bb 3f
       -0.43272895019152835 0.10844864715283897
0006a0 64 b8 81 7b 44 71 c9 3f f0 b7 7d 67 27 88 b0 3f
       0.1987691500721126 0.06457754398954285
0006b0 90 87 7a 5a 6c 92 b1 bf 24 d4 0e 26 be 97 d5 bf
       -0.06864049157095864 -0.33738664356798354
0006c0 54 7c 6d 97 8e 4c d3 bf 30 01 c5 56 33 39 b9 bf
       -0.3015476683412477 -0.09852906101605607
0006d0 6e 12 ed f3 e5 43 dc 3f c6 5d 88 65 da 6f d7 3f
       0.44164418049721277 0.3662019721536719
0006e0 52 cf 4c 67 e4 c1 dc bf b2 77 a1 ea 3b 91 d0 3f
       -0.44933424079794293 0.258864382869315
0006f0 ec ef 02 c3 ad c3 de bf 06 9f d1 ba e3 9f d9 3f
       -0.4806932835015221 0.40038388484980236
000700 d4 e2 ba 15 35 fe c1 3f 40 e2 c2 0d 9a f5 8f 3f
       0.14057029305492696 0.015605166954956506
000710 00 8a 29 66 5c 61 79 3f 20 71 56 5f 19 d0 a2 bf
       0.00619636624705544 -0.03674392021932449
000720 44 17 4d 63 4a 7b d9 bf 54 55 78 a7 2d c5 d0 bf
       -0.3981500596749934 -0.2620348105859496
000730 44 9e e2 bd f9 c3 c4 bf dc 29 ed 77 9d 70 cf bf
       -0.1622306992696726 -0.24562424045355058
000740 5c 47 50 85 02 82 c0 bf 60 a0 63 c4 27 8b b6 bf
       -0.1289675856538065 -0.08806084198624964
000750 38 2c 5d 83 3a a3 d8 3f 4c 81 c8 46 17 f3 cb 3f
       0.3849626810885556 0.21835604625904137
000760 10 d3 0c ee 0c 6d dd 3f 88 25 b9 98 4a 55 bb bf
       0.4597809147556271 -0.10677019337267357
000770 50 a8 4b ca cf 92 cd bf 9c 3d 3b 7c f4 34 d8 3f
       -0.23104283693038719 0.3782321179578163
000780 18 d8 ca e8 68 50 de 3f 42 17 98 e0 d5 0d bc 3f
       0.47365782483700647 0.10958611233953966
000790 91 42 96 b6 db e3 d9 bf 64 94 74 1c fe 52 de 3f
       -0.4045323641849246 0.4738154676327382
0007a0 97 51 1b 46 8a 31 d5 bf b9 b2 2c 1d c1 c2 d1 bf
       -0.33114868971213113 -0.27751186226923213
0007b0 92 db e8 31 fe e5 d5 3f 10 c9 58 71 88 77 d8 3f
       0.3421626555822793 0.38229571408295815
0007c0 cc c1 08 35 3a 1e da bf 41 2f 4b 08 94 14 a9 bf
       -0.4080949323570422 -0.048985124599850945
0007d0 f0 98 5a a2 d5 83 c8 bf c0 29 48 8f 04 17 aa 3f
       -0.1915232699149736 0.050956861963715294
0007e0 3e 81 4c 53 52 1d da 3f fe 3d e1 95 da c5 b5 3f
       0.40803964743283305 0.08505026015449599
0007f0 34 23 b0 1c 8b b4 d9 bf 1b 58 65 bc f6 27 d3 3f
       -0.40164449502531174 0.2993141975215409

b3 f8 [30, 1]
000000 30 2e ed 20 84 77 b0 3f cc 13 60 2c 32 8b a1 3f
       0.06432367137784278 0.03426510612192821
000010 dc 6c 09 39 19 1a 7a bf 1e d7 50 3c 40 d7 a4 3f
       -0.0063725457444789545 0.040704734194532785
000020 d3 73 88 4e 7b eb 80 bf 4f 87 e0 d2 8d bf d4 bf
       -0.008261645635735981 -0.3241915282579741
000030 6e 51 45 61 60 89 cd 3f 96 95 79 1f 39 60 d0 3f
       0.2307548975901556 0.2558729941723298
000040 57 9f b8 ed b6 0b d4 3f 98 eb 2d 00 2c dd ac bf
       0.3132150002952491 -0.05637490751447344
000050 42 d8 40 ab 94 f8 c1 3f db f2 74 4f 68 68 d1 3f
       0.14039858209588557 0.2719975257821667
000060 22 39 fd a2 07 57 c1 3f 9d a9 ce d2 2e a9 d9 bf
       0.13546843965964067 -0.4009511049904633
000070 44 92 a0 ab 36 54 c4 bf 49 bf d5 7c 8f e2 af 3f
       -0.15881999378429346 0.06227539442886482
000080 68 94 75 51 12 48 d9 bf b7 04 05 47 d8 8a d6 3f
       -0.39502389864930487 0.35222441611774563
000090 9f d4 fd 91 aa f6 d8 bf 40 09 20 92 09 be df bf
       -0.39005531556115075 -0.4959739615443546
0000a0 d4 88 b8 81 88 69 c0 bf 0f cc e4 ba d3 96 d4 3f
       -0.12822061857247624 0.3217057538160483
0000b0 55 38 7b 9b 10 7b e0 3f 55 0b 29 ac 2e 35 d6 bf
       0.5150225674385732 -0.3469959908726897
0000c0 78 1c 93 66 24 fe c7 3f 2f c6 28 6b b8 fb ba 3f
       0.18744330414321886 0.10540344825928892
0000d0 54 7c 38 89 75 8b e0 bf 39 b3 e2 0f 29 d1 d0 bf
       -0.5170238189783825 -0.2627661376125619
0000e0 b9 e8 41 70 b5 03 db bf 2c b1 f5 70 aa 29 cc 3f
       -0.42210136377947155 0.2200215388833241

W3 f8 [30, 30]
000000 50 73 88 3b c7 a7 dc bf b2 4b 46 4a bc b9 d0 3f
       -0.4477403718354269 0.2613363957727258
000010 14 9c 90 16 5b 04 c7 3f 7a 1c 56 78 5c 9a d6 bf
       0.17982042886544092 -0.35317146064375715
000020 58 4f 85 d3 4f bd c9 bf 24 f1 d8 f2 3c 29 c3 3f
       -0.2010898382965205 0.1496959863451447
000030 02 30 41 4f 19 86 dd bf 14 49 7d 27 3e ff cb bf
       -0.4613097452136118 -0.21872689178651028
000040 00 35 38 b6 5a 78 87 bf b8 1e 81 c7 4a 9b c3 3f
       -0.011460026441478366 0.15317663899826583
000050 be ac 48 5c 7a 89 d4 bf a0 a5 fc 5a 96 44 9b 3f
       -0.32089098941896654 0.02662882738437633
000060 60 22 31 e5 38 02 db bf fe 53 5e b6 98 8b d1 bf
       -0.42201063520454873 -0.2741452961866456
000070 02 51 53 ed 88 79 d1 bf e0 1b 59 4e 11 92 9f bf
       -0.2730428998595614 -0.030830641180980112
000080 30 ce 0e 27 14 5d da 3f ec 80 a6 45 1f 1e c1 bf
       0.41193107427827425 -0.13373175526522318
000090 ce 64 79 97 9e 6f d1 bf 00 e7 bd ba b1 fc a4 bf
       -0.27243771355058477 -0.04099040417254507
0000a0 40 27 af ca 66 1f 9c bf 60 31 d6 65 d4 73 bd 3f
       -0.027463537331448906 0.11504867063758217
0000b0 d2 24 99 07 91 0b dd 3f 00 a8 99 a1 e6 29 4b bf
       0.45383096448911175 -0.0008289695862917501
0000c0 b6 8b 6e 93 64 b1 d3 bf 70 0f 75 6b 21 52 bd bf
       -0.3077022018207417 -0.11453446267574718
0000d0 38 ea 17 f3 ea c7 c4 bf 6e d8 5f d1 fe aa df bf
       -0.16235100621982368 -0.49481172987669353
0000e0 4c cc 15 6a 51 38 c7 3f 00 d1 8c c1 9f b7 7b 3f
       0.18140618972720046 0.006766914412583924
0000f0 29 32 48 26 c0 5a da 3f 92 9e 3c 33 69 70 bc bf
       0.41178897608259263 -0.11109025479219728
000100 4e 38 60 cb a6 50 ce 3f 7f 92 5b f3 72 fa ab 3f
       0.2368362896963298 0.05464514942813014
000110 de f3 6c 0b 14 fb a9 bf db 4f 0d 3a 55 e7 c8 3f
       -0.05074370040390595 0.19455972036905575
000120 1f 33 0a 0f a4 da d0 3f 00 1e 7c de 97 ad b1 3f
       0.26334477871641754 0.0690550726104604
000130 ee f4 0b a4 1c ec d1 3f aa 8e 73 f7 1f 2d db 3f
       0.2800361253756155 0.424629203464273
000140 5d 1d 24 d3 e7 68 b7 bf a4 7b ca dd 0a 3c cc 3f
       -0.09144448189555505 0.22058235005985438
000150 d1 60 02 5c c0 92 91 bf c4 aa 1f 11 0b 7d e5 bf
       -0.01716137467937601 -0.6715140661666159
000160 e1 38 a5 b0 e7 8e da 3f 89 09 f7 4f 85 20 d5 bf
       0.4149722313931204 -0.33010990914422017
000170 78 69 78 f9 20 42 bb 3f 56 3d 66 be 48 79 c7 bf
       0.10647779551110215 -0.18338879868358998
000180 21 21 e2 e2 1d 8d d0 bf d6 34 34 ce 97 d3 b1 3f
       -0.2586130824715998 0.06963490280414261
000190 8b 4b b9 c3 38 b6 d3 bf 52 fb a5 05 e9 22 d5 3f
       -0.30799693215993135 0.3302557521018815
0001a0 18 24 df 21 0f 77 d6 3f 2c 9a 51 1f d4 a0 d9 bf
       0.3510167914178637 -0.40044119890663654
0001b0 a2 5f 9a ae 90 c1 de 3f 79 33 6d be 5e 78 cd 3f
       0.48056428004337637 0.23023590372249794
0001c0 bd 18 0c 9e e6 a2 c0 bf 7a dc aa 7a d0 6b ba bf
       -0.12997133938933372 -0.1032076167565367
0001d0 57 8a b8 fa ba 82 b5 bf f8 5a e4 30 fa 17 d0 3f
       -0.08402603741755264 0.2514634587727609
0001e0 7d 7b 67 14 e7 e6 a6 bf e7 95 15 cd b7 de d6 3f
       -0.04473039745402383 0.3573436262871312
0001f0 17 77 00 27 d1 1a bf 3f 07 91 f0 ac 4c bc d0 bf
       0.12150294496720125 -0.26149289024967043
000200 9f 6e 99 c7 33 a2 df bf a6 e1 8a b0 c8 b7 dc bf
       -0.4942750405514093 -0.4487172817275912
000210 a4 19 64 f0 77 38 b4 3f 02 7a c9 c0 be b2 df bf
       0.07898664111062331 -0.4952847368894312
000220 35 17 d8 9c b9 60 c9 bf 76 19 e7 ef 93 f7 be 3f
       -0.19826431425479432 0.12096523863792705
000230 b6 4f d9 5a 8b c4 e0 3f 60 b2 fa 7c 58 dd c3 bf
       0.523992230834202 -0.15519243338111988
000240 47 f4 a3 50 e2 17 ce bf 7f 3b b8 66 9a c0 b1 3f
       -0.23510388314744743 0.06934514053157946
000250 71 a6 50 b9 6e 8e c8 3f 17 22 9c 15 45 de de 3f
       0.19184669540964053 0.4823162756952412
000260 fc 71 f4 eb 1b 75 d1 3f 04 07 c7 9b 1e 33 e0 bf
       0.2727727703329774 -0.5062401812103592
000270 6b 12 27 81 67 75 d9 3f 11 65 32 5c 28 7e af bf
       0.3977907906776525 -0.06150938153695951
000280 4e 3f 00 97 82 c8 d8 bf 9d de 57 43 9c a8 d8 3f
       -0.3872381662958916 0.38529116226662
000290 c0 2c fe c9 f8 e9 bd bf c4 ff b7 da 29 42 db bf
       -0.11685137683359681 -0.4259132991719492
0002a0 4c 45 3b f0 4d 28 c0 3f 07 87 4d 8d a4 6a 9c 3f
       0.12622999410681712 0.02775055992549993
0002b0 18 74 11 08 44 ef c4 bf 1f 54 e7 06 5a 52 b0 3f
       -0.16355181116060247 0.06375658672853078
0002c0 d8 17 d6 c1 42 1d d5 3f b8 a7 03 ff 2b d0 df bf
       0.3299109356815939 -0.49708080199945526
0002d0 59 10 52 14 e4 5f bb bf db 76 10 67 d0 cf c4 3f
       -0.1069319295511958 0.1625919821971625
0002e0 e7 06 57 b8 b2 e1 c4 bf 8b 51 a3 2d bf 18 c6 bf
       -0.16313776017164303 -0.1726302121011368
0002f0 d1 ff 4e b7 6f b5 cc 3f 5c 06 29 d9 c7 c1 cf 3f
       0.22428699923147957 0.2481012163498687
000300 6a 26 7a e7 de 92 ad bf 80 e1 82 6c b3 1a b7 bf
       -0.057761159664619324 -0.09025117301178476
000310 da fc 3a 98 c0 3c b1 3f 84 02 1d bb 3b c3 dc 3f
       0.06733325687945371 0.4494160964277756
000320 d9 39 39 c1 42 7f cc bf c0 db 9f 45 e2 ca 8e bf
       -0.22263369021170723 -0.015035407781381127
000330 3d 3e cd ab a5 5d da bf d0 09 7a 31 4e c1 c2 3f
       -0.41196576859963213 0.14652421394209947
000340 82 89 de 6e 45 c1 c3 3f 06 ea 6e b7 09 62 e1 bf
       0.1543356696466383 -0.5432175238304928
000350 8a 80 e9 0c 17 ad cd bf b3 30 ae b3 b0 2d cf 3f
       -0.23184478884195797 0.24358185552080655
000360 46 fa e6 9e 37 ca 69 3f c1 17 b5 d6 0f 73 a7 3f
       0.003148182520106321 0.0457997274011599
000370 ff 38 0a 20 38 de be 3f 0e 38 2d ae de a4 a4 3f
       0.12057829649186046 0.04032035709552427
000380 a0 a1 0e e3 70 36 c0 bf de 9c b7 b7 ba e4 d3 3f
       -0.12666140639090617 0.3108355325807234
000390 f4 44 f8 31 84 94 da bf af 3a 03 93 19 10 d5 3f
       -0.4153147209154462 0.3291076598806439
0003a0 84 60 58 a4 b5 2b cf 3f 07 1d 71 d9 54 5a dc 3f
       0.24352140926999166 0.44301339373164733
0003b0 6c ec 9f 26 6c 61 e2 3f ec 23 c6 d3 31 c8 d9 bf
       0.5743923906696984 -0.4028439109902695
0003c0 25 3c 41 cb 4b ad be bf a4 65 d4 cb 89 54 d0 3f
       -0.11983178818012215 0.25515980630151547
0003d0 f5 88 83 64 f5 98 dd bf f8 3c cd 1c b6 ce 83 3f
       -0.46246084991265884 0.009671614412268145
0003e0 7f ac 3d ea 3e 97 d7 3f 33 0a 7c 42 77 37 ba 3f
       0.3686063086995048 0.10240884183080183
0003f0 c5 25 cc 0a 7f 65 c4 3f a8 38 f6 10 5a ae c4 3f
       0.15934741999835303 0.16157079532826413
000400 0d f3 5f d5 00 cc b6 3f 29 0e e0 ad 91 a2 c2 bf
       0.08905034264894258 -0.1455862139701918
000410 98 d8 6d 1d 2c 72 c1 3f f8 aa 17 b5 59 20 b7 3f
       0.1362967628189764 0.09033737822725729
000420 54 89 27 a5 41 29 da 3f 40 f6 08 96 db 52 a9 bf
       0.40876809242594914 -0.049460279526539086
000430 78 cd ab 78 89 aa c5 3f 5c 99 c4 75 5b 83 db bf
       0.16926687614578007 -0.4298924112394127
000440 49 df 1e 22 72 9a d8 3f 0d 9b cc 45 7d e9 aa 3f
       0.38442662555779755 0.0525626323417808
000450 16 8f c3 29 d2 a6 b5 bf 3a 7f 17 c6 35 b2 ad bf
       -0.08457673568369403 -0.05800025981056796
000460 7c e1 a3 ca 3e b9 d8 3f 4a a3 3f f2 ce 7e d4 bf
       0.38630647458150924 -0.3202397695263711
000470 b0 86 dd 85 7f 10 aa bf ec 9b 9b fb 09 db c4 bf
       -0.05090712079141946 -0.16293453965701532
000480 86 e4 ab 95 da 2a d4 bf 69 32 0c c6 a7 46 c4 3f
       -0.31511559120514965 0.15840623064322593
000490 62 23 2f 45 4c 24 dd 3f 5d 0e bd cb 6d 6f d5 3f
       0.4553404498697572 0.3349260797151368
0004a0 e0 fb 76 63 a8 d4 be 3f b9 c8 44 6e a4 f1 ba bf
       0.1204324000200212 -0.10524966899973522
0004b0 ba 81 f0 68 35 b1 c0 bf 2f a5 b6 de 7c aa da bf
       -0.1304079782867243 -0.4166557478843797
0004c0 81 1c 0b 06 80 6e d1 3f a8 81 65 1c e3 67 c2 3f
       0.2723693903939833 0.14379538427875826
0004d0 fe 0d 4f 39 fe 70 73 bf 3c df 7e 47 44 9b d3 3f
       -0.004746430456126214 0.3063517282675894
0004e0 4c 85 bb 16 ac f8 d0 bf a0 2d 1b e6 2a ba d2 bf
       -0.2651777479168984 -0.2926127669458882
0004f0 28 3a 69 bd 46 3b de bf 18 43 a3 d5 77 60 c2 3f
       -0.47236793992206794 0.14356897288828274
000500 e1 e8 f1 17 49 d9 d1 3f 32 f8 54 0e e8 e6 d4 bf
       0.27888705576300593 -0.3265934123954849
000510 d4 3a 2e a0 ba 7d db 3f 95 04 f0 a8 56 2b c0 3f
       0.42954888956675785 0.12632258652596265
000520 7e a1 b9 da c4 bc d8 3f 78 24 1f e2 06 00 95 bf
       0.3865215431201462 -0.020507915068979504
000530 04 1d dd ba 4d 89 46 bf d4 ef 59 14 2d 6c c8 bf
       -0.0006877545872407136 -0.19080127233234967
000540 6a 50 7a 58 fc 15 d3 3f 41 ce 19 b7 2b 8e 31 bf
       0.2982169021645463 -0.0002678734518674932
000550 23 27 35 90 51 58 c3 3f 4f 8a 1a ac ee 19 a8 3f
       0.1511327699793635 0.04707284785151399
000560 6a 19 88 37 fc f2 d1 3f 7c b2 30 1d 52 58 d2 3f
       0.28045564101230147 0.2866406712590004
000570 b4 7e 5a 44 cd c9 dc bf 7b 78 c8 5e a8 f0 ca bf
       -0.44981700587411955 -0.21046929004745948
000580 36 63 8d c3 f2 49 ce bf 35 d3 9b 0c a6 2c a4 3f
       -0.23663172291232976 0.03940314201273624
000590 77 68 61 90 88 f3 c1 bf c8 85 25 4e e7 3c b8 bf
       -0.14024455118016352 -0.09467931421160991
0005a0 e5 93 bf ec f6 49 dc bf bd 39 d6 42 26 1c dc bf
       -0.44201443786579225 -0.43921810652764376
0005b0 39 60 30 4a c0 b4 dc bf 00 34 1f 13 cb 0c b3 bf
       -0.4485321735860484 -0.07441395966380071
0005c0 62 b7 9d a5 67 e0 e4 3f 35 75 c4 2a 87 54 dc 3f
       0.6523931727112819 0.4426591794634363
0005d0 c6 7b 03 39 5c 96 c4 bf 4e 9e 0e 77 6f 77 db 3f
       -0.16083863052241848 0.429164758936598
0005e0 9b a5 74 04 e8 29 c0 bf 4f ae 28 4e a8 ca a1 3f
       -0.1262788793331254 0.034749278584368264
0005f0 0a 0e 32 5a f0 f3 d5 3f ec 6c aa b5 be a8 d3 3f
       0.34301384742886454 0.3071743749694196
000600 a2 fe ad 0f 34 8c d3 3f bc 50 75 96 09 9b c3 3f
       0.3054323342439408 0.15316886755556947
000610 68 10 40 0b d1 a8 bb bf 68 b3 d5 04 f1 4d d6 bf
       -0.10804468655266108 -0.3485071704115428
000620 72 a8 71 36 13 6b d7 3f 05 05 23 c3 52 73 da 3f
       0.3659103423766573 0.41328877502753897
000630 cc 04 0f 9b b9 c7 e0 3f 8e b4 72 74 21 b7 d6 3f
       0.5243804958810414 0.3549274098575744
000640 f1 f2 2b 76 02 b5 e0 3f 39 a9 1f c7 c5 19 af 3f
       0.522095900348715 0.06074350410183844
000650 a8 86 fa 62 db d5 b9 3f 3e 4f a7 6b 1c 23 de bf
       0.10091944853277346 -0.4708930064491489
000660 a4 5b 09 a8 11 9b cd bf db e0 ce 2b 75 52 dc bf
       -0.23129482941541568 -0.4425328185857446
000670 45 c8 c1 b0 c2 05 e3 bf 4f e6 2e e2 c5 54 cc 3f
       -0.5944531872066895 0.2213370661173024
000680 0f 96 5b f7 8e cd d9 bf 30 48 c8 27 2d ab 93 3f
       -0.4031712928393469 0.019207673600313224
000690 96 3b 5d 09 f6 ad e1 bf 54 b3 43 4f 5a 93 d5 bf
       -0.5524854834455819 -0.3371186994616455
0006a0 27 2b bf 9a 6d 8d c9 3f 45 0b da 00 be b9 ca 3f
       0.19962854438775787 0.2087934021147594
0006b0 c3 d6 b7 d9 81 87 c5 bf c3 62 14 85 af c9 c8 3f
       -0.16819785242812743 0.19365495679882913
0006c0 fb c8 9a ff 79 63 e5 bf 78 c7 e8 fc ad fd cb bf
       -0.6683931343343653 -0.21867918824278454
0006d0 ad e2 cc 5f b6 6d cc 3f 54 68 29 0f 20 66 c2 bf
       0.22209815671683 -0.1437416147262548
0006e0 8c cd 52 e2 e5 48 c0 3f bc 6c 7b 91 0d bb d3 bf
       0.1272246699423757 -0.30829180915106824
0006f0 7e d9 57 c9 c1 d8 d3 3f 5a cb d5 36 e3 ac c9 bf
       0.310104796051199 -0.20058860948082718
000700 ff cf 6d 55 42 14 dc bf 31 48 b7 3e 97 72 c0 bf
       -0.43873651831313504 -0.12849703371336
000710 f2 e8 bf cc a3 3c d4 3f 37 16 d9 5c f1 0e d3 bf
       0.3162011622913631 -0.29778703753649743
000720 56 d3 43 d9 74 0e be 3f 75 a3 31 c7 1c 8a ba 3f
       0.11740808777160558 0.10366992819912275
000730 d7 d0 99 61 6f 81 d7 3f 50 10 20 82 9c 15 d1 3f
       0.36727509051639856 0.2669440527681717
000740 68 93 2d 57 25 42 dc bf 74 12 ab 58 0f 4d ce 3f
       -0.44153722299079456 0.23672668294433985
000750 00 a7 a9 65 ba e3 ad bf 67 f3 74 d7 d4 2a d1 3f
       -0.05837805262565432 0.26823922196108757
000760 a1 c7 64 31 fe 66 b8 3f 84 ba 33 89 c2 22 db 3f
       0.09532154756450818 0.4239965762962259
000770 85 df 4e 4c 82 83 dc bf 5f a9 0c da 1e c1 9f 3f
       -0.4455266709514876 0.031010133799250435
000780 df e5 94 3b 13 0a b8 3f 73 0c e5 dc 47 91 d3 3f
       0.09390373425130559 0.3057422310996067
000790 4b 71 29 23 27 22 cb 3f 13 49 81 86 fb 05 c5 bf
       0.2119797631920711 -0.1642450720560836
0007a0 2d 1e 1e 26 5e 59 bc 3f c1 65 17 ba e5 0b c1 3f
       0.11073864393812789 0.13317557894224133
0007b0 d2 38 ef e5 6a db e0 bf 7c 7d ca 8f 1f a8 db bf
       -0.5267843714625775 -0.4321364311417353
0007c0 2c dc f4 26 aa 54 e1 3f 9b a2 d4 60 af 7b dc 3f
       0.5415850411290015 0.4450491376506222
0007d0 0b 12 4e 41 21 01 d9 3f 5c 1d 13 88 b6 a8 cb 3f
       0.39069396378934645 0.21608621258040273
0007e0 10 8d 4c 40 00 1c d0 bf 23 54 10 de 92 c3 d8 bf
       -0.2517090442581358 -0.3869368713943137
0007f0 c0 69 93 7c d8 0d d8 3f 8d 21 ae 49 d1 11 d3 3f
       0.3758450714646209 0.29796249575931527

b4 f8 [30, 1]
000000 99 89 7b 86 9b 54 d4 bf 4c a4 13 60 74 08 de bf
       -0.3176640332514125 -0.46926602728359934
000010 06 1e 4c 41 b3 d0 b1 bf 1e 1c 5e 0c 4a a3 d1 3f
       -0.0695907625596349 0.275591384961844
000020 02 a6 ad a2 92 88 d2 bf e3 1e 9e a6 04 5e c3 bf
       -0.28958574186853536 -0.15130670676830169
000030 d3 2d 89 1d a5 d3 d8 bf ad 7d 7f d0 ba 92 2e 3f
       -0.3879177845417107 0.00023325472306988168
000040 18 bd fc 7a d7 63 de 3f 2b 1c 86 69 72 66 d6 3f
       0.4748438550040688 0.35000286393227736
000050 52 5b 65 48 d5 0a a7 bf 22 27 31 50 1f aa d1 bf
       -0.04500452526797595 -0.2760084422230752
000060 d8 5f f7 5c 2d e4 dc bf a5 42 c7 57 a7 44 bb 3f
       -0.4514268310426792 0.1065163220694197
000070 dc 94 d0 58 d1 17 d6 bf d8 a2 95 39 03 fd d9 bf
       -0.3452037207919838 -0.40606766341674705
000080 1c 24 21 42 a8 46 d1 bf 37 9d 61 c8 1e 5a dd bf
       -0.26993757684664543 -0.45862550323950607
000090 00 1d 97 f4 56 ee b0 3f 28 ef 7a a2 be c7 d8 bf
       0.06613677474443946 -0.3871914469452684
0000a0 88 b3 65 2b ba 90 db bf 68 1d 59 88 cb c7 d5 3f
       -0.43070844877257075 0.34031952204937577
0000b0 e5 5a 8e 11 03 c3 e0 bf b8 4e 14 25 82 44 d2 bf
       -0.5238051741497115 -0.2854314195730967
0000c0 28 0a 5c 07 e7 7f dc 3f 52 2e 5f 18 89 d7 dd 3f
       0.44530654638961886 0.46628024463709494
0000d0 ef 0c 54 35 8f b9 e1 3f 0c 66 06 81 b2 0f c5 bf
       0.553901294857864 -0.16454154300736012
0000e0 1a 56 54 ff 81 b9 dd 3f 1c 8b 63 53 08 f5 df bf
       0.4644474976970244 -0.49933059829179327

W4 f8 [30, 30]
000000 ac 79 e4 80 b4 14 d3 3f 41 02 08 d4 18 21 b5 bf
       0.29813873850971606 -0.08253626991791753
000010 16 5c 83 2f ff 5a d2 3f 56 3d 8f ed d8 75 ac bf
       0.28680400505021575 -0.05558660411736109
000020 df 98 1c 34 5b 20 d3 bf 47 25 1e a7 93 06 d1 bf
       -0.29884986962350796 -0.266026414109167
000030 d9 4a c8 2b bd 9f 68 bf c3 98 09 69 84 03 c3 bf
       -0.0030058569666463306 -0.1485448372724872
000040 d9 79 81 cd e4 33 c6 bf 46 ee 13 db 0e 06 ce bf
       -0.1734586718984719 -0.23455987641487946
000050 5c 43 80 0f 5d 47 92 3f 46 4b 92 9e af 3e d3 bf
       0.017850355216128974 -0.30070105062002417
000060 c6 c0 45 09 86 e8 c8 bf 7d e1 bd ec f2 c8 df bf
       -0.1945960564876314 -0.49663994902905256
000070 00 3c 7e 6f 47 75 bc 3f c0 f8 62 df ca 44 d8 3f
       0.1111645362091025 0.37919875922296953
000080 00 6f cc c1 e7 57 ae 3f 64 7d ed 7b 0a 03 d0 3f
       0.059264414221813055 0.2501856050712006
000090 e0 5a 27 ae 51 50 c3 3f 7c 39 8c ff 7d 7c d6 bf
       0.1508886432991039 -0.35134839969477816
0000a0 30 64 1a c1 17 20 cb bf 1a 8c 25 d0 c3 bd ca bf
       -0.21191689423429372 -0.20891616500293325
0000b0 3d 2d d9 40 19 5a d0 3f c0 27 97 7e 42 17 dd bf
       0.2554991849217066 -0.4545446621165148
0000c0 90 15 ba 10 d6 5e aa 3f 2e 5a 1f 57 30 72 cc bf
       0.051504792730194926 -0.22223476652170987
0000d0 00 a1 2d c1 8a 0a a3 bf 4a 25 1d 43 da 42 c2 bf
       -0.03718980415470874 -0.14266517903369397
0000e0 a0 3e 72 fb 87 be de 3f fa bd 30 b3 70 37 d1 3f
       0.4803791003732645 0.26900880335867294
0000f0 18 8c 49 d4 c8 90 ba 3f 02 14 bf bb ca 00 d2 3f
       0.10377173598094236 0.28129833540543825
000100 14 ad f9 0a 43 d6 c1 bf 28 1e af 4e 3f e3 c1 3f
       -0.13935125385192093 0.13974753705973453
000110 78 1f 8a 23 be 3e dc bf 60 54 13 0d 50 4c c8 3f
       -0.4413295123163077 0.18982887876942112
000120 8a 67 2f d1 da cb da 3f 18 a6 f0 8f 07 8c cd bf
       0.4186923067878686 -0.23083586242982856
000130 fe 65 ff c8 9b 2f d9 bf 94 c1 62 b3 ee 20 dc bf
       -0.39353079441715966 -0.43951003568783986
000140 98 a4 97 45 82 bd bb bf 54 c1 5d 14 52 c0 d1 bf
       -0.10836042593986617 -0.2773633192910172
000150 d8 6d 24 43 e8 41 ce bf c4 bb 9a 95 36 d8 cd bf
       -0.23638633039887114 -0.23316080384162607
000160 14 e8 e1 fd 11 5d d9 3f 88 81 10 9e af 20 cd bf
       0.39630555909354936 -0.227559997730179
000170 ec 20 2e 9f 91 53 dc bf fc 0b 15 9a 23 39 c1 bf
       -0.44260063691082396 -0.13455624602838145
000180 d0 5b 02 f8 a7 75 d0 3f 26 11 e2 40 18 44 d2 bf
       0.25718116016053916 -0.2854061730979701
000190 e4 78 3d 3e 12 5d c9 3f b2 cc cf 5a d1 04 d8 bf
       0.19815280951565406 -0.37529405468303445
0001a0 a4 5b a3 76 57 61 c5 3f 98 2c 12 01 4c fa bb 3f
       0.16703313153149424 0.1092879774679879
0001b0 00 83 0b e5 f9 ac b6 3f d8 2d 62 5d 4b f7 b3 bf
       0.08857690660398632 -0.07799216298933886
0001c0 78 77 48 6f 5d f0 c9 bf 60 39 a7 80 3f 56 a6 bf
       -0.20264785703414723 -0.043626770453203845
0001d0 d2 45 bb 79 7a 0d d2 bf ae f9 63 c1 d6 44 d9 3f
       -0.28207265746922616 0.3948265923098927
0001e0 9c b5 1a 59 2e 18 d3 bf a3 75 71 85 df dd da 3f
       -0.2983508939895161 0.4197920611530554
0001f0 2b d5 a2 c8 e4 c1 c1 bf ef 9e 48 64 c1 dc cc bf
       -0.13872966572459097 -0.22548692127860856
000200 02 19 4c bb eb f6 c7 3f 7f 74 6c c1 5b ae d0 3f
       0.18722292561887605 0.26064199341801236
000210 75 cd 76 b8 c8 57 be 3f 32 25 95 86 1e a9 e5 3f
       0.11852697852628132 0.6768944386068709
000220 c9 75 e4 cb fb 45 71 bf 40 35 9d 1c 76 e1 d4 3f
       -0.00421713216772219 0.3262610701975355
000230 de 0e 12 bb d2 d7 b3 3f 4b 86 e7 ff 25 ac d2 3f
       0.07751195017959442 0.2917571066919648
000240 31 28 0e 07 4d d6 db 3f f1 7d 62 bd 09 dc ab bf
       0.4349548882388517 -0.05441313206506127
000250 b8 ce ef 16 01 f4 db 3f ed 65 b5 41 d2 0b da bf
       0.43676783790509033 -0.4069715158162513
000260 42 7e 94 f2 df 9b d9 bf ff be f3 d0 63 4c d1 3f
       -0.4001388424821678 0.27028746991616964
000270 9a 7e 3e be 85 73 d5 3f 1e 7a dd 61 8b b8 dd 3f
       0.3351759298184135 0.46438870007651356
000280 e0 d5 ce ec 8b 95 b9 3f d7 af 8c 07 47 f6 db bf
       0.09993814975208393 -0.4369065831876901
000290 24 c2 1b 57 92 cc d0 3f 26 3a db b9 59 50 c5 3f
       0.26248606211359715 0.16651460242288002
0002a0 a8 7c e5 e5 47 d5 c0 bf 03 f3 76 8c aa 5e e6 bf
       -0.1315088150540522 -0.6990559333276852
0002b0 76 30 8d 42 b6 16 d7 3f 72 55 df 30 1e e0 61 bf
       0.3607612275998301 -0.00218206307088547
0002c0 d1 8a eb 3a b7 61 c3 bf 0c ab f9 cf 47 82 ca 3f
       -0.15141954781491632 0.2071008458618383
0002d0 ce c8 35 04 61 e0 d7 bf 76 5c e4 85 9d 39 dc 3f
       -0.37307000552312963 0.4410165603198445
0002e0 f3 ed 6a f9 b6 3a d9 3f 7c 85 c0 9f e8 47 a2 bf
       0.3942086635322248 -0.03570486974809747
0002f0 8e 59 98 a4 94 51 d4 bf 4e 97 5a b6 0c 9e c1 bf
       -0.3174792868971047 -0.13763579277036303
000300 96 28 9a 27 7f 43 d9 bf 4b 53 0c 74 89 6c c6 bf
       -0.3947446715107018 -0.1751872841492975
000310 8a 52 d5 17 e4 c0 a8 3f 60 ed cc 91 8e 6a c6 bf
       0.0483466414540646 -0.17512685889401336
000320 b0 ce 68 33 a8 48 e5 bf b6 b7 85 98 44 27 a5 bf
       -0.6651192669000547 -0.041315215700577765
000330 07 5f ae d9 b4 d5 e0 bf cd b7 72 d4 67 54 dc 3f
       -0.5260872127136914 0.44265170809637483
000340 c0 ff 20 e2 af 45 a1 bf 8d cc e1 db 69 ec e0 3f
       -0.03373479495394305 0.5288590712138032
000350 b8 ef f1 89 0b 27 dc bf 5f a9 67 56 d1 b7 a0 bf
       -0.43988312216947234 -0.032652417943455296
000360 02 34 9e 2f 70 17 d3 3f e0 9a cd b2 83 fd ac 3f
       0.2983055558223101 0.056621661736064643
000370 30 f8 c2 77 55 f9 dc bf 0d 41 70 5b 3b 05 da 3f
       -0.45271813102215486 0.40656932763614934
000380 78 fb ed 56 16 5a c1 3f 29 de e7 46 58 06 d5 3f
       0.1355617451153781 0.32851225780857135
000390 e0 94 d1 37 a7 ed b9 3f 68 0b 09 27 95 dd d2 3f
       0.1012825499797887 0.29477433025402044
0003a0 da 9f 86 3e 00 1f b7 bf d7 ea 44 2d 9c 37 df bf
       -0.0903167870188776 -0.48776916905232554
0003b0 1b a5 db 57 53 45 da bf 84 fd 99 f4 e7 a5 d6 bf
       -0.41048129634744307 -0.3538761032759441
0003c0 00 00 91 a5 0f 9f 1a bf e7 fc bd 6f 33 d1 be 3f
       -0.0001015523242964278 0.12037965276794048
0003d0 80 3b 15 45 7a ee 96 bf 9c 5d 49 27 fb e4 d7 bf
       -0.022394094912040696 -0.3733508952768376
0003e0 a7 da 05 1d 5b aa d0 bf f8 e5 25 0b 02 d5 b4 bf
       -0.26039769968285004 -0.08137524387520745
0003f0 a1 ab 53 e4 7c 9d cf bf 91 02 e5 8b d9 0f e0 bf
       -0.24699364804049842 -0.5019347889247731
000400 5f 5a 93 60 b9 e4 d2 3f 87 89 96 38 70 eb cc bf
       0.2952102130051681 -0.22593500865066238
000410 c4 dc 1e 82 ac 92 d2 3f 70 a7 c4 58 7d 5e de 3f
       0.2902022619923168 0.47451718968169754
000420 15 50 32 89 ff fe c9 bf 0c b9 dc d0 a4 82 df 3f
       -0.2030944270997003 0.4923488654775532
000430 1c a5 63 4f 6b ac c1 3f da 28 95 1c 50 c9 c4 bf
       0.13807431579997675 -0.1623935832561248
000440 52 70 91 e8 06 c0 d3 3f 1c 1e 0b 60 5e cb d2 3f
       0.308595397107415 0.29366263751259836
000450 f8 ef 9b ce 65 5e dc bf 48 62 c9 09 23 e7 b3 bf
       -0.4432615773837365 -0.07774561871463803
000460 a8 82 6d f5 fc db db 3f 74 45 16 f7 08 97 d9 bf
       0.4353020092731108 -0.39984344606008126
000470 b5 6f 66 08 c6 c4 d9 3f 88 45 f4 b7 35 b5 b6 3f
       0.402635105326904 0.08870254269665712
000480 60 79 cd 8c ab a5 9f bf 6d f9 d3 8b 08 3e df bf
       -0.030905418843184207 -0.48816121726112877
000490 52 f1 35 77 b3 5c 88 bf 29 9d 32 e5 bd 6d dd bf
       -0.011895563197633994 -0.4598231065997021
0004a0 cc f0 2d 4f b5 65 cd bf 80 11 6d c2 16 d4 b4 bf
       -0.22966638914284088 -0.08136121985177702
0004b0 00 69 32 1c b4 e9 77 bf 47 85 34 33 68 ba c4 bf
       -0.005838111453295491 -0.16193869114162338
0004c0 df 48 68 6a 01 10 c2 bf 09 fd 4d 28 bc d7 c0 3f
       -0.14111345000907868 0.13158370941162215
0004d0 8c 6a fb 64 ce a5 c4 bf f2 e1 b4 64 56 45 d1 bf
       -0.1613100045277246 -0.26985702356935726
0004e0 48 34 08 c4 a7 e1 c5 bf 2e c9 ad 34 cd 61 d5 bf
       -0.1709489543140157 -0.33409433502596897
0004f0 fd 1a 9b ca 4d f2 cf 3f ce db 42 d3 cf 9e dc bf
       0.24958202736726057 -0.4471931040856675
000500 29 c0 c9 9e f8 60 c3 bf f6 27 e5 2e d8 8e ba 3f
       -0.15139682534527424 0.10374213356877235
000510 33 41 0c 68 dc 80 d5 bf dc 2d a8 2c 66 c8 d1 3f
       -0.3359900489895324 0.2778563915350938
000520 40 36 d8 80 df f8 cd bf 4a b5 3d d3 ad 41 da bf
       -0.23415750304450178 -0.4102587283039908
000530 60 dc 43 27 7b a0 9e 3f 31 d0 49 5b 12 be d1 3f
       0.029909061690855387 0.27722605624080915
000540 61 3c 34 3d 47 53 d9 3f c4 71 6c 66 59 12 c1 3f
       0.3957079026885762 0.13337247372773053
000550 98 70 3e 48 7f ea db bf 88 88 26 dd 63 e6 d5 3f
       -0.436187573004426 0.34218689533930347
000560 8e 8c e0 af 07 f2 d7 3f c0 ea 82 4c 55 77 d2 3f
       0.3741473405409089 0.28853352042976255
000570 6c 7a 72 90 ef 53 db bf 92 4a 71 22 ba 04 d9 3f
       -0.4269980345360753 0.39091351855783174
000580 ec a6 4a f6 1e 3f d8 3f 90 39 05 83 02 1b ce bf
       0.37885259677805894 -0.2351992740390867
000590 c3 12 b3 a0 3b 3f b2 3f 00 35 59 6f 7a 1a ba bf
       0.07127735780074844 -0.10196652620762237
0005a0 10 40 ec e8 37 7e c3 3f 7a 3c 9d b4 6e cc bd 3f
       0.15228937981783064 0.11640064153219667
0005b0 a4 b8 10 b9 6b 65 cd bf 7e 72 8b ac 07 02 d0 3f
       -0.22965761696236087 0.25012389993734263
0005c0 fb ce a7 09 8d 83 df bf 48 91 38 2e 1f 46 b1 3f
       -0.4924042314807903 0.06747622374002049
0005d0 69 3d a6 cb 58 a7 c0 3f 2b 85 04 d4 60 05 c9 3f
       0.13010702079598538 0.19547663071083696
0005e0 81 fe b2 a7 8d 04 c1 bf 60 39 7d 93 a8 56 e0 bf
       -0.1329514569133501 -0.5105784302375405
0005f0 92 5d 05 4e d2 19 d7 3f 9d 26 60 47 fc f0 8b bf
       0.36095101947054176 -0.013643237045488471
000600 eb 92 13 dd 30 58 d4 3f 40 63 ea 98 21 5b d8 bf
       0.3178827437352953 -0.38056220944558916
000610 9a 08 80 62 51 09 d8 3f 8b 84 aa d8 f2 2b db bf
       0.37556872004655306 -0.42455741080090864
000620 68 21 5c 6d 26 11 ca bf 35 38 21 d7 57 7e d2 bf
       -0.20364837970579264 -0.28896137245908743
000630 fd 3b 3e 36 b5 0a e0 bf 08 1a 92 34 e3 de d4 bf
       -0.5013071116862872 -0.32610397466524477
000640 b0 ec 90 cf 75 4a ba bf b8 6c db b8 6b a4 db bf
       -0.10269867246181508 -0.43191044857457994
000650 49 f7 9d 4a ae aa bd 3f 54 c1 c1 bc 44 bd cf bf
       0.11588563272195275 -0.2479635163940751
000660 be 12 86 77 b9 c4 d9 bf f0 54 a2 63 2b 22 d8 3f
       -0.40263210937727567 0.37708554010289586
000670 b6 c4 d6 34 3d 2c d4 3f bd 86 97 ba 52 64 e0 bf
       0.31520013961842197 -0.5122464794514695
000680 ca 9f d6 86 9e cf e8 3f a4 eb 45 eb ec 3c ca bf
       0.7753441461145425 -0.2049842976374211
000690 32 14 bd dd a6 86 d7 3f fd f8 d9 e0 7e 9c b8 bf
       0.36759349493178484 -0.09613793363130081
0006a0 2d ed 70 68 42 4a c9 3f 9e 8d f1 d1 97 96 d9 3f
       0.19757871722854628 0.3998164701681278
0006b0 e5 1f a3 ae cd 99 db 3f fe 8e 21 ee af c5 d9 3f
       0.4312624173585376 0.4026908708094509
0006c0 09 34 a4 ed 11 54 db 3f c8 82 22 bd 5c 9a d5 3f
       0.4270062275616629 0.33754652471729374
0006d0 3b 00 ea e5 50 f0 d6 3f b6 33 71 a1 1c e0 d4 3f
       0.35841772511048803 0.3261787010749758
0006e0 b1 b5 53 af 9e f5 d7 bf 95 4c dc 19 4d e4 db 3f
       -0.37436644670273284 0.4358093979400988
0006f0 a6 9a 6e 09 35 a0 cd 3f dc 3e 29 2b e4 1d 7f bf
       0.23145163498448545 -0.007596865924440723
000700 f4 ec 97 5a 4d e8 ce 3f 92 7a 71 b3 05 f3 b6 bf
       0.24146429942616232 -0.08964572554530495
000710 28 02 b9 89 e3 cc bf bf de 53 06 1a 8b ff b7 bf
       -0.12422010528917637 -0.09374303231591294
000720 98 a4 56 25 f4 a3 a4 3f e0 77 95 02 ad fa dc 3f
       0.040313367422023905 0.4528000378830921
000730 04 3b 02 56 c6 87 d0 3f dc 38 e6 77 c7 f7 cd bf
       0.25828703307426815 -0.23412412027796037
000740 17 ab 69 ee de b0 d6 3f 96 72 4c 9c 67 cb b8 bf
       0.3545453384637524 -0.09685370984920846
000750 08 d3 1b 1a c8 72 d3 bf bd ba d9 00 b3 a9 cf 3f
       -0.3038807158439316 0.24736630956200215
000760 3b 9c 56 6b a0 8f da 3f 6a 77 c1 c8 de fa cd 3f
       0.4150162742830081 0.23421845247770118
000770 ea b2 56 dc 90 c0 d3 bf 30 31 40 dd 32 e3 d2 3f
       -0.30862828748176574 0.2951171074535237
000780 24 22 70 44 6c 27 c8 bf 4f 64 d5 c3 2a f3 d5 bf
       -0.18870309201908342 -0.3429667389332893
000790 69 e5 3c 73 0d 72 c3 bf bf 53 99 9d d3 18 ab 3f
       -0.15191810728883162 0.05292378710570444
0007a0 f2 2d a7 8c b7 f8 bd bf bd 3c 7c 70 bb 66 d0 3f
       -0.11707637008583285 0.25627027497189286
0007b0 bc d2 e9 16 ef 1c d7 bf 67 77 f9 92 28 c6 de 3f
       -0.3611409877551457 0.4808446345613135
0007c0 80 dd 4b 9f 13 9c d7 3f b0 36 0f 8d 2c 9d ce bf
       0.3689011626842884 -0.23917157066028016
0007d0 8c 11 ae 86 0d aa ca 3f 30 2b 47 3a 01 89 cc 3f
       0.2083146007172555 0.22293105455022433
0007e0 a7 76 92 49 10 2e d9 bf 99 19 31 2c 5d 37 d6 bf
       -0.39343650040414463 -0.34712914767842445
0007f0 00 73 cf c0 c3 c1 da bf 1d 08 9b f3 6b bb b4 bf
       -0.418076456347805 -0.08098482797052538

b5 f8 [1, 1]
000000 f1 41 53 37 f1 d2 c5 3f
       0.1704999466078472
