NeuralNetworksV2/weights_(30,30,30,30)_hidden.npz (npz, 51438 bytes, 20 tensors)

b1 f8 [30, 1]
0.32617218411901117 0.19253160058752897 0.0347974961165187 -0.07743471380726699 -0.44312631667119134 -0.8795646081340699 -0.02863543292894455 0.5723356283476826
-0.005300190156532569 -0.14940338358180552 -0.43471043834409395 -0.4302455802714876 0.1434752711484454 0.2510643054466072 -0.3906416935324408 0.18064536800999753
0.4064575755192754 0.578746521042091 -0.38991405809819196 0.05288622439586234 0.9454965044659102 0.22691179568810702 0.599088892266717 0.5484359854181222
-0.03007953359825349 -0.04364552785793152 -0.4894867643037273 -0.11868641103583077 0.798247888465008 -0.24723628413164372
00000000: 9efc e94b 01e0 d43f 0528 fc1f e0a4 c83f
00000010: 7d34 9b37 fad0 a13f ca98 60eb c2d2 b3bf
00000020: 9761 867b 2e5c dcbf d3f4 54ad 6425 ecbf
00000030: e018 bf5f 9b52 9dbf 54d8 c2ce 9250 e23f
00000040: d980 28f6 a6b5 75bf f5a2 326b a61f c3bf
00000050: babb faba 4bd2 dbbf eaee 20c2 2489 dbbf
00000060: dd03 afce 655d c23f 3283 4505 7011 d03f
00000070: c041 8b04 4600 d9bf f86e e32d 631f c73f
00000080: 7045 84a2 6603 da3f f895 916c 1785 e23f
00000090: 7d12 f217 5af4 d8bf c2d7 6038 e713 ab3f
000000a0: 973a a5e2 8141 ee3f 874d c71a 720b cd3f
000000b0: 5cd6 f577 bc2b e33f 7440 aa9f c98c e13f
000000c0: 2f6f 5554 2bcd 9ebf 206f 88e5 b458 a6bf
000000d0: 8099 204b c053 dfbf d0e5 e08d 3b62 bebf
000000e0: 4fdd e127 3f8b e93f c66f 5d45 70a5 cfbf

W1 f8 [30, 2]
0.26051279048488657 0.5304482948782185 -0.550994962955341 -0.38898493429023556 0.36879145660162194 0.4099204445886628 1.1953746105314966 0.542993069511892
-0.2783202835511614 0.4490839516147604 0.8474944916086764 0.4056577941364604 -0.45381805243906603 -0.4029479735534023 0.6356231039182106 0.04353257888003476
0.5889871756775881 0.17549925511888018 0.5147962503313191 -0.11409551498299174 0.29517438998034684 -0.47324680415955034 0.19510759452516613 0.04188765987436216
0.4250239280453723 -0.4290987720168502 0.17656669089140828 -0.43579531001438027 -0.2614554551540601 0.17443627099131598 0.32655157745962254 -0.016738491401701288
-0.12401082609991841 -0.38217859503469065 -0.557901708463496 -0.6706678285518433 0.535684439132526 0.43455472497611486 0.28870766464919867 -0.2939548608332211
-1.0770406095566716 -0.48105751035992117 -0.1001416072559303 0.07099493639095979 -0.6045275442906067 -0.1915887468005758 -0.3627434500301289 -0.26410262652307603
0.2951713552679203 -0.43570267797559087 -0.23398954007033268 -0.2920859907872264 -0.3822100191540557 -0.48777422951958127 -0.23112200461013319 0.31164901295965375
-0.7943060232241448 -0.4728832516896666 0.2497898960598843 -0.2934237101732136
00000000: 5da0 d4d6 3dac d03f b811 d7b3 6ef9 e03f
00000010: ecec 4430 c0a1 e1bf 0773 da10 21e5 d8bf
00000020: 9c7b 497b 479a d73f e715 def5 223c da3f
00000030: 6839 ab20 4120 f33f 6d43 7000 3360 e13f
00000040: 959a eae0 ffcf d1bf 8301 569d cabd dc3f
00000050: 2efb 9fc4 ac1e eb3f 12c0 cb1b 4cf6 d93f
00000060: 58da 63df 5a0b ddbf 7caf 194c e6c9 d9bf
00000070: a724 7d43 0657 e43f 2959 33f5 e649 a63f
00000080: 858e 29a2 fbd8 e23f 239e 9a74 c276 c63f
00000090: a3d8 68fc 3579 e03f e7e3 7819 5d35 bdbf
000000a0: 0e45 e51f 23e4 d23f 7450 b3f6 ac49 debf
000000b0: a0e9 d720 49f9 c83f f05f 88a2 4c72 a53f
000000c0: ad3a be8f 9733 db3f 803b 24b2 5a76 dbbf
000000d0: 5f84 78c1 bc99 c63f b3c3 1003 12e4 dbbf
000000e0: c2d6 4fa9 afbb d0bf 2c6b 927f ed53 c63f
000000f0: cf5c 6996 38e6 d43f 8b65 9e24 e523 91bf
00000100: bff7 726a 2cbf bfbf 32ef b935 9d75 d8bf
00000110: b776 07af 54da e1bf 0a81 c360 1c76 e5bf
00000120: 129c 61b1 5324 e13f 5d0f 069f becf db3f
00000130: 4576 71b6 2f7a d23f c2d9 710c 28d0 d2bf
00000140: 2e28 28ef 8e3b f1bf 3e6d 9f70 a5c9 debf
00000150: a412 2260 e1a2 b9bf e913 fb61 b92c b23f
00000160: 934c 0826 4a58 e3bf ec21 e5e4 fa85 c8bf
00000170: 63ed ad4d 3037 d7bf 7a13 edb3 0ee7 d0bf
00000180: a9de 6565 16e4 d23f 79d3 2b7c 8de2 dbbf
00000190: 00a5 1a87 5ef3 cdbf dc41 8370 89b1 d2bf
000001a0: ce17 1e03 2176 d8bf 9490 e766 b137 dfbf
000001b0: afde 97e5 6795 cdbf 5e83 9fb3 0ef2 d33f
000001c0: be6e 1877 f46a e9bf 0c54 351d b843 debf
000001d0: 8f66 3985 1df9 cf3f e527 c43d 74c7 d2bf

b2 f8 [30, 1]
0.22061034054193124 0.3635381046810441 -0.38241644825662663 -0.1727567131905374 -0.30924227818780253 0.1461955567013103 0.5472812675011228 -0.12235498412313561
0.18885312951293723 -0.10791491971423087 0.2586685273546445 -0.07380542387681599 0.30224596197825415 0.3620477563393396 -0.4793505881402401 -0.3820260985523639
-0.05065965391490788 0.1226761696792027 0.33948556276127423 0.5403915088288801 0.2788512005689334 0.44962803603115997 -0.19240088071738393 -0.16075116349544472
-0.24317355371957639 -0.2854550728045693 0.46366600853362994 -0.03858160723722939 -0.18089316132787936 0.10839585251284313
00000000: febc e4aa f53c cc3f 3a1d 9d53 3544 d73f
00000010: 71bd add6 8279 d8bf ffad a858 e41c c6bf
00000020: 7bdb d61f a0ca d3bf 5a23 6d37 89b6 c23f
00000030: 1b2f 3401 5483 e13f 48bc 4fff a752 bfbf
00000040: 41ae 80df 562c c83f 724f ecea 4fa0 bbbf
00000050: 1088 5f70 068e d03f e07e d189 e9e4 b2bf
00000060: badb 8272 ff57 d33f 3854 445a ca2b d73f
00000070: 565d d816 aead debf 5a0e e097 1d73 d8bf
00000080: 2d19 95e9 0ff0 a9bf 104e c598 b467 bf3f
00000090: 6786 61a7 21ba d53f a998 2e22 e34a e13f
000000a0: c035 b9b4 b2d8 d13f 3096 87ab b4c6 dc3f
000000b0: ac8d 3391 97a0 c8bf 94e1 007f 7e93 c4bf
000000c0: 9c24 3d9e 4f20 cfbf 3011 8b5a e544 d2bf
000000d0: 94cd ba31 b4ac dd3f a43d 9fea f7c0 a3bf
000000e0: e494 fcd1 8127 c7bf 3990 90a1 d4bf bb3f

W2 f8 [30, 30]
0.342558092777665 -0.2084598921796154 -0.009127132159161151 -0.26124601502881545 -0.18039275220135215 -0.5988960472282142 0.31937807997587886 -0.16980748685286934
0.1701746514039101 0.3804071289135596 -0.1495570375341252 -0.21767946672339888 0.007708491690333858 -0.3295042539507051 0.3241303839080816 -0.013866500167757093
0.17346255570818628 0.05297775933393388 -0.39093018135709545 0.3099641827649109 0.520995856781643 -0.49584029727818296 -0.592121487201589 0.28850510022915055
0.21148549318742735 0.09380785786119339 -0.3580996595764532 -0.08278090515878689 -0.5179077981990489 0.12185383404992113 -0.12987989602627303 0.33449332505594026
0.1356629852529971 -0.5109008122155376 -0.03597021238960345 -0.574383430644771 0.19896204075882573 0.3956054691453212 0.22337549889606323 0.48375205605513055
-0.2660507070581225 0.2045967385867402 0.18551797116213653 0.04546256859598325 -0.1222071710157091 -0.06487858813553476 -0.3446414990029133 -0.42661908669905135
-0.16847893746500855 -0.3342841095287102 0.5059398867476887 0.16802574671228307 -0.0576535240270093 0.18629366818449355 -0.1731482526920212 0.22774713738670804
-0.2770403211495588 -0.5063878581488399 0.052580147742727706 0.23715227071236444 0.5599766127727974 -0.3841153754303238 -0.17696930286314944 0.7488446846023233
-0.18995869291474296 -0.10113558552049814 -0.08909759397657957 0.68446012099901 0.26873591700577587 0.19175019562196885 -0.22853854267005858 -0.2097859886264205
0.3564453994629235 -0.4013244006336682 -0.37500606727783037 0.3991267681276731 0.25890236249348214 -0.6023175880642727 0.1932326666662305 0.09290015516751803
-0.5376104558940132 -0.4505755017032606 -0.21909269242118867 0.34163751083620725 -0.0559523740799791 0.46624572721018287 -0.19009362957961062 -0.13251695397263147
-0.048499635629842885 0.2010926318727381 -0.2829091194266331 0.10145151345665815 0.08565507975008577 -0.3627315043479886 0.10682898460996637 -0.12220676113028195
-0.2849900092538038 0.39427793952698975 -0.16106621385584055 -0.08218732263907148 0.3374879924427524 0.15469542892911003 -0.009844259797755075 0.13690315863706404
-0.1037705955180861 -0.3655323714656617 0.38212670683518357 -0.10496651541813978 0.0995415226896694 -0.4021899332580507 -0.42740037809256776 0.08473631972176335
0.09749468411051705 0.24118793886972092 0.1626861237731782 0.1541166049337449 0.03414283195951118 0.32431903565806464 0.015393289504980891 0.2477914903382031
-0.13597771154374882 0.38324915461737713 -0.1726770730878597 -0.19244917870736725 -0.31854878570693423 0.4267969006486779 0.49725541069228063 -0.38887957961271835
-0.4456006119471535 0.001750330954581658 0.21782434495532754 0.06651147229603216 -0.29004890573355946 0.4282882465481936 -0.4773852688467768 0.27478908667400037
-0.42027594477161256 0.4678792995352893 0.11671222218053068 -0.41629620869251655 0.5145996822784569 -0.3134740646728358 -0.3802559596083804 0.08468636962872811
-0.4517249351915387 -0.16119182311211222 -0.3568501708953814 0.14601350581922512 0.30769207476297517 -0.1843835935986603 0.5157295198377583 -0.24734775374125087
-0.14997971025693296 -0.35196008304743 0.019384354532686363 -0.39398165902710314 -0.08788995448477321 0.32791279778412996 -0.47718899435415046 0.025547407954565293
0.01927691416374866 -0.17126334836655566 0.21056062359636726 -0.2592576394187846 -0.085112352812449 0.22396804586295233 0.4330669483403893 0.3739553442451842
-0.2528556012013848 -0.19452097022817788 0.04409802611073941 -0.21538756284096497 0.22323913755843716 0.5981719449970185 -0.16830747216214983 0.18880841929774506
-0.4359125960216209 0.43312690728237885 0.30007718199793715 -0.3986308264877718 -0.28844959956757105 -0.17862997659751745 0.39476693305210236 -0.3643343301855875
-0.30671699018412557 -0.607925692614657 0.39736644958845035 0.13730925542774006 -0.15147782085135975 -0.2803837760528733 0.014586339328287345 0.27267427495787533
0.04216517656296759 -0.03213024544316755 0.35171178760357646 0.3926512862214037 0.3217806283031585 0.4455621116924324 -0.26662178846213946 -0.4852689740832964
0.7391720394242831 -0.17320860904348115 -0.3133490632602448 0.19503202763722702 0.2052161167481088 -0.22749524226706797 -0.36114336940149583 0.3233101886709365
-0.11591450074590387 -0.19223652774104982 -0.43272895019152835 0.10844864715283897 0.1987691500721126 0.06457754398954285 -0.06864049157095864 -0.33738664356798354
-0.3015476683412477 -0.09852906101605607 0.44164418049721277 0.3662019721536719 -0.44933424079794293 0.258864382869315 -0.4806932835015221 0.40038388484980236
0.14057029305492696 0.015605166954956506 0.00619636624705544 -0.03674392021932449 -0.3981500596749934 -0.2620348105859496 -0.1622306992696726 -0.24562424045355058
-0.1289675856538065 -0.08806084198624964 0.3849626810885556 0.21835604625904137 0.4597809147556271 -0.10677019337267357 -0.23104283693038719 0.3782321179578163
0.4566223273502327 0.1219085181039377 -0.4095558717499012 0.4911251056958353 -0.3312166086987876 -0.26504720260680265 0.3421626555822793 0.3894773160557397
-0.3974931252398941 -0.012924647500760316 -0.1915232699149736 0.050956861963715294 0.41856670735924245 0.09356342355279135 -0.40164449502531174 0.30716438075357066
00000000: 0074 5dc7 78ec d53f 8e35 b851 d0ae cabf
00000010: b7f7 09f1 3eb1 82bf e194 b034 41b8 d0bf
00000020: 5ef3 9115 1c17 c7bf 3190 110b 282a e3bf
00000030: 2290 23c2 b070 d43f 3613 5371 40bc c5bf
00000040: cda9 3171 48c8 c53f ed55 7624 9758 d83f
00000050: 4c40 8c5c af24 c3bf 5c3a 4bb7 ebdc cbbf
00000060: 2130 627b f092 7f3f 331d a702 9916 d5bf
00000070: d09b a15d 8dbe d43f e20d d825 0a66 8cbf
00000080: 4d72 ec61 0534 c63f 8e5b 829f e61f ab3f
00000090: 3ead fc05 0005 d9bf b406 fa02 74d6 d33f
000000a0: 2751 c780 ffab e03f 5351 36f1 d8bb dfbf
000000b0: 4845 d9c2 a8f2 e2bf 68a8 8d18 de76 d23f
000000c0: 5bc2 68e6 f411 cb3f f023 9fb1 ca03 b83f
000000d0: 00bc a5d5 1aeb d6bf 90e8 6320 2131 b5bf
000000e0: 0d77 f35f b392 e0bf b1f9 2218 d031 bf3f
000000f0: d09c eb88 e79f c0bf ab1d f6b0 5668 d53f
00000100: b73c 789a 675d c13f f6e5 fea8 4c59 e0bf
00000110: f6e1 af0b b06a a2bf 7479 3f5c 5961 e2bf
00000120: 882f 1a91 9677 c93f db43 069a 9951 d93f
00000130: 483e 3e7f 9197 cc3f 754a 082f cbf5 de3f
00000140: a61b 798b f906 d1bf 7095 8cd6 3930 ca3f
00000150: 4417 7b89 0dbf c73f f9b1 9faa de46 a73f
00000160: e061 d91a f848 bfbf e4b5 4016 e29b b0bf
00000170: a6f6 c337 9b0e d6bf 3432 4e24 ba4d dbbf
00000180: ad0f 3dc3 b790 c5bf 05e4 7f2d e964 d5bf
00000190: 3458 6ad8 a830 e03f 3bf3 811f de81 c53f
000001a0: 61eb 6340 c384 adbf 80f2 268e 78d8 c73f
000001b0: b9fc 55d1 b829 c6bf 1cb1 6a75 d126 cd3f
000001c0: 2eaf c053 07bb d1bf 76e7 3a4f 5434 e0bf
000001d0: 449e f2fd c8eb aa3f fcdc 706f 015b ce3f
000001e0: e649 cc12 54eb e13f d24b d7a7 5895 d8bf
000001f0: 02b9 181c eea6 c6bf 30d0 c420 89f6 e73f
00000200: f771 d402 9150 c8bf c6b8 4590 05e4 b9bf
00000210: 381d 4894 19cf b6bf 246c 63e9 18e7 e53f
00000220: 6339 b321 f832 d13f b556 9939 458b c83f
00000230: 005b 523f c040 cdbf d49d 276c 44da cabf
00000240: b72f 605d 00d0 d63f efbc f389 4caf d9bf
00000250: 80a1 b072 1900 d8bf 0c42 0400 4b8b d93f
00000260: ad10 f136 db91 d03f 3555 d188 2f46 e3bf
00000270: 98d7 ec17 d9bb c83f 77e1 3cf8 4dc8 b73f
00000280: 91ad c1d7 1a34 e1bf 5b6f 0ca1 3ad6 dcbf
00000290: 80ec 5eb6 3a0b ccbf fb36 0894 63dd d53f
000002a0: 0f38 9d21 caa5 acbf 461e 9151 f8d6 dd3f
000002b0: 7c76 1cf1 fc54 c8bf c22e bdc7 50f6 c0bf
000002c0: a8d2 cbb9 f1d4 a8bf bd13 ae42 67bd c93f
000002d0: f05c ebd9 2e1b d2bf a811 6df4 b9f8 b93f
000002e0: c64c 43c6 7ded b53f d4d2 1933 fe36 d7bf
000002f0: 5029 2af3 2459 bb3f d096 673a f148 bfbf
00000300: 04a3 5bbc 463d d2bf 385f f389 d93b d93f
00000310: 212d 8054 d19d c4bf d16f e176 3a0a b5bf
00000320: 7265 953c 6799 d53f 18ad 0b50 0fcd c33f
00000330: 0ed6 132f 3a29 84bf 6c5b 88ee 0a86 c13f
00000340: 3060 09b2 b590 babf ffc1 44e3 e164 d7bf
00000350: 3e42 3293 c374 d83f 9c5f e5e6 15df babf
00000360: eed1 8ba0 8d7b b93f 87eb 87d8 7abd d9bf
00000370: c528 8d1d 875a dbbf 0a06 fd89 47b1 b53f
00000380: 8ddc c95f 69f5 b83f e94a d112 3fdf ce3f
00000390: 1e35 8f1e e6d2 c43f 9c01 fbc8 17ba c33f
000003a0: 805e 5155 2b7b a13f 0ac9 e7a0 a4c1 d43f
000003b0: 0e97 0358 8486 8f3f 3b66 9dad a1b7 cf3f
000003c0: 805c 08b8 b767 c1bf 3548 5376 2787 d83f
000003d0: c736 d746 481a c6bf 8958 58b8 2ca2 c8bf
000003e0: c4ac 3272 1a63 d4bf b27e 94f2 a350 db3f
000003f0: 58ac ab5b 08d3 df3f e634 212d 67e3 d8bf
00000400: c6ff d86d b884 dcbf 0034 418d 6bad 5c3f
00000410: 5c89 ed0a abe1 cb3f 18fd 5156 e506 b13f
00000420: 3a70 1749 2990 d2bf 1fe2 0b1b 1369 db3f
00000430: 3080 52f1 7a8d debf ac00 24f7 2496 d13f
00000440: a6bb 8513 cde5 dabf 66af 7e04 bcf1 dd3f
00000450: c811 4f29 dae0 bd3f 1f1f 72da 98a4 dabf
00000460: f45f bdc0 9977 e03f 487f fa85 f50f d4bf
00000470: 4122 a817 1d56 d8bf 40ec f883 01ae b53f
00000480: 3ddd dbb3 0fe9 dcbf fc16 5304 efa1 c4bf
00000490: c654 6419 a2d6 d6bf d049 2210 92b0 c23f
000004a0: 771a 9619 3ab1 d33f fc6c 36b0 e199 c7bf
000004b0: 5a1e a931 db80 e03f d563 8758 17a9 cfbf
000004c0: 92fc 4eff 8832 c3bf fae9 8b95 8386 d6bf
000004d0: f97b 1603 7ed9 933f deb1 2fd9 fe36 d9bf
000004e0: 28b6 28c0 f47f b6bf 820d 9bf5 85fc d43f
000004f0: f7c7 30b5 438a debf 9353 a686 1929 9a3f
00000500: e0b9 9acf 53bd 933f 9c70 1e18 f5eb c5bf
00000510: 57fc 1588 a6f3 ca3f 83ad a25a ad97 d0bf
00000520: 38a9 d053 ecc9 b5bf d24a 2a24 fcaa cc3f
00000530: 7c6e 066f 5eb7 db3f a4a3 6c65 e2ee d73f
00000540: ad4d 7142 c92e d0bf 4a13 c22a 10e6 c8bf
00000550: 8d74 ed37 0494 a63f c9fc 2ed5 d191 cbbf
00000560: 0418 809d 1993 cc3f 73b3 a47d 3924 e33f
00000570: 41ef 4d68 198b c5bf 48f0 0bd1 df2a c83f
00000580: d6f2 f4f1 fde5 dbbf 83e8 72eb 59b8 db3f
00000590: 293f bdec 7634 d33f c850 bcde 2a83 d9bf
000005a0: 07f8 2b4f f575 d2bf a029 c9d9 58dd c6bf
000005b0: 6710 c086 dc43 d93f 2c42 3df0 4051 d7bf
000005c0: d0f9 7d4c 40a1 d3bf 00b3 0595 2074 e3bf
000005d0: 48a4 60b0 736e d93f 5308 c084 5993 c13f
000005e0: b41e 500f a063 c3bf 1378 1ecb cef1 d1bf
000005f0: 401b 1153 71df 8d3f bee4 59cd 7e73 d13f
00000600: 006c bc8c ac96 a53f 7f1e c822 6073 a0bf
00000610: f800 5828 7282 d63f af68 43dc 3221 d93f
00000620: f318 c3c6 0d98 d43f 8890 83f2 1684 dc3f
00000630: 8a23 76d5 5410 d1bf f2e0 5c99 a50e dfbf
00000640: c63c ee1e 4ca7 e73f 7d1b 9d1f b32b c6bf
00000650: d2d6 bb3a e90d d4bf 3fee 2f3a cff6 c83f
00000660: 98ca 058f 8544 ca3f 002e c468 901e cdbf
00000670: 78c9 2f14 f91c d7bf 6a89 b337 1db1 d43f
00000680: 9cf8 d59d 92ac bdbf b048 dfdf 349b c8bf
00000690: c4b8 46c4 d4b1 dbbf 801f d160 4ac3 bb3f
000006a0: 64b8 817b 4471 c93f f0b7 7d67 2788 b03f
000006b0: 9087 7a5a 6c92 b1bf 24d4 0e26 be97 d5bf
000006c0: 547c 6d97 8e4c d3bf 3001 c556 3339 b9bf
000006d0: 6e12 edf3 e543 dc3f c65d 8865 da6f d73f
000006e0: 52cf 4c67 e4c1 dcbf b277 a1ea 3b91 d03f
000006f0: ecef 02c3 adc3 debf 069f d1ba e39f d93f
00000700: d4e2 ba15 35fe c13f 40e2 c20d 9af5 8f3f
00000710: 008a 2966 5c61 793f 2071 565f 19d0 a2bf
00000720: 4417 4d63 4a7b d9bf 5455 78a7 2dc5 d0bf
00000730: 449e e2bd f9c3 c4bf dc29 ed77 9d70 cfbf
00000740: 5c47 5085 0282 c0bf 60a0 63c4 278b b6bf
00000750: 382c 5d83 3aa3 d83f 4c81 c846 17f3 cb3f
00000760: 10d3 0cee 0c6d dd3f 8825 b998 4a55 bbbf
00000770: 50a8 4bca cf92 cdbf 9c3d 3b7c f434 d83f
00000780: 13ee a5da 4c39 dd3f 7338 5c8a 6535 bf3f
00000790: f73c c3d4 2936 dabf 6d52 cdfe 976e df3f
000007a0: 6d36 9025 a732 d5bf 93eb c58a 88f6 d0bf
000007b0: 92db e831 fee5 d53f 8991 bf43 32ed d83f
000007c0: 4492 5201 8770 d9bf 96ef 9fd2 3c78 8abf
000007d0: f098 5aa2 d583 c8bf c029 488f 0417 aa3f
000007e0: af59 d303 ccc9 da3f 30d3 42c4 c5f3 b73f
000007f0: 3423 b01c 8bb4 d9bf 984a 75ca 94a8 d33f

b3 f8 [30, 1]
0.06432367137784278 0.014394053701137118 -0.03331095071968733 0.05563444330508785 0.0002594948858127949 -0.3241915282579741 0.24196423748325227 0.24596907638887827
0.28749840117281256 -0.0418530783076854 0.13284393776662445 0.27925222622421886 0.12007310715415757 -0.41015764649187014 -0.15881999378429346 0.08978572377345999
-0.39502389864930487 0.3486999087632882 -0.3988174537768583 -0.4959739615443546 -0.12822061857247624 0.32536058637288134 0.4890658626503112 -0.3504966489699032
0.18744330414321886 0.11435438148261513 -0.4921242637804822 -0.24238062083569692 -0.4413528949874767 0.2200215388833241
00000000: 302e ed20 8477 b03f 04dc 392f a17a 8d3f
00000010: 9a23 e107 220e a1bf d493 0d25 1e7c ac3f
00000020: d7b0 4c0c 9a01 313f 4f87 e0d2 8dbf d4bf
00000030: 0965 6523 aff8 ce3f 8a72 7529 ea7b cf3f
00000040: 1021 acb1 5f66 d23f 050a 2345 c46d a5bf
00000050: 3afa 16b8 0701 c13f 36f7 bdba 44df d13f
00000060: 9b30 5b74 1cbd be3f 28c3 78db 0540 dabf
00000070: 4492 a0ab 3654 c4bf 0b34 417b 32fc b63f
00000080: 6894 7551 1248 d9bf 9b6a 106c 1951 d63f
00000090: 14eb 42a4 3986 d9bf 4009 2092 09be dfbf
000000a0: d488 b881 8869 c0bf 0a40 7835 b5d2 d43f
000000b0: 4f14 6be7 da4c df3f 9ebb 2b7f 896e d6bf
000000c0: 781c 9366 24fe c73f 9144 9f28 5446 bd3f
000000d0: fd55 a0c4 f67e dfbf 1135 d603 5406 cfbf
000000e0: 27d5 7d36 203f dcbf 2cb1 f570 aa29 cc3f

W3 f8 [30, 30]
-0.4477403718354269 0.2613363957727258 0.17982042886544092 -0.35317146064375715 -0.2010898382965205 0.1496959863451447 -0.4613097452136118 -0.21872689178651028
-0.011460026441478366 0.15317663899826583 -0.32089098941896654 0.02662882738437633 -0.42201063520454873 -0.2741452961866456 -0.2730428998595614 -0.030830641180980112
0.41193107427827425 -0.13373175526522318 -0.27243771355058477 -0.04099040417254507 -0.027463537331448906 0.11504867063758217 0.45383096448911175 -0.0008289695862917501
-0.3077022018207417 -0.11453446267574718 -0.16235100621982368 -0.49481172987669353 0.18140618972720046 0.006766914412583924 0.408834257220229 -0.08681528526250748
0.23890785988972252 0.05464514942813014 -0.05176553397999888 0.19369040096716703 0.1974832617247469 0.0690550726104604 0.28430986274350734 0.44094373280564253
-0.10690693563215041 0.22058235005985438 -0.019746781852007164 -0.6331031365231524 0.414972218895594 -0.34484875154262146 0.12241956793317077 -0.16332658892332888
-0.26824607987495824 0.06864716956201285 -0.3307090694348958 0.29099513083727707 0.3510167914178637 -0.40044119890663654 0.48056428004337637 0.2305903668345833
-0.14800833924809953 -0.12270993884138809 -0.03866104306545816 0.24984061739511434 -0.07850008155065277 0.3706821126453858 0.14832396709318543 -0.26149289024967043
-0.49122770889991196 -0.4551189658185927 0.08767241977685253 -0.4952847368894312 -0.24476218953592943 0.12592097117952353 0.5022751717247542 -0.15519243338111988
-0.22587008418206161 0.089732786382504 0.19184674017754466 0.4573262550697004 0.3304113811960124 -0.5004994930190516 0.43183170102867874 -0.05434515656374802
-0.38194819511830025 0.39652888601369135 -0.11685137683359681 -0.4259132991719492 0.12622999410681712 0.01526907134647797 -0.1700122745760765 0.04070398014888224
0.29592817922415615 -0.49128919924971826 -0.11808556993723957 0.1443141228991216 -0.21504518372019923 -0.1726302121011368 0.22333394566395073 0.24756308001618385
-0.0800982899874424 -0.09025117301178476 0.06048254728357367 0.45118475745433745 -0.20357067783722918 -0.015035407781381127 -0.41482151227498054 0.13595844031932897
0.15433565548961925 -0.5434547051705892 -0.2355587483130535 0.2466708677211889 0.014966237473080376 0.04396007028590373 0.11896866290145726 0.039698701496823294
-0.12666140639090617 0.3108355325807234 -0.4153147209154462 0.3281386710280791 0.25426857048604656 0.4178509683460767 0.528693068484447 -0.40463440330709816
-0.12234263345377554 0.278359556608904 -0.4419534053130144 0.009671614412268145 0.36839749128539145 0.08308361973714763 0.12484810368015628 0.16157079532826413
0.08841853631865568 -0.14327258587812378 0.10581670334120089 0.09033737822725729 0.40864024567557977 -0.06298020875826475 0.16926687569537224 -0.40646464074514643
0.3405871485440216 0.055152480571016675 -0.09615950662642592 -0.06698878078198149 0.38152726967904904 -0.2929643173379567 -0.05090712079141946 -0.16293453965701532
-0.31511559120514965 0.14512264986370413 0.4320565329549315 0.3464301262885141 0.12584662472639407 -0.10533102689823676 -0.1304079782867243 -0.4166557478843797
0.2723693903939833 0.14379538427875826 -0.004746430456126214 0.3063517282675894 -0.2651777479168984 -0.2926127669458882 -0.47236793992206794 0.14356897288828274
0.27888705576300593 -0.3265934123954849 0.42954888956675785 0.12632258652596265 0.3865215431201462 -0.020507915068979504 -0.0006877545872407136 -0.19080127233234967
0.2982169021645463 -0.0002678734518674932 0.1511327699793635 0.04707284785151399 0.28045564101230147 0.2866406712590004 -0.44981700587411955 -0.21046929004745948
-0.23663172291232976 0.03940314201273624 -0.14024455118016352 -0.09467931421160991 -0.42265369585563384 -0.45031971388725883 -0.4777376954685721 -0.07441395966380071
0.6458382007385404 0.445630511000687 -0.17592521381284712 0.429164758936598 -0.12623804963099997 0.028011702139709393 0.2586488154153715 0.3071743749694196
0.2858042283252945 0.10675067193579961 -0.10804478209495805 -0.3201972976969559 0.35016591698599814 0.41002614645319474 0.5149280155898432 0.34823626970201843
0.531887164304827 0.045593989050772804 0.10091944853277346 -0.4708930064491489 -0.23129482941541568 -0.4383536325604857 -0.5540546025734826 0.21693524301912312
-0.39034595023052543 0.0068988661111335555 -0.5247335982171962 -0.3663548340032394 0.1798556340094038 0.2087934021147594 -0.17307407173334804 0.20093492362591212
-0.578339506859643 -0.21867918824278454 0.21467193032178722 -0.1695307874487637 0.16819407503093314 -0.30829180915106824 0.2951605574008031 -0.2544214666834286
-0.43873659153629296 -0.09689029288903767 0.309108314566159 -0.3296073669464914 0.09639378099378465 0.08324638371909474 0.35255617308643233 0.27973900446304406
-0.44153722299079456 0.23672668294433985 -0.05837805262565432 0.25897528380426865 0.11191064880836835 0.4670853378499161 -0.4345903694128378 0.02164106721096504
0.09505216081712382 0.2756260969603684 0.2236080332693201 -0.1642450720560836 0.11108850622301544 0.12342188596059034 -0.4659721544199797 -0.4321364311417353
0.524029511806052 0.43342624786339445 0.40552197012533936 0.21608621258040273 -0.25094450143609953 -0.40597494735333933 0.37584507522712607 0.29473513314278177
00000000: 5073 883b c7a7 dcbf b24b 464a bcb9 d03f
00000010: 149c 9016 5b04 c73f 7a1c 5678 5c9a d6bf
00000020: 584f 85d3 4fbd c9bf 24f1 d8f2 3c29 c33f
00000030: 0230 414f 1986 ddbf 1449 7d27 3eff cbbf
00000040: 0035 38b6 5a78 87bf b81e 81c7 4a9b c33f
00000050: beac 485c 7a89 d4bf a0a5 fc5a 9644 9b3f
00000060: 6022 31e5 3802 dbbf fe53 5eb6 988b d1bf
00000070: 0251 53ed 8879 d1bf e01b 594e 1192 9fbf
00000080: 30ce 0e27 145d da3f ec80 a645 1f1e c1bf
00000090: ce64 7997 9e6f d1bf 00e7 bdba b1fc a4bf
000000a0: 4027 afca 661f 9cbf 6031 d665 d473 bd3f
000000b0: d224 9907 910b dd3f 00a8 99a1 e629 4bbf
000000c0: b68b 6e93 64b1 d3bf 700f 756b 2152 bdbf
000000d0: 38ea 17f3 eac7 c4bf 6ed8 5fd1 feaa dfbf
000000e0: 4ccc 156a 5138 c73f 00d1 8cc1 9fb7 7b3f
000000f0: 93b3 0f29 572a da3f 40d1 feca 8639 b6bf
00000100: 28ea 7d62 8894 ce3f 7f92 5bf3 72fa ab3f
00000110: b715 0217 0381 aabf 7bff d9d8 d8ca c83f
00000120: c2be 4eab 2147 c93f 001e 7cde 97ad b13f
00000130: a278 9afe 2132 d23f 7db0 f10f 6c38 dc3f
00000140: 2373 41c0 405e bbbf a47b cadd 0a3c cc3f
00000150: 7cc0 0519 8038 94bf 3395 4b82 6142 e4bf
00000160: a4ed 39a3 e78e da3f 8b49 7c7f 0012 d6bf
00000170: d0d5 a988 e356 bf3f 7118 ffba e2e7 c4bf
00000180: 29f6 159b f12a d1bf 0558 3b64 dc92 b13f
00000190: 81a9 6d5f 562a d5bf 3772 8f0a aa9f d23f
000001a0: 1824 df21 0f77 d63f 2c9a 511f d4a0 d9bf
000001b0: a25f 9aae 90c1 de3f fbe0 2932 fc83 cd3f
000001c0: d88c 4df0 eff1 c2bf bcc9 3726 eb69 bfbf
000001d0: 02d7 3057 61cb a3bf dd54 7600 c7fa cf3f
000001e0: 964e fed2 9418 b4bf 2f8b c177 41b9 d73f
000001f0: 3d69 f09d 47fc c23f 0791 f0ac 4cbc d0bf
00000200: e84d 2758 4670 dfbf 8ebb 7e4c ab20 ddbf
00000210: 6ce8 b31f b371 b63f 027a c9c0 beb2 dfbf
00000220: 7455 ad0f 5e54 cfbf c95d 8caa 2d1e c03f
00000230: bed1 8461 a312 e03f 60b2 fa7c 58dd c3bf
00000240: da75 5a98 4fe9 ccbf 954d e456 baf8 b63f
00000250: d410 7419 6f8e c83f dd18 4857 d544 dd3f
00000260: d1a2 1dc7 7525 d53f 16ce 4583 1704 e0bf
00000270: 94d4 526e 21a3 db3f db4b 46dc 20d3 abbf
00000280: 2a28 b3d7 d671 d8bf 8947 56b1 ba60 d93f
00000290: c02c fec9 f8e9 bdbf c4ff b7da 2942 dbbf
000002a0: 4c45 3bf0 4d28 c03f da59 9610 6445 8f3f
000002b0: 6585 9c53 f6c2 c5bf 44eb 1cef 26d7 a43f
000002c0: 8ce2 eebe 7cf0 d23f d2f4 e940 4871 dfbf
000002d0: 0c8d 021d db3a bebf 80f0 199b e278 c23f
000002e0: e9ca 9ebf 9986 cbbf 8b51 a32d bf18 c6bf
000002f0: b94d 5bec 3496 cc3f cfea 2ea2 25b0 cf3f
00000300: b82a f64f 5281 b4bf 80e1 826c b31a b7bf
00000310: 199a 1f85 91f7 ae3f a715 6e08 36e0 dc3f
00000320: 4523 de9d 9a0e cabf c0db 9f45 e2ca 8ebf
00000330: d07d 3987 6f8c dabf 1eb2 640f 1667 c13f
00000340: 34a2 7750 45c1 c33f 8114 321f fb63 e1bf
00000350: 0248 2500 ca26 cebf 7a85 de36 e992 cf3f
00000360: 91ab ed63 9ea6 8e3f 1b67 6a30 ef81 a63f
00000370: 911d 69f4 ba74 be3f 3ebb 3e61 6353 a43f
00000380: a0a1 0ee3 7036 c0bf de9c b7b7 bae4 d33f
00000390: f444 f831 8494 dabf 8b95 2757 3900 d53f
000003a0: f0d8 a8ae ef45 d03f 407e e9fc 11be da3f
000003b0: 1f67 d8b9 0deb e03f e996 42b2 87e5 d9bf
000003c0: cb29 97c9 d851 bfbf f283 0a9a a4d0 d13f
000003d0: f636 8bef f648 dcbf f83c cd1c b6ce 833f
000003e0: eaf2 3f12 d393 d73f a1b6 9ad5 f744 b53f
000003f0: 8e1d 469a 0bf6 bf3f a838 f610 5aae c43f
00000400: e64b d9e1 98a2 b63f 2d44 618f c156 c2bf
00000410: ea92 38b0 cd16 bb3f f8aa 17b5 5920 b73f
00000420: a462 c06a 2927 da3f d378 e990 781f b0bf
00000430: 3430 b477 89aa c53f 50c5 be44 8403 dabf
00000440: 4ece 1b0a 2ecc d53f a70b b128 f23c ac3f
00000450: 68f5 28d0 e89d b8bf 7b53 a83e 2d26 b1bf
00000460: a06f 735a f16a d83f a622 7768 edbf d2bf
00000470: b086 dd85 7f10 aabf ec9b 9bfb 09db c4bf
00000480: 86e4 ab95 da2a d4bf 6767 8905 6193 c23f
00000490: 0822 c471 d0a6 db3f 4888 b043 e92b d63f
000004a0: 3884 c100 be1b c03f ac32 c863 f9f6 babf
000004b0: ba81 f068 35b1 c0bf 2fa5 b6de 7caa dabf
000004c0: 811c 0b06 806e d13f a881 651c e367 c23f
000004d0: fe0d 4f39 fe70 73bf 3cdf 7e47 449b d33f
000004e0: 4c85 bb16 acf8 d0bf a02d 1be6 2aba d2bf
000004f0: 283a 69bd 463b debf 1843 a3d5 7760 c23f
00000500: e1e8 f117 49d9 d13f 32f8 540e e8e6 d4bf
00000510: d43a 2ea0 ba7d db3f 9504 f0a8 562b c03f
00000520: 7ea1 b9da c4bc d83f 7824 1fe2 0600 95bf
00000530: 041d ddba 4d89 46bf d4ef 5914 2d6c c8bf
00000540: 6a50 7a58 fc15 d33f 41ce 19b7 2b8e 31bf
00000550: 2327 3590 5158 c33f 4f8a 1aac ee19 a83f
00000560: 6a19 8837 fcf2 d13f 7cb2 301d 5258 d23f
00000570: b47e 5a44 cdc9 dcbf 7b78 c85e a8f0 cabf
00000580: 3663 8dc3 f249 cebf 35d3 9b0c a62c a43f
00000590: 7768 6190 88f3 c1bf c885 254e e73c b8bf
000005a0: 4ef1 4e16 c20c dbbf 5df3 f8c6 09d2 dcbf
000005b0: b3a6 8620 4193 debf 0034 1f13 cb0c b3bf
000005c0: 94be d5df b4aa e43f 0741 b6d5 3585 dc3f
000005d0: 291a efa7 b784 c6bf 4e9e 0e77 6f77 db3f
000005e0: 2d86 5683 9128 c0bf 23a2 6182 19af 9c3f
000005f0: 1dec d6c2 b38d d03f ec6c aab5 bea8 d33f
00000600: 52cd 6dd1 9d4a d23f 1350 ca14 0354 bb3f
00000610: 38ee 99a5 d2a8 bbbf 6910 78ce 1c7e d4bf
00000620: d53c 684e 1e69 d63f 415e 614e de3d da3f
00000630: ee14 5851 4a7a e03f 57ad 69c7 8049 d63f
00000640: c13e fb3a 3805 e13f 5c08 bc67 1858 a73f
00000650: a886 fa62 dbd5 b93f 3e4f a76b 1c23 debf
00000660: a45b 09a8 119b cdbf 8b86 fb64 fc0d dcbf
00000670: 590b c8b7 d0ba e1bf 17f8 0eb7 88c4 cb3f
00000680: 026f 9794 6dfb d8bf 0694 3a45 fc41 7c3f
00000690: 8191 6e1d 9eca e0bf 84a0 b18b 5b72 d7bf
000006a0: 9a2e 0969 8205 c73f 450b da00 beb9 ca3f
000006b0: 46ad f08a 4a27 c6bf 877c cc4e 3cb8 c93f
000006c0: 494d 7eda c181 e2bf 78c7 e8fc adfd cbbf
000006d0: 50f6 0cac 5e7a cb3f f8f7 e051 2fb3 c5bf
000006e0: 1ec5 d129 6287 c53f bc6c 7b91 0dbb d3bf
000006f0: d3c1 461b e9e3 d23f 4090 b3f9 7048 d0bf
00000700: aa3d 0da4 4214 dcbf 841e 425f cdcd b8bf
00000710: efee 7e3d 6ec8 d33f 1493 637f 4918 d5bf
00000720: 9cf5 e748 43ad b83f 8672 958f a24f b53f
00000730: 632f 5ac4 4790 d63f 5b66 e56c 3ee7 d13f
00000740: 6893 2d57 2542 dcbf 7412 ab58 0f4d ce3f
00000750: 00a7 a965 bae3 adbf 8358 9a11 0d93 d03f
00000760: e2c1 b420 2da6 bc3f 826a a0e6 b9e4 dd3f
00000770: 7a38 f21f 54d0 dbbf 81c0 af6f 1329 963f
00000780: 75a9 1fa2 5655 b83f 2d9c 17a4 dba3 d13f
00000790: bcde 0123 309f cc3f 1349 8186 fb05 c5bf
000007a0: d678 30dd 4b70 bc3f 68b6 cfa3 9398 bf3f
000007b0: 7f26 05df 7cd2 ddbf 7c7d ca8f 1fa8 dbbf
000007c0: 1d11 eb89 d9c4 e03f fe47 f371 41bd db3f
000007d0: 4fdc df6b 12f4 d93f 5c1d 1388 b6a8 cb3f
000007e0: 53dc b186 790f d0bf bf2f 7858 7efb d9bf
000007f0: 84a4 9d80 d80d d83f 2626 75bf f0dc d23f

b4 f8 [30, 1]
-0.3149722223659194 -0.46926602728359934 -0.07058789793533247 0.2842919417852543 -0.28958574186853536 -0.14921583210581074 -0.3800868325286576 -0.0027867231438661183
0.4688291047935274 0.33066609518975276 -0.025449687582418036 -0.2760084422230752 -0.4514268310426792 0.10625599862781995 -0.3827028381906107 -0.40606766341674705
-0.27644349088795384 -0.4659374920379414 0.06613677474443946 -0.3871914469452684 -0.42738363772097737 0.35110261104818247 -0.5208599001428005 -0.2854314195730967
0.45742242709835995 0.4509167719975551 0.535413982645847 -0.18104709650467016 0.4644474976970244 -0.48925010161309657
00000000: ae71 8d40 8128 d4bf 4ca4 1360 7408 debf
00000010: df29 2069 0c12 b2bf e8f9 1ed4 d631 d23f
00000020: 02a6 ada2 9288 d2bf 1e4e 781f 8119 c3bf
00000030: ba73 d6b8 5753 d8bf 6058 8298 2ed4 66bf
00000040: f512 20ca 4b01 de3f ce1a 2f20 a229 d53f
00000050: 5a8a 709f 7b0f 9abf 2227 3150 1faa d1bf
00000060: d85f f75c 2de4 dcbf 1e3d 1cd7 9733 bb3f
00000070: 065d 870b 347e d8bf d8a2 9539 03fd d9bf
00000080: d092 230a 40b1 d1bf 4120 927c ebd1 ddbf
00000090: 001d 97f4 56ee b03f 28ef 7aa2 bec7 d8bf
000000a0: e3da b6e6 405a dbbf 6b7f ff15 7778 d63f
000000b0: 2c28 9d61 e2aa e0bf b84e 1425 8244 d2bf
000000c0: a70a 36b7 6846 dd3f 00a2 3c05 d2db dc3f
000000d0: ec1e 2981 1c22 e13f f6fb 421f 8d2c c7bf
000000e0: 1a56 54ff 81b9 dd3f 1c8c 7fa8 df4f dfbf

W4 f8 [30, 30]
0.29813873850971606 -0.08106980164335971 0.29212337831304613 -0.05283580762002283 -0.29759255469723594 -0.266026414109167 0.001202617693573385 -0.1475141164049761
-0.1729187404047194 -0.2244728290973892 0.021682954874400202 -0.296687721471153 -0.1945960564876314 -0.4965890511749525 0.1111645362091025 0.3896147655223828
0.059264414221813055 0.2545410083204655 0.1508886432991039 -0.35134839969477816 -0.21191689423429372 -0.20281134687758093 0.2591520305614518 -0.4545446621165148
0.051504792730194926 -0.22004563264914562 -0.03718980415470874 -0.13814664688785666 0.4803791003732645 0.26900880335867294 0.10377173598094236 0.28129833540543825
-0.13935125385192093 0.13974753705973453 -0.4413295123163077 0.18982887876942112 0.4186923067878686 -0.23083586242982856 -0.39353079441715966 -0.43951003568783986
-0.10836042593986617 -0.2773633192910172 -0.23638633039887114 -0.23316080384162607 0.39630555909354936 -0.227559997730179 -0.44260063691082396 -0.13455624602838145
0.25718116016053916 -0.2854061730979701 0.19815280951565406 -0.37529405468303445 0.16703313153149424 0.1092879774679879 0.08857690660398632 -0.07799216298933886
-0.20264785703414723 -0.043626770453203845 -0.28207265746922616 0.3948265923098927 -0.2983508939895161 0.39067762781372173 -0.12813916602417325 -0.1873276433017088
0.15543973848621462 0.26064199341801236 0.053604433170979196 0.6884392244533021 0.047593326284854194 0.31330676002152963 0.09692980387076874 0.2711960567915467
0.46720446774884833 -0.05417927606206629 0.43676783790509033 -0.38310097756325856 -0.4001388424821678 0.2290883853438493 0.30567341024170713 0.46438870007651356
0.09993814975208393 -0.45071669979572904 0.22070029978915728 0.17367246154346946 -0.1315088150540522 -0.7157331867007527 0.37769722289765 0.028252100477851955
-0.10900159830450043 0.2071008458618383 -0.37307000552312963 0.43814559586504387 0.38452051468237974 -0.01907335874328079 -0.29006459207308904 -0.13763579277036303
-0.38442839793273503 -0.16678792160337255 0.04614598264432933 -0.13123297196602152 -0.644597742861788 -0.026541157409089598 -0.5021733428085196 0.4398941165150543
-0.03373479495394305 0.5247322642833252 -0.43988312216947234 -0.013864160510093405 0.2983055558223101 0.056621661736064643 -0.45271813102215486 0.4019069911088902
0.1305963521594274 0.32851225780857135 0.1012825499797887 0.29425533070149773 -0.0903167870188776 -0.4954724264106991 -0.41048129634744307 -0.3538761032759441
-0.0001015523242964278 0.12037965276794048 -0.022394094912040696 -0.3733508952768376 -0.26039769968285004 -0.08137524387520745 -0.24699364804049842 -0.5019347889247731
0.2952102130051681 -0.22593500865066238 0.2902022619923168 0.47451718968169754 -0.2030944270997003 0.4923488654775532 0.13807431579997675 -0.1623935832561248
0.308595397107415 0.29366263751259836 -0.4432615773837365 -0.07774561871463803 0.4353020092731108 -0.39984344606008126 0.402635105326904 0.08870254269665712
-0.030905418843184207 -0.48816121726112877 -0.011895563197633994 -0.4598231065997021 -0.22966638914284088 -0.08136121985177702 -0.005838111453295491 -0.16189897033563783
-0.14048974781751125 0.13367488447872233 -0.16012280387137978 -0.26985702356935726 -0.1709489543140157 -0.3283945510688326 0.2517093872608147 -0.4471931040856675
-0.14417644185771236 0.10791916085828923 -0.33039740793269945 0.2778563915350938 -0.23415750304450178 -0.4102587283039908 0.029909061690855387 0.27791650028535897
0.3994373699385281 0.13337247372773053 -0.436187573004426 0.34218689533930347 0.3741473405409089 0.28853352042976255 -0.4269980345360753 0.39091351855783174
0.38499273981311494 -0.2351992740390867 0.07329777972555501 -0.10196652620762237 0.15228937981783064 0.12989696554602437 -0.21103941571239548 0.23297473827646864
-0.4595729065473047 0.06747622374002049 0.15885559709990307 0.21311898844903232 -0.11884556972506972 -0.5540494612229453 0.36197488542486067 0.023202357311768028
0.29437701838831787 -0.38056220944558916 0.37556872004655306 -0.4135037071647957 -0.20364837970579264 -0.29376590807066216 -0.428686040044359 -0.32610397466524477
-0.10269867246181508 -0.48469606645282887 0.0638244178000885 -0.2479635163940751 -0.40263210937727567 0.37708554010289586 0.28930159826284924 -0.5377858466959677
0.820182080613892 -0.2049842976374211 0.36759349493178484 -0.09210786060638754 0.20090124349008404 0.39227329688537016 0.43558581301929433 0.4026908708094509
0.4328902717445982 0.33231323173743615 0.3497363070817158 0.32500266890147844 -0.3780860325896885 0.4354556993641355 0.22973618600788878 -0.00859865493336792
0.24146429942616232 -0.09492339169619045 -0.12422010528917637 -0.08762886684200541 0.04677814772357195 0.4528000378830921 0.25828703307426815 -0.23760449587731275
0.3538627407359651 -0.09831174639948065 -0.3038807158439316 0.25330638741019956 0.41290576228102377 0.2279416536335922 -0.31689775551776944 0.2951171074535237
-0.18870309201908342 -0.33867611858047497 -0.14975914008333285 0.04501884043886104 -0.11227824617053785 0.25627027497189286 -0.3596563123827835 0.4700825360749205
0.35651144397334983 -0.2462653435104974 0.1985130680124147 0.21857742194010196 -0.3973788464571181 -0.3436044813289287 -0.418076456347805 -0.0849220283473518
00000000: ac79 e480 b414 d33f 2d5e c092 fdc0 b4bf
00000010: b419 1041 26b2 d23f 414d 9283 4b0d abbf
00000020: 474b 7da4 c10b d3bf 4725 1ea7 9306 d1bf
00000030: 0c99 76ea 24b4 533f d32f d418 bee1 c2bf
00000040: 2faf 7387 3322 c6bf 582d e891 86bb ccbf
00000050: 02c8 4378 0e34 963f 99f9 357f eefc d2bf
00000060: c6c0 4509 86e8 c8bf 2147 9671 1dc8 dfbf
00000070: 003c 7e6f 4775 bc3f 1945 fdc4 72ef d83f
00000080: 006f ccc1 e757 ae3f 7b8b 8e5e 664a d03f
00000090: e05a 27ae 5150 c33f 7c39 8cff 7d7c d6bf
000000a0: 3064 1ac1 1720 cbbf ef67 0ce3 b8f5 c9bf
000000b0: f704 fd65 f295 d03f c027 977e 4217 ddbf
000000c0: 9015 ba10 d65e aa3f ea87 ed8d 742a ccbf
000000d0: 00a1 2dc1 8a0a a3bf 56bb 3711 caae c1bf
000000e0: a03e 72fb 87be de3f fabd 30b3 7037 d13f
000000f0: 188c 49d4 c890 ba3f 0214 bfbb ca00 d23f
00000100: 14ad f90a 43d6 c1bf 281e af4e 3fe3 c13f
00000110: 781f 8a23 be3e dcbf 6054 130d 504c c83f
00000120: 8a67 2fd1 dacb da3f 18a6 f08f 078c cdbf
00000130: fe65 ffc8 9b2f d9bf 94c1 62b3 ee20 dcbf
00000140: 98a4 9745 82bd bbbf 54c1 5d14 52c0 d1bf
00000150: d86d 2443 e841 cebf c4bb 9a95 36d8 cdbf
00000160: 14e8 e1fd 115d d93f 8881 109e af20 cdbf
00000170: ec20 2e9f 9153 dcbf fc0b 159a 2339 c1bf
00000180: d05b 02f8 a775 d03f 2611 e240 1844 d2bf
00000190: e478 3d3e 125d c93f b2cc cf5a d104 d8bf
000001a0: a45b a376 5761 c53f 982c 1201 4cfa bb3f
000001b0: 0083 0be5 f9ac b63f d82d 625d 4bf7 b3bf
000001c0: 7877 486f 5df0 c9bf 6039 a780 3f56 a6bf
000001d0: d245 bb79 7a0d d2bf aef9 63c1 d644 d93f
000001e0: 9cb5 1a59 2e18 d3bf 6a48 afbc dc00 d93f
000001f0: 868c b43b dd66 c0bf 480d cf2a 5afa c7bf
00000200: dc06 a608 73e5 c33f 7f74 6cc1 5bae d03f
00000210: 92aa c74e 0a72 ab3f e9ef 49b2 b107 e63f
00000220: f977 cd07 275e a83f c91f facb 370d d43f
00000230: 16f5 a141 64d0 b83f 9653 aeb4 465b d13f
00000240: 61b0 6191 ade6 dd3f 9f74 9dd5 62bd abbf
00000250: b8ce ef16 01f4 db3f f0c9 6cf6 b984 d8bf
00000260: 427e 94f2 df9b d9bf e2fe 78a9 c452 cd3f
00000270: d4ac 0f35 2790 d33f 1e7a dd61 8bb8 dd3f
00000280: e0d5 ceec 8b95 b93f a48e 58db 8ad8 dcbf
00000290: ece9 e74c e83f cc3f 2fc3 4533 e63a c63f
000002a0: a87c e5e5 47d5 c0bf bf54 b148 49e7 e6bf
000002b0: dfaa 08f9 302c d83f f8f9 615e 1eee 9c3f
000002c0: 8af7 ed5b 87e7 bbbf 0cab f9cf 4782 ca3f
000002d0: cec8 3504 61e0 d7bf 6e1d 48d3 930a dc3f
000002e0: 13ec ccee fb9b d83f caeb 1b70 f787 93bf
000002f0: ab9d 2b14 6b90 d2bf 4e97 5ab6 0c9e c1bf
00000300: d995 3191 799a d8bf 01c0 537e 4e59 c5bf
00000310: de2d 993c 72a0 a73f 0a1f 60f5 3dcc c0bf
00000320: 6656 1572 8ba0 e4bf 66b5 47ec 9a2d 9bbf
00000330: 8a23 89d4 cd11 e0bf 60a3 08a7 3927 dc3f
00000340: c0ff 20e2 af45 a1bf d817 4851 9bca e03f
00000350: b8ef f189 0b27 dcbf b49a d11f d064 8cbf
00000360: 0234 9e2f 7017 d33f e09a cdb2 83fd ac3f
00000370: 30f8 c277 55f9 dcbf 2d2c b619 d8b8 d93f
00000380: ba35 c09a 61b7 c03f 29de e746 5806 d53f
00000390: e094 d137 a7ed b93f 9d57 824f 14d5 d23f
000003a0: da9f 863e 001f b7bf f03c e0fa d1b5 dfbf
000003b0: 1ba5 db57 5345 dabf 84fd 99f4 e7a5 d6bf
000003c0: 0000 91a5 0f9f 1abf e7fc bd6f 33d1 be3f
000003d0: 803b 1545 7aee 96bf 9c5d 4927 fbe4 d7bf
000003e0: a7da 051d 5baa d0bf f8e5 250b 02d5 b4bf
000003f0: a1ab 53e4 7c9d cfbf 9102 e58b d90f e0bf
00000400: 5f5a 9360 b9e4 d23f 8789 9638 70eb ccbf
00000410: c4dc 1e82 ac92 d23f 70a7 c458 7d5e de3f
00000420: 1550 3289 fffe c9bf 0cb9 dcd0 a482 df3f
00000430: 1ca5 634f 6bac c13f da28 951c 50c9 c4bf
00000440: 5270 91e8 06c0 d33f 1c1e 0b60 5ecb d23f
00000450: f8ef 9bce 655e dcbf 4862 c909 23e7 b3bf
00000460: a882 6df5 fcdb db3f 7445 16f7 0897 d9bf
00000470: b56f 6608 c6c4 d93f 8845 f4b7 35b5 b63f
00000480: 6079 cd8c aba5 9fbf 6df9 d38b 083e dfbf
00000490: 52f1 3577 b35c 88bf 299d 32e5 bd6d ddbf
000004a0: ccf0 2d4f b565 cdbf 8011 6dc2 16d4 b4bf
000004b0: 0069 321c b4e9 77bf 6c7f 6cff 1ab9 c4bf
000004c0: f555 266c 91fb c1bf 00fc 9034 421c c13f
000004d0: c856 fc6e e77e c4bf f2e1 b464 5645 d1bf
000004e0: 4834 08c4 a7e1 c5bf 7f9d 4194 6a04 d5bf
000004f0: d468 98b0 011c d03f cedb 42d3 cf9e dcbf
00000500: 6bf6 50a7 5f74 c2bf 8084 7f12 97a0 bb3f
00000510: 6c43 702b 3b25 d5bf dc2d a82c 66c8 d13f
00000520: 4036 d880 dff8 cdbf 4ab5 3dd3 ad41 dabf
00000530: 60dc 4327 7ba0 9e3f 1ca4 ef49 62c9 d13f
00000540: 38eb 2bc2 6190 d93f c471 6c66 5912 c13f
00000550: 9870 3e48 7fea dbbf 8888 26dd 63e6 d53f
00000560: 8e8c e0af 07f2 d73f c0ea 824c 5577 d23f
00000570: 6c7a 7290 ef53 dbbf 924a 7122 ba04 d93f
00000580: 0b77 ac96 b8a3 d83f 9039 0583 021b cebf
00000590: 6469 caae a4c3 b23f 0035 596f 7a1a babf
000005a0: 1040 ece8 377e c33f 0c56 6fb9 76a0 c03f
000005b0: 7c6a 53ee 5603 cbbf 1886 d8c0 1dd2 cd3f
000005c0: c5e4 ef7a a469 ddbf 4891 382e 1f46 b13f
000005d0: 4952 2a55 6155 c43f f8c8 c5a6 7b47 cb3f
000005e0: a560 3ecb a96c bebf 0135 8aef c5ba e1bf
000005f0: 42e1 b7b5 982a d73f e668 60d7 5bc2 973f
00000600: 08ff aab4 12d7 d23f 4063 ea98 215b d8bf
00000610: 9a08 8062 5109 d83f 320b c340 d876 dabf
00000620: 6821 5c6d 2611 cabf 96f7 f585 0fcd d2bf
00000630: 5381 8f92 976f dbbf 081a 9234 e3de d4bf
00000640: b0ec 90cf 754a babf 258b 7aa6 4205 dfbf
00000650: 173b 230b cc56 b03f 54c1 c1bc 44bd cfbf
00000660: be12 8677 b9c4 d9bf f054 a263 2b22 d83f
00000670: c30b ced9 ea83 d23f 7ef2 f9a9 8a35 e1bf
00000680: 940f a07d ee3e ea3f a4eb 45eb ec3c cabf
00000690: 3214 bddd a686 d73f 484b 0279 6194 b7bf
000006a0: 9e00 42c7 21b7 c93f 74df 4d75 011b d93f
000006b0: 823e 6151 a3e0 db3f fe8e 21ee afc5 d93f
000006c0: 1593 f965 79b4 db3f 6bc8 95b7 9e44 d53f
000006d0: 33f2 4864 1462 d63f 2cda 82fe d7cc d43f
000006e0: b903 43c2 8f32 d8bf 9d0c e894 81de db3f
000006f0: b74a cece fe67 cd3f 9fc5 d3ed 2b9c 81bf
00000700: f4ec 975a 4de8 ce3f afe5 f53e e64c b8bf
00000710: 2802 b989 e3cc bfbf a69e 456d d86e b6bf
00000720: 15c8 472d 4ef3 a73f e077 9502 adfa dc3f
00000730: 043b 0256 c687 d03f e27a 96f9 d269 cebf
00000740: 2bf8 aee8 afa5 d63f bc31 9967 f52a b9bf
00000750: 08d3 1b1a c872 d3bf 95dc 72fe 2b36 d03f
00000760: b5ec 544a 0c6d da3f e44f e02d 312d cd3f
00000770: d4f9 0786 0d48 d4bf 3031 40dd 32e3 d23f
00000780: 2422 7044 6c27 c8bf a451 4f99 deac d5bf
00000790: fead 77b8 4e2b c3bf 4d0a c79e b50c a73f
000007a0: 71cd 5a63 44be bcbf bd3c 7c70 bb66 d03f
000007b0: 1afa dee8 9b04 d7bf 9733 b70f d515 de3f
000007c0: 3ffa 2060 15d1 d63f 7a05 426e 9f85 cfbf
000007d0: a691 784f e068 c93f b738 704f 58fa cb3f
000007e0: 2af4 69af a76e d9bf 4f46 84a6 9dfd d5bf
000007f0: 0073 cfc0 c3c1 dabf 843c 7636 73bd b5bf

b5 f8 [1, 1]
0.18790086848790774
00000000: efd4 85ba 220d c83f

W5 f8 [1, 30]
-0.13997160608911674 -0.09036415602974546 1.0505216688841041 -0.5780895560373275 -0.1698468347686971 0.4214373095004577 -1.1857259158379112 -0.21768073437869667
-0.22463077772870177 -0.9091332582694979 1.1507315622152594 -0.01642488173647305 0.14861652996736874 -0.03547209799774358 1.294409002152686 0.10688530490416692
-0.36474602822995245 0.15392907851010626 0.04513183594977743 0.20587922450382734 0.1633730162789751 0.3134704477194113 0.32353727802495313 -0.08549192651242254
0.6805124178316266 -0.8238186726271122 -1.0772723430454394 0.6967729999387462 0.2534896917156634 0.4968444965910059
00000000: a0bb 42ef 96ea c1bf b0de e0f6 1a22 b7bf
00000010: 8b8b 39cf efce f03f 07dd 2aab b57f e2bf
00000020: d490 5484 8abd c5bf b798 6731 d4f8 da3f
00000030: 15b2 e8bc bbf8 f2bf 1219 9059 f6dc cbbf
00000040: 7089 028a b3c0 ccbf 3726 7fa1 9e17 edbf
00000050: 4f08 a37f 6569 f23f 2064 9827 afd1 90bf
00000060: d06b edcf dd05 c33f f741 a419 6629 a2bf
00000070: ec4c be36 e6b5 f43f c083 fcd8 d55c bb3f
00000080: 89fc a5b9 ff57 d7bf 735a 0db3 f2b3 c33f
00000090: 8051 d31e 851b a73f 5cbb 151c 405a ca3f
000000a0: 12c9 fb30 68e9 c43f 0de9 4d5a e60f d43f
000000b0: aedb 09b3 d5b4 d43f 4061 7184 cce2 b5bf
000000c0: aa7a 63fa c1c6 e53f fe8f 18fa b85c eabf
000000d0: 4e3f a4ec 813c f1bf 9020 efe3 f64b e63f
000000e0: 6eae f2d3 2c39 d03f bf94 03dc 4ccc df3f

p_b1_old f8 [30, 1]
-0.0003253612727370677 0.0003279975243420797 -0.0008663338306619236 5.858593801449656e-05 2.6549525103920648e-06 -0.0002618184780257322 0.0 -0.000298249006470991
-0.000684910943236387 -0.00047163208102189735 0.0 0.0 7.063433867488745e-05 0.0002004298484341081 0.0 -0.0005760043883048885
0.00035668530596551695 0.00040213514344623544 0.0006967789267500001 -0.00015091588566122784 -0.0012817155494324606 0.0002816455868544501 0.0014891771619335494 -0.00023817968663320232
8.488750234607366e-05 0.0 0.0 -1.2565862186735237e-05 0.0011759562474710663 2.5e-323
00000000: 2d37 9a06 a852 35bf f756 e5a3 e27e 353f
00000010: f39b 2cbc 5563 4cbf 6c9e 9180 45b7 0e3f
00000020: 8fe7 0394 7745 c63e 5eb6 f4cc 9528 31bf
00000030: 0000 0000 0000 0000 0366 96ba c98b 33bf
00000040: f02a 0a0d 7371 46bf 04a3 1d5d ace8 3ebf
00000050: 0000 0000 0000 0000 0000 0000 0000 0000
00000060: 36f2 c5b2 3084 123f c638 d049 4f45 2a3f
00000070: 0000 0000 0000 0000 55ad 4b01 e0df 42bf
00000080: 56ad 5db9 2f60 373f c010 284a b55a 3a3f
00000090: 51b7 f959 01d5 463f 3686 3396 e5c7 23bf
000000a0: 008c 8697 e7ff 54bf f083 a895 3a75 323f
000000b0: 5852 57cd 0f66 583f 5e10 e8ed fb37 2fbf
000000c0: 208c 872f b440 163f 0000 0000 0000 0000
000000d0: 0000 0000 0000 0000 268a cbf2 3e5a eabe
000000e0: ce6a f667 5144 533f 0500 0000 0000 0000

p_W1_old f8 [30, 2]
-5.7267046008680676e-05 -4.597695358368223e-05 7.944601643138669e-05 6.31499854755586e-05 -0.00033040359326650217 -0.0003178022169191766 3.044735815769739e-05 0.00021549347633650123
2.8082843168090995e-08 2.64627422506954e-06 -0.0002953638338435726 -7.976542791507327e-05 0.0 0.0 1.5799488577753798e-05 -5.0808642341937905e-05
-0.00026556522519665976 -0.00039178979304178136 -0.00028591569258533487 -0.0002303817939491019 0.0 0.0 0.0 0.0
8.158019889748121e-05 1.1502933126473949e-05 3.6392259226557524e-05 8.852748442431048e-05 0.0 0.0 -0.00015388330118793413 -0.0001633177534874561
0.00025151899585480416 0.0001558153401806399 0.0001177902967151413 8.99395045574242e-05 0.00026525239381236846 0.0003815948125080985 -0.00011520546708197686 -0.00010957369039092095
-0.0005102098091621759 -0.000540163373180876 9.872313118634444e-08 0.00012923787932026432 0.0005497870385869225 0.000562128764004683 3.6203918595831744e-05 -4.91178531601026e-05
4.5193553858769245e-05 2.304594903909502e-05 0.0 0.0 0.0 0.0 -1.0168382682534285e-05 -3.915072941027329e-06
0.000355730119053205 0.00032928988645452445 2.5e-323 2.5e-323
00000000: d4a6 ccb7 4006 0ebf 0a8d 9918 ec1a 08bf
00000010: a81d 632b 88d3 143f 630b 4c7d ec8d 103f
00000020: 46ce a7a0 40a7 35bf 8aeb d520 d6d3 34bf
00000030: 086c 4585 26ed ff3e df3a e2dd c23e 2c3f
00000040: 6ef9 1b68 5a27 5e3e f08b efa3 d432 c63e
00000050: 284a bc01 625b 33bf d1d7 f29d f7e8 14bf
00000060: 0000 0000 0000 0000 0000 0000 0000 0000
00000070: 9a6a 7796 2491 f03e 1a2d 5fa8 6ba3 0abf
00000080: d263 09f5 7167 31bf 7ce8 1759 24ad 39bf
00000090: 10ab 8f8c debc 32bf e5c3 8c8a 5432 2ebf
000000a0: 0000 0000 0000 0000 0000 0000 0000 0000
000000b0: 0000 0000 0000 0000 0000 0000 0000 0000
000000c0: 78e0 2225 c162 153f 931c 3c17 971f e83e
000000d0: 8ef2 7181 7c14 033f d057 029a fa34 173f
000000e0: 0000 0000 0000 0000 0000 0000 0000 0000
000000f0: b410 f47d 772b 24bf 01a3 f6d1 0868 25bf
00000100: c284 8cdc c97b 303f 6204 a194 4b6c 243f
00000110: ea8a 82e3 c5e0 1e3f f8ac 3aec bc93 173f
00000120: 3cc8 4a5b 3262 313f c99f 733d 1902 393f
00000130: d65b 8fda 4e33 1ebf 598a bbaa 5db9 1cbf
00000140: 61bc e338 f3b7 40bf ab04 db02 38b3 41bf
00000150: 00dc d2b0 3380 7a3e a89c 1fee 80f0 203f
00000160: 8b09 ddac f203 423f d34d 2a54 7a6b 423f
00000170: 12c5 bc2b 35fb 023f d589 7295 7cc0 09bf
00000180: 68f3 beaf c6b1 073f 26de 108f 592a f83e
00000190: 0000 0000 0000 0000 0000 0000 0000 0000
000001a0: 0000 0000 0000 0000 0000 0000 0000 0000
000001b0: 450b d8df 1b53 e5be 205b 390e c76b d0be
000001c0: 9fc7 3f3a 2950 373f 82d7 104b 9194 353f
000001d0: 0500 0000 0000 0000 0500 0000 0000 0000

p_b2_old f8 [30, 1]
-0.0006270042946526434 -0.0006334013535937504 -0.0005142250470928352 2.5e-323 3.950435667089291e-05 0.00014946544685885143 -0.0007354943973667567 0.0
4.670414100238605e-05 -2.3697620472464864e-05 -8.885815154174712e-05 0.0 4.24151977216076e-05 0.0001233544890489577 0.0 0.0002943971767393188
-0.00013684606104389925 2.7717333174980076e-05 0.0002096617612764178 -0.00030509740770525687 0.00012306713961264678 3.8301574307193136e-05 0.0 0.0
0.0 -3.1709933497756075e-05 -0.0008302530064922089 0.0008664466422537226 0.0001753006683220421 1.953351898320738e-05
00000000: c46a 5178 b18b 44bf 42a6 a90c 5bc1 44bf
00000010: f23e 49e1 a1d9 40bf 0500 0000 0000 0000
00000020: b145 0f5c 2fb6 043f 3749 8b69 3a97 233f
00000030: 1bd0 0831 c619 48bf 0000 0000 0000 0000
00000040: a180 c710 867c 083f 365c 2914 48d9 f8be
00000050: 940f 5f6b 2b4b 17bf 0000 0000 0000 0000
00000060: 5ff0 b618 df3c 063f a46b 18fe 162b 203f
00000070: 0000 0000 0000 0000 f561 023f 2a4b 333f
00000080: 988d aab6 caef 21bf 4e8b dea1 5010 fd3e
00000090: 26ca d8d0 147b 2b3f 9651 6063 affe 33bf
000000a0: 34a2 00ae 7221 203f 08ca 8012 c014 043f
000000b0: 0000 0000 0000 0000 0000 0000 0000 0000
000000c0: 0000 0000 0000 0000 ff37 c604 09a0 00bf
000000d0: 5e2c 51c1 aa34 4bbf 43b2 00ff 4764 4c3f
000000e0: 549e 5a46 1dfa 263f dc01 0e34 7d7b f43e
