NeuralNetworksV2/weights_4x20_hidden.npz (npz, 26318 bytes, 20 tensors)

b1 f8 [20, 1]
-0.38987685149259 -0.7628304766384613 -1.150671444213299 -0.10008502028653549 -0.6332378347450921 -0.4580355357858624 -0.12855103399544893 -0.06854663327770338
-0.2966085152166207 0.6315866366074224 -0.4349767542277678 0.2791781128260656 0.6364992418208195 -0.3409003404563258 -0.8245872750043817 1.035232178802204
-0.9947785014172659 -0.6571414605785197 0.9018855603867995 0.7422437569978109
00000000: 2a33 a809 bef3 d8bf b0bc b175 1b69 e8bf
00000010: 3465 d575 2669 f2bf 1c3e f300 2c9f b9bf
00000020: a13d dafd 7b43 e4bf 9eca a647 7450 ddbf
00000030: de4f 703b 5c74 c0bf 70bb 2dac 458c b1bf
00000040: 2483 2448 a2fb d2bf 7939 9a2d f535 e43f
00000050: 6c6c 7bbd a8d6 dbbf 6d34 16e0 0dde d13f
00000060: 2c93 71a8 335e e43f c021 5da9 4fd1 d5bf
00000070: 34ee 5ada 0463 eabf 818e fb9d 4f90 f03f
00000080: c63b 4bb9 39d5 efbf 2af9 4087 4d07 e5bf
00000090: ea11 531b 3fdc ec3f 94e7 befa 75c0 e73f

W1 f8 [20, 2]
0.5646454424537224 -0.21457792638407108 -0.5541792113298039 -0.3745776813272006 1.117176353689289 0.5561415840509283 0.10435413319784725 -0.6625380986453119
-0.5880058752842185 0.6431961353355277 -0.6417204193096326 0.4667157753609365 1.1259016976074308 0.9150172194978223 0.6336114856797156 -0.3793672260744476
-0.030849631317993786 -0.7146266679762505 1.0642280179470676 0.08520015550216155 -0.20935712089477 0.19808016548224106 0.3813390616645892 0.37028401496996494
0.222845814294101 -0.19254381881822735 0.28113315485433993 0.479172700126571 -0.06062610754325237 0.4773029149131882 -1.0457999360663184 -0.5986578616128264
0.06930783983922995 0.04655541822649201 -0.9628468592216706 0.05990917315992239 0.16189962075372946 0.2387306815375654 -1.2754005133928048 -0.3578673937511651
00000000: f292 a551 9311 e23f a2ac 211c 4a77 cbbf
00000010: 481b 990a d6bb e1bf 5428 c7aa 14f9 d7bf
00000020: 435c ef4f f4df f13f 4c38 6e6f e9cb e13f
00000030: c084 49d5 f3b6 ba3f ef23 4119 8333 e5bf
00000040: 4a73 86b2 f1d0 e2bf f3bf c50f 1095 e43f
00000050: 6887 c342 f988 e4bf d7f5 ecd7 abde dd3f
00000060: bac1 9b7f b103 f23f d8a3 2031 d247 ed3f
00000070: c3a8 2b98 8b46 e43f d47e 4a79 8d47 d8bf
00000080: 80f2 6ab6 0b97 9fbf 9ad6 f9be 38de e6bf
00000090: e71c 49f5 1307 f13f 31f3 7e69 adcf b53f
000000a0: b0c0 b6d1 36cc cabf 58c2 5ddc b05a c93f
000000b0: ea59 a2f3 db67 d83f c5c3 a1b9 bbb2 d73f
000000c0: a0c9 382e 3686 cc3f a884 6f9e 46a5 c8bf
000000d0: a5ec 7aea 15fe d13f 2e7f 0bf9 c3aa de3f
000000e0: 6035 5d9a 620a afbf 789b 7586 218c de3f
000000f0: 0805 b9b6 98bb f0bf 2eda 2388 3428 e3bf
00000100: 2045 7799 28be b13f 6001 789d 1cd6 a73f
00000110: 803a 6d37 a4cf eebf a08f e746 6aac ae3f
00000120: 05a0 2f74 20b9 c43f a1b8 e01a ba8e ce3f
00000130: e72d 655e 0a68 f4bf 17d3 1da4 4ce7 d6bf

b2 f8 [20, 1]
-0.16138523027787466 0.5208782247510211 -0.21445962532598137 0.18757601039928384 0.5231497968848581 0.46383516185292617 -0.10761292826998606 -0.7145248257388728
-0.7119085027708787 0.22372611157824224 -0.34647644978792475 -0.4534712969806361 -0.547753107801259 -0.5323416983588792 0.7596770811658237 -0.9960247776578006
0.7023025478310133 0.3269338143500569 -0.13926754596799906 0.9155517371706983
00000000: 50ea 0c6f 45a8 c4bf 3022 90cf 08ab e03f
00000010: 4f33 8bba 6973 cbbf 18ec 169f 7d02 c83f
00000020: bbf1 90a4 a4bd e03f f029 b9ac 79af dd3f
00000030: d2df 8b57 858c bbbf 5850 d72a 63dd e6bf
00000040: e2a5 2457 f4c7 e6bf aeb1 3ea6 0ea3 cc3f
00000050: b917 2b8f ab2c d6bf e137 8d79 ac05 ddbf
00000060: 9a3d 8986 3187 e1bf 93f3 1775 f108 e1bf
00000070: 2b18 644f 464f e83f 3878 c15a 6fdf efbf
00000080: 1b9d 5a31 4379 e63f 0dc3 25ce 7bec d43f
00000090: 60d2 a9d9 84d3 c1bf 5e36 1e28 334c ed3f

W2 f8 [20, 20]
0.618339228338149 0.030157271411171527 0.5649994056704226 0.8907727205605549 0.7862701147429434 -0.3392767816039597 0.041850818625017716 -0.7597389537743744
0.5761438574987647 0.08348107437697694 -0.0691280031745729 -0.9139587278809602 -0.5782521418602049 -0.285931802566056 0.6268529229099848 -0.13383033428716562
0.11834579175992666 0.6186749532788667 -0.09680114258961425 0.010799086531914304 0.26683837777444197 -0.0996556858065143 0.16454460810076035 0.257534160708232
-0.7739376493338208 -0.6930483972547098 0.8341759980202843 -0.45906130413611573 0.6862390476592948 -0.17062059179752978 0.646682948043731 -1.0346220990114472
-0.9330941787994145 -0.9337353751206428 -0.1093920233465484 -0.04393052210104439 -0.625239246482473 -0.4039461890413414 0.3764642509418875 -0.01040865271747961
0.7633938315081792 -0.7977651619333586 0.9855948108888677 0.7603854894606348 0.9944244685673435 0.5122117519252103 0.4991870906245854 -1.0758100463039333
0.7482620155949373 0.282976247094493 -0.48152268435881895 0.03864886881978187 -0.49109722419374613 0.6455209335871653 -0.5057474965389168 -0.244388948057827
0.3161703203695376 0.6160151592069609 0.21014195965936094 -1.4305122831037222 -0.3919835188206426 0.6469682239162642 0.8139951923554951 -0.4813035625868061
-0.7709515174779855 -0.2383290905397194 -0.8172849491907939 -0.44012187257068625 0.5468360284729734 0.7338218420711762 -0.6071264027564356 0.3494483005106746
0.29098302231746764 -0.2848353609484686 -0.16486329467610816 -0.865245858647558 -0.9496507482401626 -0.4286900714873665 0.7151669253610672 -0.8270972559932781
-0.7408304023743292 -0.39146015678340373 0.8709180350808319 0.6862777227745703 -0.3400400408389839 -0.26024680842418624 -0.48314952275245027 0.8362975619926913
-0.6668912567163616 -0.9000447930692644 0.11588016837523196 0.5571349479083967 0.7164943480139607 0.30297352812774503 0.9798092511163097 1.6671256164493657
0.28100029359629386 -0.5451373489506348 0.22057656934417194 -0.44477473520426125 0.5830406007927702 -0.010772188865885601 0.3894147989200536 0.6691058479300693
0.31402700275709283 -0.526191314696941 0.6746569779983436 -0.9197468620942895 -0.5864190332590065 -0.0040748111327515435 -0.809898856088024 -0.44937077857595686
-0.7843865365480733 -0.3418296713478852 -0.9842292028768609 -0.12171594668555663 0.824806411905477 0.5548958627181348 -0.6588168402380785 -0.7241760509189279
-0.6643215681262753 0.6361049720879419 0.2017289046438873 -0.7785111824943629 0.5675589215336663 0.5030193376977733 -0.2927361478603811 0.38063701767260516
-0.923793722623051 -0.6185794706908773 -0.26951174863326544 0.46429439837905734 -0.278320354392289 -0.04734850519505307 -0.43999717974318164 -0.6101930387405173
-0.5357855228852775 0.31279018013091964 1.0384004793816735 0.08668872058997969 -0.49701985248041947 0.9949613895781406 -0.4466560982741503 -0.6576441534208315
-0.9749300178179865 -0.46444306901035426 -0.45301990060124053 0.48079486296197516 0.730337445777868 -0.5421163946251808 0.4218850303475541 0.760181781125788
-0.4084675723952085 -0.4511807176143523 -0.8414686093684252 0.616910325895234 0.09956643434494739 -0.4583197235489649 0.665656835507711 -0.9189953392147796
0.9116067893493209 -0.5198747036009601 0.38853294870115285 0.3325383527058816 -0.4396680263209196 0.2232479290343543 -0.03881799519733464 0.934488731093025
0.5765886338910569 -0.9896831120409155 -0.12775686186018098 -0.07071481299721283 -0.31577390775942704 -0.19066501982456407 -0.0009977455771599253 -0.4107569535291953
-0.15107606505440407 -0.23067120928503182 -0.21503063326322525 -0.3009509009828022 0.9577466866577996 -0.05596606536532689 -0.6118431809400591 -0.8691876654073974
-0.8143548032750229 -0.013479818840879142 0.9724964965431692 0.660754951073064 -0.12101147753063368 0.5485267390300171 0.7626920218681164 -0.594072619919701
0.292782491560433 0.8969625617450817 0.8177098235340223 -0.3943608982384301 0.13993004899384975 -0.6966932677521744 -0.7816436333967712 0.33104428383655227
-0.41300367573894126 -0.16911480411926694 -0.05456412034126612 0.7133310622430713 0.7071677737614487 0.6761246066673919 0.2991964327750493 -0.9911695281647999
0.9438074981927578 -0.9171346861285775 0.31171646360983396 -0.9931252525337096 -0.8105283417398714 -0.36952560532253625 0.6096844884440067 0.9329744657805578
0.056054632987480035 0.22777448807118805 0.4919998849020903 0.7642979492309341 0.43132440317900167 -0.5737226468842536 1.1097250382000352 -0.6517039987481671
-0.7186634698739952 0.7524388625978711 1.0660989595511823 0.7135856021677405 -0.9517841792913417 -0.19589973772799446 0.021458643205655603 -0.8832973157224298
0.8401976217260197 -0.9755002674429682 -0.8513026219130555 0.26759832376835946 0.30277034243790935 -0.2573264212651798 -0.1590598460806529 0.41227881446915843
0.2550477159288887 0.0954837037377887 0.6262543771306559 0.6211149589539078 -0.6345689213980112 0.6944881305672097 -0.26399325592246037 0.5647124323931092
0.7648502970670938 -0.15325450644798347 0.05833558474711498 0.695855530198357 0.7396949226187914 -0.5821157864147037 0.240645949862744 0.2078431107844156
00000000: b07a 7159 6fc9 e33f c051 ca39 8ce1 9e3f
00000010: 16a5 33a2 7914 e23f bc3f dfca 3581 ec3f
00000020: 5a94 94f1 1f29 e93f 38fe 51f6 b5b6 d5bf
00000030: 804d 9c72 786d a53f 86a9 fe10 c84f e8bf
00000040: 8af3 373e c56f e23f 20b8 4804 045f b53f
00000050: 1061 df70 5fb2 b1bf 428f c45f 263f edbf
00000060: 8435 c4a2 0a81 e2bf 2015 3ae7 b44c d2bf
00000070: d49c 69dc 2d0f e43f a0f1 7c36 5a21 c1bf
00000080: 8065 3ae9 e84b be3f 66fc 656a 2fcc e33f
00000090: 9048 a3ad f5c7 b8bf 8097 d9db d41d 863f
000000a0: 92f8 7646 e113 d13f 1041 66f7 0883 b9bf
000000b0: c550 4337 cc0f c53f fc0e 768f 707b d03f
000000c0: 2205 a1e3 18c4 e8bf 5d22 18d5 732d e6bf
000000d0: 785e d3dc 91b1 ea3f 23eb 07aa 4261 ddbf
000000e0: 58ea 5d97 abf5 e53f 05b4 e542 e5d6 c5bf
000000f0: 7251 1770 a0b1 e43f 9291 efe6 cf8d f0bf
00000100: bc01 c152 e8db edbf d25d 6802 29e1 edbf
00000110: 4079 b79a 1d01 bcbf dbbc 70b7 0f7e a6bf
00000120: 462c 7abc f501 e4bf 74b0 d11d 41da d9bf
00000130: 9625 7a83 fd17 d83f 09cf 22b8 2151 85bf
00000140: e676 89e6 b86d e83f 9a8a 0cce 4a87 e9bf
00000150: eeff fb20 fe89 ef3f 9ec3 32f3 1355 e83f
00000160: 6fd8 5a43 53d2 ef3f 1ca9 64e6 0964 e03f
00000170: d359 3469 aef2 df3f 9656 5998 8436 f1bf
00000180: b037 ba2e c3f1 e73f d033 b467 481c d23f
00000190: c89b 6685 44d1 debf 9a7a 37d7 c8c9 a33f
000001a0: a062 440d 236e dfbf 097d 5484 1ba8 e43f
000001b0: 8664 b55f 152f e0bf 49c3 b415 2348 cfbf
000001c0: 10fe 7c70 223c d43f cc4a 546c 65b6 e33f
000001d0: 1e8d 2086 eee5 ca3f f94e 07d9 60e3 f6bf
000001e0: 57f6 790a 4216 d9bf 9eb0 68b4 f6b3 e43f
000001f0: 1e94 48a5 3f0c ea3f 418d 3075 adcd debf
00000200: 1cd3 4b84 a2ab e8bf acd9 c650 9181 cebf
00000210: 0c33 09c4 3227 eabf 0e81 3cee f42a dcbf
00000220: 3a1c 5245 ae7f e13f 6028 99f1 777b e73f
00000230: 8210 8c59 946d e3bf 1d83 9567 5c5d d63f
00000240: 60dd 2241 779f d23f 6027 0118 be3a d2bf
00000250: c8eb 788d 3d1a c5bf 9e80 3c15 18b0 ebbf
00000260: 9a07 4af7 8963 eebf fc1e 4a7b a86f dbbf
00000270: bb69 73bf a5e2 e63f 6e47 23aa 9477 eabf
00000280: 8791 c2f5 e1b4 e7bf 9497 c4e6 ae0d d9bf
00000290: 6e66 c57f 8fde eb3f c748 e9b2 fcf5 e53f
000002a0: e1f8 ae4d 37c3 d5bf 187f c43a e2a7 d0bf
000002b0: a02f d3f9 ebeb debf e675 cf1a f3c2 ea3f
000002c0: 40b9 3255 2c57 e5bf cd5c e5bc 2acd ecbf
000002d0: 5035 6d9d 52aa bd3f 1035 97ab 0cd4 e13f
000002e0: 48a4 0f8e 85ed e63f 9431 b714 eb63 d33f
000002f0: 129c 3bee 985a ef3f f494 0fe9 8bac fa3f
00000300: 1466 caa7 e8fb d13f 9646 b2e1 c371 e1bf
00000310: 996d cc5f da3b cc3f e884 7273 3077 dcbf
00000320: fca4 14c3 44a8 e23f 801f 15b7 ba0f 86bf
00000330: b829 7c0c 2cec d83f 0081 cdaa 5069 e53f
00000340: 74c4 b9b6 0419 d43f de00 022b 8fd6 e0bf
00000350: aaac 103b ca96 e53f 2265 a9f8 906e edbf
00000360: 082e 33d9 f1c3 e2bf 0039 d7c8 bfb0 70bf
00000370: 70e8 7e01 b1ea e9bf 34c1 70a7 7dc2 dcbf
00000380: a2b1 3ccb b119 e9bf 4c76 cf8e 89e0 d5bf
00000390: fef9 c33d ce7e efbf 8088 6aba c628 bfbf
000003a0: bc48 956a d064 ea3f 4cec e1f7 b4c1 e13f
000003b0: 240d dc0d 0715 e5bf 82c8 e740 732c e7bf
000003c0: 3a27 244e 1f42 e5bf 3e1a 7ed0 f85a e43f
000003d0: 293c 0db4 40d2 c93f 4246 8c48 90e9 e8bf
000003e0: b848 d153 7129 e23f 4b5c 9502 bc18 e03f
000003f0: fbb5 5a65 30bc d2bf 8640 a35d 5b5c d83f
00000400: b050 5dda b78f edbf 9304 932c 67cb e3bf
00000410: 2421 9134 ae3f d1bf 4d42 30da ffb6 dd3f
00000420: c543 fb2c 00d0 d1bf e08b a732 103e a8bf
00000430: 9811 55ee e928 dcbf 7165 348d b386 e3bf
00000440: 04cd 4eae 2725 e1bf 2006 8b1a c104 d43f
00000450: 2985 31d2 499d f03f 19b5 dd63 3b31 b63f
00000460: f06e f75a 2ccf dfbf a2aa a044 b9d6 ef3f
00000470: 3c5f a975 0396 dcbf 7423 6bc0 6b0b e5bf
00000480: a657 cd6f a032 efbf c436 106c 6fb9 ddbf
00000490: 783f 612e 47fe dcbf 406a 20d1 57c5 de3f
000004a0: ac1f 95a2 ec5e e73f 724c 317b 0459 e1bf
000004b0: 0cf1 0012 2a00 db3f c668 1ebe 6853 e83f
000004c0: e07d 3a2c 5524 dabf 3853 af16 25e0 dcbf
000004d0: b222 bb93 4fed eabf 861c 49b9 babd e33f
000004e0: 2077 4a93 2f7d b93f cc4a f03f 1c55 ddbf
000004f0: bea9 5b90 0f4d e53f 3053 e3e9 6868 edbf
00000500: 0024 6200 e22b ed3f 6e7b 3f46 d0a2 e0bf
00000510: e0c0 054d b9dd d83f fc65 62f1 4e48 d53f
00000520: 3c4b 895c 8523 dcbf 8817 0d5d 6393 cc3f
00000530: 40d8 bcc7 f3df a3bf 76cd 50e9 54e7 ed3f
00000540: 46d6 b901 6a73 e23f c8d0 f3ea 7bab efbf
00000550: 78b8 c33b 565a c0bf e070 2ab1 5d1a b2bf
00000560: 6470 b0c3 a335 d4bf f89f 511c b667 c8bf
00000570: 0090 e927 d958 50bf 90cc 8088 d749 dabf
00000580: f8fa 4ee3 7556 c3bf 9805 015a a286 cdbf
00000590: f879 c0b0 1f86 cbbf 4c10 5b91 c742 d3bf
000005a0: 0386 2161 dca5 ee3f e018 dc88 95a7 acbf
000005b0: 9a61 8d26 3894 e3bf 155d a0a6 62d0 ebbf
000005c0: fd03 edcd 310f eabf 8ce2 9ea8 4e9b 8bbf
000005d0: 6314 04f9 b01e ef3f abec 3091 e724 e53f
000005e0: 3049 6fb2 9bfa bebf c5b1 a3f2 878d e13f
000005f0: 66ff 5a19 f967 e83f 0722 4095 a402 e3bf
00000600: 2efb 85c6 f2bc d23f e7ce 8dd4 eab3 ec3f
00000610: 324a b6ca ad2a ea3f e055 307e 353d d9bf
00000620: 6800 1454 3ae9 c13f c4d8 0aae 4f4b e6bf
00000630: 971a 5282 3903 e9bf 56c4 265d d42f d53f
00000640: 744c 1bf8 a66e dabf e818 7bcc 8da5 c5bf
00000650: a02e cd10 d4ef abbf 00c2 f1a9 9bd3 e63f
00000660: c7e5 a24f 1ea1 e63f b308 3512 d0a2 e53f
00000670: 1751 76cb 0826 d33f 5e4e 8828 a9b7 efbf
00000680: a0a3 4ec8 ab33 ee3f 0562 5ed7 2a59 edbf
00000690: 840e 359c 29f3 d33f 49d9 0e9c aec7 efbf
000006a0: 9e1f 0822 d9ef e9bf fd45 79b9 4ea6 d7bf
000006b0: 20db 570b 8982 e33f 67fa 5044 edda ed3f
000006c0: a0e6 f05e 31b3 ac3f a07f 90e4 b627 cd3f
000006d0: 5393 d215 ed7c df3f 6a18 0bf9 2075 e83f
000006e0: c6b6 67ab d19a db3f 26f5 aa98 ef5b e2bf
000006f0: acf1 a90a 6fc1 f13f 3777 2958 c2da e4bf
00000700: c109 7e88 4aff e6bf 081d 63aa fa13 e83f
00000710: ba26 59c8 bd0e f13f 069f 0679 b1d5 e63f
00000720: 2802 5d18 0475 eebf 6e19 6b1b 3e13 c9bf
00000730: c0a8 232b 41f9 953f 7c84 75bb f843 ecbf
00000740: ffaf 6f1f e6e2 ea3f 8604 3d56 4c37 efbf
00000750: 36b3 03ff de3d ebbf 642b 43b8 5420 d13f
00000760: f80c bedb 9660 d33f 3cc3 ee3c 0978 d0bf
00000770: 27f8 82b2 125c c4bf cfa2 3eae c662 da3f
00000780: 7d61 b5a7 b352 d03f 40d1 dab8 9e71 b83f
00000790: b818 989e 460a e43f e86d 787a 2ce0 e33f
000007a0: 6acc 8e7b 634e e4bf 0ce2 072c 3f39 e63f
000007b0: 324c 23f8 43e5 d0bf 8abc 98ce 1f12 e23f
000007c0: 52a6 8754 a779 e83f 9d50 94fa d79d c3bf
000007d0: 6021 5d69 29de ad3f 772a 1ed1 7244 e63f
000007e0: 5a47 b5af 94ab e73f fe5d 2449 b1a0 e2bf
000007f0: c8a4 498a 7ccd ce3f d74c c261 9a9a ca3f

b3 f8 [20, 1]
-0.6487690365507188 0.6929301863463164 0.5643216776571964 -0.5404696157366726 0.5469184081757831 -0.12941490259382296 -0.062378606030200484 -0.5430560339517865
-0.511222955121734 0.09183322573604767 0.6599039630376885 -0.1591326974992485 -0.44352032489556126 0.6177700069215489 0.86080597860895 0.3812661403382707
0.20290265759595222 0.9877966300576799 -0.7327862739550619 0.7866965441374429
00000000: 8a91 5448 b7c2 e4bf 7e98 18ed 7b2c e63f
00000010: b6c4 be55 ec0e e23f 2443 82ef 864b e1bf
00000020: 7340 9608 5b80 e13f 11b4 20e3 aa90 c0bf
00000030: bc53 bdb1 16f0 afbf 0afd 360c b760 e1bf
00000040: 5acb 263e f05b e0bf 6ff6 38dd 6182 b73f
00000050: dfec 77ea ee1d e53f 6be4 bdd1 755e c4bf
00000060: 2c6a a212 a362 dcbf 19b0 059b c5c4 e33f
00000070: 7574 cafa b88b eb3f 1dcd f418 aa66 d83f
00000080: 6eb3 52db b6f8 c93f be4b a6ad 079c ef3f
00000090: ae07 3333 fc72 e7bf 0a4a 1e3b 9e2c e93f

W3 f8 [20, 20]
0.42579976695943356 -0.7010883962676627 -1.0415246093350579 0.3925186542010078 0.32511530300453967 -0.7755289505828302 0.28663259817328196 0.49759125321814457
-0.11490867912378411 0.08470373907257762 -0.24046828038093043 0.3919102936528776 0.04341917006487788 0.41458579136813184 0.6069181980160107 0.06586121559356206
-0.47059738791505235 -0.874104556938833 0.27307899383221335 0.17017594626905458 -0.4177587884248011 0.7587352026788998 -0.46273618498738606 0.4256876737935018
1.0997767179369695 0.6272567972321978 1.0017287790961802 0.0469996205078107 -0.09296736790224847 -0.3945497637417411 -0.47083542543866314 -0.6007782812289632
0.0020231657824727506 0.7485871129038638 0.21121898859414898 0.4201863779571846 -0.7021269352049242 0.28098390764903686 0.9347341402418214 0.5872504055893395
-0.5409386693846234 0.4632824340918737 -0.6883510292564715 0.4595815291689503 -0.6569031864820993 0.2251197199014101 -0.384706704695037 -0.16898293199942183
0.08691581617759803 -0.1754291690680003 0.4981097917508961 0.16563389807574858 0.6374374663180018 0.18393742118317524 -0.4355800833102556 0.6649488066518274
-0.12815520200526728 0.3360615931963926 0.6978569249762168 -0.18773274456716638 0.0353226255542729 -0.5743075433415781 -0.3467435514822805 0.5520581689480151
-0.1888410367007484 -0.929152551663605 -0.9149143396236576 -0.3209206548495984 -0.7299261096362084 0.9058990733445149 -0.3572293288993036 -0.766407770420579
0.05674347722248465 -0.9956103610751315 -0.027657782970289646 -0.9450932972167674 -0.05367532335253539 0.9104082353316302 0.9528927176931541 0.15337060085331344
-0.4750496816308625 -0.8053314215142138 0.5429019621610393 -0.47465626833971963 0.5300659215783767 -0.32085311263831495 -0.6002763382607118 -0.10534547859707377
0.20040023363136572 -0.42635307819886714 0.9045447139139412 0.7877460132050277 0.07654937767714365 -0.08065979919897362 0.003574065134006956 0.8358379958553346
0.5132355710583207 -0.1961566813065608 -0.00882442371190284 0.05261970253732717 -0.13096424613519675 -0.297422617016931 0.4544600836124664 0.11521085208461777
-0.42780775238143387 0.2093543483708573 0.2515512556332491 0.6665197791812674 0.562182390711425 -0.16050303826013837 -0.08416986246877196 0.9106379883068435
0.2454870599098196 0.5523902909654552 0.7044634072224238 0.6054655666055586 -0.41312252671418637 -0.5974367888185601 0.7710625618109825 1.327095627687474
0.8773752895044646 0.9525417256017379 -0.9532976339942786 0.7260655483366348 -0.801746072498462 -0.6157385346716002 0.27120442730617766 -0.9385773993245519
0.42202106065905 0.8977040937920239 -0.6088676418593382 -0.7439837862865194 -0.5086011645371629 -0.06505824083984746 -0.8132985794049677 -0.11536781956516173
0.604869355027865 -0.7637169906578506 0.2156931556684818 -0.08215858808241894 -0.09911887183356627 -0.3838555134467788 0.6545940346405289 -0.33795637549946694
0.3856838742377354 -0.4317950111177964 0.7953465336803391 -0.33223347421073446 0.4979660275281883 -0.4454666106968017 0.7142108394590952 0.41299572293811715
0.20120552425511176 0.5368911547039825 0.3773915308562886 0.9990763425876292 0.05059039898123144 0.8051450812882998 0.4155657229785621 -0.3410293968445379
0.05884283140134383 0.4348691057632761 -0.9565369053424371 0.9670052622108419 0.8578770855493377 -0.4132581514771534 -0.5501647473520556 0.3418781886534892
-0.7477018784923579 -0.34923255326555536 0.7249954414841072 -0.7089471717226279 0.29261250012453593 -0.391556559037275 0.9431810002796516 0.4791502972185415
-0.5801476780348278 -0.5881599714620297 -0.07445521713360304 -0.514319643295112 0.04168550271704885 0.5843236604765891 0.32922465957614033 0.4889032691022741
0.35902820925014683 -0.40067470136934724 0.6362225911400661 -0.3339499094322371 -0.6254345048543573 -0.4107083721423073 0.4618899009306261 0.8244095124518407
-0.9347784596006548 -0.6628510047741264 -0.0632214024517457 0.39343645505562486 -0.1901785806133941 -0.3915718480973548 -0.0980851575124777 -0.7738350775570676
-0.33229523816991735 0.042681769770326915 0.39195135059594965 0.2681540563823668 0.31186047022780217 0.438917189974805 -0.03851144074185667 0.10972730779233464
0.9153981513825844 0.2599544418496032 0.5507109459417968 -0.652343240058631 -0.14662563052884123 0.13251241829372823 -0.5315923679439695 0.33984601837422046
0.5829166775776436 0.058746018640794 -0.3802654451572307 -1.2362378700284944 0.3698323862690829 0.4918777630671313 0.9263646473382648 0.8223618496289608
0.10186775143623666 0.8138580555729189 -0.8040756771229091 -0.08854234660373628 0.6977858578440876 0.5279385142290176 -0.17828223962509882 -0.8869261552325802
0.8909005699592373 -0.916302512947811 0.13076542348513429 0.9685292718065626 0.15534354058323008 0.30707955452789204 0.0021887818230899025 -0.9790027587672081
-0.6876576040787388 -0.47162321850106226 -0.6074019200130193 0.0648875505111702 1.1956719889134788 -0.0167019051649262 -0.16645251746361361 -0.9419588943584736
0.4079663074674158 0.10606766490166611 0.13235755568295304 -0.221852018886451 0.5954370857754764 -0.5662854480129852 -1.086547575800787 0.21324262495589097
00000000: 540d 6faa 4d40 db3f f163 b2ee 506f e6bf
00000010: 082c 71b5 15aa f0bf ad3f b78f 061f d93f
00000020: 2b5a 756a b0ce d43f b457 fb16 22d1 e8bf
00000030: d7ca c740 3058 d23f d83e d6fb 88d8 df3f
00000040: 60fb dcba a76a bdbf 4567 2aed 24af b53f
00000050: f210 fb23 aac7 cebf 851c 8de9 0e15 d93f
00000060: 076f e596 093b a63f 73fe d3d7 9288 da3f
00000070: bd6e 7ab6 df6b e33f 6095 0cd7 47dc b03f
00000080: 3a67 ab81 441e debf 8ac7 aa1e aaf8 ebbf
00000090: e8f8 ee50 207a d13f fe4d e54d 53c8 c53f
000000a0: b0ab 795b 8fbc dabf c68d 3a0c 8f47 e83f
000000b0: 9395 4c3b 789d ddbf d037 5083 773e db3f
000000c0: 6310 c778 af98 f13f b2ca c9d8 7c12 e43f
000000d0: b3e1 9ac1 1407 f03f 60cb 0292 5510 a83f
000000e0: 6040 bc9c b5cc b7bf 5a94 faa6 4d40 d9bf
000000f0: e1aa 83e8 2a22 debf cbd0 c05f 9339 e3bf
00000100: 09ea d7db e292 603f 0922 04f6 6cf4 e73f
00000110: 332d 274c 3909 cb3f 5c40 e367 55e4 da3f
00000120: 4a11 0be8 d277 e6bf 7183 83ed a3fb d13f
00000130: b862 5992 57e9 ed3f d434 d25c c1ca e23f
00000140: 44c2 c49c 5e4f e1bf 8b18 cf5d 6ba6 dd3f
00000150: 2d62 dabc f806 e6bf 7d15 68a5 c869 dd3f
00000160: 9485 d2d4 5905 e5bf 68a3 5415 b9d0 cc3f
00000170: 30e5 cdde 089f d8bf d085 4293 3ba1 c5bf
00000180: 10e9 fc6b 1d40 b63f 8fac f487 7674 c6bf
00000190: 4ccc 58e4 07e1 df3f 4013 acd7 7d33 c53f
000001a0: e496 e241 e365 e43f 3004 3fec 428b c73f
000001b0: f3d0 2649 8be0 dbbf b4ae 42b8 4247 e53f
000001c0: 0363 b6c0 6367 c0bf 2417 0e7c 0882 d53f
000001d0: 54eb c10b d854 e63f 58f3 2667 a007 c8bf
000001e0: 6000 21a3 ce15 a23f 18f1 8f36 ba60 e2bf
000001f0: 43c7 6ddd 0b31 d6bf 3ee2 a3e4 75aa e13f
00000200: a5df 626e f12b c8bf fa7b cc21 9ebb edbf
00000210: c866 ea6f fa46 edbf cc27 4cc9 f689 d4bf
00000220: f049 2c00 8e5b e7bf 86b9 af0d 20fd ec3f
00000230: b0d9 3267 d8dc d6bf c869 ab96 6986 e8bf
00000240: 0321 dd25 7b0d ad3f ce0b 8c42 0adc efbf
00000250: a05a 5965 5252 9cbf d6df 664c 343e eebf
00000260: a87f cdfc 547b abbf 0145 9873 1022 ed3f
00000270: 48d6 62de 187e ee3f dc9a 6ad9 a5a1 c33f
00000280: e41a a5c7 3667 debf 1a08 bb66 46c5 e9bf
00000290: ff4e 8def 735f e13f 5e12 57af c460 debf
000002a0: 40e7 bcce 4cf6 e03f cc7c 667e db88 d4bf
000002b0: 778e 2cb9 7635 e3bf 401c 5bd9 ebf7 babf
000002c0: 585b c700 b7a6 c93f a86f da6b 5e49 dbbf
000002d0: 33f6 80c1 07f2 ec3f a9a3 8820 3735 e93f
000002e0: 3809 a771 bd98 b33f 4a59 a9df 1ea6 b4bf
000002f0: 389f a89b 5b47 6d3f b67d 1e53 2fbf ea3f
00000300: 22dc 1a01 6d6c e03f e341 8d81 a91b c9bf
00000310: 8046 fd19 8a12 82bf a0cf 0b3b f8f0 aa3f
00000320: 9048 0cb9 6fc3 c0bf c16b 4bdf f808 d3bf
00000330: 71fd 1cbf df15 dd3f 9f04 d959 757e bd3f
00000340: 8c06 5dc4 3361 dbbf d09c c38f 1fcc ca3f
00000350: 449a 0d70 6a19 d03f da0f b749 2154 e53f
00000360: e8c3 cfec 65fd e13f fd32 1e12 5d8b c4bf
00000370: b5b8 9cf6 278c b5bf 6dbd 4847 f223 ed3f
00000380: f1b1 f3b6 1e6c cf3f c062 4a67 2ead e13f
00000390: 24f8 e7d7 f68a e63f 7899 ed52 f95f e33f
000003a0: be9c 5e77 9970 dabf 2ae5 acc1 331e e3bf
000003b0: a2bd c464 8bac e83f 1251 f99f c83b f53f
000003c0: c8af d757 7513 ec3f a81d f1c8 387b ee3f
000003d0: e181 2b0a 6a81 eebf ff75 1bd1 ed3b e73f
000003e0: 9079 2261 e7a7 e9bf c4a5 a94c 21b4 e3bf
000003f0: 4ade 73d0 695b d13f 4aa3 5b78 d308 eebf
00000400: 1c3f 709f 6402 db3f 4f4e 8aef fdb9 ec3f
00000410: a81c 2cfe d77b e3bf f75a db15 b7ce e7bf
00000420: cea0 0cf3 7546 e0bf 5010 be28 a8a7 b0bf
00000430: ddae 0dbe 8a06 eabf 100f 0bd4 be88 bdbf
00000440: 3a50 46fa 165b e33f d9cc 489d 5e70 e8bf
00000450: e898 c854 d59b cb3f 4047 e660 5808 b5bf
00000460: 900b f1b8 da5f b9bf 3e2a 29b7 1691 d8bf
00000470: 2702 5e30 6ff2 e43f 8bac 0fc7 13a1 d5bf
00000480: 8a85 9c6a 0baf d83f cceb d48a 87a2 dbbf
00000490: ce9b e492 7a73 e93f b4c7 9730 5043 d5bf
000004a0: ac2a b0e6 acde df3f 48c6 1963 8682 dcbf
000004b0: dd9d bdb0 d0da e63f c40d da9c 856e da3f
000004c0: 75a1 3945 1ac1 c93f 96e3 de5b 362e e13f
000004d0: 2a2b b4ce 2e27 d83f 8ae0 33f3 6ef8 ef3f
000004e0: d461 3b1a fce6 a93f 6d64 159e bfc3 e93f
000004f0: 6c04 62f9 a098 da3f 5800 9bf6 6cd3 d5bf
00000500: a014 f2c8 a520 ae3f 7cd1 d23a e5d4 db3f
00000510: 2e9c bb48 f39b eebf d12c 0805 b5f1 ee3f
00000520: a982 4da5 ba73 eb3f 2096 5951 d272 dabf
00000530: f940 a919 f39a e1bf 88e0 de0d 55e1 d53f
00000540: c609 697d 2ced e7bf 4858 be7e d359 d6bf
00000550: db8b dda3 2933 e73f 047e a4fa b1af e6bf
00000560: 25e2 9bc7 29ba d23f 655c e63d 430f d9bf
00000570: 051c cdeb 892e ee3f 3807 1b02 66aa de3f
00000580: 4a51 00dd 9190 e2bf dddc 47dc 34d2 e2bf
00000590: c0fb 9a42 7f0f b3bf 9292 f477 4e75 e0bf
000005a0: a02a c65d cd57 a53f a6d4 8088 c7b2 e23f
000005b0: f0a3 7a4e 0412 d53f 8ce9 ecef 304a df3f
000005c0: 6788 4474 51fa d63f 84d1 ad80 a7a4 d9bf
000005d0: ea88 bd7a ef5b e43f 28df e070 6f5f d5bf
000005e0: 1c76 0439 8f03 e4bf d9da a2c4 0b49 dabf
000005f0: cc61 b6a8 9a8f dd3f 24be cf0e 9061 ea3f
00000600: a6ae 1f84 b4e9 edbf 0505 744f 1336 e5bf
00000610: 2200 f01f 472f b0bf 4428 e118 102e d93f
00000620: 5c2e 1190 c557 c8bf de31 675e 830f d9bf
00000630: b035 bddf 1b1c b9bf 095e d3c7 41c3 e8bf
00000640: d89a 233f 5344 d5bf b310 998a 62da a53f
00000650: 46b0 1b1e bb15 d93f a8ed 9ca1 6f29 d13f
00000660: 36ca 229e 85f5 d33f 3404 2620 3817 dc3f
00000670: d427 0485 c5b7 a3bf 603a 72be 1617 bc3f
00000680: d039 6010 f14a ed3f 296a 8cf4 17a3 d03f
00000690: d3d0 cb8f 6c9f e13f 2131 3aee fedf e4bf
000006a0: 6b39 f0ef a0c4 c2bf ee55 71bb 2af6 c03f
000006b0: e9eb 63ff cd02 e1bf 38f5 a583 09c0 d53f
000006c0: 87a5 4fe0 40a7 e23f 8232 aa49 f513 ae3f
000006d0: b0f2 afe0 4456 d8bf d795 5d5c a1c7 f3bf
000006e0: 1cc0 0175 55ab d73f 9730 80de ec7a df3f
000006f0: 25a1 0f79 c7a4 ed3f 774d 34cc c950 ea3f
00000700: 9c89 ef44 0114 ba3f e4b2 880c 200b ea3f
00000710: f90f 18ea fcba e9bf 8061 f912 b6aa b6bf
00000720: 36a7 e101 4354 e63f e232 9d4f dfe4 e03f
00000730: 24df 52d2 f3d1 c6bf 461c d6f5 b261 ecbf
00000740: 4fce 7ee9 4182 ec3f 954f cba5 5952 edbf
00000750: 9f7a a8e0 ebbc c03f 9a17 7419 31fe ee3f
00000760: c493 3911 4ce2 c33f 42ec fd00 31a7 d33f
00000770: 00de 244b 35ee 613f 7c2a f397 fd53 efbf
00000780: 10a5 0b85 4a01 e6bf c8c3 df26 132f debf
00000790: 0b79 bf26 d66f e3bf 26ef 5c73 789c b03f
000007a0: d306 92f3 7821 f33f c064 dbe1 4d1a 91bf
000007b0: 5aea 6beb 504e c5bf 5445 aefa 8624 eebf
000007c0: cc50 1cb7 1e1c da3f 226e ea1f 4027 bb3f
000007d0: 48b5 84a6 17f1 c03f e89d d59e a565 ccbf
000007e0: 2366 4713 d20d e33f cd53 eda8 021f e2bf
000007f0: a4cc f9b5 7f62 f1bf 483d 26ca 884b cb3f

b4 f8 [20, 1]
0.25979187831781597 0.38294886937786066 -0.2571649054945735 -0.3477412624521381 -0.04027663193955199 0.49376248088682867 0.727775031974302 -0.16976928293838664
-0.33084618381752967 -0.8750696094498754 -0.7241380757052354 0.2948971081843714 0.1013940376505839 0.3729425457119146 0.2082371245667912 0.21641959957544935
-0.9349098832767002 -0.624455896069353 -0.43762498944383815 0.001561250060108662
00000000: 350d 491d 6ea0 d03f 5828 81f9 3b82 d83f
00000010: c8cc b1ca 6375 d0bf 6ce8 6c91 6441 d6bf
00000020: 1f62 f281 239f a4bf f5a5 d9f2 cd99 df3f
00000030: 7399 25dd ee49 e73f 93f9 0af7 ffba c5bf
00000040: 252c e078 952c d5bf 51f1 49fb 9100 ecbf
00000050: cc27 1e9d 232c e7bf f08e d51e 98df d23f
00000060: 7bf9 b7ab f5f4 b93f 7ba8 4769 4ade d73f
00000070: c3e9 e99b 83a7 ca3f 8dea 312f a3b3 cb3f
00000080: ea2d ac21 c8ea edbf 1f31 6dee 8afb e3bf
00000090: 5bb6 643e 0c02 dcbf 2326 bd7c 5b94 593f

W4 f8 [20, 20]
-0.8987509967342822 -0.13051613537615395 -0.8667851028996552 -1.0313183430610873 -0.5672278966867601 -0.5181309073703002 0.8950135776912187 -0.38903596479532515
0.6822943776611944 -0.8817531765165149 0.7858731427245805 0.5041096224167546 0.8237836924594389 0.8894071527352644 -0.6868899434433823 -0.9138850730525028
-0.9219445919427197 0.957384276879076 -0.9031420093262015 0.5512467848792827 0.20930465353317182 -0.934582930735143 -0.35613577365787286 0.31150802857075105
-0.7156123171591258 0.6681044165494385 -0.4319229703668805 0.2783197707952064 0.36443072407915506 0.16346861742848187 -0.5016040614649295 0.7926257348812542
0.7114860828350702 0.6865560018992838 0.24114221393925242 0.3018453695710141 0.15954464308219812 -0.3081639407011884 0.6572737155011958 0.5745567395089897
-0.4207130407331747 -0.49792154363106245 0.4593356107446842 -0.9449870762498389 -0.17955886447664793 -0.9464284782691685 0.7491807325117308 0.8383100168251076
0.9926923954335403 0.17779569310618792 -0.8347503158161991 -0.8615889632905538 -0.1342311347121945 0.2416908473451398 0.19643972485977357 -0.08519669402667795
-0.7191757646440506 -0.22752961874471977 0.7138510787567667 -0.4271192178632026 -0.08138317066188505 0.487232227767711 -0.24451014551122863 -0.21636437352109916
0.06992638576968613 -0.17360458833437642 0.05043254052093182 -0.2583583834726204 -0.8370826002876819 -0.09854960052052975 -0.13681139538884524 -0.0006193089999375623
0.7878013625130129 -0.7297408742190079 -0.8991694502320695 -0.6714463810587619 0.9493574835345568 -0.870216873192061 0.3241894280038977 -0.43747672129467374
0.03340297268369019 -0.10146322951458142 0.9390222291965287 0.09108535638259341 -1.013431693534255 -0.1778365770909847 -0.27377319014200163 -0.8366558391973096
-0.30150059867935297 0.010949429792312138 0.3107735563506105 0.4623366078404834 0.8203615885660812 0.7866117990613181 -0.89891362993832 0.9682264532910697
0.3947736616900247 0.6079632934616048 0.8418764274489423 0.34759865925157396 0.06063052235199265 -0.10077576370301589 0.7170718010325488 0.7742508534683628
-0.592922167244763 0.509692963542333 -0.02628809910322696 -0.4740493345383822 -0.15128561316812866 -0.40436409562796444 -0.2602338090640666 -0.1016531019098854
0.4408048018874884 -0.7728059875410054 0.2798833804588091 0.7953856527151844 -0.562050656929615 -0.34525142787339125 0.004554243907480826 0.18111207432183668
0.5302395204175558 0.7624284461114627 -0.21692382670650445 -0.6396289591547053 0.3290535333932069 0.18291270182663472 -0.678597756748389 0.560870392602953
-0.6365320585016369 0.5376420607330702 -0.6365360425539717 -0.07115419028375937 0.37069245366109294 0.21215089432503295 -0.6473050574476061 0.33526644710729847
0.2450919355884369 -0.02044803309481622 -0.6798372964447965 0.13802060364294258 0.3830515921926087 0.10322760746457486 -0.8924620491304457 -0.08875676596091044
0.4193731056674038 -0.6177902105785905 -0.8480108310378855 0.002075842254522494 -0.19833881847147938 0.9835996938059319 0.32334113125216796 0.6855716093983298
-0.2928399069084883 0.09916347574724511 -0.5062995205382953 -0.4650225157883488 -0.7928551301715224 0.4362948741871559 0.7418565430549828 0.9363177867651525
0.8177334074238277 -0.5724188992362748 0.2625540535543952 -0.18212010861797406 0.1305864865220673 0.7895208598981043 0.45669867193097546 0.31118370601525913
0.9952891665190138 -0.26545711366547275 -0.726105251177832 0.05173720113333847 -0.8830028989428317 0.201037882859415 -0.40468469098002235 -0.10663494274733026
-1.1537919395227083 -0.46737752873808325 0.49203910082881896 0.24743843006411556 -1.151106830215744 -0.3543358238397743 -0.503094110712531 0.5324945853545698
0.3658311558891634 -0.5403795813368062 0.7673663377733505 0.9622831013059641 0.10538368815991132 1.0544338087008784 -0.4074740844742875 1.036400245216046
0.6716004284038816 -0.12587752034154875 0.8774313481863869 -0.3797928692028717 0.5963257531528308 -0.7283862207588802 -0.21711313960335676 -0.5967299011417548
-0.34904764814713335 0.7734863621092657 0.9981307439732539 0.441307179104983 -0.9279788779472893 -0.3075273106220591 0.3126602648214692 -0.2996297473423787
0.7199375379260291 0.46975690257493014 -0.667867148346185 0.1707543669329828 0.2532988386970738 0.03435798573052137 0.07986733586883875 -0.544348472498858
-0.7372434368459536 0.7949583203698609 -0.17478003418744859 0.03004105719172479 -0.11916716316770493 -0.12429347455663908 0.7982828001635056 0.1568915707509857
0.04768561775772362 0.612859616638646 0.957654450972971 -0.42397573818456036 -0.8769699182783608 0.21204774161697704 -0.4983883127761721 -0.29772764551642394
-0.9167013884586839 -0.3959373928466612 -0.4643587016919153 0.8046203119391429 -0.43500346245410415 -0.41565569113208256 -0.6054082821355786 0.8229337466431013
-0.5117022312434508 -0.20975475395099236 -0.9832040984589434 -0.15801005099219734 -0.14421296105476367 0.7910963757732483 -0.4289663316576542 1.1298482247816586
0.4757343356414318 -0.6048297710575522 0.026810566045556077 -0.8882839746563735 0.525270606041273 0.15406575403141334 -0.3425567291740559 1.253662207048324
00000000: 9e13 4773 91c2 ecbf e13b 85b2 c0b4 c0bf
00000010: 00a6 b31c b4bc ebbf 7e65 b3a9 4780 f0bf
00000020: 86c0 341e bb26 e2bf ca78 c644 8794 e0bf
00000030: 961c b583 f3a3 ec3f efe0 701a f7e5 d8bf
00000040: 8795 c904 5bd5 e53f 9f0a 0970 5237 ecbf
00000050: 6bd1 d96e df25 e93f b31f bc80 aa21 e03f
00000060: d9ec 429e 6f5c ea3f 2d72 3afd 0576 ec3f
00000070: bb4c 619e 00fb e5bf ac04 a2e8 8b3e edbf
00000080: 09c7 e3f1 9180 edbf c5ce dc59 e4a2 ee3f
00000090: 7464 3612 8ae6 ecbf 039d 224c d0a3 e13f
000000a0: bbac e9b0 7eca ca3f 6008 5d76 1ae8 edbf
000000b0: 4ef5 32b3 edca d6bf a1c7 c95e bfef d33f
000000c0: f005 5acd 4be6 e6bf 7493 6c83 1c61 e53f
000000d0: c37b 073e a0a4 dbbf f651 59ba fdcf d13f
000000e0: ebf6 643e d552 d73f 898a e326 8aec c43f
000000f0: 700b f1f5 230d e0bf f40d 29a5 305d e93f
00000100: a8be 2a76 7ec4 e63f 40f5 e04a 44f8 e53f
00000110: 8ded 4681 bfdd ce3f 236b b03d 6f51 d33f
00000120: d21f 2578 f56b c43f bf8e c73f f5b8 d3bf
00000130: 2e23 13e3 6208 e53f 6a66 bcd0 c462 e23f
00000140: e8c7 bc63 f6ec dabf cca1 7752 f2dd dfbf
00000150: bc57 8230 c165 dd3f ca57 7489 553d eebf
00000160: 282a 51ed c8fb c6bf 7a69 4560 2449 eebf
00000170: 74cc 1ddf 49f9 e73f 9a89 4587 6fd3 ea3f
00000180: a2ff abd7 22c4 ef3f 985f a15f 02c2 c63f
00000190: 2c33 584b 46b6 eabf dcad 7d04 2392 ebbf
000001a0: f0cf d85e 7c2e c1bf f881 8bc6 b9ef ce3f
000001b0: 3838 f4d8 ef24 c93f 1068 9256 73cf b5bf
000001c0: 8c1a a7e4 7c03 e7bf 38a1 b0c7 b01f cdbf
000001d0: 3230 af37 ded7 e63f a4cb 0dd8 eb55 dbbf
000001e0: 7005 7008 87d5 b4bf 6073 f414 d02e df3f
000001f0: 1866 41c3 1b4c cfbf 8875 25ea d3b1 cbbf
00000200: c01e 0214 b2e6 b13f d074 aad6 ac38 c6bf
00000210: 0019 6240 4bd2 a93f a463 ea99 f188 d0bf
00000220: d428 0973 61c9 eabf 9000 45ef 8b3a b9bf
00000230: c825 752a 0983 c1bf 0010 4ff3 234b 44bf
00000240: ac9a f733 ab35 e93f 2067 aa88 095a e7bf
00000250: a4e3 c902 ffc5 ecbf 2847 f51e 7d7c e5bf
00000260: 0ccd fff1 2261 ee3f 6831 590e d1d8 ebbf
00000270: 8015 bf03 85bf d43f 1c34 ae5c 9eff dbbf
00000280: c000 88c6 311a a13f c0fc 8284 7ef9 b9bf
00000290: 26b7 9358 780c ee3f 48c8 ceb2 5e51 b73f
000002a0: 325a c726 0437 f0bf d9b5 5155 59c3 c6bf
000002b0: 7a9d 8bfc 7f85 d1bf 2284 6b77 e2c5 eabf
000002c0: ee57 c32a c94b d3bf 2d50 f196 a76c 863f
000002d0: f532 3fc5 b6e3 d33f f1c7 9a48 ec96 dd3f
000002e0: 4f26 39f2 6640 ea3f f7b6 f381 ec2b e93f
000002f0: 7c70 5084 e6c3 ecbf 1d3b 000b b6fb ee3f
00000300: 06f9 91bf f843 d93f dec0 d26f 6f74 e33f
00000310: 2a54 65d5 a6f0 ea3f 029d 6772 0e3f d63f
00000320: 144c 48bd f60a af3f f878 55c1 70cc b9bf
00000330: 1a32 ca8f 40f2 e63f 9e7e d1b9 a9c6 e83f
00000340: 6b78 ace8 37f9 e2bf ed4c 2d9e 674f e03f
00000350: e780 b077 44eb 9abf 471b 2205 d356 debf
00000360: 2aca 74b4 535d c3bf b184 99f1 19e1 d9bf
00000370: 5d98 cfb4 aba7 d0bf ef6a 3d0c f005 babf
00000380: 88b2 0158 2536 dc3f 0088 549f d3ba e8bf
00000390: beed 70fb 9be9 d13f 8ed1 c39c cc73 e93f
000003a0: 09a8 c6a8 51fc e1bf e243 e771 9918 d6bf
000003b0: 000d 408a 78a7 723f cabe 0f32 ae2e c73f
000003c0: 1eaf e7de b8f7 e03f b3d7 3257 d065 e83f
000003d0: dcbb b6f2 28c4 cbbf 7a9b a426 d777 e4bf
000003e0: ffa6 238d 360f d53f 9627 2ff4 ae69 c73f
000003f0: 06f2 8ba4 12b7 e5bf 96c7 3077 a6f2 e13f
00000400: c5d7 c37a 785e e4bf c1ae 791f 5d34 e13f
00000410: 8ad3 afd5 805e e4bf c1fa 3d38 2937 b2bf
00000420: 044c 56d7 6cb9 d73f bfb9 78b0 c227 cb3f
00000430: 59bb 8818 b9b6 e4bf ce67 7166 0175 d53f
00000440: 70ce ee2b 2c5f cf3f 7a98 a345 54f0 94bf
00000450: 4e9b 5a25 3ac1 e5bf f909 69bd a8aa c13f
00000460: 8f78 49d3 ea83 d83f f3cb 1ade 1f6d ba3f
00000470: 11f7 3d92 0c8f ecbf 69d0 196f c3b8 b6bf
00000480: fe75 6a4b 02d7 da3f 012b c7f9 efc4 e3bf
00000490: 9cc4 3e9c e722 ebbf ded6 0853 5b01 613f
000004a0: 585f 6e99 2a63 c9bf 2211 a810 a679 ef3f
000004b0: 4980 0b00 9fb1 d43f 3bd2 2ddf 33f0 e53f
000004c0: 5bae c897 e3bd d2bf 85c7 4a0d c762 b93f
000004d0: 9f28 560d 9b33 e0bf 09bc 4dcc edc2 ddbf
000004e0: 2dae d1b8 115f e9bf 13f6 0256 41ec db3f
000004f0: 22d5 d7ee 49bd e73f c938 1ab8 50f6 ed3f
00000500: 696c 3740 df2a ea3f b9a0 7a70 4151 e2bf
00000510: eeb1 5c84 afcd d03f 32a5 3a33 b64f c7bf
00000520: a5b6 74d8 0eb7 c03f 80b5 1840 c143 e93f
00000530: b67d 0411 8d3a dd3f 2c8d 1810 6fea d33f
00000540: 7464 88aa 68d9 ef3f bac2 6bd5 3ffd d0bf
00000550: a967 6814 413c e7bf f161 b565 4c7d aa3f
00000560: e971 a74b 8f41 ecbf b7b2 11fe 9bbb c93f
00000570: 34de 3c9e 5ae6 d9bf ecea b577 6d4c bbbf
00000580: 0f37 6a89 ee75 f2bf fc2e 3470 83e9 ddbf
00000590: fc6e 9a91 917d df3f 1b11 73fe 0fac cf3f
000005a0: 59a9 dffe ee6a f2bf e55a cc29 70ad d6bf
000005b0: bb41 0ad2 5819 e0bf 7fa3 ac15 320a e13f
000005c0: a8b7 9914 c769 d73f 7291 a81e ca4a e1bf
000005d0: e735 99d9 438e e83f 4248 33ee 05cb ee3f
000005e0: 13be 2de6 6cfa ba3f 01ac 42fc f5de f03f
000005f0: fd36 b22e 0e14 dabf 0b4f 6c6c 1895 f03f
00000600: 252d 7f2e c07d e53f 4892 952c c11c c0bf
00000610: 5843 1ee8 ea13 ec3f e2bd 1ec0 864e d8bf
00000620: 2eba f1be 1915 e33f 9186 a09e f04e e7bf
00000630: 206c 1005 5dca cbbf 705f 3e4e 6918 e3bf
00000640: e768 62f2 cb56 d6bf 7329 a578 66c0 e83f
00000650: ace9 cfe2 aff0 ef3f 19bd 6f77 603e dc3f
00000660: 3e32 85c2 00b2 edbf b1e8 6f07 87ae d3bf
00000670: a5ae 0a33 a002 d43f f2a1 6f3f 222d d3bf
00000680: 02c3 9172 ba09 e73f 174b 6841 7f10 de3f
00000690: 5507 07ed 2a5f e5bf 122c d072 47db c53f
000006a0: c465 1455 0c36 d03f 1c57 23b2 5e97 a13f
000006b0: 8747 938b 2f72 b43f 2753 e07c 4d6b e1bf
000006c0: 5935 4e8c 7f97 e7bf 1a7e 756e 4c70 e93f
000006d0: e017 6a31 315f c6bf e1f0 b338 15c3 9e3f
000006e0: b0f8 8f3c bd81 bebf 80b4 5378 b2d1 bfbf
000006f0: 802b f55e 888b e93f f85f b2e2 0515 c43f
00000700: 0099 84d1 3f6a a83f 0e11 50c5 8b9c e33f
00000710: 2287 79f2 1aa5 ee3f 9435 7322 6b22 dbbf
00000720: 709a d237 2310 ecbf e8c0 b761 6124 cb3f
00000730: 0c44 0518 98e5 dfbf 78eb 2641 f80d d3bf
00000740: 4217 7426 9e55 edbf f48d 62ca 0957 d9bf
00000750: 944e 588f 0db8 ddbf e03a af18 73bf e93f
00000760: ecc6 38c3 18d7 dbbf a4bf f353 1a9a dabf
00000770: c8fe 8f30 815f e3bf 7a6b 1327 7955 ea3f
00000780: 2163 8f5b dd5f e0bf 7a34 3368 3ed9 cabf
00000790: 1494 0571 6876 efbf 28b3 b960 ac39 c4bf
000007a0: 2cdc b1ff 9175 c2bf 6ec4 bd58 a950 e93f
000007b0: 7080 6333 2f74 dbbf 1618 6ebb db13 f23f
000007c0: db82 4a6d 6e72 de3f fddb caf6 c35a e3bf
000007d0: 9b61 69a1 3a74 9b3f 76b8 9683 d26c ecbf
000007e0: 6fea 4f4d 04cf e03f ddce 7f37 6db8 c33f
000007f0: 78f2 340f 73ec d5bf 4a0f 381a 000f f43f

b5 f8 [1, 1]
0.5508472501833892
00000000: 4c22 9469 8aa0 e13f

W5 f8 [1, 20]
0.6031064895294342 0.6038356124714244 0.15920959304986093 -0.9873336868442053 0.7957475307337819 0.826382311520746 0.482521981855893 0.17169385269456403
1.0053012393470497 0.8346936340240275 -0.9429689724262306 -0.226772228385564 -0.9958953925358552 0.6236568493889083 0.8469162730879051 -0.3712078412198492
0.7183476132439246 -1.1671358219877328 0.06359660062502448 -0.6613514282523958
00000000: e018 11fb a54c e33f 5c32 f70f 9f52 e33f
00000010: 50e7 addd fa60 c43f da84 e7d0 3c98 efbf
00000020: a9fa 8b86 c376 e93f 022f 3f51 b971 ea3f
00000030: c404 ebe0 a3e1 de3f 9baa 1f6d 10fa c53f
00000040: 47fb 99c0 b615 f03f bf00 8a6c cfb5 ea3f
00000050: 0fd4 3644 cd2c eebf 184d 4754 df06 cdbf
00000060: efb6 a503 60de efbf 02a8 8135 fff4 e33f
00000070: b59b eb27 f019 eb3f 7cb6 8388 dec1 d7bf
00000080: a05a 4122 b4fc e63f 97d6 969c 96ac f2bf
00000090: a83d d2e7 dd47 b03f c638 7078 ca29 e5bf

p_b1_old f8 [20, 1]
-0.00014426675167962863 0.0 0.003524055276815153 2.5e-323 2.5e-323 2.5e-323 -0.004030851837912465 0.0029784271062464067
0.0 -0.00916962261095346 0.0 0.002463266765358402 0.0022484419208646453 0.0002560753082021146 0.0 0.006183351698605413
0.0 0.0 0.005151462034348594 -0.001525296455777579
00000000: 7a4a f2f5 c9e8 22bf 0000 0000 0000 0000
00000010: 8213 39c5 7ade 6c3f 0500 0000 0000 0000
00000020: 0500 0000 0000 0000 0500 0000 0000 0000
00000030: 4208 1a8d a782 70bf 01a3 79e0 3666 683f
00000040: 0000 0000 0000 0000 0a7d d8e9 85c7 82bf
00000050: 0000 0000 0000 0000 746c 5a46 d82d 643f
00000060: 70d4 8b10 536b 623f 405d f412 3bc8 303f
00000070: 0000 0000 0000 0000 10ec 33d5 b653 793f
00000080: 0000 0000 0000 0000 0000 0000 0000 0000
00000090: 9601 6d0f b319 753f c6b5 3b99 8efd 58bf

p_W1_old f8 [20, 2]
-0.00016345292424731913 -9.092535597910083e-05 0.0 0.0 0.0024483200535916406 0.003646462425397471 2.5e-323 2.5e-323
2.5e-323 2.5e-323 2.5e-323 2.5e-323 -0.00026791925970691936 -0.0012832918992856605 0.0022965307809897206 0.0007164699098906995
0.0 0.0 -0.005867096857001784 -0.003814306033452035 0.0 0.0 0.0004677387889545205 0.001822471500738013
0.0015467925934109735 0.0014269727798800432 -0.0015016101437581207 0.0002301198031394797 0.0 0.0 0.002016260506348613 0.0022218967013099195
0.0 0.0 0.0 0.0 0.0034382230375057735 0.0026882279552693064 -6.692963819520066e-05 -0.0020971640486358604
00000000: 059b 9bed 916c 25bf 8680 a2b8 e5d5 17bf
00000010: 0000 0000 0000 0000 0000 0000 0000 0000
00000020: 0d1e eed1 7f0e 643f 2221 9f9b 2fdf 6d3f
00000030: 0500 0000 0000 0000 0500 0000 0000 0000
00000040: 0500 0000 0000 0000 0500 0000 0000 0000
00000050: 0500 0000 0000 0000 0500 0000 0000 0000
00000060: 6157 5a75 f08e 31bf e819 462f 8406 55bf
00000070: 5ccc 2793 2cd0 623f 6b2f 706a 2f7a 473f
00000080: 0000 0000 0000 0000 0000 0000 0000 0000
00000090: d8fb f8d1 1808 78bf 3da7 75f5 2d3f 6fbf
000000a0: 0000 0000 0000 0000 0000 0000 0000 0000
000000b0: e4a4 37cd 5aa7 3e3f 4284 96df ffdb 5d3f
000000c0: 6aa4 8de6 b757 593f 6ade ff5a 2861 573f
000000d0: 51b3 5c9d 359a 58bf 0cb1 aa0e 8a29 2e3f
000000e0: 0000 0000 0000 0000 0000 0000 0000 0000
000000f0: ec62 eb9d 6784 603f 2dd6 59b5 a733 623f
00000100: 0000 0000 0000 0000 0000 0000 0000 0000
00000110: 0000 0000 0000 0000 0000 0000 0000 0000
00000120: 50ff 13f0 792a 6c3f 99cb dd64 9f05 663f
00000130: a9fc c06d 928b 11bf 8686 1a60 122e 61bf

p_b2_old f8 [20, 1]
0.0 0.0009703125395850028 0.00046056256288033764 -0.0006778043860993152 0.004825696746797278 0.0 0.002641498402682249 0.0
0.0 -0.003628336104639544 0.00023722661138281806 0.002198836271978258 8.401111884726314e-36 2.5e-323 0.00015052377265979683 0.0
-0.0021326982024026274 0.0012012063157708776 0.0 0.0006730586981562557
00000000: 0000 0000 0000 0000 82df ec4f 92cb 4f3f
00000010: 078b 3425 f52e 3e3f b6d7 efd5 d535 46bf
00000020: 3c97 531b 1cc4 733f 0000 0000 0000 0000
00000030: 1307 10a8 9fa3 653f 0000 0000 0000 0000
00000040: 0000 0000 0000 0000 22fb 101d 2cb9 6dbf
00000050: cc40 4413 0118 2f3f 07b4 133c 4b03 623f
00000060: 3b1f 0d1f 8055 a638 0500 0000 0000 0000
00000070: fea1 975c bdba 233f 0000 0000 0000 0000
00000080: 6684 02a1 9778 61bf 3e13 e375 39ae 533f
00000090: 0000 0000 0000 0000 e037 668c 060e 463f
