NeuralNetworksV2/weights_(30,30,30,30)_hidden.npz (npz, 51438 bytes, 20 tensors)

b1 f8 [30, 1]
000000 9f 8b a7 a6 2e f7 d4 3f 99 5b b0 59 07 56 c8 3f
       0.32758680605746265 0.1901253879484244
000010 45 56 51 b3 3a 34 a2 3f b7 cf 72 4c 24 05 b4 bf
       0.035554727925653874 -0.07820345751207368
000020 e3 d4 ce fb 2e 5c dc bf a4 36 a6 af 29 31 ec bf
       -0.44312643614405384 -0.8810013228082494
000030 e0 18 bf 5f 9b 52 9d bf 2d 77 a5 5d 0d 5e e2 3f
       -0.02863543292894455 0.5739809826879757
000040 a2 52 2f ab 1c 54 5a bf d5 47 bf f2 96 de c2 bf
       -0.0016069679229434937 -0.14741789677515152
000050 ba bb fa ba 4b d2 db bf ea ee 20 c2 24 89 db bf
       -0.43471043834409395 -0.4302455802714876
000060 70 71 c0 2e 4e e0 c2 3f 08 ac c4 56 d3 4a d0 3f
       0.14747025759505616 0.2545669886919204
000070 c0 41 8b 04 46 00 d9 bf f4 f6 76 f6 88 4b c7 3f
       -0.3906416935324408 0.18199264559182604
000080 75 f9 39 bf 14 e8 d9 3f 18 89 1e 37 07 9f e2 3f
       0.4047901027151036 0.5819126202152658
000090 9d 90 80 1a 8d f4 d8 bf de 66 69 2f fd b6 a9 3f
       -0.3899262198267566 0.05022422031170291
0000a0 98 1e ee d8 09 60 ee 3f e5 c5 eb 7f d7 0c cd 3f
       0.9492234455983235 0.22695440050260554
0000b0 18 45 a6 3c 7e 3b e3 3f 17 d9 cb 95 ce a6 e1 3f
       0.6010123428879153 0.5516121793469065
0000c0 61 cc 78 76 fb a1 9f bf 20 6f 88 e5 b4 58 a6 bf
       -0.030891350847195635 -0.04364552785793152
0000d0 80 99 20 4b c0 53 df bf 82 2d c9 63 81 07 be bf
       -0.4894867643037273 -0.11730202375581736
0000e0 b9 46 e0 3c d6 9f e9 3f c6 6f 5d 45 70 a5 cf bf
       0.800761336229889 -0.24723628413164372

W1 f8 [30, 2]
000000 e2 2b 63 dc 79 bf d0 3f cc da c1 8a 46 fc e0 3f
       0.2616867687435712 0.5307953558065832
000010 93 d2 bd dd ee a9 e1 bf ee bd fb 37 e1 06 d9 bf
       -0.5519937830818712 -0.3910449072563712
000020 b9 2e b8 cf de ca d7 3f 32 52 85 39 af 77 da 3f
       0.37175722394088556 0.4135549604154988
000030 2e d4 e8 ee ed 2d f3 3f ff b4 17 d3 b6 95 e1 3f
       1.1987132389451847 0.5495256541159107
000040 80 f9 45 e2 ff cf d1 bf ce e6 78 1d ca bd dc 3f
       -0.2783202848148889 0.44908383253242057
000050 ab ed 36 51 b4 36 eb 3f 7a 8f 58 97 ce ea d9 3f
       0.8504277788373903 0.40495648174168475
000060 58 da 63 df 5a 0b dd bf 7c af 19 4c e6 c9 d9 bf
       -0.45381805243906603 -0.4029479735534023
000070 2b 69 e1 4d 54 64 e4 3f 83 9b 49 d7 ff 1f a7 3f
       0.6372472306350451 0.045166010885444606
000080 bb a9 48 6a fd da e2 3f 27 d3 b0 70 fa 7c c6 3f
       0.5892321658951042 0.17568903448559434
000090 d3 94 c2 f6 3e 81 e0 3f 7b a4 28 01 9c 97 bd bf
       0.5157770938427809 -0.11559462574281724
0000a0 0e 45 e5 1f 23 e4 d2 3f 74 50 b3 f6 ac 49 de bf
       0.29517438998034684 -0.47324680415955034
0000b0 a0 e9 d7 20 49 f9 c8 3f f0 5f 88 a2 4c 72 a5 3f
       0.19510759452516613 0.04188765987436216
0000c0 3e b5 c3 47 b3 24 db 3f 5d 39 f0 88 a8 35 db bf
       0.42411500938654345 -0.4251500451363393
0000d0 19 bd 4c 97 61 3d c6 3f bb 9e 2a 9f 85 c9 db bf
       0.17374820602115262 -0.4341749243126107
0000e0 c2 d6 4f a9 af bb d0 bf 2c 6b 92 7f ed 53 c6 3f
       -0.2614554551540601 0.17443627099131598
0000f0 ee 02 8b bd 5a 06 d5 3f d3 3e d0 f6 5c 60 8b bf
       0.32851284513530643 -0.013367391855381971
000100 a5 e4 71 a4 25 ba bf bf d5 55 6c 18 d8 74 d8 bf
       -0.12393412842529246 -0.3821315992839492
000110 61 ac 4d 6d 10 19 e2 bf 6e c4 a7 d2 13 7c e5 bf
       -0.5655595908005006 -0.671396171032155
000120 f3 e3 ca c2 d9 6d e1 3f 53 df bd ce f9 c8 db 3f
       0.5446595005552112 0.4341415900193983
000130 2a 6f 5d aa c4 9c d2 3f 21 12 07 56 3d 7b d2 bf
       0.29081837308125336 -0.2887719478715401
000140 ea 62 13 d9 19 49 f1 bf 7a a4 ba 23 e5 d9 de bf
       -1.080346916153014 -0.4820492600361558
000150 eb f8 ae a5 8f f4 b8 bf 70 5f 0a 44 9c 5c b1 3f
       -0.0974817065716455 0.06781937276025274
000160 ea 29 e9 f9 ae 58 e3 bf 3f 98 18 f8 be 69 c8 bf
       -0.6045756226606589 -0.19072711099687642
000170 2d 76 01 c0 1e 1e d7 bf 98 9a d0 1d fe 13 d1 bf
       -0.36121338606412473 -0.26684525405509296
000180 dc ab a1 44 c4 e1 d2 3f 8a 45 2d 6a 22 d6 db bf
       0.29502970411584584 -0.4349447285540796
000190 00 a5 1a 87 5e f3 cd bf dc 41 83 70 89 b1 d2 bf
       -0.23398954007033268 -0.2920859907872264
0001a0 ce 17 1e 03 21 76 d8 bf 94 90 e7 66 b1 37 df bf
       -0.3822100191540557 -0.48777422951958127
0001b0 67 6b 2f 3a 99 9e cd bf 9c d2 1f 8a e0 0b d4 3f
       -0.23140254345966157 0.31322492111875433
0001c0 52 ab fb b2 b7 83 e9 bf 2c 9e 77 63 72 57 de bf
       -0.7973288055194223 -0.4740873309478697
0001d0 8f 66 39 85 1d f9 cf 3f e5 27 c4 3d 74 c7 d2 bf
       0.2497898960598843 -0.2934237101732136

b2 f8 [30, 1]
000000 91 02 f8 70 e9 70 cc 3f 9f 30 f1 e8 6b 46 d7 3f
       0.22219579711965712 0.363673188669745
000010 0d b4 8f c8 a4 8a d8 bf ff ad a8 58 e4 1c c6 bf
       -0.3834621389967772 -0.1727567131905374
000020 d6 f0 68 c9 dd d7 d3 bf ad 76 d6 68 3c d6 c2 3f
       -0.3100504366773412 0.1471629630950039
000030 d1 96 41 e9 7b 8f e1 3f 48 bc 4f ff a7 52 bf bf
       0.5487651401315025 -0.12235498412313561
000040 31 45 0a 21 48 6d c8 3f 14 e7 22 33 73 2c bc bf
       0.19083501446997667 -0.11005325315900577
000050 f1 07 3a dd f6 84 d0 3f e0 7e d1 89 e9 e4 b2 bf
       0.2581154976288636 -0.07380542387681599
000060 c9 49 b3 bc 3a 3e d3 3f 05 fc 94 77 aa 3b d7 3f
       0.3006731837059787 0.3630167167465859
000070 56 5d d8 16 ae ad de bf 74 a0 fa f5 b9 6d d8 bf
       -0.4793505881402401 -0.38169716855418945
000080 ce 76 c9 b8 3c 0e aa bf 5b 39 fa be d6 87 bf 3f
       -0.050889871174815235 0.12316648638281917
000090 82 10 33 1a f4 b1 d5 3f f5 6f 7d ce d1 4c e1 3f
       0.33898642118970923 0.5406273873336419
0000a0 00 4e 3c 41 f0 df d1 3f ec 42 30 fd eb e7 dc 3f
       0.2792931210580889 0.45165538526002424
0000b0 ac 8d 33 91 97 a0 c8 bf 94 e1 00 7f 7e 93 c4 bf
       -0.19240088071738393 -0.16075116349544472
0000c0 9c 24 3d 9e 4f 20 cf bf 99 43 7b 9d ca 51 d2 bf
       -0.24317355371957639 -0.28624215487530474
0000d0 79 30 af 63 ea 8f dd 3f 48 88 c7 40 f5 2f a3 bf
       0.4619089101295298 -0.03747526565327114
0000e0 2c 21 d1 60 85 7c c7 bf e8 68 d7 80 9e e3 bb 3f
       -0.18348757960689832 0.10894194264929846

W2 f8 [30, 30]
000000 8f 4c c3 f1 55 04 d6 3f fe 8f ef 32 15 9f ca bf
       0.34401463136345795 -0.20797982203578153
000010 37 05 bc 4d 23 bc 81 bf f7 46 72 6a 09 d2 d0 bf
       -0.008659625825660029 -0.2628196277156429
000020 a8 20 21 14 1c 17 c7 bf 61 78 b7 7a fb 3f e3 bf
       -0.18039275153046685 -0.6015603443918388
000030 22 90 23 c2 b0 70 d4 3f 9d ad 6a 31 dc c1 c5 bf
       0.31937807997587886 -0.16997864163327572
000040 00 4f c1 0f 36 b3 c5 3f 25 1b 63 ee 8e 4a d8 3f
       0.16953159112255634 0.37955067901605083
000050 4c 40 8c 5c af 24 c3 bf 5c 3a 4b b7 eb dc cb bf
       -0.1495570375341252 -0.21767946672339888
000060 50 24 3a 56 d8 99 85 3f ba 14 39 27 e4 fa d4 bf
       0.01054734242576863 -0.3278131850277749
000070 d0 9b a1 5d 8d be d4 3f b1 8b b0 cd 12 27 8d bf
       0.3241303839080816 -0.014234682943486595
000080 84 d4 5b ba f5 2e c6 3f 76 bf 83 c1 d1 77 ab 3f
       0.17330810164972743 0.0536485241626669
000090 2f 25 30 8c 88 49 d9 bf 69 77 20 f6 42 f9 d3 3f
       -0.39511312189331965 0.3120887187559363
0000a0 a3 41 b2 dc 3c c1 e0 3f 4b b0 27 f3 d4 af df bf
       0.523588591620911 -0.4951069235382916
0000b0 68 67 68 fb 4c f2 e2 bf 35 18 2e be a3 84 d2 3f
       -0.5920777235325945 0.28934567997237376
0000c0 e6 85 1a 94 89 78 ca 3f f0 23 9f b1 ca 03 b8 3f
       0.2068035100137841 0.09380785786119339
0000d0 00 bc a5 d5 1a eb d6 bf b9 44 eb 11 44 8c b4 bf
       -0.3580996595764532 -0.08026528775669108
0000e0 b4 e9 94 c0 67 a3 e0 bf b1 f9 22 18 d0 31 bf 3f
       -0.5199469338761475 0.12185383404992113
0000f0 03 a7 e2 3f 61 96 c0 bf 59 ee ce ca 22 62 d5 3f
       -0.12958922976877582 0.3341147404241603
000100 28 10 4e a5 2b 6d c1 3f 2f c1 28 fd aa 53 e0 bf
       0.13614411899118406 -0.5102133698001462
000110 fb 3d bf 0c b0 6a a2 bf d8 e5 5f 9d 05 56 e2 bf
       -0.03597021251300344 -0.573000724193828
000120 88 2f 1a 91 96 77 c9 3f 83 dd dc f0 49 64 d9 3f
       0.19896204075882573 0.39674614450219553
000130 54 0a 4a c9 05 b6 cc 3f 7c 20 b2 fd d1 0b df 3f
       0.2243048889977951 0.48509645247441546
000140 a6 1b 79 8b f9 06 d1 bf 70 95 8c d6 39 30 ca 3f
       -0.2660507070581225 0.2045967385867402
000150 13 0c 23 b5 16 dc c7 3f 5b a4 91 29 c4 df a6 3f
       0.18640407414031354 0.04467595107491525
000160 e0 61 d9 1a f8 48 bf bf 60 56 1d 5d 78 75 b0 bf
       -0.1222071710157091 -0.06429245255761762
000170 bf d4 3b 73 f3 f9 d5 bf 86 11 d0 8c c0 73 db bf
       -0.3433807969407318 -0.42893995047804656
000180 28 f7 e3 17 df fd c5 bf e3 eb 86 03 95 51 d5 bf
       -0.17181004206207118 -0.33310437530934517
000190 2f c2 51 4a eb 3f e0 3f 80 84 b2 44 8a 7c c5 3f
       0.5078026248502904 0.16786316255914713
0001a0 9d d2 49 ba e3 64 ad bf 1f 95 a2 b9 67 b9 c7 3f
       -0.05741035126712755 0.18534561695302273
0001b0 5d bb f6 77 9c 04 c6 bf 1c b1 6a 75 d1 26 cd 3f
       -0.1720157228241658 0.22774713738670804
0001c0 2e af c0 53 07 bb d1 bf a0 38 bb 30 8e 3a e0 bf
       -0.2770403211495588 -0.5071478797706455
0001d0 7e 16 d1 7f de d5 ab 3f fc dc 70 6f 01 5b ce 3f
       0.05436606703055434 0.23715227071236444
0001e0 91 e6 d1 d2 aa de e1 3f 78 01 f7 69 24 94 d8 bf
       0.5584310643746041 -0.38404188488131963
0001f0 7e b9 80 f3 78 bc c6 bf bf 00 ce 10 4c fb e7 3f
       -0.17762672319208755 0.7494259193627143
000200 37 a8 d0 02 91 50 c8 bf 01 78 28 ba a4 f1 b9 bf
       -0.18995869290785247 -0.10134343666911151
000210 38 1d 48 94 19 cf b6 bf 09 be 52 3c cc ea e5 3f
       -0.08909759397657957 0.684911840266012
000220 54 29 8e 52 ef 3b d1 3f 20 01 68 db 2a 80 c8 3f
       0.2692831331447867 0.19141135895916594
000230 00 5b 52 3f c0 40 cd bf d4 9d 27 6c 44 da ca bf
       -0.22853854267005858 -0.2097859886264205
000240 8c 02 3f 2f 23 ce d6 3f ef 73 1e 3f e8 a0 d9 bf
       0.3563316308391584 -0.40044599689446064
000250 80 a1 b0 72 19 00 d8 bf a5 cd ae fe f8 92 d9 3f
       -0.37500606727783037 0.39959549781198184
000260 e0 d8 64 d8 14 99 d0 3f 23 e1 57 80 21 49 e3 bf
       0.259343348810388 -0.6026771074967069
000270 b6 cd 4d d7 b2 8c c8 3f 48 db cb 04 54 9f b7 3f
       0.19179378044974066 0.09227490536782768
000280 8b ef c8 aa 78 34 e1 bf 3c 12 13 a5 ba e0 dc bf
       -0.5376551948206595 -0.4512163745933184
000290 8c 24 bb 12 19 35 cc bf f7 29 e7 1b 46 d6 d5 3f
       -0.22037042059517764 0.3412032387247161
0002a0 18 5f 37 a5 8f ef aa bf 46 1e 91 51 f8 d6 dd 3f
       -0.05260895625877832 0.46624572721018287
0002b0 7c 76 1c f1 fc 54 c8 bf 83 d8 70 cd 26 3e c1 bf
       -0.19009362957961062 -0.13470921546258205
0002c0 17 48 ba 8f 6c cc a8 bf bd 13 ae 42 67 bd c9 3f
       -0.04843463186729496 0.2010926318727381
0002d0 f0 5c eb d9 2e 1b d2 bf a8 11 6d f4 b9 f8 b9 3f
       -0.2829091194266331 0.10145151345665815
0002e0 c6 4c 43 c6 7d ed b5 3f d4 d2 19 33 fe 36 d7 bf
       0.08565507975008577 -0.3627315043479886
0002f0 50 29 2a f3 24 59 bb 3f d0 96 67 3a f1 48 bf bf
       0.10682898460996637 -0.12220676113028195
000300 04 a3 5b bc 46 3d d2 bf 38 5f f3 89 d9 3b d9 3f
       -0.2849900092538038 0.39427793952698975
000310 21 2d 80 54 d1 9d c4 bf d1 6f e1 76 3a 0a b5 bf
       -0.16106621385584055 -0.08218732263907148
000320 72 65 95 3c 67 99 d5 3f 18 ad 0b 50 0f cd c3 3f
       0.3374879924427524 0.15469542892911003
000330 0e d6 13 2f 3a 29 84 bf 6c 5b 88 ee 0a 86 c1 3f
       -0.009844259797755075 0.13690315863706404
000340 30 60 09 b2 b5 90 ba bf ff c1 44 e3 e1 64 d7 bf
       -0.1037705955180861 -0.3655323714656617
000350 3e 42 32 93 c3 74 d8 3f 9c 5f e5 e6 15 df ba bf
       0.38212670683518357 -0.10496651541813978
000360 ee d1 8b a0 8d 7b b9 3f 87 eb 87 d8 7a bd d9 bf
       0.0995415226896694 -0.4021899332580507
000370 c5 28 8d 1d 87 5a db bf 0a 06 fd 89 47 b1 b5 3f
       -0.42740037809256776 0.08473631972176335
000380 8d dc c9 5f 69 f5 b8 3f e9 4a d1 12 3f df ce 3f
       0.09749468411051705 0.24118793886972092
000390 1e 35 8f 1e e6 d2 c4 3f 9c 01 fb c8 17 ba c3 3f
       0.1626861237731782 0.1541166049337449
0003a0 80 5e 51 55 2b 7b a1 3f 0a c9 e7 a0 a4 c1 d4 3f
       0.03414283195951118 0.32431903565806464
0003b0 0e 97 03 58 84 86 8f 3f 3b 66 9d ad a1 b7 cf 3f
       0.015393289504980891 0.2477914903382031
0003c0 eb cf ad f5 10 82 c1 bf cb 5b ca ee 1f 8f d8 3f
       -0.13678180690806072 0.3837356407106511
0003d0 88 6e 87 5f aa 2c c6 bf 49 8a f0 c1 a5 a0 c8 bf
       -0.17323808350089487 -0.19240257234294436
0003e0 c4 ac 32 72 1a 63 d4 bf b2 7e 94 f2 a3 50 db 3f
       -0.31854878570693423 0.4267969006486779
0003f0 58 ac ab 5b 08 d3 df 3f dd 0a f8 61 8c f2 d8 bf
       0.49725541069228063 -0.3898039776542371
000400 fc 3f dc 4c 1d 8d dc bf 00 34 41 8d 6b ad 5c 3f
       -0.4461129427518242 0.001750330954581658
000410 5c 89 ed 0a ab e1 cb 3f 18 fd 51 56 e5 06 b1 3f
       0.21782434495532754 0.06651147229603216
000420 ef 49 cd 1a 0a 92 d2 bf 42 6c 95 41 9f 68 db 3f
       -0.29016354195951427 0.4282606258836418
000430 30 80 52 f1 7a 8d de bf 57 38 07 7a 42 90 d1 3f
       -0.4773852688467768 0.2744299117738413
000440 eb a1 25 c1 83 e5 da bf bd c0 08 87 c7 f7 dd 3f
       -0.4202584634972754 0.4682482546513816
000450 c8 11 4f 29 da e0 bd 3f 20 ae b3 18 37 a5 da bf
       0.11671222218053068 -0.41633393680851505
000460 bd 07 6c b3 fc 79 e0 3f 32 ac 14 2c a5 12 d4 bf
       0.5148910049758723 -0.31363801293145166
000470 2d 4d a0 a0 3e 55 d8 bf ba d4 6a e1 ae ac b5 3f
       -0.3802029198279396 0.08466618541099794
000480 3d dd db b3 0f e9 dc bf fc 16 53 04 ef a1 c4 bf
       -0.4517249351915387 -0.16119182311211222
000490 c6 54 64 19 a2 d6 d6 bf d0 49 22 10 92 b0 c2 3f
       -0.3568501708953814 0.14601350581922512
0004a0 68 c9 1d b8 bd b4 d3 3f fc 6c 36 b0 e1 99 c7 bf
       0.30790656070816746 -0.1843835935986603
0004b0 e3 0b e0 5d 7a 83 e0 3f af 98 11 c6 bf a0 cf bf
       0.516049559926952 -0.2470931737072468
0004c0 7c a0 03 0e fd 38 c3 bf df c8 8d 85 ad 93 d6 bf
       -0.15017665085111165 -0.35276353876464656
0004d0 11 dc 28 09 7e d9 93 3f cc 1b ca 56 39 64 d9 bf
       0.019384354886110403 -0.39674218631301694
0004e0 28 b6 28 c0 f4 7f b6 bf c5 cd 1c 66 86 f7 d4 3f
       -0.08788995448477321 0.3276077267830398
0004f0 55 23 e4 7c c4 95 de bf 93 8f a9 60 67 8a 99 3f
       -0.4778910846367144 0.024942031168748335
000500 e0 b9 9a cf 53 bd 93 3f 9c 70 1e 18 f5 eb c5 bf
       0.01927691416374866 -0.17126334836655566
000510 e0 a7 43 c1 cd 08 cb 3f 88 94 df 35 88 91 d0 bf
       0.21120616852505147 -0.2588825727564843
000520 38 a9 d0 53 ec c9 b5 bf 37 63 13 c0 68 a1 cc 3f
       -0.085112352812449 0.2236758172864712
000530 fc 50 d9 a0 fa 94 db 3f 09 da df 73 cc 27 d8 3f
       0.4309679575719796 0.37742911640035054
000540 a3 41 fe 5a f9 0a d0 bf 5b 64 80 f0 70 cc c8 bf
       -0.2506698025327074 -0.19373904937018235
000550 1b 4b 0e 59 b2 25 a6 3f 0d f9 ae ae 90 84 cb bf
       0.04325635277850478 -0.21498306779353307
000560 d3 b6 c2 51 03 60 cc 3f 02 c3 51 59 7c 2b e3 3f
       0.2216800832006159 0.5990583176154305
000570 c6 ca 02 ef e7 b0 c5 bf 48 f0 0b d1 df 2a c8 3f
       -0.16946124239401267 0.18880841929774506
000580 d6 f2 f4 f1 fd e5 db bf 65 4d 74 d9 b5 ce db 3f
       -0.4359125960216209 0.43449159847042146
000590 29 a0 e0 06 7b 31 d3 3f c8 50 bc de 2a 83 d9 bf
       0.2998950545465982 -0.3986308264877718
0005a0 27 2f 06 e6 f1 58 d2 bf 57 7b a4 2e 95 ed c6 bf
       -0.2866787668542536 -0.17912544991937793
0005b0 8a 6f d3 45 ba 57 d9 3f 9f 67 8c de ed 39 d7 bf
       0.39597946947991913 -0.3629107163738982
0005c0 0b c1 10 4c 40 a1 d3 bf 07 d7 10 bd cf 75 e3 bf
       -0.30671698978677914 -0.608131284016708
0005d0 48 a4 60 b0 73 6e d9 3f 90 aa f9 1a 44 c6 c1 3f
       0.39736644958845035 0.1388630992617732
0005e0 0a 86 c1 76 f0 45 c3 bf d8 62 c6 68 af f1 d1 bf
       -0.15057187842016645 -0.280376293486865
0005f0 40 1b 11 53 71 df 8d 3f be e4 59 cd 7e 73 d1 3f
       0.014586339328287345 0.27267427495787533
000600 b1 64 59 62 80 e6 a5 3f b4 f2 1e 4c 76 5b a1 bf
       0.04277421188880604 -0.033900925438023505
000610 f8 00 58 28 72 82 d6 3f 0e 76 93 bc 5a 2a d9 3f
       0.35171178760357646 0.3932101098597237
000620 87 29 c0 18 53 a7 d4 3f 24 ee b8 51 a2 a7 dc 3f
       0.3227126828866393 0.4477315710134653
000630 0b 55 08 2d a8 2f d1 bf fa 3d 7f 27 33 f2 de bf
       -0.2685337486048673 -0.48353270394451864
000640 5b 0f 3f 81 9c c2 e7 3f d2 37 70 09 6d 1f c6 bf
       0.7425062679617257 -0.17283404312951106
000650 5b 79 26 ef 26 0b d4 bf bd 52 07 cf 1b f5 c8 3f
       -0.31318066935081895 0.19498012169665016
000660 0a 42 7f 37 4b 20 ca 3f 00 2e c4 68 90 1e cd bf
       0.204110529039568 -0.22749524226706797
000670 78 c9 2f 14 f9 1c d7 bf aa ad 38 0a e4 ad d4 3f
       -0.36114336940149583 0.32311345098670563
000680 d0 3a 7f d9 84 f8 bc bf b0 48 df df 34 9b c8 bf
       -0.1131670981405748 -0.19223652774104982
000690 c4 b8 46 c4 d4 b1 db bf 80 1f d1 60 4a c3 bb 3f
       -0.43272895019152835 0.10844864715283897
0006a0 64 b8 81 7b 44 71 c9 3f f0 b7 7d 67 27 88 b0 3f
       0.1987691500721126 0.06457754398954285
0006b0 90 87 7a 5a 6c 92 b1 bf 24 d4 0e 26 be 97 d5 bf
       -0.06864049157095864 -0.33738664356798354
0006c0 54 7c 6d 97 8e 4c d3 bf 30 01 c5 56 33 39 b9 bf
       -0.3015476683412477 -0.09852906101605607
0006d0 6e 12 ed f3 e5 43 dc 3f c6 5d 88 65 da 6f d7 3f
       0.44164418049721277 0.3662019721536719
0006e0 52 cf 4c 67 e4 c1 dc bf b2 77 a1 ea 3b 91 d0 3f
       -0.44933424079794293 0.258864382869315
0006f0 ec ef 02 c3 ad c3 de bf 06 9f d1 ba e3 9f d9 3f
       -0.4806932835015221 0.40038388484980236
000700 d4 e2 ba 15 35 fe c1 3f 40 e2 c2 0d 9a f5 8f 3f
       0.14057029305492696 0.015605166954956506
000710 00 8a 29 66 5c 61 79 3f 20 71 56 5f 19 d0 a2 bf
       0.00619636624705544 -0.03674392021932449
000720 44 17 4d 63 4a 7b d9 bf 54 55 78 a7 2d c5 d0 bf
       -0.3981500596749934 -0.2620348105859496
000730 44 9e e2 bd f9 c3 c4 bf dc 29 ed 77 9d 70 cf bf
       -0.1622306992696726 -0.24562424045355058
000740 5c 47 50 85 02 82 c0 bf 60 a0 63 c4 27 8b b6 bf
       -0.1289675856538065 -0.08806084198624964
000750 38 2c 5d 83 3a a3 d8 3f 4c 81 c8 46 17 f3 cb 3f
       0.3849626810885556 0.21835604625904137
000760 10 d3 0c ee 0c 6d dd 3f 88 25 b9 98 4a 55 bb bf
       0.4597809147556271 -0.10677019337267357
000770 50 a8 4b ca cf 92 cd bf 9c 3d 3b 7c f4 34 d8 3f
       -0.23104283693038719 0.3782321179578163
000780 e2 4e c4 14 e0 66 dd 3f 44 38 d6 96 5d 0e bf 3f
       0.4594040110398351 0.12131295139826742
000790 dd 66 4a 06 16 1d da bf 7d 2f a2 c6 68 7e df 3f
       -0.4080252705985979 0.49209041021162375
0007a0 a1 da ab 25 a7 32 d5 bf f6 56 b3 db 08 fb d0 bf
       -0.3312166087993465 -0.26532193617946065
0007b0 92 db e8 31 fe e5 d5 3f c0 ba b2 e1 11 f7 d8 3f
       0.3421626555822793 0.3900799469073881
0007c0 95 a0 89 3d 96 6e d9 bf 1e b8 5d 30 2f 57 8c bf
       -0.3973746872857274 -0.013838165915981245
0007d0 f0 98 5a a2 d5 83 c8 bf c0 29 48 8f 04 17 aa 3f
       -0.1915232699149736 0.050956861963715294
0007e0 9d 31 20 4b 38 b0 da 3f 9e 88 03 d9 8f d2 b7 3f
       0.41700560890674315 0.0930566696947914
0007f0 34 23 b0 1c 8b b4 d9 bf 42 31 3b ed 2d a7 d3 3f
       -0.40164449502531174 0.3070788208686005

b3 f8 [30, 1]
000000 30 2e ed 20 84 77 b0 3f dc 94 7c e1 e7 c1 8e 3f
       0.06432367137784278 0.01501828343277583
000010 6c 38 b0 34 cd 04 a0 bf c5 0d c6 e3 ed 99 ac 3f
       -0.03128663318794697 0.055861887030029624
000020 84 bd e8 05 a4 ad 55 bf 4f 87 e0 d2 8d bf d4 bf
       -0.0013231374538341398 -0.3241915282579741
000030 41 7d 28 bc 78 0c cf 3f 2a d6 75 10 25 a9 cf 3f
       0.24256810367021767 0.24734938911176246
000040 9a e5 d2 c4 c5 7a d2 3f 71 48 0b 50 55 68 a5 bf
       0.288743440829046 -0.0418116245470096
000050 46 6a bb cd 9e 0e c1 3f bc 3e 7e 0a 1f e7 d1 3f
       0.13325867696296906 0.27973152184220473
000060 e8 6c e2 45 b5 4f bf 3f c4 ee ea 03 94 31 da bf
       0.12230999904788897 -0.40927601225460486
000070 44 92 a0 ab 36 54 c4 bf 3e 0e 91 0f e2 5a b6 3f
       -0.15881999378429346 0.08732426528973122
000080 68 94 75 51 12 48 d9 bf aa 5c fd 94 90 46 d6 3f
       -0.39502389864930487 0.34805693197035714
000090 f9 ec 7f 38 f8 7c d9 bf 40 09 20 92 09 be df bf
       -0.39825253980207226 -0.4959739615443546
0000a0 d4 88 b8 81 88 69 c0 bf 92 2d 3d 09 fa dd d4 3f
       -0.12822061857247624 0.32604838278049286
0000b0 c0 7b 84 7b c1 60 df 3f e9 e8 a8 08 d7 73 d6 bf
       0.4902805048204151 -0.3508203110283277
0000c0 78 1c 93 66 24 fe c7 3f 5a 38 3a cf 95 4e bd 3f
       0.18744330414321886 0.11448036488784066
0000d0 3d 2f a8 29 ea a2 df bf b1 8c fd e7 00 58 cf bf
       -0.49431852405608706 -0.24487315490396136
0000e0 8e 07 39 3e de 33 dc bf 2c b1 f5 70 aa 29 cc 3f
       -0.4406657798427823 0.2200215388833241

W3 f8 [30, 30]
000000 50 73 88 3b c7 a7 dc bf b2 4b 46 4a bc b9 d0 3f
       -0.4477403718354269 0.2613363957727258
000010 14 9c 90 16 5b 04 c7 3f 7a 1c 56 78 5c 9a d6 bf
       0.17982042886544092 -0.35317146064375715
000020 58 4f 85 d3 4f bd c9 bf 24 f1 d8 f2 3c 29 c3 3f
       -0.2010898382965205 0.1496959863451447
000030 02 30 41 4f 19 86 dd bf 14 49 7d 27 3e ff cb bf
       -0.4613097452136118 -0.21872689178651028
000040 00 35 38 b6 5a 78 87 bf b8 1e 81 c7 4a 9b c3 3f
       -0.011460026441478366 0.15317663899826583
000050 be ac 48 5c 7a 89 d4 bf a0 a5 fc 5a 96 44 9b 3f
       -0.32089098941896654 0.02662882738437633
000060 60 22 31 e5 38 02 db bf fe 53 5e b6 98 8b d1 bf
       -0.42201063520454873 -0.2741452961866456
000070 02 51 53 ed 88 79 d1 bf e0 1b 59 4e 11 92 9f bf
       -0.2730428998595614 -0.030830641180980112
000080 30 ce 0e 27 14 5d da 3f ec 80 a6 45 1f 1e c1 bf
       0.41193107427827425 -0.13373175526522318
000090 ce 64 79 97 9e 6f d1 bf 00 e7 bd ba b1 fc a4 bf
       -0.27243771355058477 -0.04099040417254507
0000a0 40 27 af ca 66 1f 9c bf 60 31 d6 65 d4 73 bd 3f
       -0.027463537331448906 0.11504867063758217
0000b0 d2 24 99 07 91 0b dd 3f 00 a8 99 a1 e6 29 4b bf
       0.45383096448911175 -0.0008289695862917501
0000c0 b6 8b 6e 93 64 b1 d3 bf 70 0f 75 6b 21 52 bd bf
       -0.3077022018207417 -0.11453446267574718
0000d0 38 ea 17 f3 ea c7 c4 bf 6e d8 5f d1 fe aa df bf
       -0.16235100621982368 -0.49481172987669353
0000e0 4c cc 15 6a 51 38 c7 3f 00 d1 8c c1 9f b7 7b 3f
       0.18140618972720046 0.006766914412583924
0000f0 02 0b 59 14 70 3e da 3f b8 d9 1b ec d2 69 b6 bf
       0.4100609015187474 -0.08755224480032708
000100 34 52 1c 24 4a 84 ce 3f 7f 92 5b f3 72 fa ab 3f
       0.2384121586152489 0.05464514942813014
000110 0a e3 4f 16 51 71 aa bf d0 2a 6d e3 5b ca c8 3f
       -0.05164578816761008 0.19367550473028539
000120 08 49 20 b0 17 88 c9 3f 00 1e 7c de 97 ad b1 3f
       0.1994657144537728 0.0690550726104604
000130 ba fc bb bd 36 2f d2 3f 43 aa 86 f6 f2 30 dc 3f
       0.2841317036508816 0.44048761439140466
000140 be 0a f5 60 2d 4e bb bf a4 7b ca dd 0a 3c cc 3f
       -0.10666164033049605 0.22058235005985438
000150 d4 31 40 03 ba 19 94 bf 52 0e 2a 03 f6 56 e4 bf
       -0.019629389236841835 -0.6356153547098506
000160 a4 ed 39 a3 e7 8e da 3f a9 ed ee 74 cf 0b d6 bf
       0.414972218895594 -0.344470848267259
000170 25 fe 9e 65 f2 42 bf 3f 61 a6 78 6d 09 fc c4 bf
       0.12211527806265872 -0.1639415535476472
000180 d1 5a 4f b7 f8 24 d1 bf 65 7b 45 f6 f0 ba b1 3f
       -0.26788156415333925 0.06925874721990295
000190 9e 96 73 db ce 16 d5 bf 71 3f a4 b1 47 9c d2 3f
       -0.3295170920449467 0.290788577535742
0001a0 18 24 df 21 0f 77 d6 3f 2c 9a 51 1f d4 a0 d9 bf
       0.3510167914178637 -0.40044119890663654
0001b0 a2 5f 9a ae 90 c1 de 3f d1 ee 69 e9 78 95 cd 3f
       0.48056428004337637 0.23112403294714182
0001c0 40 0b 11 25 1f c3 c2 bf ee f4 e6 7d de 94 bf bf
       -0.14657964048282146 -0.12336531232627454
0001d0 4f 36 77 a2 d8 0a a4 bf 9a 4b 9f 2a 73 fd cf 3f
       -0.039145250160441784 0.2499221761814539
0001e0 74 ec 5b b3 d6 04 b4 bf 26 20 0e 62 5d ce d7 3f
       -0.07819883231052122 0.3719705064363573
0001f0 ab 1b f6 5b db 0c c3 3f 07 91 f0 ac 4c bc d0 bf
       0.14882986059475675 -0.26149289024967043
000200 02 99 fe 3b e1 75 df bf e4 a9 00 c5 89 0d dd bf
       -0.49156981333580074 -0.4539513038495484
000210 bb 0a 1f 96 36 6d b6 3f 02 7a c9 c0 be b2 df bf
       0.08760396161145938 -0.4952847368894312
000220 ef 0e c4 fa 47 5b cf bf c2 ac cf f0 3b 1a c0 3f
       -0.24497318024088297 0.12580060251580077
000230 63 30 0d 6e 38 14 e0 3f 60 b2 fa 7c 58 dd c3 bf
       0.5024683141177885 -0.15519243338111988
000240 c5 74 d2 36 45 f4 cc bf 67 d5 98 ee db c0 b6 3f
       -0.226204540032006 0.08888029646990035
000250 d4 10 74 19 6f 8e c8 3f c3 84 9d 49 b5 3c dd 3f
       0.19184674017754466 0.45683033169741466
000260 7f e5 c8 e9 33 eb d4 3f cb a2 44 c1 68 05 e0 bf
       0.32685563879530116 -0.5006603026168589
000270 36 a5 46 cc 95 a5 db 3f d8 94 63 48 e5 68 ab bf
       0.43198151539634766 -0.05353466519026434
000280 f8 bb 68 a0 f9 40 d8 bf ad 82 6a e2 d0 6c d9 3f
       -0.3789657656188292 0.39726659880583776
000290 c0 2c fe c9 f8 e9 bd bf c4 ff b7 da 29 42 db bf
       -0.11685137683359681 -0.4259132991719492
0002a0 4c 45 3b f0 4d 28 c0 3f 80 31 c7 c0 d3 98 8d 3f
       0.12622999410681712 0.014451650925274562
0002b0 84 48 c3 12 0c a2 c5 bf e9 c9 b8 9a 64 c0 a4 3f
       -0.16900778690484597 0.04053034199423051
0002c0 cf fe f0 7d 19 08 d3 3f c8 61 ec d8 16 75 df bf
       0.2973693590065353 -0.4915215605156189
0002d0 eb 59 17 44 a3 28 be bf 34 c8 41 c0 64 a8 c2 3f
       -0.11780758297331999 0.14576396358057908
0002e0 24 1e 77 e8 a8 2c cb bf 8b 51 a3 2d bf 18 c6 bf
       -0.2123004088482371 -0.1726302121011368
0002f0 c2 97 2e cb a9 99 cc 3f 53 c5 70 ca c1 a4 cf 3f
       0.22343943043705222 0.24721548447409222
000300 6f a1 00 d6 5f 14 b4 bf 80 e1 82 6c b3 1a b7 bf
       -0.07843588804883493 -0.09025117301178476
000310 a1 4e c1 c9 63 26 ae 3f c7 b3 38 da 68 de dc 3f
       0.05888664090948948 0.45107480345432943
000320 84 e5 59 9b 93 60 ca bf c0 db 9f 45 e2 ca 8e bf
       -0.20607228360658436 -0.015035407781381127
000330 d0 f1 87 2f bf 8a da bf fb 71 f8 2c 21 78 c1 3f
       -0.4147184337778329 0.13647856422257107
000340 34 a2 77 50 45 c1 c3 3f a5 cc de ad 52 6e e1 bf
       0.15433565548961925 -0.5447171588806624
000350 6b 46 ed d4 b6 5c ce bf 20 75 85 20 ed 8d cf 3f
       -0.237204412429992 0.24651874626116754
000360 19 66 e4 9d 0a 2d 8e 3f 75 89 d7 43 3a d3 a6 3f
       0.014734347289549853 0.04458028867863365
000370 03 39 0f 89 8f a4 be 3f e1 92 85 7d f2 ef a4 3f
       0.11969849678209603 0.04089315206764411
000380 a0 a1 0e e3 70 36 c0 bf de 9c b7 b7 ba e4 d3 3f
       -0.12666140639090617 0.3108355325807234
000390 f4 44 f8 31 84 94 da bf ba 11 68 da 57 f0 d4 3f
       -0.4153147209154462 0.3271693833233048
0003a0 82 14 54 e3 ef 37 d0 3f 91 e0 c7 ff 14 c2 da 3f
       0.25341412735026136 0.4180958268984876
0003b0 d5 9b 06 ba 14 ef e0 3f 99 6e ff 52 5b e4 d9 bf
       0.5291846879307466 -0.40456278901340564
0003c0 f1 94 00 63 78 14 bf bf 9d f3 a6 28 18 ce d1 3f
       -0.12140610138938591 0.27820400209366786
0003d0 3d 3a 71 99 05 6b dc bf f8 3c cd 1c b6 ce 83 3f
       -0.44403209671591864 0.009671614412268145
0003e0 94 5e 32 28 49 94 d7 3f a3 4e 0a 28 1c 55 b5 3f
       0.3684256451174204 0.08332992532296628
0003f0 08 ba 38 89 a7 3b c0 3f a8 38 f6 10 5a ae c4 3f
       0.12682050895951158 0.16157079532826413
000400 12 e3 22 d8 c2 b5 b6 3f 04 76 0c d5 30 58 c2 bf
       0.08871095444454749 -0.14331636812941906
000410 27 0a 65 e0 6d 7a bb 3f f8 aa 17 b5 59 20 b7 3f
       0.10733687141786473 0.09033737822725729
000420 19 bb de f9 9c 27 da 3f 57 bf d1 6b a6 e0 af bf
       0.40866779710170104 -0.06226081911233788
000430 34 30 b4 77 89 aa c5 3f 76 1e 86 b9 32 0a da bf
       0.16926687569537224 -0.4068724452740534
000440 4a 36 d6 95 80 1c d6 3f 10 b0 86 c2 5d 35 ac 3f
       0.3454896414994876 0.055094652171959635
000450 c9 36 0f 0d df 61 b8 bf 5e 15 bc dd 42 52 b1 bf
       -0.09524339741548284 -0.06766145623631334
000460 e9 11 36 4f 59 39 d8 3f 9c b2 18 22 b9 ac d2 bf
       0.3785002969309788 -0.291792186066951
000470 b0 86 dd 85 7f 10 aa bf ec 9b 9b fb 09 db c4 bf
       -0.05090712079141946 -0.16293453965701532
000480 86 e4 ab 95 da 2a d4 bf 2a f1 ff 39 d0 a4 c2 3f
       -0.31511559120514965 0.1456547053529758
000490 1a 83 3d c8 03 92 db 3f 87 3c 10 26 21 31 d6 3f
       0.430787034556532 0.346748625918686
0004a0 3b c6 1f ae d4 14 c0 3f 7c d7 e4 3b b8 f5 ba bf
       0.12563570501474594 -0.1053118845200895
0004b0 ba 81 f0 68 35 b1 c0 bf 2f a5 b6 de 7c aa da bf
       -0.1304079782867243 -0.4166557478843797
0004c0 81 1c 0b 06 80 6e d1 3f a8 81 65 1c e3 67 c2 3f
       0.2723693903939833 0.14379538427875826
0004d0 fe 0d 4f 39 fe 70 73 bf 3c df 7e 47 44 9b d3 3f
       -0.004746430456126214 0.3063517282675894
0004e0 4c 85 bb 16 ac f8 d0 bf a0 2d 1b e6 2a ba d2 bf
       -0.2651777479168984 -0.2926127669458882
0004f0 28 3a 69 bd 46 3b de bf 18 43 a3 d5 77 60 c2 3f
       -0.47236793992206794 0.14356897288828274
000500 e1 e8 f1 17 49 d9 d1 3f 32 f8 54 0e e8 e6 d4 bf
       0.27888705576300593 -0.3265934123954849
000510 d4 3a 2e a0 ba 7d db 3f 95 04 f0 a8 56 2b c0 3f
       0.42954888956675785 0.12632258652596265
000520 7e a1 b9 da c4 bc d8 3f 78 24 1f e2 06 00 95 bf
       0.3865215431201462 -0.020507915068979504
000530 04 1d dd ba 4d 89 46 bf d4 ef 59 14 2d 6c c8 bf
       -0.0006877545872407136 -0.19080127233234967
000540 6a 50 7a 58 fc 15 d3 3f 41 ce 19 b7 2b 8e 31 bf
       0.2982169021645463 -0.0002678734518674932
000550 23 27 35 90 51 58 c3 3f 4f 8a 1a ac ee 19 a8 3f
       0.1511327699793635 0.04707284785151399
000560 6a 19 88 37 fc f2 d1 3f 7c b2 30 1d 52 58 d2 3f
       0.28045564101230147 0.2866406712590004
000570 b4 7e 5a 44 cd c9 dc bf 7b 78 c8 5e a8 f0 ca bf
       -0.44981700587411955 -0.21046929004745948
000580 36 63 8d c3 f2 49 ce bf 35 d3 9b 0c a6 2c a4 3f
       -0.23663172291232976 0.03940314201273624
000590 77 68 61 90 88 f3 c1 bf c8 85 25 4e e7 3c b8 bf
       -0.14024455118016352 -0.09467931421160991
0005a0 21 60 49 0b da 32 db bf 80 1f ba cb 22 e9 dc bf
       -0.424978743574231 -0.4517294873735338
0005b0 e7 9d 1b 7d 3c 92 de bf 00 34 1f 13 cb 0c b3 bf
       -0.4776755544430373 -0.07441395966380071
0005c0 d7 cb 51 88 aa b0 e4 3f d1 f8 c2 57 20 81 dc 3f
       0.6465656912317809 0.445381246285149
0005d0 05 c9 22 d6 1e 83 c6 bf 4e 9e 0e 77 6f 77 db 3f
       -0.17587647872785098 0.429164758936598
0005e0 23 ff 2f 7f da 1a c0 bf a1 8f 28 86 24 f9 9c 3f
       -0.12581950388266092 0.02829415386999268
0005f0 dc 85 05 bd 93 bc d0 3f ec 6c aa b5 be a8 d3 3f
       0.2615098329461867 0.3071743749694196
000600 7d c3 8e da 3b 56 d2 3f 4a ff 28 50 fe 08 bc 3f
       0.2865132936813593 0.1095122285560112
000610 38 ee 99 a5 d2 a8 bb bf 41 cb ab 08 35 8f d4 bf
       -0.10804478209495805 -0.32124067160400577
000620 82 2c c4 0c 87 59 d6 3f b4 ca 66 3a 1f 40 da 3f
       0.34921432730397595 0.4101636953666159
000630 d9 d5 5c c9 bb 75 e0 3f 6c a6 88 40 45 4c d6 3f
       0.514371770178225 0.3484051828587329
000640 c3 fa 7c a0 ed 05 e1 3f e9 f3 b9 a4 3c 11 a8 3f
       0.5319736609015638 0.04700650702304882
000650 a8 86 fa 62 db d5 b9 3f 3e 4f a7 6b 1c 23 de bf
       0.10091944853277346 -0.4708930064491489
000660 a4 5b 09 a8 11 9b cd bf 1b 5f 9c 1c 41 1c dc bf
       -0.23129482941541568 -0.4392245082285499
000670 08 85 05 52 4e d3 e1 bf a6 ab f5 c7 3d 1b cc 3f
       -0.5570441820129028 0.2195813394895058
000680 04 e9 be 79 96 35 d9 bf 54 29 d7 68 87 46 7e 3f
       -0.3938957394526741 0.007391480391968425
000690 31 40 1f 21 d3 dd e0 bf c7 7f 80 37 f0 72 d7 bf
       -0.5270782133975499 -0.3663902799617031
0006a0 60 c3 a8 ad 0f 2b c7 3f 45 0b da 00 be b9 ca 3f
       0.1810016248650994 0.2087934021147594
0006b0 9f a3 a7 be de 15 c6 bf ee dc cd d0 e5 cb c9 3f
       -0.1725424223834837 0.20153496451869252
0006c0 2b 52 2d dc 85 9e e2 bf 78 c7 e8 fc ad fd cb bf
       -0.5818509388287273 -0.21867918824278454
0006d0 d6 3d d5 35 a5 df cb 3f fe bd 48 4a a1 99 c5 bf
       0.21776261452258322 -0.16875091673999515
0006e0 14 aa 93 9b 84 81 c5 3f bc 6c 7b 91 0d bb d3 bf
       0.16801507565044516 -0.30829180915106824
0006f0 1c cf ac f3 66 ec d2 3f c6 71 c5 2c 84 0b d0 bf
       0.29567884251012955 -0.25070289966768333
000700 aa 3d 0d a4 42 14 dc bf 95 83 76 95 08 b7 b8 bf
       -0.43873659153629296 -0.09654287003514946
000710 e8 a0 a8 6b d4 e1 d3 3f 1f 7d d7 d8 13 07 d5 bf
       0.31065855516000207 -0.32855697799637257
000720 ff d1 6c a1 dd db b8 3f 63 dd 64 87 c1 6f b5 3f
       0.09710488501588797 0.08373651080625204
000730 7e 2c 67 58 b9 a6 d6 3f 42 c0 e4 16 7a f0 d1 3f
       0.35392602570636444 0.28030254588793835
000740 68 93 2d 57 25 42 dc bf 74 12 ab 58 0f 4d ce 3f
       -0.44153722299079456 0.23672668294433985
000750 00 a7 a9 65 ba e3 ad bf 8f 81 13 6b 55 a2 d0 3f
       -0.05837805262565432 0.25990806061420185
000760 8c 2d 2f 89 5c 88 bc 3f 26 98 f2 b0 df f7 dd 3f
       0.11145571088052558 0.4682540157322158
000770 ff 8b 00 7a 39 ff db bf c3 e7 07 5e 77 87 96 3f
       -0.43745266832610236 0.02200113784235903
000780 82 9d 23 51 48 02 b8 3f 59 b8 ff 4b e3 ac d1 3f
       0.09378482800422286 0.2761772386719535
000790 99 de af 28 7e 8d cc 3f 13 49 81 86 fb 05 c5 bf
       0.2230680178324647 -0.1642450720560836
0007a0 74 6f 41 34 6e 6d bc 3f 7d 8a 41 76 d0 ee bf 3f
       0.11104477668544438 0.1247377670966134
0007b0 2c dd 28 99 e2 f7 dd bf 7c 7d ca 8f 1f a8 db bf
       -0.46825470883364306 -0.4321364311417353
0007c0 e5 e3 0a 19 57 ce e0 3f 36 99 b8 d5 73 c2 db 3f
       0.5251880158531291 0.43374343749237043
0007d0 ca 0b 9d 16 ec fd d9 3f 5c 1d 13 88 b6 a8 cb 3f
       0.4061231823763448 0.21608621258040273
0007e0 c9 b7 5e 0e 2e 10 d0 bf 17 09 84 e9 dd ea d9 bf
       -0.25098754313773647 -0.4049601345469837
0007f0 84 a4 9d 80 d8 0d d8 3f 06 54 89 30 21 ed d2 3f
       0.37584507522712607 0.2957232450474411

b4 f8 [30, 1]
000000 7f 84 87 04 1b 29 d4 bf 4c a4 13 60 74 08 de bf
       -0.31500888292618606 -0.46926602728359934
000010 ac a4 19 cb 25 32 b2 bf dd db c1 2c c9 33 d2 3f
       -0.07107769211292475 0.28441075678659705
000020 02 a6 ad a2 92 88 d2 bf 1e 4e 78 1f 81 19 c3 bf
       -0.28958574186853536 -0.14921583210581074
000030 2f ab 0e e5 79 31 d8 bf cb 8b 74 fd 80 31 64 bf
       -0.37801978463055524 -0.0024650115334607695
000040 44 10 7d 25 62 08 de 3f 92 5e b7 67 0e 39 d5 3f
       0.4692616811846657 0.33160743835967665
000050 32 80 9a ad 95 b1 9b bf 22 27 31 50 1f aa d1 bf
       -0.027044619294088253 -0.2760084422230752
000060 d8 5f f7 5c 2d e4 dc bf d9 3d c9 20 11 37 bb 3f
       -0.4514268310426792 0.10630900431100744
000070 cc 09 7d 83 56 6a d8 bf d8 a2 95 39 03 fd d9 bf
       -0.3814903530184466 -0.40606766341674705
000080 08 9b 75 15 5d a8 d1 bf 0c ce 15 4f a1 d1 dd bf
       -0.27590109916347716 -0.4659198067012944
000090 00 1d 97 f4 56 ee b0 3f 28 ef 7a a2 be c7 d8 bf
       0.06613677474443946 -0.3871914469452684
0000a0 39 b9 f7 91 7f 5d db bf 7b f5 0d 9c 79 6c d6 3f
       -0.42758168463378216 0.35037079086017514
0000b0 a0 d7 5b 6e 65 aa e0 bf b8 4e 14 25 82 44 d2 bf
       -0.5208003192371855 -0.2854314195730967
0000c0 89 04 d2 96 e1 35 dd 3f 5b d8 33 f9 98 ef dc 3f
       0.45641364792397404 0.45212387405570603
0000d0 a0 f2 70 07 86 27 e1 3f f5 11 c6 a2 8f 24 c7 bf
       0.5360746522270183 -0.1808032555383218
0000e0 1a 56 54 ff 81 b9 dd 3f aa 18 69 09 40 56 df bf
       0.4644474976970244 -0.48963929099080394

W4 f8 [30, 30]
000000 ac 79 e4 80 b4 14 d3 3f 7f c6 76 c6 11 c2 b4 bf
       0.29813873850971606 -0.0810862645655792
000010 c6 84 54 55 07 b1 d2 3f 68 c8 b9 25 39 12 ab bf
       0.2920549710561996 -0.05287340722578976
000020 ad 12 14 08 0b 0c d3 bf 47 25 1e a7 93 06 d1 bf
       -0.2976100520029757 -0.266026414109167
000030 45 6c 46 df 73 c3 52 3f fd d8 a8 8c 53 e2 c2 bf
       0.0011452323497909294 -0.14753193252699495
000040 df 26 ea 9d 5a 22 c6 bf e2 48 c0 ea 12 c0 cc bf
       -0.1729234000270514 -0.22461163008171697
000050 77 ae 1c df b1 25 96 3f 84 8d 3d ad df fd d2 bf
       0.02162816929118924 -0.2967452232171228
000060 c6 c0 45 09 86 e8 c8 bf d8 01 9c 72 1f c8 df bf
       -0.1945960564876314 -0.49658952896427655
000070 00 3c 7e 6f 47 75 bc 3f b8 d2 10 d7 17 ed d8 3f
       0.1111645362091025 0.38947101595412503
000080 00 6f cc c1 e7 57 ae 3f 13 d9 47 92 78 49 d0 3f
       0.059264414221813055 0.2544843128702194
000090 e0 5a 27 ae 51 50 c3 3f 7c 39 8c ff 7d 7c d6 bf
       0.1508886432991039 -0.35134839969477816
0000a0 30 64 1a c1 17 20 cb bf 58 eb 91 38 65 f8 c9 bf
       -0.21191689423429372 -0.2028929258557024
0000b0 b7 ed 77 2b 2b 95 d0 3f c0 27 97 7e 42 17 dd bf
       0.2591045307633197 -0.4545446621165148
0000c0 90 15 ba 10 d6 5e aa 3f bd d6 f2 14 6e 2b cc bf
       0.051504792730194926 -0.22007537863617258
0000d0 00 a1 2d c1 8a 0a a3 bf c3 76 92 bf e0 b0 c1 bf
       -0.03718980415470874 -0.13821038583858156
0000e0 a0 3e 72 fb 87 be de 3f fa bd 30 b3 70 37 d1 3f
       0.4803791003732645 0.26900880335867294
0000f0 18 8c 49 d4 c8 90 ba 3f 02 14 bf bb ca 00 d2 3f
       0.10377173598094236 0.28129833540543825
000100 14 ad f9 0a 43 d6 c1 bf 28 1e af 4e 3f e3 c1 3f
       -0.13935125385192093 0.13974753705973453
000110 78 1f 8a 23 be 3e dc bf 60 54 13 0d 50 4c c8 3f
       -0.4413295123163077 0.18982887876942112
000120 8a 67 2f d1 da cb da 3f 18 a6 f0 8f 07 8c cd bf
       0.4186923067878686 -0.23083586242982856
000130 fe 65 ff c8 9b 2f d9 bf 94 c1 62 b3 ee 20 dc bf
       -0.39353079441715966 -0.43951003568783986
000140 98 a4 97 45 82 bd bb bf 54 c1 5d 14 52 c0 d1 bf
       -0.10836042593986617 -0.2773633192910172
000150 d8 6d 24 43 e8 41 ce bf c4 bb 9a 95 36 d8 cd bf
       -0.23638633039887114 -0.23316080384162607
000160 14 e8 e1 fd 11 5d d9 3f 88 81 10 9e af 20 cd bf
       0.39630555909354936 -0.227559997730179
000170 ec 20 2e 9f 91 53 dc bf fc 0b 15 9a 23 39 c1 bf
       -0.44260063691082396 -0.13455624602838145
000180 d0 5b 02 f8 a7 75 d0 3f 26 11 e2 40 18 44 d2 bf
       0.25718116016053916 -0.2854061730979701
000190 e4 78 3d 3e 12 5d c9 3f b2 cc cf 5a d1 04 d8 bf
       0.19815280951565406 -0.37529405468303445
0001a0 a4 5b a3 76 57 61 c5 3f 98 2c 12 01 4c fa bb 3f
       0.16703313153149424 0.1092879774679879
0001b0 00 83 0b e5 f9 ac b6 3f d8 2d 62 5d 4b f7 b3 bf
       0.08857690660398632 -0.07799216298933886
0001c0 78 77 48 6f 5d f0 c9 bf 60 39 a7 80 3f 56 a6 bf
       -0.20264785703414723 -0.043626770453203845
0001d0 d2 45 bb 79 7a 0d d2 bf ae f9 63 c1 d6 44 d9 3f
       -0.28207265746922616 0.3948265923098927
0001e0 9c b5 1a 59 2e 18 d3 bf 52 47 c4 c2 14 2a d9 3f
       -0.2983508939895161 0.3931934263247189
0001f0 ca 71 4c 81 ff 5a c0 bf e4 e0 de 09 19 39 c8 bf
       -0.12777704060944323 -0.18924248678172895
000200 e3 0f 7a 69 ee 17 c4 3f 7f 74 6c c1 5b ae d0 3f
       0.15698032522425284 0.26064199341801236
000210 3a f2 fb 47 ac 79 ab 3f 58 04 ae 72 54 fc e5 3f
       0.05366266611779165 0.6870519866789762
000220 d4 f0 2b 28 ed 32 a8 3f 24 72 e6 b0 26 28 d4 3f
       0.04726353755356319 0.31495063090713615
000230 b9 87 6b 4b 30 dc b8 3f b5 79 16 0f 42 65 d1 3f
       0.09710981217679561 0.2718053004590744
000240 77 e8 b1 ed 45 ee dd 3f 6a b1 f1 1f 59 b6 ab bf
       0.46766803944013396 -0.054125580930164244
000250 b8 ce ef 16 01 f4 db 3f 3e 80 03 32 ec b3 d8 bf
       0.43676783790509033 -0.38598160633228307
000260 42 7e 94 f2 df 9b d9 bf 7c 9e 5a a2 a6 b2 cd 3f
       -0.4001388424821678 0.23201449325027912
000270 6e 76 53 b4 df c4 d3 3f 1e 7a dd 61 8b b8 dd 3f
       0.3088912259098383 0.46438870007651356
000280 e0 d5 ce ec 8b 95 b9 3f 2d 6c 0f 4f 34 df dc bf
       0.09993814975208393 -0.45112331124045363
000290 05 c3 c7 23 dd 54 cc 3f 79 c4 24 9c af 2b c6 3f
       0.22133983847700037 0.17320819019508685
0002a0 a8 7c e5 e5 47 d5 c0 bf e2 f1 1f 0c c6 e6 e6 bf
       -0.1315088150540522 -0.7156706082164954
0002b0 58 ee 85 0d f3 46 d8 3f 4c c0 dc 54 81 d9 9d 3f
       0.3793304092466534 0.02915002899607115
0002c0 77 92 36 11 48 33 bc bf 0c ab f9 cf 47 82 ca 3f
       -0.11015749378436533 0.2071008458618383
0002d0 ce c8 35 04 61 e0 d7 bf 3e bc ee 2e c2 04 dc 3f
       -0.37307000552312963 0.4377904375386982
0002e0 62 c9 91 18 12 80 d8 3f 26 76 9b 75 a8 a3 93 bf
       0.38281681441653437 -0.019178993395021625
0002f0 34 4b 09 0e 84 9c d2 bf 4e 97 5a b6 0c 9e c1 bf
       -0.29080296869976796 -0.13763579277036303
000300 d6 b8 35 0a 08 8f d8 bf 51 65 da 23 4c 89 c5 bf
       -0.3837299442010481 -0.1682524848045355
000310 d9 2a b6 99 ff a7 a6 3f 13 d2 7f 6d 9f e4 c0 bf
       0.04425047637331198 -0.1319770130791232
000320 e6 16 08 6d 5c ad e4 bf fa 72 af 26 8b 63 9b bf
       -0.6461622361682344 -0.026746916042486447
000330 41 b1 19 ff 95 16 e0 bf 3d 78 b1 db eb 28 dc 3f
       -0.5027570707730221 0.43999763922136365
000340 c0 ff 20 e2 af 45 a1 bf 20 d7 b1 09 01 cd e0 3f
       -0.03373479495394305 0.5250249089574233
000350 b8 ef f1 89 0b 27 dc bf a0 ad 0f 63 78 a8 8d bf
       -0.43988312216947234 -0.014481487773045754
000360 02 34 9e 2f 70 17 d3 3f e0 9a cd b2 83 fd ac 3f
       0.2983055558223101 0.056621661736064643
000370 30 f8 c2 77 55 f9 dc bf f5 43 82 68 db c7 d9 3f
       -0.45271813102215486 0.402823307094024
000380 1c 15 cb c0 93 f0 c0 3f 29 de e7 46 58 06 d5 3f
       0.13234183229193597 0.32851225780857135
000390 e0 94 d1 37 a7 ed b9 3f a6 59 b6 45 12 e1 d2 3f
       0.1012825499797887 0.2949872666153176
0003a0 da 9f 86 3e 00 1f b7 bf 96 45 8e 12 92 b1 df bf
       -0.0903167870188776 -0.49521304905018704
0003b0 1b a5 db 57 53 45 da bf 84 fd 99 f4 e7 a5 d6 bf
       -0.41048129634744307 -0.3538761032759441
0003c0 00 00 91 a5 0f 9f 1a bf e7 fc bd 6f 33 d1 be 3f
       -0.0001015523242964278 0.12037965276794048
0003d0 80 3b 15 45 7a ee 96 bf 9c 5d 49 27 fb e4 d7 bf
       -0.022394094912040696 -0.3733508952768376
0003e0 a7 da 05 1d 5b aa d0 bf f8 e5 25 0b 02 d5 b4 bf
       -0.26039769968285004 -0.08137524387520745
0003f0 a1 ab 53 e4 7c 9d cf bf 91 02 e5 8b d9 0f e0 bf
       -0.24699364804049842 -0.5019347889247731
000400 5f 5a 93 60 b9 e4 d2 3f 87 89 96 38 70 eb cc bf
       0.2952102130051681 -0.22593500865066238
000410 c4 dc 1e 82 ac 92 d2 3f 70 a7 c4 58 7d 5e de 3f
       0.2902022619923168 0.47451718968169754
000420 15 50 32 89 ff fe c9 bf 0c b9 dc d0 a4 82 df 3f
       -0.2030944270997003 0.4923488654775532
000430 1c a5 63 4f 6b ac c1 3f da 28 95 1c 50 c9 c4 bf
       0.13807431579997675 -0.1623935832561248
000440 52 70 91 e8 06 c0 d3 3f 1c 1e 0b 60 5e cb d2 3f
       0.308595397107415 0.29366263751259836
000450 f8 ef 9b ce 65 5e dc bf 48 62 c9 09 23 e7 b3 bf
       -0.4432615773837365 -0.07774561871463803
000460 a8 82 6d f5 fc db db 3f 74 45 16 f7 08 97 d9 bf
       0.4353020092731108 -0.39984344606008126
000470 b5 6f 66 08 c6 c4 d9 3f 88 45 f4 b7 35 b5 b6 3f
       0.402635105326904 0.08870254269665712
000480 60 79 cd 8c ab a5 9f bf 6d f9 d3 8b 08 3e df bf
       -0.030905418843184207 -0.48816121726112877
000490 52 f1 35 77 b3 5c 88 bf 29 9d 32 e5 bd 6d dd bf
       -0.011895563197633994 -0.4598231065997021
0004a0 cc f0 2d 4f b5 65 cd bf 80 11 6d c2 16 d4 b4 bf
       -0.22966638914284088 -0.08136121985177702
0004b0 00 69 32 1c b4 e9 77 bf 6c 7f 6c ff 1a b9 c4 bf
       -0.005838111453295491 -0.16189897033563783
0004c0 f5 55 26 6c 91 fb c1 bf 00 fc 90 34 42 1c c1 3f
       -0.14048974781751125 0.13367488447872233
0004d0 c8 56 fc 6e e7 7e c4 bf f2 e1 b4 64 56 45 d1 bf
       -0.16012280387137978 -0.26985702356935726
0004e0 48 34 08 c4 a7 e1 c5 bf 7f 9d 41 94 6a 04 d5 bf
       -0.1709489543140157 -0.3283945510688326
0004f0 d4 68 98 b0 01 1c d0 3f ce db 42 d3 cf 9e dc bf
       0.2517093872608147 -0.4471931040856675
000500 6b f6 50 a7 5f 74 c2 bf 80 84 7f 12 97 a0 bb 3f
       -0.14417644185771236 0.10791916085828923
000510 6c 43 70 2b 3b 25 d5 bf dc 2d a8 2c 66 c8 d1 3f
       -0.33039740793269945 0.2778563915350938
000520 40 36 d8 80 df f8 cd bf 4a b5 3d d3 ad 41 da bf
       -0.23415750304450178 -0.4102587283039908
000530 60 dc 43 27 7b a0 9e 3f 1c a4 ef 49 62 c9 d1 3f
       0.029909061690855387 0.27791650028535897
000540 38 eb 2b c2 61 90 d9 3f c4 71 6c 66 59 12 c1 3f
       0.3994373699385281 0.13337247372773053
000550 98 70 3e 48 7f ea db bf 88 88 26 dd 63 e6 d5 3f
       -0.436187573004426 0.34218689533930347
000560 8e 8c e0 af 07 f2 d7 3f c0 ea 82 4c 55 77 d2 3f
       0.3741473405409089 0.28853352042976255
000570 6c 7a 72 90 ef 53 db bf 92 4a 71 22 ba 04 d9 3f
       -0.4269980345360753 0.39091351855783174
000580 0b 77 ac 96 b8 a3 d8 3f 90 39 05 83 02 1b ce bf
       0.38499273981311494 -0.2351992740390867
000590 64 69 ca ae a4 c3 b2 3f 00 35 59 6f 7a 1a ba bf
       0.07329777972555501 -0.10196652620762237
0005a0 10 40 ec e8 37 7e c3 3f 70 e7 be 41 1a 4c c0 3f
       0.15228937981783064 0.12732246599426444
0005b0 09 1c 5f 56 6f e2 cb bf 46 25 ed e7 4a 24 ce 3f
       -0.21784774510726404 0.23548256229904946
0005c0 d6 9c 6c 3b 91 7d dd bf 48 91 38 2e 1f 46 b1 3f
       -0.4607890205683821 0.06747622374002049
0005d0 59 73 bc 49 80 06 c4 3f 27 89 2b e2 de 8e cb 3f
       0.15644839859387608 0.21529756587467228
0005e0 2e 18 20 6a 99 75 be bf a0 e1 1f 4e 5d cf e1 bf
       -0.1189819225402011 -0.5565630460615019
0005f0 9f dd 94 aa 98 2b d7 3f d0 51 95 48 3e b7 96 3f
       0.3620359102091814 0.02218339269650632
000600 23 3c 5c 10 b4 14 d3 3f 40 63 ea 98 21 5b d8 bf
       0.2981386337059481 -0.38056220944558916
000610 9a 08 80 62 51 09 d8 3f 55 ff 5d e5 98 b0 da bf
       0.37556872004655306 -0.41702864073885354
000620 68 21 5c 6d 26 11 ca bf 24 14 8d d8 4e 04 d3 bf
       -0.20364837970579264 -0.29713793895308727
000630 ae 04 d5 78 8e 93 db bf 08 1a 92 34 e3 de d4 bf
       -0.43088113594064736 -0.32610397466524477
000640 b0 ec 90 cf 75 4a ba bf 85 5a 8b 94 49 fe de bf
       -0.10269867246181508 -0.48427047258648087
000650 af a9 b3 fb 79 9c b0 3f 54 c1 c1 bc 44 bd cf bf
       0.06488764185966177 -0.2479635163940751
000660 be 12 86 77 b9 c4 d9 bf f0 54 a2 63 2b 22 d8 3f
       -0.40263210937727567 0.37708554010289586
000670 1a 66 51 e6 41 af d2 3f db 9e da 59 3c 4f e1 bf
       0.291946864051711 -0.5409223322830842
000680 1d 64 50 c2 d8 1e ea 3f a4 eb 45 eb ec 3c ca bf
       0.8162654681392528 -0.2049842976374211
000690 32 14 bd dd a6 86 d7 3f 2a d2 84 c5 9b b2 b7 bf
       0.36759349493178484 -0.09256909916150194
0006a0 45 f7 46 b1 dd a7 c9 3f 6e 4c 4b 0c 88 1f d9 3f
       0.2004353633509998 0.39254952622031325
0006b0 4a e3 f6 b2 64 de db 3f fe 8e 21 ee af c5 d9 3f
       0.4354488132190012 0.4026908708094509
0006c0 b6 5f ad 88 6f be db 3f 2c 21 de d6 11 51 d5 3f
       0.4334982714403809 0.3330731008832284
0006d0 09 c5 6e 02 d2 62 d6 3f 59 6e 82 01 92 c8 d4 3f
       0.3497815154797342 0.3247418417683768
0006e0 35 a2 99 c5 92 31 d8 bf b6 18 93 e5 57 e2 db 3f
       -0.3780257157982619 0.43568990153688547
0006f0 e8 e4 47 a7 fb 64 cd 3f 3c 1d 95 fb be 87 81 bf
       0.22964425724038695 -0.00855969624775687
000700 f4 ec 97 5a 4d e8 ce 3f ee 50 eb e3 09 3b b8 bf
       0.24146429942616232 -0.09465085806306536
000710 28 02 b9 89 e3 cc bf bf ca fb c3 00 23 90 b6 bf
       -0.12422010528917637 -0.08813685196581314
000720 64 7f 09 f3 f6 9b a7 3f e0 77 95 02 ad fa dc 3f
       0.046111790816893344 0.4528000378830921
000730 04 3b 02 56 c6 87 d0 3f 8f 6a e4 19 cf 5c ce bf
       0.25828703307426815 -0.23720730556745592
000740 02 87 94 02 c9 ad d6 3f 73 97 d1 74 a8 24 b9 bf
       0.354357006568634 -0.09821560718554938
000750 08 d3 1b 1a c8 72 d3 bf 00 ea 3a 30 81 31 d0 3f
       -0.3038807158439316 0.2530215235707658
000760 75 fd f9 8f 81 67 da 3f 60 85 3e 3d cd 21 cd 3f
       0.41256751117904084 0.22759404650154647
000770 d5 59 27 a8 21 44 d4 bf 30 31 40 dd 32 e3 d2 3f
       -0.31665841504346065 0.2951171074535237
000780 24 22 70 44 6c 27 c8 bf 6a a0 68 93 83 b4 d5 bf
       -0.18870309201908342 -0.3391426982439102
000790 b5 93 7a 31 1f 3c c3 bf c7 02 99 b1 bd 32 a7 3f
       -0.15027227321584538 0.045308998040587016
0007a0 10 f3 72 70 f3 c9 bc bf bd 3c 7c 70 bb 66 d0 3f
       -0.11245652671182094 0.25627027497189286
0007b0 3d 7f 53 95 a7 f8 d6 bf 97 0c 99 d7 e8 23 de 3f
       -0.358926673723534 0.4709417443702448
0007c0 36 1d 6b 2d a9 d1 d6 3f f0 72 91 f0 11 88 cf bf
       0.35654668269531287 -0.24634002920620146
0007d0 e7 c9 ce 16 63 70 c9 3f 2b e6 be 4e 01 06 cc 3f
       0.19874228109036027 0.2189332613468634
0007e0 e1 92 b6 89 34 6f d9 bf 2f 32 de 0c 39 ff d5 bf
       -0.3974124283652554 -0.34370256668697413
0007f0 00 73 cf c0 c3 c1 da bf 2e 5b 3d f9 de ae b5 bf
       -0.418076456347805 -0.08469956955864852

b5 f8 [1, 1]
000000 4a 5e 3d 95 cd dc c7 3f
       0.18642587458701804
