NeuralNetworks_4x30/weights_4x30.npz (npz, 51438 bytes, 20 tensors)

b1 f8 [30, 1]
000000 41 f6 e8 27 15 3c d4 3f b2 df fe 43 ea 64 d0 3f
       0.3161671533342521 0.2561593688983478
000010 1b 25 24 ac 96 47 a1 3f 56 b3 cd 98 cb 56 b4 bf
       0.033749302399949076 -0.07944939117960578
000020 4c 94 6e 0b 3e 3b dc bf a8 38 0f a4 41 0a ef bf
       -0.4411158668174877 -0.9700020031248373
000030 e0 18 bf 5f 9b 52 9d bf d7 bb d9 70 9a cd e1 3f
       -0.02863543292894455 0.5563480571853415
000040 fc 82 ee c5 3c b9 4a 3f 56 eb 7f 98 03 37 c2 bf
       0.0008155390495297728 -0.14230389543794314
000050 ba bb fa ba 4b d2 db bf ea ee 20 c2 24 89 db bf
       -0.43471043834409395 -0.4302455802714876
000060 e3 f3 ea 66 4f 20 ce 3f 55 f2 f2 10 f0 4d d4 3f
       0.23536102795870226 0.3172569432752302
000070 c0 41 8b 04 46 00 d9 bf 4e 40 b9 34 ec da c6 3f
       -0.3906416935324408 0.17855598997494088
000080 6a 88 21 68 7c 72 d9 3f ff cf 2b 72 66 3d e7 3f
       0.3976126686958482 0.7262451391129615
000090 56 3a fd 5d 91 48 e0 bf aa c8 15 b0 24 e7 ac 3f
       -0.5088583789564136 0.056450983519327494
0000a0 3d c4 e8 b3 85 fc ef 3f e2 19 65 5b d9 7b d0 3f
       0.9995754731991223 0.257559146168573
0000b0 18 a9 8b 6f b6 bf e6 3f 47 74 38 42 76 c9 e1 3f
       0.7109024218200686 0.5558425229425062
0000c0 66 0d 39 51 d3 41 54 bf 20 6f 88 e5 b4 58 a6 bf
       -0.0012363971371918913 -0.04364552785793152
0000d0 80 99 20 4b c0 53 df bf fa 5e 60 d0 51 fe a4 bf
       -0.4894867643037273 -0.0410028044572623
0000e0 72 ac 1f b0 8a 9c e8 3f 5e b6 1c b9 93 a8 cb bf
       0.7691091003338342 -0.21608206309012962

W1 f8 [30, 2]
000000 26 3a 43 44 0a 31 d2 3f 3d 66 55 c0 ec ce dc 3f
       0.284243170416547 0.4501296880967834
000010 78 08 f9 66 a8 69 e7 bf 32 07 c4 42 25 08 df bf
       -0.7316476832568375 -0.4848721649178628
000020 b1 a7 c2 ca 2e 84 dc 3f 02 1f b3 35 09 db db 3f
       0.44556779671494967 0.4352438949976972
000030 2f f0 a7 17 2e 02 f3 3f 84 80 fa 16 83 9f e2 3f
       1.1880322383940543 0.5819716881560599
000040 3d 93 aa 23 bc 8b d1 bf 17 8b d0 94 67 f3 dc 3f
       -0.27415374262846 0.4523562386768147
000050 44 33 86 61 1d 87 ee 3f 96 e8 06 ef 87 04 db 3f
       0.9539935021181027 0.42215154974440716
000060 58 da 63 df 5a 0b dd bf 7c af 19 4c e6 c9 d9 bf
       -0.45381805243906603 -0.4029479735534023
000070 93 53 45 05 c5 12 e2 3f 30 e9 fe f5 86 0c 96 3f
       0.5647912123628082 0.021532162441624425
000080 02 aa 20 81 42 48 e3 3f 56 97 74 81 ae f0 c8 3f
       0.6025707742713282 0.19484502144876598
000090 df fb 3c ba 21 42 dd 3f 69 16 73 b7 3a e7 bd bf
       0.45716136157346726 -0.11680953005551377
0000a0 0e 45 e5 1f 23 e4 d2 3f 74 50 b3 f6 ac 49 de bf
       0.29517438998034684 -0.47324680415955034
0000b0 a0 e9 d7 20 49 f9 c8 3f f0 5f 88 a2 4c 72 a5 3f
       0.19510759452516613 0.04188765987436216
0000c0 09 66 9e f8 4c 79 d7 3f e8 fa 15 b1 b9 d1 dd bf
       0.3667786052625109 -0.46592562001744264
0000d0 32 6b 01 ce 62 fe 8a 3f 05 ba 6d ec f2 9e dd bf
       0.013180515205183239 -0.4628264721749534
0000e0 c2 d6 4f a9 af bb d0 bf 2c 6b 92 7f ed 53 c6 3f
       -0.2614554551540601 0.17443627099131598
0000f0 2f 64 f1 84 c6 67 d4 3f 35 ad 18 17 c6 9c a3 bf
       0.31883395178516855 -0.03830546409548178
000100 ad 87 ec e4 af 7d cc bf 57 d1 7b 0a da 3f d4 bf
       -0.22258566549231543 -0.3163971998576662
000110 79 23 42 eb bf 40 e7 bf b2 56 26 da a0 83 e7 bf
       -0.7266540141000483 -0.7348179112184055
000120 23 93 1b 3c 68 d8 e6 3f 20 2e 18 0d a8 86 e0 3f
       0.7139168905237948 0.516437554907899
000130 2b d9 04 d7 ec fc ce 3f 0b c8 89 8c 6c 99 d0 bf
       0.24209366320582978 -0.2593642589991993
000140 24 fe 20 8c e2 0c f2 bf f3 97 e6 10 53 cf e0 bf
       -1.128145739916257 -0.5253081636517422
000150 71 7f 03 4a 34 a1 a9 bf 17 97 66 48 e6 a2 a3 3f
       -0.05005801585661985 0.03835219987676746
000160 9e ad 36 28 f3 fd e5 bf 68 9c 67 39 e9 35 d1 bf
       -0.6872497353955855 -0.2689154682725019
000170 28 ac 24 b0 07 c9 d8 bf 1b 2e fe 8d c8 f2 d1 bf
       -0.38726989938249057 -0.28044332376950515
000180 8e ef 9e 12 17 d6 d0 3f dc 45 aa d0 73 8c e1 bf
       0.2630670244068306 -0.5483950686922827
000190 00 a5 1a 87 5e f3 cd bf dc 41 83 70 89 b1 d2 bf
       -0.23398954007033268 -0.2920859907872264
0001a0 ce 17 1e 03 21 76 d8 bf 94 90 e7 66 b1 37 df bf
       -0.3822100191540557 -0.48777422951958127
0001b0 5a 55 0f 45 3e 63 c3 bf 12 24 d5 1e 59 2d c6 3f
       -0.15146616336884727 0.17325891499993468
0001c0 2e 18 07 d4 35 a5 e8 bf ef 17 84 0e a5 8f de bf
       -0.7701672688642753 -0.4775173799283711
0001d0 c5 52 25 59 88 e6 cd 3f 15 aa e0 25 f2 25 d3 bf
       0.2335977969438742 -0.2991910333536521

b2 f8 [30, 1]
000000 cd 83 27 d6 90 c2 c6 3f de bf 37 5c ab b0 d7 3f
       0.17781267601733788 0.37015804296151866
000010 08 dc 85 80 9d df d8 bf ff ad a8 58 e4 1c c6 bf
       -0.3886483912569365 -0.1727567131905374
000020 fa a1 38 0b dd c7 d3 bf 95 b8 fc 35 a3 6b c3 3f
       -0.3090736970503084 0.15172233711331687
000030 77 3f 93 72 0d 58 e3 3f 48 bc 4f ff a7 52 bf bf
       0.6044985997959732 -0.12235498412313561
000040 40 61 c2 68 f9 5a cd 3f 2d c8 87 c0 0c a4 c8 bf
       0.22933881392669697 -0.19250640297792768
000050 75 5a ee 8e 25 f8 d2 3f e0 7e d1 89 e9 e4 b2 bf
       0.2963956733523568 -0.07380542387681599
000060 34 e0 9e 9e 86 fb ce 3f 0b 95 5a c8 3d 5c d7 3f
       0.24205096001765158 0.36500496450237624
000070 14 7a 0a c2 7d 6a df bf eb cc 37 cd f5 97 da bf
       -0.4908747095995818 -0.4155249122697586
000080 17 ab 55 00 4a ef aa bf 9e 5e de ae 37 f7 c1 3f
       -0.05260688070378288 0.14035697973735223
000090 e9 62 05 15 04 a8 d0 3f bd ac ea b3 f6 d5 df 3f
       0.26025487950168597 0.49743430681219164
0000a0 f1 b7 1b 75 58 c3 cd 3f 7c 83 b9 66 a8 20 dd 3f
       0.23252397268464578 0.45511827499108626
0000b0 ac 8d 33 91 97 a0 c8 bf 94 e1 00 7f 7e 93 c4 bf
       -0.19240088071738393 -0.16075116349544472
0000c0 9c 24 3d 9e 4f 20 cf bf af c2 0a 46 e2 23 d5 bf
       -0.24317355371957639 -0.3303151782993536
0000d0 f8 5e 53 f5 51 e3 d9 3f 7e 1e 3b 3b 7e c7 b0 bf
       0.40449952085098984 -0.06554402299945569
0000e0 21 3d c3 f0 ab 28 cd bf e0 c5 2e 4a bf 6a b3 3f
       -0.22780370002735942 0.07584758339978448

W2 f8 [30, 30]
000000 6d c6 91 86 4a da d6 3f 2a 56 b9 65 c0 f3 cb bf
       0.35707343236490524 -0.21837620703688404
000010 d6 a6 fc de e2 35 8e 3f 11 da 96 b7 4b 72 c9 bf
       0.014751217298527502 -0.19880053009337975
000020 7e 80 6a 8b 24 dc c6 bf 69 29 53 5f 17 b8 e5 bf
       -0.17859322364256863 -0.6787220823110093
000030 22 90 23 c2 b0 70 d4 3f 50 43 04 52 28 03 c5 bf
       0.31937807997587886 -0.16415885929793683
000040 4e 36 79 e4 68 37 c9 3f 4b 9d 7e e9 31 fd d0 3f
       0.19700347095424536 0.26545379450040646
000050 4c 40 8c 5c af 24 c3 bf 5c 3a 4b b7 eb dc cb bf
       -0.1495570375341252 -0.21767946672339888
000060 5a cd 46 79 dc c1 b6 3f 6d ee ac 27 ab 61 cd bf
       0.08889558754781515 -0.22954310834198868
000070 d0 9b a1 5d 8d be d4 3f ec f4 c6 5d 88 4c 82 bf
       0.3241303839080816 -0.008935037004329925
000080 33 88 27 92 72 ff c1 3f 2a 02 b8 6a 4a 38 bd 3f
       0.14060814033934008 0.11414017777861632
000090 48 13 16 02 b6 1b d5 bf b1 27 d9 a0 18 a0 c5 3f
       -0.32981634334310117 0.1689482484237579
0000a0 8a 08 71 79 8e b0 e6 3f 08 e4 96 81 af 39 e0 bf
       0.7090523120789538 -0.5070416956942845
0000b0 d1 39 cb 11 73 df e7 bf 64 a1 eb e4 e9 b2 ce 3f
       -0.7460265491043235 0.2398350112700981
0000c0 08 62 7d 21 49 9f af 3f f0 23 9f b1 ca 03 b8 3f
       0.06176212819872623 0.09380785786119339
0000d0 00 bc a5 d5 1a eb d6 bf 37 c6 c0 c5 1f bc c2 bf
       -0.3580996595764532 -0.14636609226140404
0000e0 b2 16 5c 27 74 86 e1 bf cb 9a fa 2b 2d c4 bb 3f
       -0.5476628082985455 0.10846216510490618
0000f0 27 94 82 fa 68 53 bc bf e7 9d a1 32 c1 a5 d1 3f
       -0.11064773670166571 0.27574186272110385
000100 0f 69 4e 21 4a f5 c2 3f 98 ae f5 51 32 18 e0 bf
       0.1481106436375019 -0.5029536820197391
000110 45 58 34 78 e3 de a2 bf 63 12 21 f9 13 15 e0 bf
       -0.036856754706761786 -0.5025730005077772
000120 88 2f 1a 91 96 77 c9 3f 43 14 ad 8b 05 81 da 3f
       0.19896204075882573 0.41412485733264165
000130 c0 de 9a ec 38 04 ce 3f e3 73 15 f9 78 aa e1 3f
       0.23450385621048575 0.5520596375387153
000140 a6 1b 79 8b f9 06 d1 bf 70 95 8c d6 39 30 ca 3f
       -0.2660507070581225 0.2045967385867402
000150 b5 c9 66 d0 f3 01 c3 3f d4 6c 67 48 af d0 b1 3f
       0.14849708248000373 0.06959052579570663
000160 e0 61 d9 1a f8 48 bf bf 17 fd 66 47 b3 20 ae bf
       -0.1222071710157091 -0.058843233553029055
000170 53 17 28 3a c9 fc d5 bf 1a dd df cf ed 7e da bf
       -0.34355383567195935 -0.41399712848893133
000180 f3 ca 9c 49 59 36 d0 bf 6a 2f 7a 40 a1 e9 ce bf
       -0.25331718624799676 -0.24150481842331867
000190 43 3e 51 cb 88 56 de 3f 45 d8 c5 ca 6d ae c5 3f
       0.47403163771830154 0.16938564682976867
0001a0 25 29 d7 bc df c8 a0 bf 72 57 45 90 82 43 c4 3f
       -0.03278254680806673 0.15831024212337358
0001b0 20 d3 92 17 1c 80 b7 bf 1c b1 6a 75 d1 26 cd 3f
       -0.09179854941869481 0.22774713738670804
0001c0 2e af c0 53 07 bb d1 bf ab a1 46 6f ab 13 da bf
       -0.2770403211495588 -0.4074505411795381
0001d0 bd a6 9f 36 6f 38 c5 3f 16 52 79 ab 55 70 cd 3f
       0.1657847420422537 0.22999068138837292
0001e0 2e 24 77 77 35 9d df 3f f6 0b bb ce 3f 10 dd bf
       0.4939702669767624 -0.4541167754034058
0001f0 50 4f fc 02 5b 0b ce bf 7d a7 2b 9f a4 6c e5 3f
       -0.23472154279499557 0.6695120915221505
000200 a0 4a 3e 19 95 65 c8 bf 81 dd 77 a7 d9 64 c7 bf
       -0.19060004932960783 -0.18276520421180112
000210 38 1d 48 94 19 cf b6 bf 9c 64 df 25 47 87 e5 3f
       -0.08909759397657957 0.672763418169001
000220 b7 c2 6d 03 7d 88 ce 3f b3 78 12 98 49 37 bf 3f
       0.2385402933828311 0.12193736994456365
000230 00 5b 52 3f c0 40 cd bf d4 9d 27 6c 44 da ca bf
       -0.22853854267005858 -0.2097859886264205
000240 c0 2a c0 0b 53 46 d8 3f fb f4 ee 24 bf d7 d6 bf
       0.3792922606232132 -0.3569181309392914
000250 80 a1 b0 72 19 00 d8 bf ae 5b e3 95 6b 9d d9 3f
       -0.37500606727783037 0.4002331699134015
000260 7d f0 34 01 7e 50 d4 3f 5e 17 a2 3e 53 21 df bf
       0.3174128543648818 -0.4864090072299997
000270 14 45 49 46 0d d2 c3 3f 6c cf 87 7b 21 18 c0 3f
       0.15484777385658133 0.1257364133049309
000280 75 6e a2 50 39 44 e0 bf 69 2b 97 94 21 23 dd bf
       -0.508328111161474 -0.4552692366675531
000290 c9 16 76 b3 bf 3e d1 bf 43 fc 37 86 44 97 d6 3f
       -0.26945488477245455 0.3529826460580276
0002a0 06 2e bc 8a d1 c8 c5 3f 46 1e 91 51 f8 d6 dd 3f
       0.17019099497007079 0.46624572721018287
0002b0 7c 76 1c f1 fc 54 c8 bf 13 4b 66 33 26 93 c4 bf
       -0.19009362957961062 -0.16074063787217394
0002c0 8e 8b dd 52 78 d4 b2 3f 61 c3 3e 42 f1 17 c9 3f
       0.07355453513222995 0.1960431645834673
0002d0 f0 5c eb d9 2e 1b d2 bf a8 11 6d f4 b9 f8 b9 3f
       -0.2829091194266331 0.10145151345665815
0002e0 c6 4c 43 c6 7d ed b5 3f d4 d2 19 33 fe 36 d7 bf
       0.08565507975008577 -0.3627315043479886
0002f0 50 29 2a f3 24 59 bb 3f d0 96 67 3a f1 48 bf bf
       0.10682898460996637 -0.12220676113028195
000300 04 a3 5b bc 46 3d d2 bf 38 5f f3 89 d9 3b d9 3f
       -0.2849900092538038 0.39427793952698975
000310 21 2d 80 54 d1 9d c4 bf d1 6f e1 76 3a 0a b5 bf
       -0.16106621385584055 -0.08218732263907148
000320 72 65 95 3c 67 99 d5 3f 18 ad 0b 50 0f cd c3 3f
       0.3374879924427524 0.15469542892911003
000330 0e d6 13 2f 3a 29 84 bf 6c 5b 88 ee 0a 86 c1 3f
       -0.009844259797755075 0.13690315863706404
000340 30 60 09 b2 b5 90 ba bf ff c1 44 e3 e1 64 d7 bf
       -0.1037705955180861 -0.3655323714656617
000350 3e 42 32 93 c3 74 d8 3f 9c 5f e5 e6 15 df ba bf
       0.38212670683518357 -0.10496651541813978
000360 ee d1 8b a0 8d 7b b9 3f 87 eb 87 d8 7a bd d9 bf
       0.0995415226896694 -0.4021899332580507
000370 c5 28 8d 1d 87 5a db bf 0a 06 fd 89 47 b1 b5 3f
       -0.42740037809256776 0.08473631972176335
000380 8d dc c9 5f 69 f5 b8 3f e9 4a d1 12 3f df ce 3f
       0.09749468411051705 0.24118793886972092
000390 1e 35 8f 1e e6 d2 c4 3f 9c 01 fb c8 17 ba c3 3f
       0.1626861237731782 0.1541166049337449
0003a0 80 5e 51 55 2b 7b a1 3f 0a c9 e7 a0 a4 c1 d4 3f
       0.03414283195951118 0.32431903565806464
0003b0 0e 97 03 58 84 86 8f 3f 3b 66 9d ad a1 b7 cf 3f
       0.015393289504980891 0.2477914903382031
0003c0 cc 1b b3 21 06 d2 bd bf 92 b9 c5 04 a5 93 d7 3f
       -0.1164859611773032 0.368386511478911
0003d0 69 2e 6c b1 c5 3a c4 bf e3 c3 15 48 8c cc c1 bf
       -0.15804358638011998 -0.13905480880524043
0003e0 c4 ac 32 72 1a 63 d4 bf b2 7e 94 f2 a3 50 db 3f
       -0.31854878570693423 0.4267969006486779
0003f0 58 ac ab 5b 08 d3 df 3f 89 dc 3e 8a fb 62 d9 bf
       0.49725541069228063 -0.39666641712705847
000400 27 cc 71 eb 29 7f dc bf 00 34 41 8d 6b ad 5c 3f
       -0.445261459280291 0.001750330954581658
000410 5c 89 ed 0a ab e1 cb 3f 18 fd 51 56 e5 06 b1 3f
       0.21782434495532754 0.06651147229603216
000420 a7 c5 05 85 d2 64 d4 bf d6 10 9e eb 39 b6 d9 3f
       -0.31865370741351245 0.40174720773235373
000430 30 80 52 f1 7a 8d de bf ba 80 d1 47 e4 21 d1 3f
       -0.4773852688467768 0.26769358647835484
000440 ae ca c0 d1 df e2 db bf d5 d9 05 7f 1a 60 dc 3f
       -0.4357223080034299 0.4433656921823091
000450 c8 11 4f 29 da e0 bd 3f a4 c4 92 ff 65 d5 db bf
       0.11671222218053068 -0.4348998065789351
000460 2e 2f 2c 28 f9 41 e0 3f 27 48 c0 bb cd d5 d3 bf
       0.5080533775921816 -0.30992453894680455
000470 74 37 ef e7 38 75 d8 bf 5f 9d 9c 75 5b 24 b3 3f
       -0.3821546807274594 0.07477351781255014
000480 1f 2c 5e e4 2f b9 d9 bf fc 16 53 04 ef a1 c4 bf
       -0.4019279222636118 -0.16119182311211222
000490 c6 54 64 19 a2 d6 d6 bf d0 49 22 10 92 b0 c2 3f
       -0.3568501708953814 0.14601350581922512
0004a0 47 c1 3b 3b 78 11 d3 3f fc 6c 36 b0 e1 99 c7 bf
       0.2979412630511615 -0.1843835935986603
0004b0 48 fe 6d 43 6e c0 e0 3f 90 fa 7c 55 fe 13 cd bf
       0.5234900776849338 -0.22717265295246536
0004c0 12 96 40 b8 1b 69 c1 bf 12 3c da e8 f7 41 d4 bf
       -0.13602015015310137 -0.3165263914060584
0004d0 32 fc 66 f5 6f e6 94 3f e6 70 f5 b4 4f 41 df bf
       0.0204102986842793 -0.48836128875497165
0004e0 28 b6 28 c0 f4 7f b6 bf ca 88 f8 73 85 bf d5 3f
       -0.08788995448477321 0.3398145325210292
0004f0 55 2c 0d ab f6 82 dd bf 0b a4 39 2f 0d c6 a3 3f
       -0.46111838058704296 0.038620388045110664
000500 e0 b9 9a cf 53 bd 93 3f 9c 70 1e 18 f5 eb c5 bf
       0.01927691416374866 -0.17126334836655566
000510 e4 e2 49 ec ae 51 c9 3f 74 59 00 96 45 ec ca bf
       0.19780527627496902 -0.2103354437283077
000520 38 a9 d0 53 ec c9 b5 bf 5d f1 19 72 53 b0 cd 3f
       -0.085112352812449 0.2319435412536092
000530 b4 bc 25 33 4f 22 d8 3f 67 1a eb be a3 ad d9 3f
       0.3770940780149872 0.40122312206623295
000540 17 e1 16 49 72 4e c3 bf 57 0f e2 db a0 e4 ca bf
       -0.1508314949876499 -0.21010218368985065
000550 cb c0 2a a6 e3 b0 bc 3f 74 61 7d 83 e7 64 cb bf
       0.11207411581813458 -0.214016856388081
000560 18 44 22 c9 ce db c2 3f c4 64 8a 46 e5 52 e3 3f
       0.14733300038327068 0.603869092726335
000570 a5 54 f4 97 e0 53 d0 bf 48 f0 0b d1 df 2a c8 3f
       -0.2551194652490472 0.18880841929774506
000580 d6 f2 f4 f1 fd e5 db bf 35 aa 51 ae a4 36 da 3f
       -0.4359125960216209 0.4095851614316957
000590 0a af 2f a3 77 19 c7 3f 6f ca 1a be 73 e5 d8 bf
       0.1804647013481076 -0.38900464596660006
0005a0 32 41 0e 65 ff 71 d1 bf 61 c3 1e 24 8d dd d1 bf
       -0.2725828635093591 -0.27914742019043187
0005b0 ee 93 ff 4f ea 69 d8 3f 57 52 ad dd eb 5a d9 bf
       0.38146455585802996 -0.3961743988814183
0005c0 0b ab 45 11 51 8e d3 bf 28 76 f6 b4 67 01 e5 bf
       -0.3055613201783422 -0.6564215216091656
0005d0 48 a4 60 b0 73 6e d9 3f 8b be b2 e4 31 34 c5 3f
       0.39736644958845035 0.1656553618135955
0005e0 8e 8b 9f 83 5d 7e c5 bf f2 e0 e7 72 ee 4b d2 bf
       -0.16791886259951777 -0.28588448735491945
0005f0 40 1b 11 53 71 df 8d 3f be e4 59 cd 7e 73 d1 3f
       0.014586339328287345 0.27267427495787533
000600 24 89 c7 e2 29 07 b7 3f fd 05 21 df 95 b2 90 bf
       0.08995305811507542 -0.016306249374116167
000610 f8 00 58 28 72 82 d6 3f 11 0c 3c a0 e8 6f d9 3f
       0.35171178760357646 0.3974553646841637
000620 c4 c2 36 83 88 f6 cd 3f ec 7e cf 7c 82 75 e1 3f
       0.23408609778336686 0.5455944478707955
000630 e8 ce c4 6f b0 9d d5 bf cb cb c7 46 1f 35 dd bf
       -0.3377495852939618 -0.4563673201766362
000640 41 17 1f 18 5a c8 e6 3f fc 09 24 ad 52 50 c4 bf
       0.7119570227739375 -0.15870126203670043
000650 13 c9 6a 48 30 7c d4 bf 53 1a a0 2c 9f d5 cd 3f
       -0.32007987091050544 0.23308171919798557
000660 e3 f9 02 78 5f 93 ca 3f 00 2e c4 68 90 1e cd bf
       0.20762246475165033 -0.22749524226706797
000670 78 c9 2f 14 f9 1c d7 bf 0b a9 15 b0 7a 0e d8 3f
       -0.36114336940149583 0.3758837432457233
000680 4c 57 b2 0b 96 0c b5 3f c5 60 e3 47 26 43 ca bf
       0.08222329888880359 -0.2051742411629275
000690 c4 b8 46 c4 d4 b1 db bf 80 1f d1 60 4a c3 bb 3f
       -0.43272895019152835 0.10844864715283897
0006a0 64 b8 81 7b 44 71 c9 3f f0 b7 7d 67 27 88 b0 3f
       0.1987691500721126 0.06457754398954285
0006b0 90 87 7a 5a 6c 92 b1 bf 24 d4 0e 26 be 97 d5 bf
       -0.06864049157095864 -0.33738664356798354
0006c0 54 7c 6d 97 8e 4c d3 bf 30 01 c5 56 33 39 b9 bf
       -0.3015476683412477 -0.09852906101605607
0006d0 6e 12 ed f3 e5 43 dc 3f c6 5d 88 65 da 6f d7 3f
       0.44164418049721277 0.3662019721536719
0006e0 52 cf 4c 67 e4 c1 dc bf b2 77 a1 ea 3b 91 d0 3f
       -0.44933424079794293 0.258864382869315
0006f0 ec ef 02 c3 ad c3 de bf 06 9f d1 ba e3 9f d9 3f
       -0.4806932835015221 0.40038388484980236
000700 d4 e2 ba 15 35 fe c1 3f 40 e2 c2 0d 9a f5 8f 3f
       0.14057029305492696 0.015605166954956506
000710 00 8a 29 66 5c 61 79 3f 20 71 56 5f 19 d0 a2 bf
       0.00619636624705544 -0.03674392021932449
000720 44 17 4d 63 4a 7b d9 bf 54 55 78 a7 2d c5 d0 bf
       -0.3981500596749934 -0.2620348105859496
000730 44 9e e2 bd f9 c3 c4 bf dc 29 ed 77 9d 70 cf bf
       -0.1622306992696726 -0.24562424045355058
000740 5c 47 50 85 02 82 c0 bf 60 a0 63 c4 27 8b b6 bf
       -0.1289675856538065 -0.08806084198624964
000750 38 2c 5d 83 3a a3 d8 3f 4c 81 c8 46 17 f3 cb 3f
       0.3849626810885556 0.21835604625904137
000760 10 d3 0c ee 0c 6d dd 3f 88 25 b9 98 4a 55 bb bf
       0.4597809147556271 -0.10677019337267357
000770 50 a8 4b ca cf 92 cd bf 9c 3d 3b 7c f4 34 d8 3f
       -0.23104283693038719 0.3782321179578163
000780 1e 8c 7a 24 2b 5c de 3f f4 93 f6 71 12 e6 bd 3f
       0.47437552034733865 0.11679187090210502
000790 09 59 92 c6 65 7e da bf 53 88 58 8d 60 ed db 3f
       -0.4139646948982692 0.4363633518534062
0007a0 e4 5f 64 4e ca 37 d5 bf 15 a0 a2 cf ab 0c d4 bf
       -0.3315301671550499 -0.3132733848274268
0007b0 92 db e8 31 fe e5 d5 3f 35 63 fe 19 3c 1a d8 3f
       0.3421626555822793 0.3766012433857669
0007c0 cd d5 58 75 d0 39 db bf 6f 6a 22 a6 89 e7 a7 bf
       -0.4254037042586248 -0.04668836739547976
0007d0 f0 98 5a a2 d5 83 c8 bf c0 29 48 8f 04 17 aa 3f
       -0.1915232699149736 0.050956861963715294
0007e0 e2 db d1 e9 32 cf da 3f 6d 44 2e 61 54 9b b3 3f
       0.41889641603432726 0.07658889172150092
0007f0 34 23 b0 1c 8b b4 d9 bf 9c 29 b1 04 4d bb d2 3f
       -0.40164449502531174 0.2926819368191447

b3 f8 [30, 1]
000000 30 2e ed 20 84 77 b0 3f c7 b9 83 27 a1 c0 b4 3f
       0.06432367137784278 0.08106429304800776
000010 6e 25 a2 fa 87 cb 94 bf e6 65 51 6a 1c 6f 89 3f
       -0.020307659790466052 0.012418958658758816
000020 98 9f 49 67 fc 41 a3 bf 4f 87 e0 d2 8d bf d4 bf
       -0.03761280785403115 -0.3241915282579741
000030 f2 43 63 c6 20 83 ca 3f 9a 11 32 a8 ca dc d1 3f
       0.20712670981313824 0.2791010515723201
000040 a9 d8 85 e1 f0 dc d4 3f b5 cf 36 18 82 0d ae bf
       0.32598516486849377 -0.05869680924970969
000050 ac 9c 3d db b5 7f c0 3f 02 96 db ab d6 83 d0 3f
       0.12889741139517719 0.2580467870996871
000060 80 29 18 84 2b ba be 3f a5 eb 57 6e 8c 20 da bf
       0.12002822852097061 -0.4082366063664103
000070 44 92 a0 ab 36 54 c4 bf a5 21 1e c6 c9 52 a7 3f
       -0.15881999378429346 0.045553498682298334
000080 68 94 75 51 12 48 d9 bf b2 9f b9 bc e1 5d d6 3f
       -0.39502389864930487 0.34948008947548737
000090 bb 64 38 5c 4d 40 d8 bf 40 09 20 92 09 be df bf
       -0.37892469411742596 -0.4959739615443546
0000a0 d4 88 b8 81 88 69 c0 bf 26 b3 bf 96 21 7c d4 3f
       -0.12822061857247624 0.32007636758389635
0000b0 5a 40 b6 99 2a 87 e1 3f bb 6f e6 eb 83 03 d6 bf
       0.5477498056589056 -0.34396455800174025
0000c0 78 1c 93 66 24 fe c7 3f 3a 99 22 b9 16 81 bd 3f
       0.18744330414321886 0.11525098819638382
0000d0 54 8e da be d6 af df bf 9e 59 23 76 bf 90 cf bf
       -0.4951073516660689 -0.2466048552366375
0000e0 0a 86 73 cf 8e 59 da bf 2c b1 f5 70 aa 29 cc 3f
       -0.41171617754852774 0.2200215388833241

W3 f8 [30, 30]
000000 50 73 88 3b c7 a7 dc bf b2 4b 46 4a bc b9 d0 3f
       -0.4477403718354269 0.2613363957727258
000010 14 9c 90 16 5b 04 c7 3f 7a 1c 56 78 5c 9a d6 bf
       0.17982042886544092 -0.35317146064375715
000020 58 4f 85 d3 4f bd c9 bf 24 f1 d8 f2 3c 29 c3 3f
       -0.2010898382965205 0.1496959863451447
000030 02 30 41 4f 19 86 dd bf 14 49 7d 27 3e ff cb bf
       -0.4613097452136118 -0.21872689178651028
000040 00 35 38 b6 5a 78 87 bf b8 1e 81 c7 4a 9b c3 3f
       -0.011460026441478366 0.15317663899826583
000050 be ac 48 5c 7a 89 d4 bf a0 a5 fc 5a 96 44 9b 3f
       -0.32089098941896654 0.02662882738437633
000060 60 22 31 e5 38 02 db bf fe 53 5e b6 98 8b d1 bf
       -0.42201063520454873 -0.2741452961866456
000070 02 51 53 ed 88 79 d1 bf e0 1b 59 4e 11 92 9f bf
       -0.2730428998595614 -0.030830641180980112
000080 30 ce 0e 27 14 5d da 3f ec 80 a6 45 1f 1e c1 bf
       0.41193107427827425 -0.13373175526522318
000090 ce 64 79 97 9e 6f d1 bf 00 e7 bd ba b1 fc a4 bf
       -0.27243771355058477 -0.04099040417254507
0000a0 40 27 af ca 66 1f 9c bf 60 31 d6 65 d4 73 bd 3f
       -0.027463537331448906 0.11504867063758217
0000b0 d2 24 99 07 91 0b dd 3f 00 a8 99 a1 e6 29 4b bf
       0.45383096448911175 -0.0008289695862917501
0000c0 b6 8b 6e 93 64 b1 d3 bf 70 0f 75 6b 21 52 bd bf
       -0.3077022018207417 -0.11453446267574718
0000d0 38 ea 17 f3 ea c7 c4 bf 6e d8 5f d1 fe aa df bf
       -0.16235100621982368 -0.49481172987669353
0000e0 4c cc 15 6a 51 38 c7 3f 00 d1 8c c1 9f b7 7b 3f
       0.18140618972720046 0.006766914412583924
0000f0 66 9a 80 3c 0b 64 db 3f c5 1e e1 b6 0e dd c1 bf
       0.42798119457658 -0.13955863885552425
000100 2e df a5 f9 26 24 cb 3f 7f 92 5b f3 72 fa ab 3f
       0.2120407790168825 0.05464514942813014
000110 1f 1b e9 21 62 a3 ab bf 65 2d 86 0a 16 33 c9 3f
       -0.053980890883897674 0.19687152398942512
000120 6a 34 0e d5 34 92 d3 3f 00 1e 7c de 97 ad b1 3f
       0.3057987290019982 0.0690550726104604
000130 10 0e 68 8f 2e 3c d6 3f 54 6f 6a 43 17 81 d9 3f
       0.3474232101873165 0.39850408156938966
000140 f9 e0 49 56 ba 4e b3 bf a4 7b ca dd 0a 3c cc 3f
       -0.07542004210143095 0.22058235005985438
000150 b4 32 20 05 94 d0 8d bf dc 90 c8 31 1f 20 e6 bf
       -0.014557987600732993 -0.6914211246808253
000160 7d 98 d8 19 e8 8e da 3f be 3a 46 ce f3 75 d3 bf
       0.41497232936888634 -0.30407424110391534
000170 58 02 98 3e 70 da aa 3f 10 cd ed 7e 56 47 c7 bf
       0.052447803154795636 -0.1818645591516561
000180 0a b7 b9 fb b1 6c d0 bf 64 d2 c5 00 0b 7a b0 3f
       -0.2566342314010944 0.06436222809663544
000190 f7 79 3d 5a 9c 2b d4 bf 10 0a 96 4d 5e 30 d8 3f
       -0.3151617890597715 0.3779521711041136
0001a0 18 24 df 21 0f 77 d6 3f 2c 9a 51 1f d4 a0 d9 bf
       0.3510167914178637 -0.40044119890663654
0001b0 a2 5f 9a ae 90 c1 de 3f 20 33 8d 92 43 c9 d1 3f
       0.48056428004337637 0.27790917693782724
0001c0 33 bd b6 33 d8 ac b7 bf db 38 d4 b4 5d b3 b2 bf
       -0.09248114836258452 -0.07304940857668234
0001d0 b7 9c ab e0 31 71 a7 bf 7d 55 76 b2 76 30 d0 3f
       -0.045785483050900515 0.2529579870982486
0001e0 b3 a4 21 bd d5 5d 8d bf 1d 0c 9b a1 03 2b d3 3f
       -0.01433913215096747 0.2995003774814807
0001f0 72 fc 66 20 1d d1 ae 3f 07 91 f0 ac 4c bc d0 bf
       0.060189161496503454 -0.26149289024967043
000200 33 76 54 b8 0a be de bf af 70 6e 3c 6c 59 dc bf
       -0.4803492355439147 -0.44295793439392644
000210 0f 9e 12 da d5 87 ae 3f 02 7a c9 c0 be b2 df bf
       0.05963009154339371 -0.4952847368894312
000220 f0 24 f8 67 eb 58 c8 bf bf 2f fc 3f 7a 5f bc 3f
       -0.19021360947252886 0.11083187162529294
000230 61 86 2a 4a 27 c2 e0 3f 60 b2 fa 7c 58 dd c3 bf
       0.5237003754193205 -0.15519243338111988
000240 09 20 2d 44 25 8d cf bf 11 c0 08 c4 23 26 7a 3f
       -0.24649492100638806 0.006384029111856663
000250 3b c3 c9 00 6b 8e c8 3f f2 bd f5 f9 65 c5 de 3f
       0.191846251854736 0.48079823885106443
000260 0f 51 e3 b8 7c 56 d1 3f f1 c2 67 83 8b 2b e0 bf
       0.2709037595316354 -0.505315548563969
000270 6f f1 37 01 30 29 dc 3f e2 fe 26 cd 73 37 b5 bf
       0.44001388663288926 -0.08287738569833494
000280 e8 2c f8 40 18 22 db bf 0c a2 eb 2d 07 57 d9 3f
       -0.4239559778659001 0.3959367702905474
000290 c0 2c fe c9 f8 e9 bd bf c4 ff b7 da 29 42 db bf
       -0.11685137683359681 -0.4259132991719492
0002a0 4c 45 3b f0 4d 28 c0 3f 8f d9 0a b6 f5 4b b4 3f
       0.12622999410681712 0.07928405470270249
0002b0 c1 36 39 2f b9 5b c6 bf 63 f0 04 da 53 81 b5 3f
       -0.17467417531809384 0.08400463173615118
0002c0 06 70 6d d9 7c 9c d6 3f 2b 2d e6 d3 ad 1d e0 bf
       0.3533012507739389 -0.5036229265837496
0002d0 d8 8a 73 4f cd 0a b5 bf fb 08 e7 d9 da 1d c9 3f
       -0.08219607534150997 0.19622359885949678
0002e0 cd e1 90 18 40 53 c3 bf 8b 51 a3 2d bf 18 c6 bf
       -0.15097809981831603 -0.1726302121011368
0002f0 1e 6d 19 97 ad 22 cc 3f 59 0d 54 b8 68 25 cf 3f
       0.21980829122444673 0.2433291339913051
000300 14 83 cb 43 fa e7 9d bf 80 e1 82 6c b3 1a b7 bf
       -0.029205236804844395 -0.09025117301178476
000310 20 a4 f9 bf 45 99 b4 3f d7 c9 1b 87 b7 ad dc 3f
       0.08046375214475221 0.4481028384608669
000320 7f 23 6e 7a 7c 55 d1 bf c0 db 9f 45 e2 ca 8e bf
       -0.2708426662070948 -0.015035407781381127
000330 32 ef d4 d9 dc 21 da bf 9b a4 c2 34 64 f4 bc 3f
       -0.4083168151153017 0.11310411727994778
000340 f1 f0 1b 8e 46 c1 c3 3f eb d1 e3 e4 4e 27 e1 bf
       0.15433580340312106 -0.5360483618265425
000350 43 81 0c 72 d2 01 c9 bf 4f dc f3 8f 7a 28 cf 3f
       -0.19536810463706375 0.2434228136914691
000360 5c c2 0a 51 f0 c8 6e 3f 1e fc 6d 8c e1 a7 a2 3f
       0.0037579244311348025 0.03643708075741635
000370 94 cb 7b c6 f0 0e c1 3f 9a b3 26 f7 fb 81 9b 3f
       0.13326844874935928 0.026863038024817244
000380 a0 a1 0e e3 70 36 c0 bf de 9c b7 b7 ba e4 d3 3f
       -0.12666140639090617 0.3108355325807234
000390 f4 44 f8 31 84 94 da bf 3d ed 95 e5 3a 31 d7 3f
       -0.4153147209154462 0.3623797647521377
0003a0 60 87 bf 3d e8 f9 c9 3f bd 48 1b a3 1e b0 dc 3f
       0.20293906226202818 0.4482494919622118
0003b0 f2 19 0d 8f 5c 0a e3 3f c5 10 e8 e7 dd a5 d9 bf
       0.5950148385971359 -0.4007487072669956
0003c0 b8 21 af 31 6e 53 ba bf 8f fe aa df 33 f3 cd 3f
       -0.1028355475710957 0.2339844553116461
0003d0 45 3d 6d 47 13 aa dd bf f8 3c cd 1c b6 ce 83 3f
       -0.4635055730368161 0.009671614412268145
0003e0 36 94 c8 95 4b ac d7 3f 20 b1 a0 af ba 23 ba 3f
       0.3698910677651982 0.10210768497262679
0003f0 4b e3 06 54 15 b4 c7 3f a8 38 f6 10 5a ae c4 3f
       0.18518320658565765 0.16157079532826413
000400 8e 3d 7b 81 f1 17 b0 3f 22 36 7c 80 fe e1 c2 bf
       0.06286534701506793 -0.147521794068255
000410 f2 bc 76 ac 46 30 c5 3f f8 aa 17 b5 59 20 b7 3f
       0.16553576870999326 0.09033737822725729
000420 33 1f 9c 61 a5 14 da 3f 6b 85 ee 7f 86 26 8f bf
       0.40751013309680956 -0.015210200099150048
000430 77 9b ea 11 89 aa c5 3f 2f e8 0f d7 cb fc db bf
       0.1692668282969085 -0.43730445863878037
000440 de 30 31 bf fe 85 d9 3f 1c 74 71 35 49 22 ab 3f
       0.39880341216190895 0.05299595620520156
000450 85 90 71 05 80 bf b1 bf 2d 39 06 bc 46 d7 b2 bf
       -0.0693283093729083 -0.07359735575139288
000460 fb f3 6d c7 7e 16 d9 3f 40 ff 02 38 01 77 d5 bf
       0.391997999911666 -0.33538847417729656
000470 b0 86 dd 85 7f 10 aa bf ec 9b 9b fb 09 db c4 bf
       -0.05090712079141946 -0.16293453965701532
000480 86 e4 ab 95 da 2a d4 bf 50 9a ef 75 e0 bf c3 3f
       -0.31511559120514965 0.1542931152209399
000490 5f bf 2f 05 53 3f de 3f 5a 07 13 d1 83 49 d5 3f
       0.47261500841613285 0.33261199395575647
0004a0 0b 6d 15 02 4a c6 b9 3f 42 b2 6b 6a 09 21 bb bf
       0.10068190146323645 -0.10597285125886294
0004b0 ba 81 f0 68 35 b1 c0 bf 2f a5 b6 de 7c aa da bf
       -0.1304079782867243 -0.4166557478843797
0004c0 81 1c 0b 06 80 6e d1 3f a8 81 65 1c e3 67 c2 3f
       0.2723693903939833 0.14379538427875826
0004d0 fe 0d 4f 39 fe 70 73 bf 3c df 7e 47 44 9b d3 3f
       -0.004746430456126214 0.3063517282675894
0004e0 4c 85 bb 16 ac f8 d0 bf a0 2d 1b e6 2a ba d2 bf
       -0.2651777479168984 -0.2926127669458882
0004f0 28 3a 69 bd 46 3b de bf 18 43 a3 d5 77 60 c2 3f
       -0.47236793992206794 0.14356897288828274
000500 e1 e8 f1 17 49 d9 d1 3f 32 f8 54 0e e8 e6 d4 bf
       0.27888705576300593 -0.3265934123954849
000510 d4 3a 2e a0 ba 7d db 3f 95 04 f0 a8 56 2b c0 3f
       0.42954888956675785 0.12632258652596265
000520 7e a1 b9 da c4 bc d8 3f 78 24 1f e2 06 00 95 bf
       0.3865215431201462 -0.020507915068979504
000530 04 1d dd ba 4d 89 46 bf d4 ef 59 14 2d 6c c8 bf
       -0.0006877545872407136 -0.19080127233234967
000540 6a 50 7a 58 fc 15 d3 3f 41 ce 19 b7 2b 8e 31 bf
       0.2982169021645463 -0.0002678734518674932
000550 23 27 35 90 51 58 c3 3f 4f 8a 1a ac ee 19 a8 3f
       0.1511327699793635 0.04707284785151399
000560 6a 19 88 37 fc f2 d1 3f 7c b2 30 1d 52 58 d2 3f
       0.28045564101230147 0.2866406712590004
000570 b4 7e 5a 44 cd c9 dc bf 7b 78 c8 5e a8 f0 ca bf
       -0.44981700587411955 -0.21046929004745948
000580 36 63 8d c3 f2 49 ce bf 35 d3 9b 0c a6 2c a4 3f
       -0.23663172291232976 0.03940314201273624
000590 77 68 61 90 88 f3 c1 bf c8 85 25 4e e7 3c b8 bf
       -0.14024455118016352 -0.09467931421160991
0005a0 78 5f 6a 0a a3 ea dd bf 0a 0c 3e a5 1e 11 d8 bf
       -0.46744609849110175 -0.37604490410757363
0005b0 bd 3f 14 67 a7 3b db bf 00 34 1f 13 cb 0c b3 bf
       -0.4255159861213505 -0.07441395966380071
0005c0 a5 29 6e 3e 4c 12 e4 3f 8a 87 ce ce 6a 90 d8 3f
       0.6272336215345616 0.3838145274731849
0005d0 4a ee bf 71 fd 71 c1 bf 4e 9e 0e 77 6f 77 db 3f
       -0.13629119924722694 0.429164758936598
0005e0 61 61 15 92 50 e3 b7 bf 42 e8 9a 35 bc e1 a4 3f
       -0.09331229750148885 0.04078472284659586
0005f0 3a aa f3 be 56 15 e1 3f ec 6c aa b5 be a8 d3 3f
       0.5338548402335797 0.3071743749694196
000600 6f b9 69 c9 23 eb d4 3f 2d d5 40 40 d4 ab c2 3f
       0.326851793949479 0.14586880814901218
000610 5b 48 af a9 c2 a8 bb bf 8b 5c 50 6a 8b 5b d8 bf
       -0.10804382937138383 -0.38058743841379145
000620 50 78 c9 4f 02 3e d8 3f 2d 5a 62 b0 c8 49 d7 3f
       0.3787847308320851 0.36387841439264684
000630 03 eb 82 4c e7 d6 e1 3f d9 bd 19 a2 91 95 d4 3f
       0.5574833387721302 0.3216289599431242
000640 73 1c 25 cf 45 79 e0 3f 5b ff dc b2 a1 32 c0 3f
       0.5148037954139809 0.1265451548915689
000650 a8 86 fa 62 db d5 b9 3f 3e 4f a7 6b 1c 23 de bf
       0.10091944853277346 -0.4708930064491489
000660 a4 5b 09 a8 11 9b cd bf a2 2e 58 10 36 d2 da bf
       -0.23129482941541568 -0.4190802726377375
000670 08 3e e9 b3 a2 ec e4 bf 35 f5 62 d8 50 e2 cd 3f
       -0.6538861764801718 0.23346911016225538
000680 ee 0b 65 8e 32 de dc bf 7d a6 59 12 5f 21 a0 3f
       -0.45106185823186606 0.03150460337640213
000690 14 22 78 85 f1 e8 e2 bf 19 0c 60 9e ca 18 d4 bf
       -0.5909354788610153 -0.3140131518013632
0006a0 e5 8f 09 31 8a 1a d0 3f 45 0b da 00 be b9 ca 3f
       0.25161986149600885 0.2087934021147594
0006b0 6b b3 28 a6 b1 2e c9 bf cb a1 b1 87 44 17 cb 3f
       -0.1967374860118086 0.21164757371594897
0006c0 6d 9c a7 77 b0 06 e6 bf 78 c7 e8 fc ad fd cb bf
       -0.6883165680891473 -0.21867918824278454
0006d0 c6 5f 21 5b 2a 22 c9 3f 74 fc 79 44 8e 92 ba bf
       0.19635514688229544 -0.10379876300611263
0006e0 80 dc 6e d2 a0 a3 bc 3f bc 6c 7b 91 0d bb d3 bf
       0.11187176835561452 -0.30829180915106824
0006f0 79 1a e3 5d fa 48 d4 3f fa b1 05 e4 c3 fe c5 bf
       0.3169542233339722 -0.17183731683634546
000700 06 66 fd f4 41 14 dc bf 58 82 fa c8 de bf c4 bf
       -0.4387364284972083 -0.16210541547208623
000710 9a 5d b8 07 2e 75 d3 3f a9 dd 6b 4b ee 3a d3 bf
       0.30402708772586495 -0.300471852925933
000720 a4 a0 20 ae 16 22 c2 3f f0 f3 0c 14 0d ca c2 3f
       0.1416653013450332 0.14679110983880106
000730 e9 ea 98 68 b9 ad d9 3f 75 43 bb 61 9e fc d0 3f
       0.4012282868822426 0.26541862053004844
000740 68 93 2d 57 25 42 dc bf 74 12 ab 58 0f 4d ce 3f
       -0.44153722299079456 0.23672668294433985
000750 00 a7 a9 65 ba e3 ad bf 45 a0 81 92 cf 06 cf 3f
       -0.05837805262565432 0.24239535001402338
000760 de 27 d3 4a 21 94 ba 3f ae c1 5b d6 b9 b1 d9 3f
       0.10382278515604024 0.4014725297302232
000770 a3 ed 3c d7 10 ec db bf 81 06 a9 ed 1f a9 a1 3f
       -0.4362833120282749 0.0344934442150704
000780 fb fb a2 e4 92 ea b5 3f 2d b6 02 76 c2 0c d5 3f
       0.08561056215238232 0.32890378498527434
000790 f6 96 48 37 f7 49 d0 3f 13 49 81 86 fb 05 c5 bf
       0.25451450728210945 -0.1642450720560836
0007a0 03 f4 16 ac 6c 50 bc 3f f3 6e 46 2d 65 f9 c2 3f
       0.11060218049438224 0.14823593817424516
0007b0 d2 7a c5 6c 63 66 e2 bf 7c 7d ca 8f 1f a8 db bf
       -0.5749985813561926 -0.4321364311417353
0007c0 1e b6 d4 1a f0 21 e1 3f 3d 1e a1 31 b2 99 dd 3f
       0.5353928112069217 0.46250586363428053
0007d0 f9 04 8a 82 d4 31 d7 3f 5c 1d 13 88 b6 a8 cb 3f
       0.362416388969066 0.21608621258040273
0007e0 cd b8 3f 2f 06 1e d0 bf 0b 03 0f fa b9 e2 d6 bf
       -0.25183252920295446 -0.35758828563489037
0007f0 fd 43 b9 70 d8 0d d8 3f 3a 9c ed 37 ab 52 ce 3f
       0.37584506042645655 0.23689785223834453

b4 f8 [30, 1]
000000 eb 16 b3 11 1d bf d4 bf 4c a4 13 60 74 08 de bf
       -0.3241646454665516 -0.46926602728359934
000010 41 72 1f 72 3e 6c b1 bf cd 78 78 2e 8c 33 d2 3f
       -0.0680579212780197 0.2843962148489368
000020 02 a6 ad a2 92 88 d2 bf 19 86 00 d6 16 b8 c4 bf
       -0.28958574186853536 -0.16186795663183842
000030 f7 e1 b3 62 32 18 d8 bf 47 5d 32 58 02 0b 7c bf
       -0.37647685660297675 -0.0068464366514924884
000040 20 af 74 59 bd 5b de 3f b6 17 8e d0 ca dd d6 3f
       0.47434934364240355 0.357287124316254
000050 1d d5 48 bc cb 08 b7 bf 22 27 31 50 1f aa d1 bf
       -0.08997796389379116 -0.2760084422230752
000060 d8 5f f7 5c 2d e4 dc bf f7 88 20 c5 c9 2e ba 3f
       -0.4514268310426792 0.10227643072770208
000070 82 2d 6a 67 d6 e9 d2 bf d8 a2 95 39 03 fd d9 bf
       -0.2955223092946754 -0.40606766341674705
000080 d8 f2 d8 3a 5f f0 d1 bf f3 18 90 83 16 43 dd bf
       -0.2802961420709784 -0.457219723204971
000090 00 1d 97 f4 56 ee b0 3f 28 ef 7a a2 be c7 d8 bf
       0.06613677474443946 -0.3871914469452684
0000a0 2e 4d c5 ee e5 28 db bf c4 84 5c f2 54 2f d4 3f
       -0.42437122647716563 0.31538890522103835
0000b0 ec 83 89 77 3a a7 e0 bf b8 4e 14 25 82 44 d2 bf
       -0.5204136213980042 -0.2854314195730967
0000c0 75 fc ff af 29 6b dd 3f 7c 85 87 34 d7 c8 dd 3f
       0.45966570079321595 0.4653833401663048
0000d0 b0 19 b0 e5 69 cb e1 3f 9c 8b ae da 83 8d c3 bf
       0.5560807691661491 -0.15275619676421293
0000e0 c7 ec 60 98 d8 0b dd 3f 27 7b 80 19 bd 4f e0 bf
       0.45384802704547805 -0.5097337244113519

W4 f8 [30, 30]
000000 ac 79 e4 80 b4 14 d3 3f 09 bb 0d 19 d7 2c b6 bf
       0.29813873850971606 -0.08662170755063071
000010 22 e2 e3 48 22 14 d2 3f 64 08 ee 54 81 ae ac bf
       0.28247887724094956 -0.05601886903515732
000020 fc 08 4d e8 1b 4e d3 bf 47 25 1e a7 93 06 d1 bf
       -0.3016423958362251 -0.266026414109167
000030 a3 c3 f4 4a 5d 61 90 bf 84 b1 c7 45 63 ea c3 bf
       -0.015996415805776498 -0.15559044749478457
000040 2e fb da f8 5b 55 c6 bf 4c 45 52 f8 25 13 d0 bf
       -0.1744799580682978 -0.2511687207234743
000050 0c d4 32 b1 d5 f3 83 3f 2b b0 0d 5c e2 c4 d3 bf
       0.009742421598597083 -0.30889185895535104
000060 c6 c0 45 09 86 e8 c8 bf 82 65 63 50 39 9f df bf
       -0.1945960564876314 -0.4940932545701672
000070 00 3c 7e 6f 47 75 bc 3f 55 93 b6 82 11 a7 d7 3f
       0.1111645362091025 0.3695720459457353
000080 00 6f cc c1 e7 57 ae 3f 9b 3f 75 4d 6b c5 ce 3f
       0.059264414221813055 0.24039975435379976
000090 e0 5a 27 ae 51 50 c3 3f 7c 39 8c ff 7d 7c d6 bf
       0.1508886432991039 -0.35134839969477816
0000a0 30 64 1a c1 17 20 cb bf 2c 3a e9 55 ae 05 cc bf
       -0.21191689423429372 -0.21892337031245412
0000b0 73 ca c9 94 74 27 cf 3f c0 27 97 7e 42 17 dd bf
       0.24339158310938877 -0.4545446621165148
0000c0 90 15 ba 10 d6 5e aa 3f 00 26 6a f3 94 67 cc bf
       0.051504792730194926 -0.22191106687050421
0000d0 00 a1 2d c1 8a 0a a3 bf e1 1a ab f6 ec c1 c2 bf
       -0.03718980415470874 -0.14654314083437384
0000e0 a0 3e 72 fb 87 be de 3f fa bd 30 b3 70 37 d1 3f
       0.4803791003732645 0.26900880335867294
0000f0 18 8c 49 d4 c8 90 ba 3f 02 14 bf bb ca 00 d2 3f
       0.10377173598094236 0.28129833540543825
000100 14 ad f9 0a 43 d6 c1 bf 28 1e af 4e 3f e3 c1 3f
       -0.13935125385192093 0.13974753705973453
000110 78 1f 8a 23 be 3e dc bf 60 54 13 0d 50 4c c8 3f
       -0.4413295123163077 0.18982887876942112
000120 8a 67 2f d1 da cb da 3f 18 a6 f0 8f 07 8c cd bf
       0.4186923067878686 -0.23083586242982856
000130 fe 65 ff c8 9b 2f d9 bf 94 c1 62 b3 ee 20 dc bf
       -0.39353079441715966 -0.43951003568783986
000140 98 a4 97 45 82 bd bb bf 54 c1 5d 14 52 c0 d1 bf
       -0.10836042593986617 -0.2773633192910172
000150 d8 6d 24 43 e8 41 ce bf c4 bb 9a 95 36 d8 cd bf
       -0.23638633039887114 -0.23316080384162607
000160 14 e8 e1 fd 11 5d d9 3f 88 81 10 9e af 20 cd bf
       0.39630555909354936 -0.227559997730179
000170 ec 20 2e 9f 91 53 dc bf fc 0b 15 9a 23 39 c1 bf
       -0.44260063691082396 -0.13455624602838145
000180 d0 5b 02 f8 a7 75 d0 3f 26 11 e2 40 18 44 d2 bf
       0.25718116016053916 -0.2854061730979701
000190 e4 78 3d 3e 12 5d c9 3f b2 cc cf 5a d1 04 d8 bf
       0.19815280951565406 -0.37529405468303445
0001a0 a4 5b a3 76 57 61 c5 3f 98 2c 12 01 4c fa bb 3f
       0.16703313153149424 0.1092879774679879
0001b0 00 83 0b e5 f9 ac b6 3f d8 2d 62 5d 4b f7 b3 bf
       0.08857690660398632 -0.07799216298933886
0001c0 78 77 48 6f 5d f0 c9 bf 60 39 a7 80 3f 56 a6 bf
       -0.20264785703414723 -0.043626770453203845
0001d0 d2 45 bb 79 7a 0d d2 bf ae f9 63 c1 d6 44 d9 3f
       -0.28207265746922616 0.3948265923098927
0001e0 9c b5 1a 59 2e 18 d3 bf 69 5d 12 5c f7 8e dc 3f
       -0.2983508939895161 0.446225967325026
0001f0 3e 82 79 8e 6c 67 c2 bf d2 ec 10 59 c0 34 ce bf
       -0.14378125149507243 -0.23598484372073486
000200 f2 85 94 62 15 b9 c9 3f 7f 74 6c c1 5b ae d0 3f
       0.2009608012531739 0.26064199341801236
000210 0e 06 a7 65 00 6f c0 3f ab f9 5b 1e e9 84 e4 3f
       0.12838749850747927 0.6412244408564239
000220 c1 d8 59 9d f4 6d a7 bf e9 c8 a5 bc e5 5b d6 3f
       -0.04576076908863192 0.3493589727651299
000230 a4 a1 87 71 c6 32 a9 3f 68 e9 1c 26 83 4c d3 3f
       0.049215508803004654 0.30154494020430045
000240 a7 5b 40 9d dc 6f d7 3f 5b 0c 35 7e 8e 95 ab bf
       0.36620250088292966 -0.05387540140738941
000250 b8 ce ef 16 01 f4 db 3f eb ea df 8c 9c 2b da bf
       0.43676783790509033 -0.40891183621685795
000260 42 7e 94 f2 df 9b d9 bf 94 dd 6f 94 9f 0f d1 3f
       -0.4001388424821678 0.26657857414053265
000270 3e 48 72 9a b5 a2 d3 3f 1e 7a dd 61 8b b8 dd 3f
       0.3068059929147501 0.46438870007651356
000280 e0 d5 ce ec 8b 95 b9 3f 17 fb 9b 26 6e f2 db bf
       0.09993814975208393 -0.4366717698139139
000290 c9 0a 07 a9 09 4e ce 3f 07 e1 9c a9 e0 cf c8 3f
       0.23675652268692307 0.1938439205348532
0002a0 a8 7c e5 e5 47 d5 c0 bf 55 83 ef 65 55 e2 e5 bf
       -0.1315088150540522 -0.6838786116532939
0002b0 9c d3 9c c7 59 e2 d5 3f 5c 2c 19 7f a3 e3 aa bf
       0.34194035046976423 -0.0525179951333363
0002c0 70 55 36 06 71 a9 c2 bf 0c ab f9 cf 47 82 ca 3f
       -0.14579594424564446 0.2071008458618383
0002d0 ce c8 35 04 61 e0 d7 bf 5f 65 19 c5 f3 13 e0 3f
       -0.37307000552312963 0.5024355744928178
0002e0 45 1c b5 e4 c1 4c d9 3f 9f 46 b3 bd ad 34 af 3f
       0.3953098996611895 0.06094878140141912
0002f0 a5 33 d9 b9 d0 0f d4 bf 4e 97 5a b6 0c 9e c1 bf
       -0.31346529149305474 -0.13763579277036303
000300 27 80 d8 98 ec 40 de bf 40 e7 0a 98 cd 11 c9 bf
       -0.4727126591333239 -0.1958558075328316
000310 af c8 fe 80 e7 fc b1 3f 5b bf 42 2e 5a 57 cb bf
       0.07026526355074013 -0.21360327967476675
000320 d1 91 54 0c 73 af e5 bf e6 52 36 2f 56 74 62 bf
       -0.6776671639277599 -0.00225273926634838
000330 d2 0f 49 c6 90 86 e0 bf 16 90 92 8f 2d 96 db 3f
       -0.5164264557611153 0.43104113598588023
000340 c0 ff 20 e2 af 45 a1 bf e2 fd eb ea 9d 4c e1 3f
       -0.03373479495394305 0.5406026447598686
000350 b8 ef f1 89 0b 27 dc bf 57 67 ac be cd 3b 76 3f
       -0.43988312216947234 0.005428126993843061
000360 02 34 9e 2f 70 17 d3 3f e0 9a cd b2 83 fd ac 3f
       0.2983055558223101 0.056621661736064643
000370 30 f8 c2 77 55 f9 dc bf f2 35 8d f2 1f a6 d8 3f
       -0.45271813102215486 0.3851394528072368
000380 7f 4b 03 e9 1e c0 b5 3f c6 1d e1 a0 dc 2a d6 3f
       0.08496277989187993 0.3463660784804826
000390 e0 94 d1 37 a7 ed b9 3f 91 dc 23 23 88 53 d7 3f
       0.1012825499797887 0.3644733756222616
0003a0 da 9f 86 3e 00 1f b7 bf 45 2d 6d e7 95 c1 dc bf
       -0.0903167870188776 -0.4493155250572339
0003b0 1b a5 db 57 53 45 da bf 84 fd 99 f4 e7 a5 d6 bf
       -0.41048129634744307 -0.3538761032759441
0003c0 00 00 91 a5 0f 9f 1a bf e7 fc bd 6f 33 d1 be 3f
       -0.0001015523242964278 0.12037965276794048
0003d0 80 3b 15 45 7a ee 96 bf 9c 5d 49 27 fb e4 d7 bf
       -0.022394094912040696 -0.3733508952768376
0003e0 a7 da 05 1d 5b aa d0 bf f8 e5 25 0b 02 d5 b4 bf
       -0.26039769968285004 -0.08137524387520745
0003f0 a1 ab 53 e4 7c 9d cf bf 91 02 e5 8b d9 0f e0 bf
       -0.24699364804049842 -0.5019347889247731
000400 5f 5a 93 60 b9 e4 d2 3f 87 89 96 38 70 eb cc bf
       0.2952102130051681 -0.22593500865066238
000410 c4 dc 1e 82 ac 92 d2 3f 70 a7 c4 58 7d 5e de 3f
       0.2902022619923168 0.47451718968169754
000420 15 50 32 89 ff fe c9 bf 0c b9 dc d0 a4 82 df 3f
       -0.2030944270997003 0.4923488654775532
000430 1c a5 63 4f 6b ac c1 3f da 28 95 1c 50 c9 c4 bf
       0.13807431579997675 -0.1623935832561248
000440 52 70 91 e8 06 c0 d3 3f 1c 1e 0b 60 5e cb d2 3f
       0.308595397107415 0.29366263751259836
000450 f8 ef 9b ce 65 5e dc bf 48 62 c9 09 23 e7 b3 bf
       -0.4432615773837365 -0.07774561871463803
000460 a8 82 6d f5 fc db db 3f 74 45 16 f7 08 97 d9 bf
       0.4353020092731108 -0.39984344606008126
000470 b5 6f 66 08 c6 c4 d9 3f 88 45 f4 b7 35 b5 b6 3f
       0.402635105326904 0.08870254269665712
000480 60 79 cd 8c ab a5 9f bf 6d f9 d3 8b 08 3e df bf
       -0.030905418843184207 -0.48816121726112877
000490 52 f1 35 77 b3 5c 88 bf 29 9d 32 e5 bd 6d dd bf
       -0.011895563197633994 -0.4598231065997021
0004a0 cc f0 2d 4f b5 65 cd bf 80 11 6d c2 16 d4 b4 bf
       -0.22966638914284088 -0.08136121985177702
0004b0 00 69 32 1c b4 e9 77 bf 08 9b a6 ff 41 ce c4 bf
       -0.005838111453295491 -0.16254448874425287
0004c0 d7 49 9f e7 19 ec c1 bf 23 6f 58 78 10 9b bf 3f
       -0.14001773652724012 0.12345984399911152
0004d0 e2 00 cd ec d3 20 c5 bf f2 e1 b4 64 56 45 d1 bf
       -0.16506432592905812 -0.26985702356935726
0004e0 48 34 08 c4 a7 e1 c5 bf 9b 6a 77 90 aa 99 d6 bf
       -0.1709489543140157 -0.35312904460958244
0004f0 99 ec 54 f6 95 82 cf 3f ce db 42 d3 cf 9e dc bf
       0.24617266204754598 -0.4471931040856675
000500 0d 1d de 22 7d f7 c5 bf e8 c3 83 1f 6a d1 b6 3f
       -0.17161525919457468 0.08913291234399845
000510 b9 c9 f5 55 2a a8 d6 bf dc 2d a8 2c 66 c8 d1 3f
       -0.35401399988691257 0.2778563915350938
000520 40 36 d8 80 df f8 cd bf 4a b5 3d d3 ad 41 da bf
       -0.23415750304450178 -0.4102587283039908
000530 60 dc 43 27 7b a0 9e 3f f7 db a8 7f f6 a2 d1 3f
       0.029909061690855387 0.2755714651752323
000540 76 4c de 11 ae 2f d8 3f c4 71 6c 66 59 12 c1 3f
       0.3779101538177153 0.13337247372773053
000550 98 70 3e 48 7f ea db bf 88 88 26 dd 63 e6 d5 3f
       -0.436187573004426 0.34218689533930347
000560 8e 8c e0 af 07 f2 d7 3f c0 ea 82 4c 55 77 d2 3f
       0.3741473405409089 0.28853352042976255
000570 6c 7a 72 90 ef 53 db bf 92 4a 71 22 ba 04 d9 3f
       -0.4269980345360753 0.39091351855783174
000580 b7 36 2c 89 1a 0f d7 3f 90 39 05 83 02 1b ce bf
       0.360296853978848 -0.2351992740390867
000590 ad 03 39 ec 05 40 b1 3f 00 35 59 6f 7a 1a ba bf
       0.06738316552311004 -0.10196652620762237
0005a0 10 40 ec e8 37 7e c3 3f b5 74 c8 fb 1a 53 c0 3f
       0.15228937981783064 0.12753617567151357
0005b0 6b 7e 58 06 56 72 c6 bf 1d 1e 65 be 9a 36 d0 3f
       -0.1753642588600884 0.2533327922178346
0005c0 ac b9 b1 a5 f0 2a e0 bf 48 91 38 2e 1f 46 b1 3f
       -0.50524170267254 0.06747622374002049
0005d0 6d f2 4d f9 7c 9d b6 3f d0 f4 ea b2 4d 71 c7 3f
       0.08834057890448728 0.18314524875851257
0005e0 c4 76 d9 74 db cd bc bf 37 37 56 87 7b 63 de bf
       -0.11251613238115526 -0.4748219319961779
0005f0 13 2c 3e b6 d8 20 d8 3f 78 7b 04 ea 30 71 a7 bf
       0.37700479313997554 -0.04578545433672948
000600 dc a2 e0 96 df 92 d4 3f 40 63 ea 98 21 5b d8 bf
       0.32146444067124746 -0.38056220944558916
000610 9a 08 80 62 51 09 d8 3f eb f2 7a 47 e0 3a dd bf
       0.37556872004655306 -0.45671851139540703
000620 68 21 5c 6d 26 11 ca bf 55 2f ac c5 0e cb d0 bf
       -0.20364837970579264 -0.2623936586758096
000630 99 b8 24 04 8e 59 e2 bf 08 1a 92 34 e3 de d4 bf
       -0.5734319764067265 -0.32610397466524477
000640 b0 ec 90 cf 75 4a ba bf 27 a4 de 1a 04 8f db bf
       -0.10269867246181508 -0.4306040060424174
000650 41 68 53 47 6b ed c3 3f 54 c1 c1 bc 44 bd cf bf
       0.15568295462327522 -0.2479635163940751
000660 be 12 86 77 b9 c4 d9 bf f0 54 a2 63 2b 22 d8 3f
       -0.40263210937727567 0.37708554010289586
000670 f4 78 02 9e a2 95 d2 3f 64 1e 53 2e 81 31 e1 bf
       0.29038300924902605 -0.5372930435923533
000680 d4 be 53 5f 93 be e8 3f a4 eb 45 eb ec 3c ca bf
       0.7732636319978732 -0.2049842976374211
000690 32 14 bd dd a6 86 d7 3f ab ec 1d 41 92 c8 ba bf
       0.36759349493178484 -0.1046229752518452
0006a0 1e dd 75 d4 1a a3 ca 3f 7f 9f e5 91 d0 7c d9 3f
       0.20810256361048912 0.39824308631659017
0006b0 db 84 50 ea c5 5f db 3f fe 8e 21 ee af c5 d9 3f
       0.42772052652624176 0.4026908708094509
0006c0 bb 02 59 4b 51 e4 da 3f 51 c6 d9 93 ee f1 d5 3f
       0.42018539770291924 0.3428913539747543
0006d0 5f d7 11 04 dc 9c d7 3f a6 30 3e 7e 97 41 d4 3f
       0.3689489402525989 0.31650340393458476
0006e0 b7 2f ec 97 ff 1c d8 bf 6b 89 4d 05 2d 1b db 3f
       -0.37676992260162073 0.42353368299349964
0006f0 46 19 a4 f8 a5 3c cd 3f 93 77 92 da 9a f3 86 bf
       0.22841334000276897 -0.011206826968471783
000700 f4 ec 97 5a 4d e8 ce 3f 1e eb 76 aa 3c b8 b5 bf
       0.24146429942616232 -0.08484248315555162
000710 28 02 b9 89 e3 cc bf bf 14 20 5a ae 88 8d b8 bf
       -0.12422010528917637 -0.09590963608400244
000720 9b e5 92 07 54 82 a7 3f e0 77 95 02 ad fa dc 3f
       0.045916200565851294 0.4528000378830921
000730 04 3b 02 56 c6 87 d0 3f 34 2e 88 b1 01 70 ce bf
       0.25828703307426815 -0.23779317062904826
000740 8f c9 94 84 d1 58 d6 3f 8f ab e9 5a ac 4b ba bf
       0.34917104670889726 -0.10271718234586856
000750 08 d3 1b 1a c8 72 d3 bf 89 67 e4 cc 27 7d cf 3f
       -0.3038807158439316 0.24600694183828534
000760 a2 81 62 8d 9e af da 3f 5f 40 ff 9a 97 ed ce 3f
       0.4169689541540952 0.2416257387944851
000770 a0 c4 14 68 55 dc d3 bf 30 31 40 dd 32 e3 d2 3f
       -0.3103230968873252 0.2951171074535237
000780 24 22 70 44 6c 27 c8 bf 46 08 b0 75 e8 8e d6 bf
       -0.18870309201908342 -0.35247241490299464
000790 82 0a 5a ca 10 97 c0 bf 47 b7 49 88 04 cd a5 3f
       -0.12961015587287156 0.04257978595420169
0007a0 80 f1 60 be d8 64 bc bf bd 3c 7c 70 bb 66 d0 3f
       -0.11091379783551325 0.25627027497189286
0007b0 82 f5 dc 6c 5f 23 d5 bf 97 3b 76 1f f0 76 e0 3f
       -0.3302839816204469 0.514518796395225
0007c0 a7 50 61 3b cc 2c d9 3f 01 c9 7b f6 d1 75 cd bf
       0.3933592395671987 -0.2301580861599817
0007d0 95 0f 4a f1 a1 71 cc 3f fb 34 4e 2e 44 98 cc 3f
       0.22221779138282885 0.2233967996693663
0007e0 bc 08 fa 38 5f 5e d9 bf 3c c1 ca 07 1e 48 d7 bf
       -0.39638500751619765 -0.3637766910642488
0007f0 00 73 cf c0 c3 c1 da bf 5b dd 93 31 ce a1 b3 bf
       -0.418076456347805 -0.0766877051390699

b5 f8 [1, 1]
000000 6a 6d 2e e0 0a 00 c9 3f
       0.1953137964854748
