NeuralNetworks_4x30/weights_4x30.npz (npz, 51438 bytes, 20 tensors)

b1 f8 [30, 1]
00000000: 5509 09d7 b907 d33f d77e 715e 4408 cd3f
00000010: ce49 a9d2 af69 a33f a589 1c27 ec02 b4bf
00000020: 0733 d5f6 11f5 dbbf ce79 afd1 0c9c eebf
00000030: e018 bf5f 9b52 9dbf 6494 f42a af2d e23f
00000040: e01d ae36 ae2f 54bf 7d78 79a2 2410 c3bf
00000050: babb faba 4bd2 dbbf eaee 20c2 2489 dbbf
00000060: 55b2 217c 079e cb3f 5569 64f5 100d d23f
00000070: c041 8b04 4600 d9bf e073 c882 32d1 c63f
00000080: 9e7f 3029 2522 d83f c352 6e77 2f54 e63f
00000090: 0019 b450 eac7 dfbf ce26 5bf6 5556 b03f
000000a0: ad4d f0e3 2265 ef3f 0f1c b9ba f21b d03f
000000b0: a341 742d a00f e63f ac29 bb83 d2c4 e13f
000000c0: 5b8f 84b0 e1c8 65bf 206f 88e5 b458 a6bf
000000d0: 8099 204b c053 dfbf 43fe feb9 f578 adbf
000000e0: 001c 1616 caa6 e83f 88de 7b4f dc76 cdbf
0.29734655379811176 0.22681479083529751 0.037915701356400086 -0.07816959338064196 -0.4368328962780627 -0.9565490813654891 -0.02863543292894455 0.568076690575833
-0.0012320710472709592 -0.1489301484425062 -0.43471043834409395 -0.4302455802714876 0.21576016961207026 0.28204750026784114 -0.3906416935324408 0.1782591951931911
0.37708405516058885 0.6977765400539159 -0.4965768612022572 0.06381737961342113 0.9810957385947653 0.2517058204143163 0.6894074332977208 0.5552761624215257
-0.0026592643736353234 -0.04364552785793152 -0.4894867643037273 -0.05756347556552701 0.7703600341200172 -0.23018983727500975

W1 f8 [30, 2]
00000000: 26cc 4596 d99c d23f 3d96 ebca c41a de3f
00000010: e48d 66c0 e605 e4bf b819 f1d7 1ffa ddbf
00000020: 67bb 0f07 e726 dc3f 14cf 8542 eeb6 da3f
00000030: d5c7 9845 494a f33f 02d0 33de ca1b e23f
00000040: 208d 9f4e 3fbf d1bf 41b4 ea29 d729 dd3f
00000050: 91aa e2f8 4b0c ee3f 3d69 66d8 77b8 da3f
00000060: 58da 63df 5a0b ddbf 7caf 194c e6c9 d9bf
00000070: b8c5 7a86 818d e23f 6d25 fb02 2597 983f
00000080: 8894 1d5d c856 e33f eae3 091e 0ab2 c83f
00000090: acff edde 87f2 dd3f a9d2 c74b 73e9 b7bf
000000a0: 0e45 e51f 23e4 d23f 7450 b3f6 ac49 debf
000000b0: a0e9 d720 49f9 c83f f05f 88a2 4c72 a53f
000000c0: 2498 8270 4fb5 d63f 7a88 6289 f98c dcbf
000000d0: 886e 3291 b2ff b53f 3af0 3946 8c50 ddbf
000000e0: c2d6 4fa9 afbb d0bf 2c6b 927f ed53 c63f
000000f0: 0cc3 09ff 75bc d43f 0872 8170 617f a6bf
00000100: 6fe1 8087 4ad7 c9bf 0dbb ec78 4fd2 d3bf
00000110: 7402 5eae 4505 e6bf daa9 f63c 25c9 e6bf
00000120: 1e0c 9816 6c4f e63f 5c4c 01a4 aeed df3f
00000130: d204 729e 433a cf3f fbe5 528a 0892 d1bf
00000140: 198d 6f55 61bd f1bf 90a8 3fdb 7e4f e0bf
00000150: 6aa2 ac3d 131c afbf 219b d281 56f9 9a3f
00000160: 6e20 6d2a e159 e5bf a308 46e1 8154 d0bf
00000170: e40f 3c98 0cea d6bf 028a 043e b75c d3bf
00000180: 8a3a 0bb2 1714 d13f 25f6 d7fd 81b4 e0bf
00000190: 00a5 1a87 5ef3 cdbf dc41 8370 89b1 d2bf
000001a0: ce17 1e03 2176 d8bf 9490 e766 b137 dfbf
000001b0: 8994 d30d 20e3 c8bf 43be 5e7e 028d cc3f
000001c0: 757e 6676 d89c e8bf 3fde 78b5 eb29 debf
000001d0: 3375 9694 d0de cf3f 907a f2f4 8284 d3bf
0.2908233611589729 0.470383833088224 -0.6257203824829358 -0.46839138114992407 0.4398744172057633 0.41741520401341003 1.2056362837433785 0.5658926334276659
-0.27729780843783836 0.455678740438831 0.9390010701220765 0.41750904209915857 -0.45381805243906603 -0.4029479735534023 0.5797736765436445 0.024014070803592902
0.6043435877478638 0.19293333498697446 0.46792790194012457 -0.0934059200297478 0.29517438998034684 -0.47324680415955034 0.19510759452516613 0.04188765987436216
0.3548163031322267 -0.4461044160508504 0.08593288464401827 -0.45804125650443306 -0.2614554551540601 0.17443627099131598 0.324002741871525 -0.04394058702812137
-0.201882663883008 -0.3097113305001791 -0.6881435781106817 -0.7120538893407755 0.6971950951850692 0.498881969605639 0.24396558033553234 -0.2745381689852306
-1.1087354028066498 -0.5097040445518974 -0.06076107147084005 0.026341773675677808 -0.6672216251981931 -0.25515791892406464 -0.3580352293649851 -0.30253392273348834
0.2668513525685873 -0.5220346410639577 -0.23398954007033268 -0.2920859907872264 -0.3822100191540557 -0.48777422951958127 -0.19443131137009953 0.2230532757798632
-0.7691461861140413 -0.47130863878144064 0.24898726706752825 -0.304962863165124

b2 f8 [30, 1]
00000000: b151 4e7c 9ee4 c53f 715f 05b7 e0c6 d73f
00000010: 7b0a 3816 9210 d9bf ffad a858 e41c c6bf
00000020: 07c6 39ef 7dcf d3bf 3f05 b6b5 e2cd c23f
00000030: 5249 75a4 c430 e33f 48bc 4fff a752 bfbf
00000040: dc58 9c83 ce9a cb3f c33b 0904 d6ff c4bf
00000050: 1bd9 a494 700e d23f e07e d189 e9e4 b2bf
00000060: 6d9f 5050 806a d03f a04b 3cfe b71a d83f
00000070: 54dc 1541 c828 dfbf 5b4b 3b94 0ccb d9bf
00000080: e750 21b9 293d a9bf 74b0 0f5f dad2 c23f
00000090: 567f 81bb 3bd2 d23f fb57 e320 4663 e03f
000000a0: 6157 0004 78d4 ce3f 06f7 9c01 8174 dd3f
000000b0: ac8d 3391 97a0 c8bf 94e1 007f 7e93 c4bf
000000c0: 9c24 3d9e 4f20 cfbf a464 5341 3b2b d4bf
000000d0: ac95 a75a e1af da3f 857a ad53 d604 a9bf
000000e0: 8353 6c4b 3127 cabf b621 6338 3019 b63f
0.17103940076471028 0.3715135371507961 -0.3916363923055212 -0.1727567131905374 -0.30953930246241196 0.14690812943084983 0.5997031414101832 -0.12235498412313561
0.21566182543091983 -0.16405749508927955 0.2821313335038142 -0.07380542387681599 0.25650031893973485 0.37663078143776296 -0.48686415058131627 -0.4030181357931519
-0.04929476151360906 0.14705972329773298 0.29408162413709726 0.5121184007973619 0.2408590335405121 0.4602358356240618 -0.19240088071738393 -0.16075116349544472
-0.24317355371957639 -0.3151386392542668 0.416984880952749 -0.04886503001647661 -0.20432106192370378 0.0863218438781875

W2 f8 [30, 30]
00000000: 6649 cf03 07a3 d63f 61ae 16fb 57d3 cabf
00000010: 4acb e633 fdea 903f 9690 1535 49fd c8bf
00000020: 138e d651 4912 c7bf fc59 607c d7ad e5bf
00000030: 2290 23c2 b070 d43f 996c b2e2 d3f0 c4bf
00000040: 5d8e c7dd 87e3 c93f 10aa 3394 8758 d23f
00000050: 4c40 8c5c af24 c3bf 5c3a 4bb7 ebdc cbbf
00000060: c872 b5ff 0fff b23f 3aa3 7a3f 943f cfbf
00000070: d09b a15d 8dbe d43f 325b 18c7 cd09 7bbf
00000080: 15ad ee48 efb3 c13f 53d9 f0c3 bf69 c03f
00000090: f365 3d1b 1f37 d7bf 9a2a 1e8d 2439 ca3f
000000a0: da7d f2b8 2016 e53f 70dc 0970 0750 e0bf
000000b0: 1a15 b04e dc07 e7bf 5be8 1034 2314 ce3f
000000c0: 48fe cb8c 2c83 b33f f023 9fb1 ca03 b83f
000000d0: 00bc a5d5 1aeb d6bf 1b62 856c de51 c1bf
000000e0: 14fe a3e8 7d85 dfbf 6033 8296 bfdb be3f
000000f0: 20e1 e1a6 c759 babf 0c46 2112 9432 d33f
00000100: ab32 5076 db6c c33f fe4c 73a8 f868 e0bf
00000110: dca5 a273 c074 a2bf 97de 26ab af5d e1bf
00000120: 882f 1a91 9677 c93f 6134 f22a 9aac d93f
00000130: b132 c779 0010 cd3f b73c 722e 5bc2 e13f
00000140: a61b 798b f906 d1bf 7095 8cd6 3930 ca3f
00000150: 7466 31c2 990d c63f 7ce3 2150 f502 a33f
00000160: e061 d91a f848 bfbf 3412 efad 2e44 b1bf
00000170: 74d2 fbc9 f136 d6bf d8c7 e094 aa96 ddbf
00000180: 4dfa bb07 830d cdbf 3f2a a543 6217 d2bf
00000190: 72ef a842 bc42 de3f 28c0 09e9 3b09 c63f
000001a0: c3f9 71d4 2e03 a4bf 66e7 eb01 1294 c43f
000001b0: 5a3a 54e8 ee8a a3bf 1cb1 6a75 d126 cd3f
000001c0: 2eaf c053 07bb d1bf d110 51cc 42d9 dbbf
000001d0: 275f 6728 4e5e bf3f ee25 2890 e73d ce3f
000001e0: a6ab 4259 9e63 e03f 9906 7044 3f90 dabf
000001f0: 154d 03fe 6522 ccbf 5c59 1252 08cf e53f
00000200: afca 6a67 f152 c8bf 65f7 15d8 b5c1 c3bf
00000210: 381d 4894 19cf b6bf 48ba cf11 973f e53f
00000220: e713 d139 70bf ce3f 08dc 1d8e 5206 c63f
00000230: 005b 523f c040 cdbf d49d 276c 44da cabf
00000240: a345 e914 257c d63f 7c7d f22d c5a2 d7bf
00000250: 80a1 b072 1900 d8bf b2ab 3d8c be2a d93f
00000260: 06f3 4363 d4ad d33f 1d29 8d62 e3c3 e0bf
00000270: 2794 1469 6e33 c43f 0631 7373 31dc b93f
00000280: 658f 965c 9fab dfbf e8f4 6e6a 760c ddbf
00000290: 9002 11f4 1a65 cdbf f4b0 c162 c828 d73f
000002a0: fcdb f002 7b13 bb3f 461e 9151 f8d6 dd3f
000002b0: 7c76 1cf1 fc54 c8bf 3a7f cf6b e745 c5bf
000002c0: 4c3f 3908 7599 ab3f d772 f82c b4ad c93f
000002d0: f05c ebd9 2e1b d2bf a811 6df4 b9f8 b93f
000002e0: c64c 43c6 7ded b53f d4d2 1933 fe36 d7bf
000002f0: 5029 2af3 2459 bb3f d096 673a f148 bfbf
00000300: 04a3 5bbc 463d d2bf 385f f389 d93b d93f
00000310: 212d 8054 d19d c4bf d16f e176 3a0a b5bf
00000320: 7265 953c 6799 d53f 18ad 0b50 0fcd c33f
00000330: 0ed6 132f 3a29 84bf 6c5b 88ee 0a86 c13f
00000340: 3060 09b2 b590 babf ffc1 44e3 e164 d7bf
00000350: 3e42 3293 c374 d83f 9c5f e5e6 15df babf
00000360: eed1 8ba0 8d7b b93f 87eb 87d8 7abd d9bf
00000370: c528 8d1d 875a dbbf 0a06 fd89 47b1 b53f
00000380: 8ddc c95f 69f5 b83f e94a d112 3fdf ce3f
00000390: 1e35 8f1e e6d2 c43f 9c01 fbc8 17ba c33f
000003a0: 805e 5155 2b7b a13f 0ac9 e7a0 a4c1 d43f
000003b0: 0e97 0358 8486 8f3f 3b66 9dad a1b7 cf3f
000003c0: 1665 1d21 1636 bebf 8090 3c8d 9822 d83f
000003d0: 9858 c45f 20da c4bf fffd 76f6 83ef c4bf
000003e0: c4ac 3272 1a63 d4bf b27e 94f2 a350 db3f
000003f0: 58ac ab5b 08d3 df3f 263a bd23 8118 dabf
00000400: 544c be1d a020 ddbf 0034 418d 6bad 5c3f
00000410: 5c89 ed0a abe1 cb3f 18fd 5156 e506 b13f
00000420: 941e 14b6 0316 d5bf 1107 b16c 265e d93f
00000430: 3080 52f1 7a8d debf e553 db37 3db5 d03f
00000440: b0f7 97f0 29d1 dbbf 1605 3911 c2cf dc3f
00000450: c811 4f29 dae0 bd3f 5441 eba7 694c dcbf
00000460: 2973 f14d b9c7 e03f d940 2552 68c1 d3bf
00000470: ef35 230f aeca d7bf 129e 1197 0738 b43f
00000480: f0dc d51d a04c dcbf fc16 5304 efa1 c4bf
00000490: c654 6419 a2d6 d6bf d049 2210 92b0 c23f
000004a0: 405f ec58 f5b7 d33f fc6c 36b0 e199 c7bf
000004b0: 7ad7 e49e 65a7 e03f 50ef 2f8b abe5 cebf
000004c0: 1406 6b7e 81df c1bf c9f5 5ca0 4f87 d4bf
000004d0: 7cc8 f9a3 70f6 933f 230d 701b f84a dcbf
000004e0: 28b6 28c0 f47f b6bf 67d8 85fe fb8a d53f
000004f0: 624b 80bd 61b5 ddbf a26a 9339 ec91 a23f
00000500: e0b9 9acf 53bd 933f 9c70 1e18 f5eb c5bf
00000510: 8d94 6d55 df14 cd3f d66a f7cd fffb cebf
00000520: 38a9 d053 ecc9 b5bf 88be 4542 d878 cd3f
00000530: 507e 7aa9 41d8 d73f 4c6a 5dad df7d d83f
00000540: f4f6 499c 5843 c6bf 0d53 1558 dc89 c9bf
00000550: 2750 1974 4386 bc3f d958 e8e7 0792 cbbf
00000560: cb21 73b4 e824 c83f b27f b02c a4f8 e23f
00000570: 4459 bd1c cb5e d1bf 48f0 0bd1 df2a c83f
00000580: d6f2 f4f1 fde5 dbbf 7099 5b0e acd1 da3f
00000590: 1ad3 69dd 2ece cd3f 0cf8 0c79 6a73 d9bf
000005a0: c8ef 5dd8 9635 d1bf c3d9 b4b9 7fce cdbf
000005b0: e058 c1c8 59df d83f 31ca 59f1 f122 d9bf
000005c0: 16ad 22d6 409f d3bf 75ec 1c58 f636 e5bf
000005d0: 48a4 60b0 736e d93f 9969 c521 e7a9 c43f
000005e0: cf78 10b8 9cfe c4bf 15d2 2843 1ec8 d2bf
000005f0: 401b 1153 71df 8d3f bee4 59cd 7e73 d13f
00000600: 5d52 ded9 abf1 b03f 6cb0 4407 0282 77bf
00000610: f800 5828 7282 d63f cf76 0ec0 4d5a d93f
00000620: 85e6 35fa 3372 d13f 9d45 2ffa 689b e03f
00000630: bcc7 bdcf 53fc d5bf 724f e9e2 cb8b ddbf
00000640: 806d 0f47 b79f e63f b748 7085 b361 c4bf
00000650: c631 8fd9 ec90 d3bf e68e 0b37 1e06 cd3f
00000660: 0ace 1b71 a750 ca3f 002e c468 901e cdbf
00000670: 78c9 2f14 f91c d7bf 51d7 14d7 591b d73f
00000680: 6259 46a4 4a5b 8a3f 194c 756f 0ec8 c8bf
00000690: c4b8 46c4 d4b1 dbbf 801f d160 4ac3 bb3f
000006a0: 64b8 817b 4471 c93f f0b7 7d67 2788 b03f
000006b0: 9087 7a5a 6c92 b1bf 24d4 0e26 be97 d5bf
000006c0: 547c 6d97 8e4c d3bf 3001 c556 3339 b9bf
000006d0: 6e12 edf3 e543 dc3f c65d 8865 da6f d73f
000006e0: 52cf 4c67 e4c1 dcbf b277 a1ea 3b91 d03f
000006f0: ecef 02c3 adc3 debf 069f d1ba e39f d93f
00000700: d4e2 ba15 35fe c13f 40e2 c20d 9af5 8f3f
00000710: 008a 2966 5c61 793f 2071 565f 19d0 a2bf
00000720: 4417 4d63 4a7b d9bf 5455 78a7 2dc5 d0bf
00000730: 449e e2bd f9c3 c4bf dc29 ed77 9d70 cfbf
00000740: 5c47 5085 0282 c0bf 60a0 63c4 278b b6bf
00000750: 382c 5d83 3aa3 d83f 4c81 c846 17f3 cb3f
00000760: 10d3 0cee 0c6d dd3f 8825 b998 4a55 bbbf
00000770: 50a8 4bca cf92 cdbf 9c3d 3b7c f434 d83f
00000780: 666a 0750 bf75 de3f c161 a907 2c03 bb3f
00000790: f69d e2e2 1b02 dabf cbf1 172b 0672 dd3f
000007a0: f6a6 34ae 0933 d5bf ea1c ba28 965b d2bf
000007b0: 92db e831 fee5 d53f c8e8 0dc8 5c46 d83f
000007c0: 87f0 5b3d 4489 dabf 09c0 0d2d 9b01 afbf
000007d0: f098 5aa2 d583 c8bf c029 488f 0417 aa3f
000007e0: f1c6 1348 b749 da3f e0c7 d1b7 1fc3 b53f
000007f0: 3423 b01c 8bb4 d9bf 86e0 9c54 57f1 d23f
0.3537004029468761 -0.20957469711480584 0.016521412175005502 -0.19522967426303656 -0.1802455567932247 -0.6774709157205616 0.31937807997587886 -0.1635994774740979
0.2022561867625993 0.2866534182818734 -0.1495570375341252 -0.21767946672339888 0.07420444481744959 -0.24412777995646612 0.3241303839080816 -0.006601146525574463
0.13830367146633962 0.12822720591948186 -0.36273934993877716 0.20486885920066272 0.6589511501551286 -0.509769171548113 -0.7197095429297946 0.23498954813277603
0.07622030675337854 0.09380785786119339 -0.3580996595764532 -0.13531093882444697 -0.4925226947670762 0.12054059433485298 -0.10293243240619576 0.2999620606470621
0.1517595603658227 -0.5128138818785428 -0.036046995273249144 -0.5426863043603188 0.19896204075882573 0.401159803332865 0.22705083795735484 0.5549751193192581
-0.2660507070581225 0.2045967385867402 0.17229005796507446 0.03713194468668399 -0.1222071710157091 -0.06744662996704492 -0.3471035454270244 -0.4623209432494355
-0.22697484853411468 -0.2826772366139813 0.4728232050872442 0.1721568000680247 -0.03908678382230193 0.1607687482244799 -0.038169351444697866 0.22774713738670804
-0.2770403211495588 -0.4351355548171912 0.12253273474140923 0.23626417673976569 0.5121604674690061 -0.41505414660796586 -0.21979975607846627 0.6815225222551748
-0.19003121900239736 -0.15434907008232837 -0.08909759397657957 0.6640124652747739 0.24021723578530826 0.17206794680871007 -0.22853854267005858 -0.2097859886264205
0.3513272003375169 -0.369309706564273 -0.37500606727783037 0.3932339067020464 0.30748471921815257 -0.5239121365387153 0.15781955843809323 0.10101613110163407
-0.4948500065022386 -0.4538856543911849 -0.22964798848444845 0.3618641819400772 0.10576599904821643 0.46624572721018287 -0.19009362957961062 -0.16619580043970378
0.05390516019235622 0.20061351962876614 -0.2829091194266331 0.10145151345665815 0.08565507975008577 -0.3627315043479886 0.10682898460996637 -0.12220676113028195
-0.2849900092538038 0.39427793952698975 -0.16106621385584055 -0.08218732263907148 0.3374879924427524 0.15469542892911003 -0.009844259797755075 0.13690315863706404
-0.1037705955180861 -0.3655323714656617 0.38212670683518357 -0.10496651541813978 0.0995415226896694 -0.4021899332580507 -0.42740037809256776 0.08473631972176335
0.09749468411051705 0.24118793886972092 0.1626861237731782 0.1541166049337449 0.03414283195951118 0.32431903565806464 0.015393289504980891 0.2477914903382031
-0.11801279362170577 0.37711156647333866 -0.16290669132348934 -0.16355943235792833 -0.31854878570693423 0.4267969006486779 0.49725541069228063 -0.40774563303139855
-0.4551162996733116 0.001750330954581658 0.21782434495532754 0.06651147229603216 -0.32946865826714 0.3963714658203666 -0.4773852688467768 0.26106195883522637
-0.4346413468882657 0.45018054658801654 0.11671222218053068 -0.442163862212529 0.5243803522422229 -0.30867965719245444 -0.371745600493198 0.07897994459346361
-0.4421768466340401 -0.16119182311211222 -0.3568501708953814 0.14601350581922512 0.30810292896193303 -0.1843835935986603 0.5204341987034546 -0.24138397499325004
-0.1396333567882243 -0.32075873051129783 0.0194947815020403 -0.442075754923467 -0.08788995448477321 0.3366079316687149 -0.464195666370122 0.03626955225782537
0.01927691416374866 -0.17126334836655566 0.2271994750146046 -0.24206540638882384 -0.085112352812449 0.230250389442052 0.37257424879678513 0.38268272333303766
-0.17393024092955722 -0.19951967526380834 0.11142369827695174 -0.21539400886167107 0.1886263733961314 0.5928517220345297 -0.27141073042493624 0.18880841929774506
-0.4359125960216209 0.41904736902360806 0.23285470782470769 -0.397669428075347 -0.2688958275755309 -0.23286434714982648 0.38863224606519786 -0.3927578789654574
-0.30659504806199445 -0.6629592629391384 0.39736644958845035 0.16143502377492494 -0.164020147204559 -0.29346424635449014 0.014586339328287345 0.27267427495787533
0.0661876112847692 -0.005739219592481342 0.35171178760357646 0.3961367011596452 0.2725954001867666 0.518970955507189 -0.34352584159125477 -0.46165749701798753
0.7069965732475083 -0.15923160567814929 -0.30572053190260495 0.22674920737983156 0.20558636687165716 -0.22749524226706797 -0.36114336940149583 0.361044368782463
0.012869437349576077 -0.19360523645681907 -0.43272895019152835 0.10844864715283897 0.1987691500721126 0.06457754398954285 -0.06864049157095864 -0.33738664356798354
-0.3015476683412477 -0.09852906101605607 0.44164418049721277 0.3662019721536719 -0.44933424079794293 0.258864382869315 -0.4806932835015221 0.40038388484980236
0.14057029305492696 0.015605166954956506 0.00619636624705544 -0.03674392021932449 -0.3981500596749934 -0.2620348105859496 -0.1622306992696726 -0.24562424045355058
-0.1289675856538065 -0.08806084198624964 0.3849626810885556 0.21835604625904137 0.4597809147556271 -0.10677019337267357 -0.23104283693038719 0.3782321179578163
0.47593672576264223 0.10551715075542402 -0.4063787189174656 0.4600844784579549 -0.33124010097763745 -0.28683999993559317 0.3421626555822793 0.379294581761894
-0.41462808601478013 -0.060559128999443664 -0.1915232699149736 0.050956861963715294 0.4107492641333997 0.08500860440997782 -0.40164449502531174 0.29598029387444347

b3 f8 [30, 1]
00000000: 302e ed20 8477 b03f ee36 cf7d 32b2 aa3f
00000010: 3a11 ef7e 9255 49bf 8af4 4275 fe19 9f3f
00000020: c84f e54d 830b 8cbf 4f87 e0d2 8dbf d4bf
00000030: d03e a8c0 21b5 cb3f b328 a126 f01f d13f
00000040: 43bf 962b 39d0 d43f 81eb 3477 f267 afbf
00000050: 0bf3 c53a d20a c23f da40 7867 3b2d d13f
00000060: 3333 a046 cd85 c13f 639b 5764 65c8 d9bf
00000070: 4492 a0ab 3654 c4bf 9a79 dbd5 5730 ad3f
00000080: 6894 7551 1248 d9bf 0a31 1a39 16a1 d63f
00000090: be87 c83a 4874 d8bf 4009 2092 09be dfbf
000000a0: d488 b881 8869 c0bf 414b d4ef aebe d43f
000000b0: a306 b74a e623 e13f 3d26 20c6 5031 d6bf
000000c0: 781c 9366 24fe c73f ec70 2239 85a0 bb3f
000000d0: 6a96 a870 6a79 e0bf 5d61 e7e1 094b d0bf
000000e0: e1a3 7941 f2cd dabf 2cb1 f570 aa29 cc3f
0.06432367137784278 0.05214078698882739 -0.0007731404601761035 0.030372596652104046 -0.013693834128083796 -0.3241915282579741 0.21646520526018387 0.26757434627928517
0.3252089429542943 -0.06133992867622507 0.14095523710047816 0.26838574509112123 0.13689580868267512 -0.40285620497745905 -0.15881999378429346 0.057009453635816956
-0.39502389864930487 0.3535819585456613 -0.3820972990089294 -0.4959739615443546 -0.12822061857247624 0.32413838787867993 0.5356322726513166 -0.3467599806614066
0.18744330414321886 0.10791809697042581 -0.5148212623941621 -0.2545799928752979 -0.4188199653058842 0.2200215388833241

W3 f8 [30, 30]
00000000: 5073 883b c7a7 dcbf b24b 464a bcb9 d03f
00000010: 149c 9016 5b04 c73f 7a1c 5678 5c9a d6bf
00000020: 584f 85d3 4fbd c9bf 24f1 d8f2 3c29 c33f
00000030: 0230 414f 1986 ddbf 1449 7d27 3eff cbbf
00000040: 0035 38b6 5a78 87bf b81e 81c7 4a9b c33f
00000050: beac 485c 7a89 d4bf a0a5 fc5a 9644 9b3f
00000060: 6022 31e5 3802 dbbf fe53 5eb6 988b d1bf
00000070: 0251 53ed 8879 d1bf e01b 594e 1192 9fbf
00000080: 30ce 0e27 145d da3f ec80 a645 1f1e c1bf
00000090: ce64 7997 9e6f d1bf 00e7 bdba b1fc a4bf
000000a0: 4027 afca 661f 9cbf 6031 d665 d473 bd3f
000000b0: d224 9907 910b dd3f 00a8 99a1 e629 4bbf
000000c0: b68b 6e93 64b1 d3bf 700f 756b 2152 bdbf
000000d0: 38ea 17f3 eac7 c4bf 6ed8 5fd1 feaa dfbf
000000e0: 4ccc 156a 5138 c73f 00d1 8cc1 9fb7 7b3f
000000f0: 9312 4239 ff9c da3f 999e dd20 a8b1 c0bf
00000100: 7548 9b22 8cbd cc3f 7f92 5bf3 72fa ab3f
00000110: 3395 21ee 3b56 aabf e436 ae58 eab1 c83f
00000120: f239 77ab 91d5 d23f 001e 7cde 97ad b13f
00000130: 448d fa01 5a53 d33f 75bb 661a 323e da3f
00000140: e362 c2b8 cf53 b8bf a47b cadd 0a3c cc3f
00000150: ac6d 76b7 5085 90bf 4ed4 49be abb9 e5bf
00000160: 8eb2 3303 e88e da3f 258f 4bae cb2e d4bf
00000170: f3c5 e2cc 0bf8 b53f 24bd 9e84 3a7f c8bf
00000180: 1b52 4de1 196d d0bf 8193 0f3c ba2e b13f
00000190: a84e f6f8 429c d3bf 39f7 a105 c2c8 d63f
000001a0: 1824 df21 0f77 d63f 2c9a 511f d4a0 d9bf
000001b0: a25f 9aae 90c1 de3f a1a1 6e04 cd68 d03f
000001c0: f180 5a9b e712 bcbf 46fb 2633 0439 b6bf
000001d0: 1da3 1c8e 8760 b3bf 943d 1dbe aa21 d03f
000001e0: d98b 54cb 4e24 a0bf 72fb e92a 3872 d63f
000001f0: ef58 e6ca fd16 ba3f 0791 f0ac 4cbc d0bf
00000200: f5fb 876c 496d dfbf 4d29 6812 c59e dcbf
00000210: 1aad 66b1 c37f b13f 027a c9c0 beb2 dfbf
00000220: 9035 6d7d 8089 c7bf 11db 5226 2681 bd3f
00000230: a8bc 3fb4 e6b2 e03f 60b2 fa7c 58dd c3bf
00000240: c90e 564a 6eb5 cebf e58e 4dd0 3420 ae3f
00000250: 38e2 0ac1 6b8e c83f 2d9e 2e10 55a4 df3f
00000260: 6878 32bb 9130 d13f aa84 c173 5b49 e0bf
00000270: 1228 1a87 280a d93f 7f72 c9f7 3d1a b1bf
00000280: 0d29 2581 7f81 dabf 6374 5bd2 0cb0 d83f
00000290: c02c fec9 f8e9 bdbf c4ff b7da 2942 dbbf
000002a0: 4c45 3bf0 4d28 c03f 51d5 eb56 3468 9b3f
000002b0: e92c 55b8 25a1 c7bf ea5e e6d0 7c8e b23f
000002c0: 6406 d315 a3d3 d53f ed66 5596 88fd dfbf
000002d0: 613e e228 c2ca b9bf 8ae2 faca 8ab9 c73f
000002e0: 0c51 ff0e 403b c3bf 8b51 a32d bf18 c6bf
000002f0: 474a 16a6 be96 cc3f f7c7 4560 ac5f cf3f
00000300: d77a 0053 f326 a8bf 80e1 826c b31a b7bf
00000310: fdd8 0b71 064b b43f 11f0 4cd1 deb0 dc3f
00000320: 1093 a035 b521 cebf c0db 9f45 e2ca 8ebf
00000330: e92f d379 a946 dabf a98a 1f91 4819 c13f
00000340: e8aa 114e 46c1 c33f 7e93 e691 f536 e1bf
00000350: 0177 1775 6d09 ccbf 9ed0 2970 be15 cf3f
00000360: c5bf 9eab a442 6e3f 90c3 803e 85d1 a53f
00000370: 97e3 d497 a418 c03f d509 e7a0 8791 a43f
00000380: a0a1 0ee3 7036 c0bf de9c b7b7 bae4 d33f
00000390: f444 f831 8494 dabf f37e 060f 9d8b d53f
000003a0: e8d1 3703 2e74 cc3f 3ff2 320c 74e9 dc3f
000003b0: 0ffe 9e58 1efc e23f 423b 9064 f6ba d9bf
000003c0: b90d 7f6c 6dc8 bdbf ce03 250a 7e85 ce3f
000003d0: 39e0 28c8 70d9 ddbf f83c cd1c b6ce 833f
000003e0: c0c2 c03e b49a d73f d9f3 4855 61bd ba3f
000003f0: fe3f 5246 a679 c63f a838 f610 5aae c43f
00000400: f5bf 0973 6282 b43f f34a ea69 44d2 c2bf
00000410: 2dac b42d 4d9c c33f f8aa 17b5 5920 b73f
00000420: 9cf6 be78 5722 da3f c62f 5300 281c a6bf
00000430: cadf 432a 89aa c53f 98bc 17eb 1f6b dcbf
00000440: bd6f 3f0a 0009 d93f 56e1 8134 b14e aa3f
00000450: 1228 dbc7 9311 b5bf a454 a10f abce abbf
00000460: 7bf6 caa7 f086 d93f 3dec c390 b6b1 d5bf
00000470: b086 dd85 7f10 aabf ec9b 9bfb 09db c4bf
00000480: 86e4 ab95 da2a d4bf 5bf2 b233 bb3c c43f
00000490: ae4b 3831 db55 de3f 0683 5ea2 6cdd d43f
000004a0: 4d57 8990 3c45 bd3f 080e ebf5 a601 bbbf
000004b0: ba81 f068 35b1 c0bf 2fa5 b6de 7caa dabf
000004c0: 811c 0b06 806e d13f a881 651c e367 c23f
000004d0: fe0d 4f39 fe70 73bf 3cdf 7e47 449b d33f
000004e0: 4c85 bb16 acf8 d0bf a02d 1be6 2aba d2bf
000004f0: 283a 69bd 463b debf 1843 a3d5 7760 c23f
00000500: e1e8 f117 49d9 d13f 32f8 540e e8e6 d4bf
00000510: d43a 2ea0 ba7d db3f 9504 f0a8 562b c03f
00000520: 7ea1 b9da c4bc d83f 7824 1fe2 0600 95bf
00000530: 041d ddba 4d89 46bf d4ef 5914 2d6c c8bf
00000540: 6a50 7a58 fc15 d33f 41ce 19b7 2b8e 31bf
00000550: 2327 3590 5158 c33f 4f8a 1aac ee19 a83f
00000560: 6a19 8837 fcf2 d13f 7cb2 301d 5258 d23f
00000570: b47e 5a44 cdc9 dcbf 7b78 c85e a8f0 cabf
00000580: 3663 8dc3 f249 cebf 35d3 9b0c a62c a43f
00000590: 7768 6190 88f3 c1bf c885 254e e73c b8bf
000005a0: 90e0 b1d7 760c ddbf 166f 4323 46ea dabf
000005b0: 8997 fde1 5e19 dcbf 0034 1f13 cb0c b3bf
000005c0: c3dc 507d 65ad e43f 8f90 6e7e 6040 db3f
000005d0: 96e2 472e e0c8 c2bf 4e9e 0e77 6f77 db3f
000005e0: 0d72 307a 8187 bcbf ef24 6b8f 3ab6 a43f
000005f0: aaa8 9425 81db db3f ec6c aab5 bea8 d33f
00000600: 90c6 ecf5 e627 d43f 6551 bb68 1752 c43f
00000610: d4b5 e561 c5a8 bbbf d6b9 8869 6207 d8bf
00000620: 8870 b5e2 1ada d83f c76e ba55 fca5 d93f
00000630: 78a0 30e0 5663 e13f 00ae 1983 2de7 d53f
00000640: 0ded ce66 4d79 e03f 47ca 3526 d285 b53f
00000650: a886 fa62 dbd5 b93f 3e4f a76b 1c23 debf
00000660: a45b 09a8 119b cdbf 2de1 e6eb 9a1a dbbf
00000670: bc52 6b27 68db e3bf 5522 1415 ba27 cc3f
00000680: 6a10 30b0 8d0a dbbf 05e8 56a3 0444 993f
00000690: cd40 747a 7917 e2bf 60ce 6578 8b42 d4bf
000006a0: 9652 0d1b fbac cc3f 450b da00 beb9 ca3f
000006b0: e480 51bf 0766 c6bf 979c 7589 6544 cb3f
000006c0: e79c e21b 8ffa e5bf 78c7 e8fc adfd cbbf
000006d0: b323 3587 ec29 ca3f cf6e e3ea c30c bfbf
000006e0: edf5 0775 9b9e be3f bc6c 7b91 0dbb d3bf
000006f0: f15b 7a9a 1d29 d43f 3ae6 53f4 bc35 c7bf
00000700: 0666 fdf4 4114 dcbf 0d83 5db6 24a3 c3bf
00000710: 03e8 2858 85cb d33f 9fe5 e667 6b45 d2bf
00000720: f4e1 19fa 6802 c03f 5f85 4fd4 dd9b c03f
00000730: 1d97 cfca 5a97 d83f 98e5 61ad 92c2 d03f
00000740: 6893 2d57 2542 dcbf 7412 ab58 0f4d ce3f
00000750: 00a7 a965 bae3 adbf 3100 f68d c97f d03f
00000760: b931 d2ae 5095 b83f edd6 e33f b2ba d93f
00000770: f1c9 6750 cddc dcbf faf9 0710 2f4e a13f
00000780: a185 39cb 29a3 b73f d3a3 7e4a e3a3 d43f
00000790: 8b27 a4de 7294 cd3f 1349 8186 fb05 c5bf
000007a0: 6360 3ba0 a75c bc3f 7305 9963 702f c23f
000007b0: cc2f 2d20 b20c e2bf 7c7d ca8f 1fa8 dbbf
000007c0: 4c61 5aff 0556 e13f f93e 1b8a 5017 dd3f
000007d0: 2efa dc02 e2e5 d73f 5c1d 1388 b6a8 cb3f
000007e0: 486b 159b 651e d0bf 45c9 c123 768a d7bf
000007f0: ac40 7970 d80d d83f 68b2 f6c9 ba9b d13f
-0.4477403718354269 0.2613363957727258 0.17982042886544092 -0.35317146064375715 -0.2010898382965205 0.1496959863451447 -0.4613097452136118 -0.21872689178651028
-0.011460026441478366 0.15317663899826583 -0.32089098941896654 0.02662882738437633 -0.42201063520454873 -0.2741452961866456 -0.2730428998595614 -0.030830641180980112
0.41193107427827425 -0.13373175526522318 -0.27243771355058477 -0.04099040417254507 -0.027463537331448906 0.11504867063758217 0.45383096448911175 -0.0008289695862917501
-0.3077022018207417 -0.11453446267574718 -0.16235100621982368 -0.49481172987669353 0.18140618972720046 0.006766914412583924 0.4158323344384282 -0.1304216537930543
0.22453452768110407 0.05464514942813014 -0.05143916398882666 0.19292954759696734 0.2942852186651229 0.0690550726104604 0.3019623774836939 0.4100461252045798
-0.09502886067128773 0.22058235005985438 -0.016133557508153082 -0.6789149014063101 0.4149723082798936 -0.3153561784840682 0.0858161330422929 -0.19138270831670312
-0.256659002324598 0.0671192547448083 -0.30641245186527977 0.3560032897001864 0.3510167914178637 -0.40044119890663654 0.48056428004337637 0.2563965361864807
-0.1096634630471305 -0.08680750130495793 -0.07569167346504142 0.2520548683723629 -0.03152700645502877 0.35072139921970014 0.10191332057579293 -0.26149289024967043
-0.49104533766507014 -0.44719054029032607 0.06835578042107607 -0.4952847368894312 -0.18388372539849884 0.11525190768848527 0.5218385239112608 -0.15519243338111988
-0.239911829277949 0.05883946459542048 0.19184634138015766 0.49440504627497966 0.2685894325349012 -0.508954740606119 0.3912450141293685 -0.06680667209134049
-0.4141539345915966 0.3857452444333999 -0.11685137683359681 -0.4259132991719492 0.12622999410681712 0.026764695935488195 -0.18460532665844845 0.07248668766112201
0.34104230052262197 -0.49984945946708487 -0.10075009821070459 0.18534979735502005 -0.15024567348758244 -0.1726302121011368 0.22335036382408388 0.24510721875009242
-0.04717216861921763 -0.09025117301178476 0.07926979312819422 0.4482953113508766 -0.23540368193166517 -0.015035407781381127 -0.41056286713569407 0.13358409010023323
0.15433577358211115 -0.5379588937399686 -0.21903770654073898 0.2428510711357647 0.003693887349946553 0.042614139442213816 0.1257520429005836 0.040172804252069184
-0.12666140639090617 0.3108355325807234 -0.4153147209154462 0.3366463324291395 0.2222955241883391 0.45174885932263814 0.5932761889343413 -0.4020362836899275
-0.11633952998004461 0.2384488629850509 -0.46639651820032985 0.009671614412268145 0.3688173878499974 0.10445221264031036 0.17558744844109236 0.16157079532826413
0.08011451061770443 -0.1470418469585507 0.15320744258619481 0.09033737822725729 0.4083460501823113 -0.0431835651775994 0.16926683963515493 -0.4440383716418608
0.3911743259502563 0.05138162389715954 -0.08229945782946427 -0.0543111282901603 0.39886108766572875 -0.33897174966086024 -0.05090712079141946 -0.16293453965701532
-0.31511559120514965 0.1581033708988738 0.4739902477896817 0.326014669955882 0.11433771637652264 -0.10549396041738401 -0.1304079782867243 -0.4166557478843797
0.2723693903939833 0.14379538427875826 -0.004746430456126214 0.3063517282675894 -0.2651777479168984 -0.2926127669458882 -0.47236793992206794 0.14356897288828274
0.27888705576300593 -0.3265934123954849 0.42954888956675785 0.12632258652596265 0.3865215431201462 -0.020507915068979504 -0.0006877545872407136 -0.19080127233234967
0.2982169021645463 -0.0002678734518674932 0.1511327699793635 0.04707284785151399 0.28045564101230147 0.2866406712590004 -0.44981700587411955 -0.21046929004745948
-0.23663172291232976 0.03940314201273624 -0.14024455118016352 -0.09467931421160991 -0.453885756148801 -0.4205489487046504 -0.4390485007228269 -0.07441395966380071
0.6461665580344732 0.4258042559324701 -0.14675524005703683 0.429164758936598 -0.11144265397201299 0.04045279503550058 0.4352724902152071 0.3071743749694196
0.3149354364023589 0.1587552319894129 -0.10804399147101346 -0.3754507094007783 0.38831207408453183 0.40075596210384073 0.5433763865194257 0.342234972026489
0.5148074157690715 0.08407319481720164 0.10091944853277346 -0.4708930064491489 -0.23129482941541568 -0.42349885022442174 -0.6205330629259929 0.2199623682902422
-0.4225191326697827 0.024673531026316215 -0.5653655425722036 -0.3165615726240727 0.22402895756626567 0.2087934021147594 -0.1749887165233367 0.2130247994602754
-0.6868358177788679 -0.21867918824278454 0.20440441705639287 -0.12128853306370078 0.11960765464024066 -0.30829180915106824 0.3150094994138604 -0.18132745676102663
-0.4387364284972083 -0.1534162416892503 0.3092969284949733 -0.2854870333354373 0.12507354938476534 0.12975666872720645 0.3842379551482383 0.2618757909000009
-0.44153722299079456 0.23672668294433985 -0.05837805262565432 0.25779951918957794 0.09602836864559706 0.40202003707177775 -0.45097668506710337 0.03379962034886215
0.0923334237245599 0.32250292086479 0.2310927950969098 -0.1642450720560836 0.1107887998763331 0.14207272399111623 -0.5640497806975815 -0.4321364311417353
0.5417509066929056 0.45454801070171374 0.3734059360466827 0.21608621258040273 -0.25185527939691044 -0.3678260182561142 0.3758450601935788 0.2751299831677785

b4 f8 [30, 1]
00000000: 616e 6371 c879 d4bf 4ca4 1360 7408 debf
00000010: 7939 6529 a9dd b1bf b162 120d 119a d13f
00000020: 02a6 ada2 9288 d2bf 5e30 bed8 dbbb c3bf
00000030: 13dc fb2d c31d d9bf 5144 9e71 c654 293f
00000040: f661 d252 e187 de3f e3fd a779 5fef d63f
00000050: e752 5ecb 8dd5 acbf 2227 3150 1faa d1bf
00000060: d85f f75c 2de4 dcbf 7768 b193 262b bb3f
00000070: 5247 e36f 3dee d4bf d8a2 9539 03fd d9bf
00000080: 290b 27ab bd35 d1bf db3f f9b7 f926 ddbf
00000090: 001d 97f4 56ee b03f 28ef 7aa2 bec7 d8bf
000000a0: d365 b474 5281 dbbf 9fe1 20d0 6e47 d53f
000000b0: ed50 f0e0 7dc8 e0bf b84e 1425 8244 d2bf
000000c0: 827f 72c5 0b5c dc3f cb7b c0cd 3716 de3f
000000d0: 0259 6960 8b11 e23f b23d 865c f8d1 c3bf
000000e0: 1a56 54ff 81b9 dd3f 51de 0262 4f18 e0bf
-0.3199330432232497 -0.46926602728359934 -0.06978852520589908 0.2750284793524243 -0.28958574186853536 -0.15417049487257634 -0.3924415539799508 0.0001932613602631272
0.47704346740786663 0.3583601654099466 -0.05631678683781676 -0.2760084422230752 -0.4514268310426792 0.10612717729364528 -0.3270410149244657 -0.40606766341674705
-0.2689050837909002 -0.4555038735024916 0.06613677474443946 -0.3871914469452684 -0.4297681941694382 0.3324849159721683 -0.5244740861258187 -0.2854314195730967
0.4431180408664589 0.4701060780807295 0.5646416552579299 -0.15484528081695498 0.4644474976970244 -0.5029675401955932

W4 f8 [30, 30]
00000000: ac79 e480 b414 d33f 1ac9 3462 2581 b5bf
00000010: ef97 ac8e 5927 d23f d227 de46 4af9 acbf
00000020: 4f42 f0e2 d231 d3bf 4725 1ea7 9306 d1bf
00000030: ece1 ed0c 8f19 7ebf 4bce 6bb4 9a40 c3bf
00000040: 5237 6394 4e44 c6bf 5e5b f60d 94ec cebf
00000050: ae37 5c3b 5d83 8e3f 4def 8bf6 f26f d3bf
00000060: c6c0 4509 86e8 c8bf 0109 f28b 29be dfbf
00000070: 003c 7e6f 4775 bc3f 0aae 5a36 b2e5 d73f
00000080: 006f ccc1 e757 ae3f 9be6 8082 d68c cf3f
00000090: e05a 27ae 5150 c33f 7c39 8cff 7d7c d6bf
000000a0: 3064 1ac1 1720 cbbf a4c2 0602 3f4d cbbf
000000b0: 11ab 4988 d31c d03f c027 977e 4217 ddbf
000000c0: 9015 ba10 d65e aa3f 5d15 64ef 2f8d ccbf
000000d0: 00a1 2dc1 8a0a a3bf 7573 d5eb bf8e c2bf
000000e0: a03e 72fb 87be de3f fabd 30b3 7037 d13f
000000f0: 188c 49d4 c890 ba3f 0214 bfbb ca00 d23f
00000100: 14ad f90a 43d6 c1bf 281e af4e 3fe3 c13f
00000110: 781f 8a23 be3e dcbf 6054 130d 504c c83f
00000120: 8a67 2fd1 dacb da3f 18a6 f08f 078c cdbf
00000130: fe65 ffc8 9b2f d9bf 94c1 62b3 ee20 dcbf
00000140: 98a4 9745 82bd bbbf 54c1 5d14 52c0 d1bf
00000150: d86d 2443 e841 cebf c4bb 9a95 36d8 cdbf
00000160: 14e8 e1fd 115d d93f 8881 109e af20 cdbf
00000170: ec20 2e9f 9153 dcbf fc0b 159a 2339 c1bf
00000180: d05b 02f8 a775 d03f 2611 e240 1844 d2bf
00000190: e478 3d3e 125d c93f b2cc cf5a d104 d8bf
000001a0: a45b a376 5761 c53f 982c 1201 4cfa bb3f
000001b0: 0083 0be5 f9ac b63f d82d 625d 4bf7 b3bf
000001c0: 7877 486f 5df0 c9bf 6039 a780 3f56 a6bf
000001d0: d245 bb79 7a0d d2bf aef9 63c1 d644 d93f
000001e0: 9cb5 1a59 2e18 d3bf d420 27e0 08a8 db3f
000001f0: a4cf 754f 25d0 c2bf 557c ef6e bb65 cdbf
00000200: f436 da54 5506 ca3f 7f74 6cc1 5bae d03f
00000210: 7272 fcb2 4529 c03f 972e fe1e 07ea e43f
00000220: 2e98 c465 6776 a3bf e9bb 37ac 8ec9 d53f
00000230: dc05 f274 7438 ad3f 53b0 d9bd 8325 d33f
00000240: bcf7 2bed d04e da3f 75ce a217 3e66 abbf
00000250: b8ce ef16 01f4 db3f ba1b 6e7d ea48 dabf
00000260: 427e 94f2 df9b d9bf 1ddf 5b94 4eed d13f
00000270: e180 11b5 2e35 d53f 1e7a dd61 8bb8 dd3f
00000280: e0d5 ceec 8b95 b93f 9ec4 b1c7 8119 dcbf
00000290: 390a bc8b 6f24 d13f 59a1 20a4 3fbf c73f
000002a0: a87c e5e5 47d5 c0bf 09c9 a514 acf8 e5bf
000002b0: e22b 4b2e dd2f d63f 962b ee02 4640 97bf
000002c0: 400c e8cc 57b9 c2bf 0cab f9cf 4782 ca3f
000002d0: cec8 3504 61e0 d7bf af68 dd0e e335 dd3f
000002e0: dbf0 677e da84 d93f 9c93 dc23 1fcd 8cbf
000002f0: dbe2 e1c2 5747 d5bf 4e97 5ab6 0c9e c1bf
00000300: fe53 6832 aef3 dabf 68e1 cfed a7db c8bf
00000310: 39ea 09d4 8cca a93f 64ff 35b7 6557 c9bf
00000320: cd28 415b 00c5 e5bf 5163 be2a c6f9 a3bf
00000330: 3322 ae1b 5b26 e1bf f845 06bd 1b34 dc3f
00000340: c0ff 20e2 af45 a1bf a044 85f3 fa68 e13f
00000350: b8ef f189 0b27 dcbf 1377 4204 548e a1bf
00000360: 0234 9e2f 7017 d33f e09a cdb2 83fd ac3f
00000370: 30f8 c277 55f9 dcbf efe1 00e2 ed1b da3f
00000380: 3bae d7cd 20d5 c03f 51ad 0aa7 0151 d53f
00000390: e094 d137 a7ed b93f cb7a 2106 0760 d43f
000003a0: da9f 863e 001f b7bf abe3 e970 8a15 debf
000003b0: 1ba5 db57 5345 dabf 84fd 99f4 e7a5 d6bf
000003c0: 0000 91a5 0f9f 1abf e7fc bd6f 33d1 be3f
000003d0: 803b 1545 7aee 96bf 9c5d 4927 fbe4 d7bf
000003e0: a7da 051d 5baa d0bf f8e5 250b 02d5 b4bf
000003f0: a1ab 53e4 7c9d cfbf 9102 e58b d90f e0bf
00000400: 5f5a 9360 b9e4 d23f 8789 9638 70eb ccbf
00000410: c4dc 1e82 ac92 d23f 70a7 c458 7d5e de3f
00000420: 1550 3289 fffe c9bf 0cb9 dcd0 a482 df3f
00000430: 1ca5 634f 6bac c13f da28 951c 50c9 c4bf
00000440: 5270 91e8 06c0 d33f 1c1e 0b60 5ecb d23f
00000450: f8ef 9bce 655e dcbf 4862 c909 23e7 b3bf
00000460: a882 6df5 fcdb db3f 7445 16f7 0897 d9bf
00000470: b56f 6608 c6c4 d93f 8845 f4b7 35b5 b63f
00000480: 6079 cd8c aba5 9fbf 6df9 d38b 083e dfbf
00000490: 52f1 3577 b35c 88bf 299d 32e5 bd6d ddbf
000004a0: ccf0 2d4f b565 cdbf 8011 6dc2 16d4 b4bf
000004b0: 0069 321c b4e9 77bf 77d2 078b 15bd c4bf
000004c0: 0ca7 90eb 1820 c2bf 056c 8c98 5a74 c03f
000004d0: 1e7f 3421 46df c4bf f2e1 b464 5645 d1bf
000004e0: 4834 08c4 a7e1 c5bf fbbc 0949 05db d5bf
000004f0: 0844 7efc 3a9a cf3f cedb 42d3 cf9e dcbf
00000500: a0e9 15c0 e790 c4bf 6c9e 7ff2 1329 b93f
00000510: 34fe 6ab0 a0f3 d5bf dc2d a82c 66c8 d13f
00000520: 4036 d880 dff8 cdbf 4ab5 3dd3 ad41 dabf
00000530: 60dc 4327 7ba0 9e3f 8e39 18e7 5bae d13f
00000540: 473f 4997 d600 d93f c471 6c66 5912 c13f
00000550: 9870 3e48 7fea dbbf 8888 26dd 63e6 d53f
00000560: 8e8c e0af 07f2 d73f c0ea 824c 5577 d23f
00000570: 6c7a 7290 ef53 dbbf 924a 7122 ba04 d93f
00000580: 5c1a 2234 70b7 d73f 9039 0583 021b cebf
00000590: f264 9bec c9a0 b13f 0035 596f 7a1a babf
000005a0: 1040 ece8 377e c33f 9fe2 85f8 eca2 be3f
000005b0: bfb8 5e3d 70be cabf 1e3b eff3 eb71 d03f
000005c0: a5c7 15a5 be77 dfbf 4891 382e 1f46 b13f
000005d0: 8127 80ff 8449 be3f 815c e5b0 9b4b c83f
000005e0: 4acf e4f7 c664 bfbf b370 fd06 e9d5 debf
000005f0: b9b6 b08b ef5c d73f b8eb 37f6 b384 9dbf
00000600: c801 1918 7cd2 d33f 4063 ea98 215b d8bf
00000610: 9a08 8062 5109 d83f 5574 62b0 63ce dbbf
00000620: 6821 5c6d 2611 cabf b7e0 0d8f 05e1 d1bf
00000630: 2013 f15a a2c3 e0bf 081a 9234 e3de d4bf
00000640: b0ec 90cf 754a babf a32f 3fd3 6a8f dabf
00000650: 4d63 f6de c11f c03f 54c1 c1bc 44bd cfbf
00000660: be12 8677 b9c4 d9bf f054 a263 2b22 d83f
00000670: 55c1 a147 656b d33f 6a9c d065 1fb4 e0bf
00000680: 1a5c bbff 0649 e93f a4eb 45eb ec3c cabf
00000690: 3214 bddd a686 d73f a923 3f4c 302e b9bf
000006a0: 23ef ae12 6486 c93f 5396 1229 0ba7 d93f
000006b0: 2fd1 4831 495c db3f fe8e 21ee afc5 d93f
000006c0: 8b5b c4d4 aa31 db3f bd80 3906 74c9 d53f
000006d0: 79b1 58b5 b350 d73f 1e15 a691 7fcb d43f
000006e0: 8884 8920 e2ca d7bf 0cc0 5029 74b8 db3f
000006f0: 556c f4e8 ad97 cd3f f577 9d35 63e0 80bf
00000700: f4ec 975a 4de8 ce3f d697 53e9 31d2 b5bf
00000710: 2802 b989 e3cc bfbf d17a f58b 0c7a b8bf
00000720: 8275 d506 71e1 a43f e077 9502 adfa dc3f
00000730: 043b 0256 c687 d03f 5e00 74eb 8abb cdbf
00000740: acc7 487e 57aa d63f 1ec0 2a12 75d2 b9bf
00000750: 08d3 1b1a c872 d3bf 5597 2d5e d856 cf3f
00000760: 1a1c 5488 a6ad da3f 9fbc b1fc acac ce3f
00000770: 18ea a83f 32d7 d3bf 3031 40dd 32e3 d23f
00000780: 2422 7044 6c27 c8bf 3b6c b838 fb20 d6bf
00000790: 0598 39ab 1689 c2bf de50 4b89 90a1 aa3f
000007a0: 8858 0bcf fc74 bebf bd3c 7c70 bb66 d03f
000007b0: 24bb 23a7 138d d6bf 3b10 be25 748b df3f
000007c0: cde2 c83c 085b d83f 64a5 ab6e 39ed cdbf
000007d0: f3db 901c e7c6 cb3f cf3d 3e75 06ae cc3f
000007e0: 3196 4ff9 752f d9bf eb17 49cb ec89 d6bf
000007f0: 0073 cfc0 c3c1 dabf 83e3 c671 ddfb b2bf
0.29813873850971606 -0.08400186202633045 0.2836517232229871 -0.056589432860235114 -0.2999160019108204 -0.266026414109167 -0.007348593512567874 -0.1504090672457202
-0.1739595627354285 -0.24159479791407085 0.014898994802503864 -0.30370782925432566 -0.1945960564876314 -0.49598158518359986 0.1111645362091025 0.37339453990964044
0.059264414221813055 0.2464855324959004 0.1508886432991039 -0.35134839969477816 -0.21191689423429372 -0.21329486464448622 0.25175941762306403 -0.4545446621165148
0.051504792730194926 -0.2230586928273323 -0.03718980415470874 -0.14498137488672183 0.4803791003732645 0.26900880335867294 0.10377173598094236 0.28129833540543825
-0.13935125385192093 0.13974753705973453 -0.4413295123163077 0.18982887876942112 0.4186923067878686 -0.23083586242982856 -0.39353079441715966 -0.43951003568783986
-0.10836042593986617 -0.2773633192910172 -0.23638633039887114 -0.23316080384162607 0.39630555909354936 -0.227559997730179 -0.44260063691082396 -0.13455624602838145
0.25718116016053916 -0.2854061730979701 0.19815280951565406 -0.37529405468303445 0.16703313153149424 0.1092879774679879 0.08857690660398632 -0.07799216298933886
-0.20264785703414723 -0.043626770453203845 -0.28207265746922616 0.3948265923098927 -0.2983508939895161 0.4321310223572372 -0.1469771039952522 -0.2296671191861345
0.2033182777708401 0.26064199341801236 0.12625952949101166 0.6535678487138793 -0.03801272504124174 0.34042708223472445 0.05707134177738357 0.299164710427026
0.4110605541353569 -0.05351442373776375 0.43676783790509033 -0.4107004380134033 -0.4001388424821678 0.28010906685038767 0.3313709991689518 0.46438870007651356
0.09993814975208393 -0.4390568208828628 0.26784886022520343 0.18552394403492192 -0.1315088150540522 -0.6866054919503607 0.3466713859640419 -0.022706121376852538
-0.1462812185783111 0.2071008458618383 -0.37307000552312963 0.45641399814270306 0.3987337336000231 -0.01406311348143579 -0.33247942000848035 -0.13763579277036303
-0.4211230747471858 -0.1942033683005875 0.050373459705003794 -0.1979796547493563 -0.6802980215373055 -0.03901500007413595 -0.5359321156148041 0.44068044146942453
-0.03373479495394305 0.5440649753819748 -0.43988312216947234 -0.0342890029144042 0.2983055558223101 0.056621661736064643 -0.45271813102215486 0.40795466490410964
0.13150415469077523 0.3330692416445418 0.1012825499797887 0.31836104963978745 -0.0903167870188776 -0.4700647452041788 -0.41048129634744307 -0.3538761032759441
-0.0001015523242964278 0.12037965276794048 -0.022394094912040696 -0.3733508952768376 -0.26039769968285004 -0.08137524387520745 -0.24699364804049842 -0.5019347889247731
0.2952102130051681 -0.22593500865066238 0.2902022619923168 0.47451718968169754 -0.2030944270997003 0.4923488654775532 0.13807431579997675 -0.1623935832561248
0.308595397107415 0.29366263751259836 -0.4432615773837365 -0.07774561871463803 0.4353020092731108 -0.39984344606008126 0.402635105326904 0.08870254269665712
-0.030905418843184207 -0.48816121726112877 -0.011895563197633994 -0.4598231065997021 -0.22966638914284088 -0.08136121985177702 -0.005838111453295491 -0.16202039040185287
-0.14160453321647315 0.12855083893450128 -0.1630637800344567 -0.26985702356935726 -0.1709489543140157 -0.34149295933362084 0.2468942387463644 -0.4471931040856675
-0.16067215804271218 0.09828304930089765 -0.3429948542434176 0.2778563915350938 -0.23415750304450178 -0.4102587283039908 0.029909061690855387 0.27626702850184237
0.3906761624721082 0.13337247372773053 -0.436187573004426 0.34218689533930347 0.3741473405409089 0.28853352042976255 -0.4269980345360753 0.39091351855783174
0.3705711850274491 -0.2351992740390867 0.06885969187296206 -0.10196652620762237 0.15228937981783064 0.11967354838805953 -0.20893671986181592 0.25695322820404154
-0.4916836368712388 0.06747622374002049 0.11830931890304265 0.1898073781728478 -0.12263148834318574 -0.4818060463201263 0.36504734651212406 -0.028826534178715696
0.30972196915902517 -0.38056220944558916 0.37556872004655306 -0.4344720098977793 -0.20364837970579264 -0.2793592354787608 -0.5238811279492417 -0.32610397466524477
-0.10269867246181508 -0.41500349645206763 0.12596915613974105 -0.2479635163940751 -0.40263210937727567 0.37708554010289586 0.30342990870760406 -0.5219876278469091
0.790164470173184 -0.2049842976374211 0.36759349493178484 -0.09836103307237799 0.19941378509781157 0.40082053194996553 0.4275076848309877 0.4026908708094509
0.42490645196942783 0.3404207287585555 0.36430065831770936 0.3249205515242738 -0.3717580144639858 0.4331331637831688 0.2311913859819891 -0.008240485261634215
0.24146429942616232 -0.08523857065628646 -0.12422010528917637 -0.0956123201080843 0.04078248222752291 0.4528000378830921 0.25828703307426815 -0.2322858476327409
0.3541468365902982 -0.10086757367639662 -0.3038807158439316 0.24483780478038378 0.4168487864812406 0.2396446451052485 -0.3100095388105344 0.2951171074535237
-0.18870309201908342 -0.3457630208883448 -0.1448086105403378 0.05201389003710387 -0.1189725881079956 0.25627027497189286 -0.3523606426451116 0.49288657842430766
0.3805561631775561 -0.23380201248009336 0.21700753111664958 0.22406082844507444 -0.39352177950636064 -0.35216827251531296 -0.418076456347805 -0.07415565517193383

b5 f8 [1, 1]
00000000: 548f 0353 6470 c53f
0.1674924283353173

W5 f8 [1, 30]
00000000: 8055 8fe3 4832 c2bf b0de e0f6 1a22 b7bf
00000010: 144e 2a46 ea00 f13f 97e7 e2b6 ecaa e7bf
00000020: d490 5484 8abd c5bf 4b46 b09b caf8 da3f
00000030: 64d4 5506 068e f2bf b8fe 0011 3313 cebf
00000040: be0b 6d12 14ca d4bf f2bf 278e f345 ecbf
00000050: 9129 663d 3197 f53f 2064 9827 afd1 90bf
00000060: d06b edcf dd05 c33f e287 3764 4341 bdbf
00000070: 5358 e565 a034 f63f c083 fcd8 d55c bb3f
00000080: f9d3 3c25 94cf d9bf d6fe 3b05 e56f d03f
00000090: 8051 d31e 851b a73f 5cbb 151c 405a ca3f
000000a0: f2e7 4710 190e c43f bc11 8427 22dc db3f
000000b0: 6ed7 31ba 7847 d63f 4061 7184 cce2 b5bf
000000c0: cf49 a804 3794 e33f a6c0 2bd5 7569 ecbf
000000d0: a218 9964 09af eebf 025f 6e64 fef3 ea3f
000000e0: 6eae f2d3 2c39 d03f b580 8a17 9f20 e53f
-0.14215956794093287 -0.09036415602974546 1.0627234211759786 -0.7396148273467017 -0.1698468347686971 0.4214350242992608 -1.159673714396626 -0.23496092157619386
-0.32483388709459493 -0.8835389877767723 1.3494121931458702 -0.01642488173647305 0.14861652996736874 -0.11427708813383178 1.3878482799823544 0.10688530490416692
-0.40329459797368333 0.2568295050732393 0.04513183594977743 0.20587922450382734 0.15668023390736568 0.4353108774087351 0.34811227973056347 -0.08549192651242254
0.6118426409687404 -0.8878735698217681 -0.9588667836003604 0.8422843896432541 0.2534896917156634 0.660232110956733

p_b1_old f8 [30, 1]
00000000: 7406 5296 132c b5be dc14 66cd 0cdd b63e
00000010: 6cb3 eed1 af21 ccbe b0fc 63c3 871c c3be
00000020: b012 64a4 b360 6f3e 5019 f71e ef39 8f3e
00000030: 0000 0000 0000 0000 d292 9bfc 7b2e c2be
00000040: c951 76eb 64cb d3be 00d0 fd0c 622c 08be
00000050: 0000 0000 0000 0000 0000 0000 0000 0000
00000060: 1a1b a491 c33a bbbe 5961 14f8 f4a1 ca3e
00000070: 0000 0000 0000 0000 277c 4524 f17a d1be
00000080: 7700 1b48 67f7 9b3e 4493 d2c6 ea4b a63e
00000090: 5485 f589 e74b cb3e 99e5 a80a 74bb c23e
000000a0: 846c 3b5d d8c9 cbbe f027 a373 cd36 b13e
000000b0: f0e3 4639 96e2 e03e 3824 b2f5 b7cf 803e
000000c0: 08f3 2883 ef4d 873e 0000 0000 0000 0000
000000d0: 0000 0000 0000 0000 b0bf 3f50 47d9 adbe
000000e0: c156 368d d32f da3e be68 22e8 a490 9dbe
-1.2619599030486873e-06 1.3627694009654895e-06 -3.3535467447082486e-06 -2.2782619694124723e-06 5.844559729416667e-08 2.3265410174621248e-07 0.0 -2.1674131617125813e-06
-4.719378629576247e-06 -7.035376951005074e-10 0.0 0.0 -1.6230074551552268e-06 3.1748585917029744e-06 0.0 -4.16761446717012e-06
4.167321280106114e-07 6.64489005726238e-07 3.2539965812295128e-06 2.2330569511535244e-06 -3.3126423007852038e-06 1.0260386731791305e-06 8.051445356526175e-06 1.252546962575108e-07
1.7363157807535428e-07 0.0 0.0 -8.89561903692415e-07 6.243424837922778e-06 -4.405530732526681e-07

p_W1_old f8 [30, 2]
00000000: 9abc 8566 a55e b33e 20d8 aee2 41c9 9cbe
00000010: 8ff0 0c4e e461 a43e ae1a 476b a13b 7c3e
00000020: aea4 1bf8 698e b3be 7496 5e12 ef2a abbe
00000030: a403 95f8 b81b c33e b035 92d0 bc18 a1be
00000040: 5271 cc32 10bc 2a3e a5ea e6b1 953c 6f3e
00000050: 807d 040c 8301 993e 36f2 92ca ca41 bcbe
00000060: 0000 0000 0000 0000 0000 0000 0000 0000
00000070: c0c9 ce74 6a59 7d3e b92a e94d b6a8 b0be
00000080: e72c b919 d779 d0be 555c ae93 1bb1 bdbe
00000090: 18c8 e5f5 1e32 973e 26d5 9169 e690 9a3e
000000a0: 0000 0000 0000 0000 0000 0000 0000 0000
000000b0: 0000 0000 0000 0000 0000 0000 0000 0000
000000c0: 6849 883e 6409 aabe 00ca 1291 048e a1be
000000d0: 4c43 8399 57a3 bf3e 0ab8 04ac b603 b23e
000000e0: 0000 0000 0000 0000 0000 0000 0000 0000
000000f0: 000e d557 f845 6d3e d856 69d4 0b17 bcbe
00000100: 779d b847 84b0 7cbe e86a 3832 a87e 933e
00000110: b8f9 1a44 5819 9dbe bf46 2359 2ca9 a53e
00000120: f868 cd6b 438b bb3e 70a6 d8c7 2195 b2be
00000130: 7eed 40f3 6264 b73e be8d 0bf2 dbe6 a33e
00000140: 6cef c06c 632b cebe b8b9 523d 364c b6be
00000150: c8c2 4583 5b97 a63e a098 aa1f 960d b63e
00000160: e850 946d f9ef ce3e 801a 0280 689b ce3e
00000170: 12ff 0fca fbc9 83be b85d e303 d547 883e
00000180: f8b7 c048 841e 893e 3ce8 8743 98b2 90be
00000190: 0000 0000 0000 0000 0000 0000 0000 0000
000001a0: 0000 0000 0000 0000 0000 0000 0000 0000
000001b0: 8575 5d75 da2d 6e3e 0fb7 b7bb a2f2 a2be
000001c0: 9848 aa31 d733 c33e da47 ea72 5462 cc3e
000001d0: b951 fbae b6d6 9ebe 4c9f 3d43 4a18 4abe
1.1545247620944433e-06 -4.289472338951808e-07 6.074425550127416e-07 1.0517586696628963e-07 -1.1656465805315774e-06 -8.096608652321237e-07 2.2778858165543653e-06 -5.095193113133897e-07
3.1123196436625154e-09 5.818281166880744e-08 3.726170341323076e-07 -1.6842484831656476e-06 0.0 0.0 1.0933459044965365e-07 -9.929556693706166e-07
-3.928169828147665e-06 -1.7697708034386621e-06 3.456441301153607e-07 3.958644839216229e-07 0.0 0.0 0.0 0.0
-7.759537057914125e-07 -5.231725329817656e-07 1.8857750543785756e-06 1.0737482370559562e-06 0.0 0.0 5.452580873835321e-08 -1.6742959175938714e-06
-1.0687678469371081e-07 2.904944713403357e-07 -4.336089355175802e-07 6.455431267543301e-07 1.641750187539454e-06 -1.1076060951832632e-06 1.394279888890622e-06 5.93119669014775e-07
-3.5964829745698046e-06 -1.3290466445537644e-06 6.732714213209039e-07 1.3144655201329818e-06 3.688025441159649e-06 3.648646270507192e-06 -1.47439526393394e-07 1.809045233117196e-07
1.871526688081136e-07 -2.488141635223039e-07 0.0 0.0 0.0 0.0 5.621298153236359e-08 -5.646883133849858e-07
2.28911666273156e-06 3.383648525209245e-06 -4.5953281267482614e-07 -1.2151376883615448e-08

p_b2_old f8 [30, 1]
00000000: 97f6 cf05 a441 cfbe a0fe 1cee 862a a6be
00000010: a647 b1e2 1dc5 bebe 0500 0000 0000 0000
00000020: 8ac1 d789 2f7c a7be 00b1 0383 994f 6c3e
00000030: a52b 77f7 a5a1 d6be 0000 0000 0000 0000
00000040: 073b 28e6 8749 b73e c020 e14e 079a 4cbe
00000050: c05f bbb0 2dc0 90be 0000 0000 0000 0000
00000060: 1044 81e8 5303 9a3e 8078 d6b6 4eb0 55be
00000070: 6631 5fc3 03fa 84af c8fd 7fce 8275 cabe
00000080: 5279 5615 de4c a53e d00d bec1 f64f 84be
00000090: e09b 6ace acd0 8b3e 3375 fcea f9ad c7be
000000a0: ab05 de01 c367 a9be 8458 e91f 480d 8d3e
000000b0: 0000 0000 0000 0000 0000 0000 0000 0000
000000c0: 0000 0000 0000 0000 526b bacd 16f5 a5be
000000d0: 8555 133b e832 dabe 545e 1097 08e0 c13e
000000e0: 508d 4f6b 2aaa c23e b318 2ab1 4663 943e
-3.7260543153106796e-06 -6.606018951651654e-07 -1.8340341607814264e-06 2.5e-323 -6.999105328070188e-07 5.2733227897052654e-08 -5.395755457947043e-06 0.0
1.3880270662879137e-06 -1.3318692340097581e-08 -2.496048387818293e-07 0.0 3.876238925437157e-07 -2.019917693317642e-08 -8.84558717566796e-80 -3.1541618348282877e-06
6.347973264158723e-07 -1.513388675455466e-07 2.0723891865534626e-07 -2.822827660410804e-06 -7.571375168909249e-07 2.164533867306004e-07 0.0 0.0
0.0 -6.543808938776154e-07 -6.246294035968328e-06 2.1308816760092905e-06 2.225006790800066e-06 3.038018558182992e-07
