NeuralNetworks_4x30/weights_4x30.npz (npz, 51438 bytes, 20 tensors)

b1 f8 [30, 1]
0.30427321872851276 0.21497606501445363 0.04289172348573892 -0.0788288375556204 -0.44067829415316473 -0.9457484203212085 -0.02863543292894455 0.5613964570821075
-0.0043319681684042075 -0.1559349576529443 -0.43471043834409395 -0.4302455802714876 0.21012716625736358 0.2640653898084217 -0.3906416935324408 0.1759129080578299
0.38354696783005326 0.692726341865848 -0.4996106510354474 0.06062852827253424 0.9707373602389566 0.243088143326425 0.6769311826573153 0.559068464698002
-0.0023888147597806936 -0.04364552785793152 -0.4894867643037273 -0.059456704588464915 0.7738873677303338 -0.2358444689537155
00000000: 1e35 df60 3679 d33f e775 54f0 5584 cb3f
00000010: 85d8 476b e7f5 a53f 5678 486f 202e b4bf
00000020: 6a79 5cbb 1234 dcbf 7cbe f030 9243 eebf
00000030: e018 bf5f 9b52 9dbf e040 e8b3 f5f6 e13f
00000040: 0a0e c5d9 65be 71bf d015 b63b adf5 c3bf
00000050: babb faba 4bd2 dbbf eaee 20c2 2489 dbbf
00000060: c7cb 896d 72e5 ca3f f3e3 4e85 72e6 d03f
00000070: c041 8b04 4600 d9bf b8bc 866d 5084 c63f
00000080: bed7 d394 088c d83f 7087 ec6e d02a e63f
00000090: 8f8d bbf3 9ef9 dfbf d931 45d4 b30a af3f
000000a0: 006a e7cb 4710 ef3f 0bf1 d024 831d cf3f
000000b0: 15fc 6495 6ba9 e53f 8a4a 838c e3e3 e13f
000000c0: f26a 9f28 b591 63bf 206f 88e5 b458 a6bf
000000d0: 8099 204b c053 dfbf 0885 78f3 1b71 aebf
000000e0: d30e e670 afc3 e83f 0da2 8ccc 2630 cebf

W1 f8 [30, 2]
0.2987148908123605 0.4659834755909103 -0.5912726473046072 -0.4642577845580114 0.4278225585629795 0.41377498848716365 1.199117455281582 0.5673465452823381
-0.27795301082223445 0.4515846451707272 0.9256575137532537 0.4140827724790008 -0.45381805243906603 -0.4029479735534023 0.5912399185153666 0.03361419600980182
0.6002594552041954 0.19960021046725435 0.48699949400933223 -0.09378619799874666 0.29517438998034684 -0.47324680415955034 0.19510759452516613 0.04188765987436216
0.35381953239081104 -0.4319932156929722 0.10419521792414338 -0.45412482987280434 -0.2614554551540601 0.17443627099131598 0.33161806574006536 -0.04451398545125499
-0.20101270279874806 -0.3181485056275741 -0.6768244495602015 -0.6980452251330077 0.7062087214567205 0.49282441626186213 0.24270154917596165 -0.27101876246855267
-1.0989759249919686 -0.5034993697085506 -0.061114681439403275 0.020539422408949515 -0.6550274929029175 -0.24723836454418863 -0.36746433109564397 -0.29553934277381916
0.2640083958630943 -0.523145321230822 -0.23398954007033268 -0.2920859907872264 -0.3822100191540557 -0.48777422951958127 -0.2175279616893031 0.24442744279371326
-0.7714432095435068 -0.46946212342488 0.2505033673507268 -0.30310320173839744
00000000: d581 b70f 251e d33f 81eb 085b acd2 dd3f
00000010: 072a 669d b4eb e2bf c1c3 6548 66b6 ddbf
00000020: fb37 61de 7161 db3f 1621 dd16 4a7b da3f
00000030: 46f4 e7c8 952f f33f 288f 2ff1 b327 e23f
00000040: 4a99 d36c fbc9 d1bf 1394 9848 c3e6 dc3f
00000050: 9abd 9b81 fc9e ed3f a898 6807 5580 da3f
00000060: 58da 63df 5a0b ddbf 7caf 194c e6c9 d9bf
00000070: 5f9f 43fa 6feb e23f c93c 1641 e135 a13f
00000080: ffef 2651 5335 e33f 3aa4 1dec 7f8c c93f
00000090: 8312 fcec ff2a df3f 3086 384d 5f02 b8bf
000000a0: 0e45 e51f 23e4 d23f 7450 b3f6 ac49 debf
000000b0: a0e9 d720 49f9 c83f f05f 88a2 4c72 a53f
000000c0: af7d 13ae faa4 d63f 30b1 5fdf c6a5 dbbf
000000d0: fc3f 62ad 89ac ba3f 8ebc 2697 6110 ddbf
000000e0: c2d6 4fa9 afbb d0bf 2c6b 927f ed53 c63f
000000f0: 6c72 c7fa 3a39 d53f f59c 747f 89ca a6bf
00000100: d0f3 4cc4 c8ba c9bf db44 bc8c 8b5c d4bf
00000110: 09d1 7fbf 8ba8 e5bf 3f68 a2f0 6256 e6bf
00000120: 92cf 5908 4399 e63f 92f5 a06b 6f8a df3f
00000130: f81b 3328 d810 cf3f abe8 5914 5f58 d1bf
00000140: e0e8 8ec7 6795 f1bf 088e ceb5 aa1c e0bf
00000150: 65e6 2c6c 6c4a afbf 90c5 194e 4908 953f
00000160: 03f7 7f37 fcf5 e4bf 1654 04b9 81a5 cfbf
00000170: cb25 201d 8984 d7bf d545 f9d8 1dea d2bf
00000180: 887d 8678 83e5 d03f c9bc b741 9bbd e0bf
00000190: 00a5 1a87 5ef3 cdbf dc41 8370 89b1 d2bf
000001a0: ce17 1e03 2176 d8bf 9490 e766 b137 dfbf
000001b0: 88e6 b5cc f4d7 cbbf d29e 8500 6649 cf3f
000001c0: 89bd 76ab a9af e8bf 4d84 b4dc aa0b debf
000001d0: afca 9346 3f08 d03f 2ce0 b1f8 0a66 d3bf

b2 f8 [30, 1]
0.1758488498043095 0.3666721579752247 -0.3871737112722698 -0.1727567131905374 -0.3076036784377891 0.14420535145708344 0.5946905872512149 -0.12235498412313561
0.21310206189809686 -0.15537908657488392 0.26241391241748374 -0.07380542387681599 0.26226105997648 0.3751705971949766 -0.4850377618879358 -0.4035844995446229
-0.0532539876995432 0.1424220842450534 0.30247535214676236 0.5170619932151931 0.2433707155872041 0.460635777121258 -0.19240088071738393 -0.16075116349544472
-0.24317355371957639 -0.30569828400004634 0.42066406649498567 -0.03860561142366291 -0.20112338855758852 0.08876821016937013
00000000: d56f 7911 3782 c63f 96de b67f 8e77 d73f
00000010: 1943 f23e 74c7 d8bf ffad a858 e41c c6bf
00000020: 3341 c156 c7af d3bf 434b 352a 5275 c23f
00000030: c274 ef8d b407 e33f 48bc 4fff a752 bfbf
00000040: cbff 47a9 ed46 cb3f 3a26 a93f 76e3 c3bf
00000050: d74d f6b8 63cb d03f e07e d189 e9e4 b2bf
00000060: eb3f e79c e2c8 d03f bce2 5789 cb02 d83f
00000070: dc8e 28d3 db0a dfbf 1fde ad14 54d4 d9bf
00000080: f72c 1a4f 1b44 abbf bfc3 0709 e33a c23f
00000090: 5a40 5494 c15b d33f 7ba4 db97 c58b e03f
000000a0: fb25 2088 c526 cf3f 429d 867b 0e7b dd3f
000000b0: ac8d 3391 97a0 c8bf 94e1 007f 7e93 c4bf
000000c0: 9c24 3d9e 4f20 cfbf 234e 0e89 8f90 d3bf
000000d0: 7cb1 0cfa 28ec da3f 4e70 035d 1dc4 a3bf
000000e0: b963 2844 69be c9bf 1316 9a6f 83b9 b63f

W2 f8 [30, 30]
0.3530667194300426 -0.20119430269534833 0.014399737324319189 -0.20176307970168075 -0.18035473493043294 -0.6770490921762992 0.31937807997587886 -0.16378432674659937
0.19946005512164938 0.30376772860648443 -0.1495570375341252 -0.21767946672339888 0.05866956263518799 -0.25374813672335017 0.3241303839080816 -0.00716346216409994
0.14149209880582128 0.1284425358578219 -0.3839465818069207 0.22703551552379747 0.6244532176202228 -0.5083785075711621 -0.7045899031426475 0.2398498474465424
0.07847432282435443 0.09380785786119339 -0.3580996595764532 -0.12014623549108572 -0.5055343591723854 0.12211557462592512 -0.10483146198704679 0.31191730128771916
0.1509186416417759 -0.5142481136012679 -0.03597992719072889 -0.5443715555181083 0.19896204075882573 0.3965852906611194 0.2256450488313121 0.5484928509795166
-0.2660507070581225 0.2045967385867402 0.18031309409406862 0.03525448923459949 -0.1222071710157091 -0.06925431334644318 -0.3469369790849169 -0.4629438496183349
-0.22131783814507217 -0.29960705407234134 0.4808599423619717 0.17118967882074385 -0.03943447043693928 0.1608432049846584 -0.03637664243011574 0.22774713738670804
-0.2770403211495588 -0.4488178637246231 0.11033163608527775 0.23716648857459074 0.5243230030044508 -0.4086384922105114 -0.2104608762581724 0.6915373088695336
-0.1899917153555516 -0.14527132738278828 -0.08909759397657957 0.6652677269341483 0.24325848594635052 0.18769466736028845 -0.22853854267005858 -0.2097859886264205
0.3320936493185589 -0.38550123861696206 -0.37500606727783037 0.39186036093096976 0.29800321214739234 -0.5466705425519001 0.14700577250540392 0.0972792559776264
-0.49606519814022404 -0.4519811787861577 -0.2185421259230851 0.36102438900916706 0.09765885620058988 0.46624572721018287 -0.19009362957961062 -0.16357170814106142
0.03717765897986629 0.2012794549162123 -0.2829091194266331 0.10145151345665815 0.08565507975008577 -0.3627315043479886 0.10682898460996637 -0.12220676113028195
-0.2849900092538038 0.39427793952698975 -0.16106621385584055 -0.08218732263907148 0.3374879924427524 0.15469542892911003 -0.009844259797755075 0.13690315863706404
-0.1037705955180861 -0.3655323714656617 0.38212670683518357 -0.10496651541813978 0.0995415226896694 -0.4021899332580507 -0.42740037809256776 0.08473631972176335
0.09749468411051705 0.24118793886972092 0.1626861237731782 0.1541166049337449 0.03414283195951118 0.32431903565806464 0.015393289504980891 0.2477914903382031
-0.1165342856881406 0.3774915295533475 -0.16250070770040276 -0.16815634031721827 -0.31854878570693423 0.4267969006486779 0.49725541069228063 -0.40812831250184095
-0.456043419193047 0.001750330954581658 0.21782434495532754 0.06651147229603216 -0.33159138404384003 0.3950034566489756 -0.4773852688467768 0.2603632724287221
-0.43450459315181233 0.450809415684178 0.11671222218053068 -0.4436856095676795 0.5273931649675853 -0.30795125697780457 -0.36955616884186016 0.07994385164371354
-0.44938993138260586 -0.16119182311211222 -0.3568501708953814 0.14601350581922512 0.3099644300712832 -0.1843835935986603 0.518457104933735 -0.24479402317300464
-0.14145079904967156 -0.32434173887224105 0.019432106361651415 -0.4345681985527489 -0.08788995448477321 0.3340020360765466 -0.4659425629476229 0.026557978695601524
0.01927691416374866 -0.17126334836655566 0.22092779088833217 -0.2439280823883441 -0.085112352812449 0.22909503259835215 0.3749385790816104 0.37983929023810226
-0.177498381485114 -0.18669800670971654 0.0953381850939426 -0.21602136116524315 0.19496437130081465 0.5906596312337783 -0.2734351980943378 0.18880841929774506
-0.4359125960216209 0.4314962337365961 0.24672102721041977 -0.3988675209664452 -0.2582647216611385 -0.21730947932972217 0.39773112692730545 -0.3884272438890453
-0.30664980105829054 -0.6551205255141409 0.39736644958845035 0.15191010732848978 -0.16451842054954996 -0.3055487811252701 0.014586339328287345 0.27267427495787533
0.07076262240148928 0.0020832961480155574 0.35171178760357646 0.3896884605110805 0.28619561428881757 0.5013305183176202 -0.34645829771487974 -0.46962383792550394
0.7211176466616079 -0.1587771696456836 -0.3014935286608585 0.21813537055065987 0.21092774425280802 -0.22749524226706797 -0.36114336940149583 0.36119477229618874
-0.008346923469296101 -0.19203827142220875 -0.43272895019152835 0.10844864715283897 0.1987691500721126 0.06457754398954285 -0.06864049157095864 -0.33738664356798354
-0.3015476683412477 -0.09852906101605607 0.44164418049721277 0.3662019721536719 -0.44933424079794293 0.258864382869315 -0.4806932835015221 0.40038388484980236
0.14057029305492696 0.015605166954956506 0.00619636624705544 -0.03674392021932449 -0.3981500596749934 -0.2620348105859496 -0.1622306992696726 -0.24562424045355058
-0.1289675856538065 -0.08806084198624964 0.3849626810885556 0.21835604625904137 0.4597809147556271 -0.10677019337267357 -0.23104283693038719 0.3782321179578163
0.4759905773219835 0.10727932380392581 -0.4046087540408661 0.4675672584774828 -0.33121175520045126 -0.2826424327532417 0.3421626555822793 0.3821338902299517
-0.4108252513655518 -0.05404290719036436 -0.1915232699149736 0.050956861963715294 0.4049609846667347 0.07834722566514322 -0.40164449502531174 0.2980930334199515
00000000: bd83 5027 a598 d63f ece8 1b23 bcc0 c9bf
00000010: 7612 0807 9c7d 8d3f 69f2 6d62 5fd3 c9bf
00000020: 133c 1a2c dd15 c7bf d3e0 95db 62aa e5bf
00000030: 2290 23c2 b070 d43f c4ac 7c83 e2f6 c4bf
00000040: 368c cd36 e887 c93f c57b fc32 ee70 d33f
00000050: 4c40 8c5c af24 c3bf 5c3a 4bb7 ebdc cbbf
00000060: d3d7 93d9 ef09 ae3f 5674 29d3 683d d0bf
00000070: d09b a15d 8dbe d43f 23fb 883b 6f57 7dbf
00000080: 31b7 81c0 691c c23f 025b 7615 ce70 c03f
00000090: bf63 11af 9492 d8bf 5644 1af1 7f0f cd3f
000000a0: 4df2 7150 85fb e33f dd3c 0001 a344 e0bf
000000b0: 02dd e21f 008c e6bf f5e2 5d59 66b3 ce3f
000000c0: aa39 1baa e416 b43f f023 9fb1 ca03 b83f
000000d0: 00bc a5d5 1aeb d6bf 58f6 2b58 e7c1 bebf
000000e0: 73ca 7464 562d e0bf a6c0 595f f742 bf3f
000000f0: 0484 d314 3cd6 babf db96 05fc 73f6 d33f
00000100: 5ba5 1a53 4d51 c33f f54e be75 b874 e0bf
00000110: 077b 3105 f66b a2bf 6455 7ae5 7d6b e1bf
00000120: 882f 1a91 9677 c93f d5b4 5d45 a761 d93f
00000130: 340e 9edc efe1 cc3f 987f 21e1 408d e13f
00000140: a61b 798b f906 d1bf 7095 8cd6 3930 ca3f
00000150: 2559 16dd 7f14 c73f ee7d 995c e00c a23f
00000160: e061 d91a f848 bfbf 910e ee92 a6ba b1bf
00000170: 1556 bc28 3734 d6bf 90af 7f3d dfa0 ddbf
00000180: 7660 6d96 2454 ccbf 2210 b910 c32c d3bf
00000190: d8ab 99c7 68c6 de3f c752 f91b 8be9 c53f
000001a0: 1335 b941 c130 a4bf ffb1 9898 8296 c43f
000001b0: 61b9 2693 f59f a2bf 1cb1 6a75 d126 cd3f
000001c0: 2eaf c053 07bb d1bf abb3 a38f 6eb9 dcbf
000001d0: 2150 b3b0 b13e bc3f 7f48 11b4 785b ce3f
000001e0: 603a ce08 41c7 e03f d293 fb0f 2227 dabf
000001f0: aae4 4eca 61f0 cabf 36df b1d9 1221 e63f
00000200: bc44 fb05 a651 c8bf 35ea 1338 4098 c2bf
00000210: 381d 4894 19cf b6bf 8e86 488b df49 e53f
00000220: 3a99 ce14 1823 cf3f c217 f9fc 6006 c83f
00000230: 005b 523f c040 cdbf d49d 276c 44da cabf
00000240: 8814 c2b8 0541 d53f 9c59 1b63 0dac d8bf
00000250: 80a1 b072 1900 d8bf 7e06 b37a 3d14 d93f
00000260: fca9 9110 7c12 d33f b84d be38 537e e1bf
00000270: 48f1 9dcc 15d1 c23f 56cc 0017 4be7 b83f
00000280: a18b ac3e 88bf dfbf 25d2 5277 42ed dcbf
00000290: d1a8 d139 30f9 cbbf 8793 f609 061b d73f
000002a0: 57da 8bb9 2b00 b93f 461e 9151 f8d6 dd3f
000002b0: 7c76 1cf1 fc54 c8bf be23 82f0 eaef c4bf
000002c0: 26b5 eb3a f308 a33f 3265 1c72 86c3 c93f
000002d0: f05c ebd9 2e1b d2bf a811 6df4 b9f8 b93f
000002e0: c64c 43c6 7ded b53f d4d2 1933 fe36 d7bf
000002f0: 5029 2af3 2459 bb3f d096 673a f148 bfbf
00000300: 04a3 5bbc 463d d2bf 385f f389 d93b d93f
00000310: 212d 8054 d19d c4bf d16f e176 3a0a b5bf
00000320: 7265 953c 6799 d53f 18ad 0b50 0fcd c33f
00000330: 0ed6 132f 3a29 84bf 6c5b 88ee 0a86 c13f
00000340: 3060 09b2 b590 babf ffc1 44e3 e164 d7bf
00000350: 3e42 3293 c374 d83f 9c5f e5e6 15df babf
00000360: eed1 8ba0 8d7b b93f 87eb 87d8 7abd d9bf
00000370: c528 8d1d 875a dbbf 0a06 fd89 47b1 b53f
00000380: 8ddc c95f 69f5 b83f e94a d112 3fdf ce3f
00000390: 1e35 8f1e e6d2 c43f 9c01 fbc8 17ba c33f
000003a0: 805e 5155 2b7b a13f 0ac9 e7a0 a4c1 d43f
000003b0: 0e97 0358 8486 8f3f 3b66 9dad a1b7 cf3f
000003c0: 4fae e4e1 30d5 bdbf 9ab6 7c3b d228 d83f
000003d0: fe35 93bc d2cc c4bf 1485 239f 2586 c5bf
000003e0: c4ac 3272 1a63 d4bf b27e 94f2 a350 db3f
000003f0: 58ac ab5b 08d3 df3f c117 b136 c61e dabf
00000400: b55e bfbc d02f ddbf 0034 418d 6bad 5c3f
00000410: 5c89 ed0a abe1 cb3f 18fd 5156 e506 b13f
00000420: 84a2 8611 cb38 d5bf c250 0794 bc47 d93f
00000430: 3080 52f1 7a8d debf 2f4c 0ab7 caa9 d03f
00000440: dc1f 635a ecce dbbf 1cea 45bc 0fda dc3f
00000450: c811 4f29 dae0 bd3f f322 b353 5865 dcbf
00000460: 476e 75a1 67e0 e03f 32d5 5e30 79b5 d3bf
00000470: 767e cdea cea6 d7bf 6876 5344 3377 b43f
00000480: 9228 9cfc cdc2 dcbf fc16 5304 efa1 c4bf
00000490: c654 6419 a2d6 d6bf d049 2210 92b0 c23f
000004a0: 8d15 850c 75d6 d33f fc6c 36b0 e199 c7bf
000004b0: 2637 c25a 3397 e03f a264 e419 6955 cfbf
000004c0: fea8 f44d 0f1b c2bf 6ec7 4bda 03c2 d4bf
000004d0: 4a43 4395 02e6 933f af9a 2a22 f7cf dbbf
000004e0: 28b6 28c0 f47f b6bf 69c1 6f13 4a60 d53f
000004f0: 612a 6bc1 00d2 ddbf 262a c8c7 0332 9b3f
00000500: e0b9 9acf 53bd 933f 9c70 1e18 f5eb c5bf
00000510: fd4a 52a2 5c47 cc3f 118b 3710 0939 cfbf
00000520: 38a9 d053 ecc9 b5bf 13ce 576c fc52 cd3f
00000530: af82 ca61 fefe d73f 7cbe 5374 494f d83f
00000540: cc26 c957 44b8 c6bf aef7 8564 b8e5 c7bf
00000550: b4d9 0953 1568 b83f 8397 b884 96a6 cbbf
00000560: 3fa4 4faf 97f4 c83f 8ded e606 afe6 e23f
00000570: 56fd 5858 f67f d1bf 48f0 0bd1 df2a c83f
00000580: d6f2 f4f1 fde5 dbbf 0bbc 0f61 a29d db3f
00000590: 0459 8dfb 8d94 cf3f d032 7fa3 0b87 d9bf
000005a0: 41b0 4fc1 6887 d0bf 2a7d 6a09 ccd0 cbbf
000005b0: 9141 b041 6d74 d93f 553f 58f1 fddb d8bf
000005c0: 68b2 b77c 26a0 d3bf b1b0 0052 bff6 e4bf
000005d0: 48a4 60b0 736e d93f f52f 7457 ca71 c33f
000005e0: 3ec9 ec89 f00e c5bf 2f01 9179 1c8e d3bf
000005f0: 401b 1153 71df 8d3f bee4 59cd 7e73 d13f
00000600: 245c fecc 7f1d b23f 8202 5b1a fd10 613f
00000610: f800 5828 7282 d63f f283 61de a7f0 d83f
00000620: 3443 e868 0751 d23f 2826 954c e60a e03f
00000630: 533f 876c 5f2c d6bf 87f8 5324 510e debf
00000640: e55c 9f50 6513 e73f 5665 7d6f cf52 c4bf
00000650: 2975 6383 ab4b d3bf a7d6 4e1d dceb cb3f
00000660: 2c43 b129 aeff ca3f 002e c468 901e cdbf
00000670: 78c9 2f14 f91c d7bf 1be4 9fad d01d d73f
00000680: fc2d 951a 3118 81bf 6c5c abc7 b594 c8bf
00000690: c4b8 46c4 d4b1 dbbf 801f d160 4ac3 bb3f
000006a0: 64b8 817b 4471 c93f f0b7 7d67 2788 b03f
000006b0: 9087 7a5a 6c92 b1bf 24d4 0e26 be97 d5bf
000006c0: 547c 6d97 8e4c d3bf 3001 c556 3339 b9bf
000006d0: 6e12 edf3 e543 dc3f c65d 8865 da6f d73f
000006e0: 52cf 4c67 e4c1 dcbf b277 a1ea 3b91 d03f
000006f0: ecef 02c3 adc3 debf 069f d1ba e39f d93f
00000700: d4e2 ba15 35fe c13f 40e2 c20d 9af5 8f3f
00000710: 008a 2966 5c61 793f 2071 565f 19d0 a2bf
00000720: 4417 4d63 4a7b d9bf 5455 78a7 2dc5 d0bf
00000730: 449e e2bd f9c3 c4bf dc29 ed77 9d70 cfbf
00000740: 5c47 5085 0282 c0bf 60a0 63c4 278b b6bf
00000750: 382c 5d83 3aa3 d83f 4c81 c846 17f3 cb3f
00000760: 10d3 0cee 0c6d dd3f 8825 b998 4a55 bbbf
00000770: 50a8 4bca cf92 cdbf 9c3d 3b7c f434 d83f
00000780: 4155 b32e a176 de3f f15c 4663 a876 bb3f
00000790: 15f9 911d 1ce5 d9bf b0d5 f538 9fec dd3f
000007a0: a1bf 28ca 9232 d5bf 77c5 4849 d016 d2bf
000007b0: 92db e831 fee5 d53f 02c7 4eb4 e174 d83f
000007c0: 061b bffe f54a dabf e73f ed0d 83ab abbf
000007d0: f098 5aa2 d583 c8bf c029 488f 0417 aa3f
000007e0: 5e2c 537a e1ea d93f b3d0 f653 900e b43f
000007f0: 3423 b01c 8bb4 d9bf 6a10 6dcd f413 d33f

b3 f8 [30, 1]
0.06432367137784278 0.03868489069085533 -0.0007742172695243832 0.03368225984238316 -0.013455810811200399 -0.3241915282579741 0.22512605023575366 0.26606318663367823
0.32675928491279405 -0.059081201328400806 0.1424339282810017 0.26971520924377923 0.13651150539623408 -0.3986684073509142 -0.15881999378429346 0.05927804907678768
-0.39502389864930487 0.35123008185076526 -0.39319104212200107 -0.4959739615443546 -0.12822061857247624 0.32299853446286925 0.5316176669691223 -0.3473115568802803
0.18744330414321886 0.09809132213350451 -0.5212204210878026 -0.26282140806060167 -0.41777810084854433 0.2200215388833241
00000000: 302e ed20 8477 b03f 8ead bb88 81ce a33f
00000010: 852e 22ed 9a5e 49bf 21f2 f418 cd3e a13f
00000020: 018d 005b b88e 8bbf 4f87 e0d2 8dbf d4bf
00000030: 5ebf 9e2f eed0 cc3f 60b7 50e3 2d07 d13f
00000040: d458 97c6 9fe9 d43f 641a 0727 e43f aebf
00000050: 1a63 e763 463b c23f 9ee4 bb94 0343 d13f
00000060: ca2e 9a81 3579 c13f 3951 e17e c883 d9bf
00000070: 4492 a0ab 3654 c4bf df9b 4f44 b159 ae3f
00000080: 6894 7551 1248 d9bf 7de8 babc 8d7a d63f
00000090: 34a0 bfc2 0a2a d9bf 4009 2092 09be dfbf
000000a0: d488 b881 8869 c0bf 0922 8b0b 02ac d43f
000000b0: 5f76 b30d 0303 e13f a5b6 9440 5a3a d6bf
000000c0: 781c 9366 24fe c73f a3b5 954c 831c b93f
000000d0: f28a d272 d6ad e0bf ebc5 13e2 10d2 d0bf
000000e0: 8749 085c e0bc dabf 2cb1 f570 aa29 cc3f

W3 f8 [30, 30]
-0.4477403718354269 0.2613363957727258 0.17982042886544092 -0.35317146064375715 -0.2010898382965205 0.1496959863451447 -0.4613097452136118 -0.21872689178651028
-0.011460026441478366 0.15317663899826583 -0.32089098941896654 0.02662882738437633 -0.42201063520454873 -0.2741452961866456 -0.2730428998595614 -0.030830641180980112
0.41193107427827425 -0.13373175526522318 -0.27243771355058477 -0.04099040417254507 -0.027463537331448906 0.11504867063758217 0.45383096448911175 -0.0008289695862917501
-0.3077022018207417 -0.11453446267574718 -0.16235100621982368 -0.49481172987669353 0.18140618972720046 0.006766914412583924 0.4148593028540732 -0.12576212628482003
0.23017798675523518 0.05464514942813014 -0.051150293768082764 0.19232171936994225 0.28634656255414576 0.0690550726104604 0.28845647161391347 0.41686622011446695
-0.09061567097512169 0.22058235005985438 -0.016494903651460512 -0.6737052402397384 0.4149722417493472 -0.32313494895888634 0.10069257212707644 -0.18946549320968223
-0.25779678888702345 0.06774789426705824 -0.3061318447950142 0.34646388740890094 0.3510167914178637 -0.40044119890663654 0.48056428004337637 0.24431805593338565
-0.11924546906214895 -0.09142570110384117 -0.08209146191873391 0.25182920802814457 -0.03732767885461466 0.35664663758866044 0.10821817513276662 -0.26149289024967043
-0.49239482092547954 -0.4458244072568094 0.0748309677774935 -0.4952847368894312 -0.1839510540595479 0.11830799909613059 0.5213132180012917 -0.15519243338111988
-0.23819309590648508 0.06782730267293478 0.1918466474893066 0.4927428479223133 0.2672716827266448 -0.5082690133453918 0.3969821772810652 -0.06734685379688204
-0.4024227433032486 0.3889283325004018 -0.11685137683359681 -0.4259132991719492 0.12622999410681712 0.02528164181918604 -0.1754462677683753 0.07204813408720863
0.3399225681562718 -0.4987761672714776 -0.10270877219819517 0.17495857176155424 -0.15048513431567348 -0.1726302121011368 0.22373525941292674 0.24169102477449844
-0.05261792400040126 -0.09025117301178476 0.0742566352848048 0.44859339592315056 -0.22682300584236814 -0.015035407781381127 -0.41106035355793524 0.13433798416117074
0.15433568372277293 -0.5407371962987997 -0.22566332624243077 0.24300525266843098 0.0012562462132044677 0.043945251849231495 0.1232427248950168 0.04119601683380675
-0.12666140639090617 0.3108355325807234 -0.4153147209154462 0.33266337921890426 0.23523466582780284 0.4504688537143263 0.5802189027820225 -0.40234699479589575
-0.11828747713589714 0.24309729751489678 -0.4635308264370026 0.009671614412268145 0.3687454752512439 0.10039110010930803 0.1681277807625607 0.16157079532826413
0.08389800016925894 -0.14658714588130656 0.14654072802252988 0.09033737822725729 0.40851753664877805 -0.04822490346163099 0.1692668720535577 -0.4385308774928576
0.38843191785443787 0.05166532587221575 -0.08556389595975569 -0.05562210827946068 0.3953998449007296 -0.33651518116718443 -0.05090712079141946 -0.16293453965701532
-0.31511559120514965 0.1595829883066972 0.46862866861761915 0.32772189607006363 0.11725493611298775 -0.10538702517103779 -0.1304079782867243 -0.4166557478843797
0.2723693903939833 0.14379538427875826 -0.004746430456126214 0.3063517282675894 -0.2651777479168984 -0.2926127669458882 -0.47236793992206794 0.14356897288828274
0.27888705576300593 -0.3265934123954849 0.42954888956675785 0.12632258652596265 0.3865215431201462 -0.020507915068979504 -0.0006877545872407136 -0.19080127233234967
0.2982169021645463 -0.0002678734518674932 0.1511327699793635 0.04707284785151399 0.28045564101230147 0.2866406712590004 -0.44981700587411955 -0.21046929004745948
-0.23663172291232976 0.03940314201273624 -0.14024455118016352 -0.09467931421160991 -0.45205810404495017 -0.42914623770287386 -0.4370963043875583 -0.07441395966380071
0.6486184693181266 0.4353821300878861 -0.15479143791277788 0.429164758936598 -0.12680370833189622 0.03805297352084634 0.38615063485286577 0.3071743749694196
0.31164538731519464 0.15671979049639598 -0.10804459054154082 -0.3632589122046454 0.37710996677233066 0.40414828140985426 0.5369134794690057 0.35146310709001294
0.5211810021044946 0.07338427907597156 0.10091944853277346 -0.4708930064491489 -0.23129482941541568 -0.43417512062132846 -0.6100918318496726 0.21753555989376874
-0.42051400560980196 0.0226180510727095 -0.5619502227017652 -0.3251385395678908 0.2119728028013396 0.2087934021147594 -0.1706301590332135 0.20701869200760342
-0.6868627013496219 -0.21867918824278454 0.2093739104076029 -0.13180864876335263 0.12329093272511961 -0.30829180915106824 0.3150297174117996 -0.18986196362565602
-0.4387364429194875 -0.1415623950079203 0.310922014038873 -0.2884581899375818 0.12257327435852848 0.1197985220624491 0.37490390456391653 0.2635740566392689
-0.44153722299079456 0.23672668294433985 -0.05837805262565432 0.2617898573372353 0.09151293079911275 0.4090174629780553 -0.44555226902134226 0.03372639389962207
0.0916361050815314 0.3187137020760183 0.2192034043819156 -0.1642450720560836 0.11079695083853623 0.14319031981466387 -0.5523238215016533 -0.4321364311417353
0.5457505074307129 0.4502123685051891 0.37971270315629385 0.21608621258040273 -0.2518126449594096 -0.37127007931719336 0.3758450698897318 0.28991821777414695
00000000: 5073 883b c7a7 dcbf b24b 464a bcb9 d03f
00000010: 149c 9016 5b04 c73f 7a1c 5678 5c9a d6bf
00000020: 584f 85d3 4fbd c9bf 24f1 d8f2 3c29 c33f
00000030: 0230 414f 1986 ddbf 1449 7d27 3eff cbbf
00000040: 0035 38b6 5a78 87bf b81e 81c7 4a9b c33f
00000050: beac 485c 7a89 d4bf a0a5 fc5a 9644 9b3f
00000060: 6022 31e5 3802 dbbf fe53 5eb6 988b d1bf
00000070: 0251 53ed 8879 d1bf e01b 594e 1192 9fbf
00000080: 30ce 0e27 145d da3f ec80 a645 1f1e c1bf
00000090: ce64 7997 9e6f d1bf 00e7 bdba b1fc a4bf
000000a0: 4027 afca 661f 9cbf 6031 d665 d473 bd3f
000000b0: d224 9907 910b dd3f 00a8 99a1 e629 4bbf
000000c0: b68b 6e93 64b1 d3bf 700f 756b 2152 bdbf
000000d0: 38ea 17f3 eac7 c4bf 6ed8 5fd1 feaa dfbf
000000e0: 4ccc 156a 5138 c73f 00d1 8cc1 9fb7 7b3f
000000f0: 4fc6 8c08 0e8d da3f 26ff bb2d f918 c0bf
00000100: c1b9 afe6 7876 cd3f 7f92 5bf3 72fa ab3f
00000110: 9e54 d40d 5f30 aabf e88f 8083 ff9d c83f
00000120: 257e 5f88 8053 d23f 001e 7cde 97ad b13f
00000130: 13af f921 1276 d23f b2b8 8ca7 efad da3f
00000140: d8de 57af 9632 b7bf a47b cadd 0a3c cc3f
00000150: 734d ef3e 0ae4 90bf e926 bf4a fe8e e5bf
00000160: 8eeb c3bb e78e da3f 6346 7e35 3eae d4bf
00000170: e464 3c08 fdc6 b93f 212e 87c0 6740 c8bf
00000180: 3526 521a be7f d0bf 34f8 3f0e ed57 b13f
00000190: b228 6a05 aa97 d3bf efa3 6ade 762c d63f
000001a0: 1824 df21 0f77 d63f 2c9a 511f d4a0 d9bf
000001b0: a25f 9aae 90c1 de3f 3d31 0766 d045 cf3f
000001c0: a06f d1fd de86 bebf 173f 41bc ac67 b7bf
000001d0: 55c7 3830 f203 b5bf 3c24 2a41 f81d d03f
000001e0: 0413 d50f 9d1c a3bf 7efc 2a6b 4cd3 d63f
000001f0: 2d2d 07b3 2fb4 bb3f 0791 f0ac 4cbc d0bf
00000200: bf0f 2691 6583 dfbf 1c4d 3b18 6388 dcbf
00000210: d515 554f 1f28 b33f 027a c9c0 beb2 dfbf
00000220: ef0f a048 b58b c7bf ab1b f9da 6e49 be3f
00000230: d737 c90e 99ae e03f 60b2 fa7c 58dd c3bf
00000240: 7892 8682 1c7d cebf ef92 c14e 215d b13f
00000250: 012b 6852 6e8e c83f dd82 4a4c 1989 df3f
00000260: 0c4d 1db0 fa1a d13f c86f bc60 bd43 e0bf
00000270: 5617 21ef 2768 d93f 54cd 8bb6 a43d b1bf
00000280: 0ddc 6952 4bc1 d9bf 38ee 24a9 33e4 d83f
00000290: c02c fec9 f8e9 bdbf c4ff b7da 2942 dbbf
000002a0: 4c45 3bf0 4d28 c03f 26da 3543 6ee3 993f
000002b0: 7a9d 22f7 0575 c6bf 4573 a41b bf71 b23f
000002c0: 3fd3 5996 4ac1 d53f 5b22 9ddf f2eb dfbf
000002d0: 0f83 9a41 1f4b babf 8f74 efdf 0a65 c63f
000002e0: 11c2 35cd 1843 c3bf 8b51 a32d bf18 c6bf
000002f0: 11ff 1163 5ba3 cc3f 4454 9243 bbef ce3f
00000300: 06c0 878d bcf0 aabf 80e1 826c b31a b7bf
00000310: 1c2a 0f9c 7b02 b33f b941 2c13 c1b5 dc3f
00000320: c864 0948 8908 cdbf c0db 9f45 e2ca 8ebf
00000330: 76aa cd15 d04e dabf 0199 4ab0 fc31 c13f
00000340: 57f9 188d 45c1 c33f c2b0 ba17 b84d e1bf
00000350: af14 0f2f 89e2 ccbf d8ca 7bce cb1a cf3f
00000360: f324 b119 1495 543f b28c 03f7 fd7f a63f
00000370: a3de e4d0 d58c bf3f 18a7 0df2 a417 a53f
00000380: a0a1 0ee3 7036 c0bf de9c b7b7 bae4 d33f
00000390: f444 f831 8494 dabf 4d9c 9457 5b4a d53f
000003a0: e0d5 4e66 2b1c ce3f fa74 a450 7bd4 dc3f
000003b0: 8508 7f3b 2791 e23f 4cb4 129c 0dc0 d9bf
000003c0: e734 d38d 1648 bebf 7e46 49ef cf1d cf3f
000003d0: 9c06 0f33 7daa ddbf f83c cd1c b6ce 833f
000003e0: ea21 309f 8699 d73f 9d68 c72b 3bb3 b93f
000003f0: 074e f60b 3685 c53f a838 f610 5aae c43f
00000400: c640 edde 567a b53f 267f c91a 5ec3 c2bf
00000410: 16c4 31b9 d8c1 c23f f8aa 17b5 5920 b73f
00000420: 57ef efbc 2625 da3f 6fe0 703e efb0 a8bf
00000430: 5f14 e26f 89aa c53f 688d 47d0 e310 dcbf
00000440: 5612 fa8b 11dc d83f c3ac eaa9 e073 aa3f
00000450: 3a91 ddf6 83e7 b5bf 905d fd3f 807a acbf
00000460: 774b ac26 3b4e d93f db1d 6ef8 7689 d5bf
00000470: b086 dd85 7f10 aabf ec9b 9bfb 09db c4bf
00000480: 86e4 ab95 da2a d4bf 3e3a e321 376d c43f
00000490: 8590 6b19 03fe dd3f 4c75 7342 65f9 d43f
000004a0: af5c e663 6b04 be3f 2e47 88e2 a4fa babf
000004b0: ba81 f068 35b1 c0bf 2fa5 b6de 7caa dabf
000004c0: 811c 0b06 806e d13f a881 651c e367 c23f
000004d0: fe0d 4f39 fe70 73bf 3cdf 7e47 449b d33f
000004e0: 4c85 bb16 acf8 d0bf a02d 1be6 2aba d2bf
000004f0: 283a 69bd 463b debf 1843 a3d5 7760 c23f
00000500: e1e8 f117 49d9 d13f 32f8 540e e8e6 d4bf
00000510: d43a 2ea0 ba7d db3f 9504 f0a8 562b c03f
00000520: 7ea1 b9da c4bc d83f 7824 1fe2 0600 95bf
00000530: 041d ddba 4d89 46bf d4ef 5914 2d6c c8bf
00000540: 6a50 7a58 fc15 d33f 41ce 19b7 2b8e 31bf
00000550: 2327 3590 5158 c33f 4f8a 1aac ee19 a83f
00000560: 6a19 8837 fcf2 d13f 7cb2 301d 5258 d23f
00000570: b47e 5a44 cdc9 dcbf 7b78 c85e a8f0 cabf
00000580: 3663 8dc3 f249 cebf 35d3 9b0c a62c a43f
00000590: 7768 6190 88f3 c1bf c885 254e e73c b8bf
000005a0: eaf2 301d 85ee dcbf 84a8 08c8 2177 dbbf
000005b0: 7202 23c7 62f9 dbbf 0034 1f13 cb0c b3bf
000005c0: a1b1 2985 7bc1 e43f e360 7f02 4ddd db3f
000005d0: 0ea2 c4b1 34d0 c3bf 4e9e 0e77 6f77 db3f
000005e0: a704 269a 1a3b c0bf de3e 93e9 ad7b a33f
000005f0: db73 0127 b1b6 d83f ec6c aab5 bea8 d33f
00000600: f2f3 9d7e fff1 d33f f9b3 68e3 640f c43f
00000610: 91b8 e26e cfa8 bbbf 3391 f94e a23f d7bf
00000620: 8219 92d7 9122 d83f 98f4 d8c0 90dd d93f
00000630: f53a 632d 652e e13f 0cf0 ac1d 5f7e d63f
00000640: dfba eac7 83ad e03f 60fd abe6 4fc9 b23f
00000650: a886 fa62 dbd5 b93f 3e4f a76b 1c23 debf
00000660: a45b 09a8 119b cdbf ac8c f371 86c9 dbbf
00000670: 023c 2b4e df85 e3bf 09fb ba89 34d8 cb3f
00000680: eba8 6693 b3e9 dabf 564d a0b6 2f29 973f
00000690: ea7c 8f08 7ffb e1bf 3140 87e0 11cf d4bf
000006a0: c52b d6bf ec21 cb3f 450b da00 beb9 ca3f
000006b0: a624 6184 35d7 c5bf 52ab eaa7 967f ca3f
000006c0: 6371 e47c c7fa e5bf 78c7 e8fc adfd cbbf
000006d0: 800b eba8 c3cc ca3f dc5f e215 1bdf c0bf
000006e0: 199e f29b fe8f bf3f bc6c 7b91 0dbb d3bf
000006f0: b550 6367 7229 d43f 7965 4396 654d c8bf
00000700: b3c3 7904 4214 dcbf 8783 7370 b71e c2bf
00000710: 82d1 7972 25e6 d33f b5e5 0257 1976 d2bf
00000720: a7c7 bb4c f660 bf3f df0a 5eae 1dab be3f
00000730: 9aa9 4ff2 6cfe d73f d6bd 55b8 65de d03f
00000740: 6893 2d57 2542 dcbf 7412 ab58 0f4d ce3f
00000750: 00a7 a965 bae3 adbf 1107 ec3e 2ac1 d03f
00000760: 237c f134 646d b73f eef3 be94 572d da3f
00000770: 90bc 06aa ed83 dcbf 112d 9ffd 9544 a13f
00000780: 473f 75ba 7675 b73f 8d07 cd27 ce65 d43f
00000790: 1a00 7f6e db0e cc3f 1349 8186 fb05 c5bf
000007a0: af18 5960 305d bc3f f397 5a76 0f54 c23f
000007b0: ccd7 c401 a3ac e1bf 7c7d ca8f 1fa8 dbbf
000007c0: 1317 a6c4 c976 e13f d801 bf89 47d0 dc3f
000007d0: 83a6 7b82 364d d83f 5c1d 1388 b6a8 cb3f
000007e0: a079 b4c8 b21d d0bf 9aa4 2994 e3c2 d7bf
000007f0: c982 e27a d80d d83f 3ab1 f623 058e d23f

b4 f8 [30, 1]
-0.318837551817055 -0.46926602728359934 -0.07518125332500415 0.27239956980879715 -0.28958574186853536 -0.15335342433238508 -0.3891026994798767 0.0006746642495361314
0.47718301401566054 0.35582495835475103 -0.05542923476733619 -0.2760084422230752 -0.4514268310426792 0.10641432332308379 -0.336680583896579 -0.40606766341674705
-0.2682508363948677 -0.45716899279891565 0.06613677474443946 -0.3871914469452684 -0.43155307908690815 0.3357327454415257 -0.5242156312265484 -0.2854314195730967
0.442211899897169 0.47394947953542244 0.5634136002970614 -0.16310030781525364 0.4644474976970244 -0.5008802997080187
00000000: 089f 729e d567 d4bf 4ca4 1360 7408 debf
00000010: 799d 4d20 143f b3bf f97c f19a fe6e d13f
00000020: 02a6 ada2 9288 d2bf b85c 1ec3 15a1 c3bf
00000030: eb49 4302 0fe7 d8bf efd8 9a71 7e1b 463f
00000040: acda d99f 2a8a de3f 6cfd ce0b d6c5 d63f
00000050: e0d2 227d 3861 acbf 2227 3150 1faa d1bf
00000060: d85f f75c 2de4 dcbf 3aa5 7f16 f83d bb3f
00000070: e92c 42b8 2c8c d5bf d8a2 9539 03fd d9bf
00000080: d832 5c8e 052b d1bf 3643 34bc 4142 ddbf
00000090: 001d 97f4 56ee b03f 28ef 7aa2 bec7 d8bf
000000a0: d7a5 4ace 909e dbbf 8387 7732 a57c d53f
000000b0: d170 05dc 5fc6 e0bf b84e 1425 8244 d2bf
000000c0: a676 fd23 334d dc3f 24e5 a332 3055 de3f
000000d0: 47b8 6cf5 7b07 e23f ac5b 048c 78e0 c4bf
000000e0: 1a56 54ff 81b9 dd3f 9f9c 4e1f 3607 e0bf

W4 f8 [30, 30]
0.29813873850971606 -0.08331033905247964 0.2846032942169435 -0.056529555264664896 -0.2993974562043402 -0.266026414109167 -0.005034993446872884 -0.1491039184924182
-0.17372196835558437 -0.23865871121222182 0.016274114575450083 -0.30230635778486775 -0.1945960564876314 -0.4965056226330974 0.1111645362091025 0.3752096150027875
0.059264414221813055 0.24819980603698408 0.1508886432991039 -0.35134839969477816 -0.21191689423429372 -0.21150553116338078 0.2537584675378078 -0.4545446621165148
0.051504792730194926 -0.2230415375096084 -0.03718980415470874 -0.14433541883810624 0.4803791003732645 0.26900880335867294 0.10377173598094236 0.28129833540543825
-0.13935125385192093 0.13974753705973453 -0.4413295123163077 0.18982887876942112 0.4186923067878686 -0.23083586242982856 -0.39353079441715966 -0.43951003568783986
-0.10836042593986617 -0.2773633192910172 -0.23638633039887114 -0.23316080384162607 0.39630555909354936 -0.227559997730179 -0.44260063691082396 -0.13455624602838145
0.25718116016053916 -0.2854061730979701 0.19815280951565406 -0.37529405468303445 0.16703313153149424 0.1092879774679879 0.08857690660398632 -0.07799216298933886
-0.20264785703414723 -0.043626770453203845 -0.28207265746922616 0.3948265923098927 -0.2983508939895161 0.4277126640609163 -0.14307439609863656 -0.23223572466377398
0.19891900053122555 0.26064199341801236 0.13293278373877054 0.6600597059706647 -0.02868147374237576 0.34193792132907624 0.05893534810987388 0.2920586176477563
0.41687153160145723 -0.054760369281664945 0.43676783790509033 -0.40665339700040803 -0.4001388424821678 0.2776888406260273 0.34682797734946347 0.46438870007651356
0.09993814975208393 -0.4359833670970399 0.2672397265458291 0.17791200720879155 -0.1315088150540522 -0.6971667108205373 0.3490378478990449 -0.011362157329297259
-0.1559711757934208 0.2071008458618383 -0.37307000552312963 0.4464948912862341 0.39915399187386835 -0.028571424062972344 -0.32713748048066127 -0.13763579277036303
-0.41035064151319545 -0.18655619971130535 0.04921691653224633 -0.19147072581156463 -0.6749928537644241 -0.04453477380420608 -0.5355400950906416 0.44170662746812944
-0.03373479495394305 0.5360243477210437 -0.43988312216947234 -0.03808788552041634 0.2983055558223101 0.056621661736064643 -0.45271813102215486 0.4046118178926466
0.13167835698237382 0.3304681048805836 0.1012825499797887 0.30614796768925406 -0.0903167870188776 -0.48024833505175774 -0.41048129634744307 -0.3538761032759441
-0.0001015523242964278 0.12037965276794048 -0.022394094912040696 -0.3733508952768376 -0.26039769968285004 -0.08137524387520745 -0.24699364804049842 -0.5019347889247731
0.2952102130051681 -0.22593500865066238 0.2902022619923168 0.47451718968169754 -0.2030944270997003 0.4923488654775532 0.13807431579997675 -0.1623935832561248
0.308595397107415 0.29366263751259836 -0.4432615773837365 -0.07774561871463803 0.4353020092731108 -0.39984344606008126 0.402635105326904 0.08870254269665712
-0.030905418843184207 -0.48816121726112877 -0.011895563197633994 -0.4598231065997021 -0.22966638914284088 -0.08136121985177702 -0.005838111453295491 -0.16199248595003551
-0.14155242609832422 0.12940110874367453 -0.16257116654080622 -0.26985702356935726 -0.1709489543140157 -0.33943644941362877 0.24763117620730887 -0.4471931040856675
-0.15811015785041418 0.0997860797315425 -0.34107535434371755 0.2778563915350938 -0.23415750304450178 -0.4102587283039908 0.029909061690855387 0.27651605446091176
0.3921076293927118 0.13337247372773053 -0.436187573004426 0.34218689533930347 0.3741473405409089 0.28853352042976255 -0.4269980345360753 0.39091351855783174
0.37290142462485487 -0.2351992740390867 0.06953611416665363 -0.10196652620762237 0.15228937981783064 0.12135116110505399 -0.2167290416743178 0.25291968593729924
-0.4938166617945456 0.06747622374002049 0.12743260912914317 0.1938936003410135 -0.1262223240843028 -0.4857059266848218 0.36120267655615446 -0.02433478269921485
0.3083611950536471 -0.38056220944558916 0.37556872004655306 -0.4225034019978173 -0.20364837970579264 -0.28276938126983003 -0.5047463334815073 -0.32610397466524477
-0.10269867246181508 -0.41035696141404127 0.11960242209178774 -0.2479635163940751 -0.40263210937727567 0.37708554010289586 0.30357322423676686 -0.5120926278970352
0.7703165586257569 -0.2049842976374211 0.36759349493178484 -0.09815237633526193 0.19767077645670703 0.40012912397524986 0.4286043561673519 0.4026908708094509
0.4237580559987862 0.34013921880151865 0.36292410627806415 0.322007229219663 -0.37243984641001193 0.43425488562066417 0.23168318252197426 -0.00791373306308004
0.24146429942616232 -0.08980636115885425 -0.12422010528917637 -0.09598708379873028 0.03751599233556446 0.4528000378830921 0.25828703307426815 -0.23496495297495046
0.3532118827994896 -0.09922214909821797 -0.3038807158439316 0.2464486431238076 0.41652140147484745 0.23561117294858216 -0.3078932930290342 0.2951171074535237
-0.18870309201908342 -0.3451323628669139 -0.14766536957633505 0.05321336526466582 -0.11884048179855097 0.25627027497189286 -0.35911977726541117 0.4884973346960629
0.3771124673664551 -0.23888916142880565 0.21456449526806468 0.22417599633773583 -0.3926801655366402 -0.3496888992064458 -0.418076456347805 -0.07810788433559598
00000000: ac79 e480 b414 d33f 9029 a68d d353 b5bf
00000010: 8ab8 3fbc f036 d23f 9602 3d1e 71f1 acbf
00000020: 94ce b9f2 5329 d3bf 4725 1ea7 9306 d1bf
00000030: 9ccd 09c3 929f 74bf 7bb0 d052 d615 c3bf
00000040: b78c 577e 853c c6bf a8ef c75f 5e8c cebf
00000050: 70dd 7d57 29aa 903f b9c4 03c4 fc58 d3bf
00000060: c6c0 4509 86e8 c8bf 3650 df84 bfc6 dfbf
00000070: 003c 7e6f 4775 bc3f f43a 6530 6f03 d83f
00000080: 006f ccc1 e757 ae3f b7b4 e6e0 02c5 cf3f
00000090: e05a 27ae 5150 c33f 7c39 8cff 7d7c d6bf
000000a0: 3064 1ac1 1720 cbbf c489 a2fd 9c12 cbbf
000000b0: 0d1c ca27 943d d03f c027 977e 4217 ddbf
000000c0: 9015 ba10 d65e aa3f f76c a006 a08c ccbf
000000d0: 00a1 2dc1 8a0a a3bf 5e35 c83f 9579 c2bf
000000e0: a03e 72fb 87be de3f fabd 30b3 7037 d13f
000000f0: 188c 49d4 c890 ba3f 0214 bfbb ca00 d23f
00000100: 14ad f90a 43d6 c1bf 281e af4e 3fe3 c13f
00000110: 781f 8a23 be3e dcbf 6054 130d 504c c83f
00000120: 8a67 2fd1 dacb da3f 18a6 f08f 078c cdbf
00000130: fe65 ffc8 9b2f d9bf 94c1 62b3 ee20 dcbf
00000140: 98a4 9745 82bd bbbf 54c1 5d14 52c0 d1bf
00000150: d86d 2443 e841 cebf c4bb 9a95 36d8 cdbf
00000160: 14e8 e1fd 115d d93f 8881 109e af20 cdbf
00000170: ec20 2e9f 9153 dcbf fc0b 159a 2339 c1bf
00000180: d05b 02f8 a775 d03f 2611 e240 1844 d2bf
00000190: e478 3d3e 125d c93f b2cc cf5a d104 d8bf
000001a0: a45b a376 5761 c53f 982c 1201 4cfa bb3f
000001b0: 0083 0be5 f9ac b63f d82d 625d 4bf7 b3bf
000001c0: 7877 486f 5df0 c9bf 6039 a780 3f56 a6bf
000001d0: d245 bb79 7a0d d2bf aef9 63c1 d644 d93f
000001e0: 9cb5 1a59 2e18 d3bf c381 0ef0 a45f db3f
000001f0: 73bd 1106 4350 c2bf 0d67 3275 e6b9 cdbf
00000200: d7d4 ea84 2d76 c93f 7f74 6cc1 5bae d03f
00000210: 8eb4 5c03 f103 c13f e9a4 5188 351f e53f
00000220: 09fa e51e ad5e 9dbf f7b7 5797 4fe2 d53f
00000230: 4faa 6b21 c62c ae3f 26f9 d3a0 16b1 d23f
00000240: eb25 b7ee 05ae da3f 20ff 5c16 8d09 acbf
00000250: b8ce ef16 01f4 db3f c023 3bf8 9b06 dabf
00000260: 427e 94f2 df9b d9bf 06fd 3c6a a7c5 d13f
00000270: 0a71 03f9 6d32 d63f 1e7a dd61 8bb8 dd3f
00000280: e0d5 ceec 8b95 b93f 2c08 d2c7 26e7 dbbf
00000290: 5534 6da7 741a d13f 5584 4316 d2c5 c63f
000002a0: a87c e5e5 47d5 c0bf ecb0 da8f 304f e6bf
000002b0: 4aba 72d7 a256 d63f 0b76 21f1 0a45 87bf
000002c0: 6061 930d ddf6 c3bf 0cab f9cf 4782 ca3f
000002d0: cec8 3504 61e0 d7bf e8f2 f94e 5f93 dc3f
000002e0: 9ea1 4a2f bd8b d93f ab6d cdcf d341 9dbf
000002f0: 3475 fd0a d2ef d4bf 4e97 5ab6 0c9e c1bf
00000300: 5c46 4c56 2f43 dabf 1524 50d4 12e1 c7bf
00000310: acf8 d4ad f532 a93f 4743 c0dc 1c82 c8bf
00000320: 1076 fe9c 8a99 e5bf 7b32 0c0a 43cd a6bf
00000330: 9b8d 43fb 2423 e1bf 89bb d9df eb44 dc3f
00000340: c0ff 20e2 af45 a1bf ab4a 6a88 1c27 e13f
00000350: b8ef f189 0b27 dcbf a432 5e5d 4180 a3bf
00000360: 0234 9e2f 7017 d33f e09a cdb2 83fd ac3f
00000370: 30f8 c277 55f9 dcbf 3923 5bf7 28e5 d93f
00000380: 8f47 6a1e d6da c03f 3953 b5b1 6326 d53f
00000390: e094 d137 a7ed b93f dd94 3da5 ed97 d33f
000003a0: da9f 863e 001f b7bf 355e 4083 63bc debf
000003b0: 1ba5 db57 5345 dabf 84fd 99f4 e7a5 d6bf
000003c0: 0000 91a5 0f9f 1abf e7fc bd6f 33d1 be3f
000003d0: 803b 1545 7aee 96bf 9c5d 4927 fbe4 d7bf
000003e0: a7da 051d 5baa d0bf f8e5 250b 02d5 b4bf
000003f0: a1ab 53e4 7c9d cfbf 9102 e58b d90f e0bf
00000400: 5f5a 9360 b9e4 d23f 8789 9638 70eb ccbf
00000410: c4dc 1e82 ac92 d23f 70a7 c458 7d5e de3f
00000420: 1550 3289 fffe c9bf 0cb9 dcd0 a482 df3f
00000430: 1ca5 634f 6bac c13f da28 951c 50c9 c4bf
00000440: 5270 91e8 06c0 d33f 1c1e 0b60 5ecb d23f
00000450: f8ef 9bce 655e dcbf 4862 c909 23e7 b3bf
00000460: a882 6df5 fcdb db3f 7445 16f7 0897 d9bf
00000470: b56f 6608 c6c4 d93f 8845 f4b7 35b5 b63f
00000480: 6079 cd8c aba5 9fbf 6df9 d38b 083e dfbf
00000490: 52f1 3577 b35c 88bf 299d 32e5 bd6d ddbf
000004a0: ccf0 2d4f b565 cdbf 8011 6dc2 16d4 b4bf
000004b0: 0069 321c b4e9 77bf c233 ad76 2bbc c4bf
000004c0: 5581 61d0 631e c2bf 6d63 0f2d 3790 c03f
000004d0: ce5c c8c9 21cf c4bf f2e1 b464 5645 d1bf
000004e0: 4834 08c4 a7e1 c5bf 3b52 53a8 53b9 d5bf
000004f0: 4fe4 a3dd 60b2 cf3f cedb 42d3 cf9e dcbf
00000500: bd03 9122 f43c c4bf 9703 0b9d 948b b93f
00000510: 292f 18b9 2dd4 d5bf dc2d a82c 66c8 d13f
00000520: 4036 d880 dff8 cdbf 4ab5 3dd3 ad41 dabf
00000530: 60dc 4327 7ba0 9e3f e8a0 ae64 70b2 d13f
00000540: 063e 3099 4a18 d93f c471 6c66 5912 c13f
00000550: 9870 3e48 7fea dbbf 8888 26dd 63e6 d53f
00000560: 8e8c e0af 07f2 d73f c0ea 824c 5577 d23f
00000570: 6c7a 7290 ef53 dbbf 924a 7122 ba04 d93f
00000580: de50 d9ef 9ddd d73f 9039 0583 021b cebf
00000590: 5998 3c68 1ecd b13f 0035 596f 7a1a babf
000005a0: 1040 ece8 377e c33f 2320 47a4 de10 bf3f
000005b0: b3d4 0af9 c6bd cbbf ef60 e70c d62f d03f
000005c0: 6728 2833 b19a dfbf 4891 382e 1f46 b13f
000005d0: daa9 5334 b64f c03f 0226 2f68 81d1 c83f
000005e0: 01cd fb98 0d28 c0bf 746b a54f ce15 dfbf
000005f0: 8c53 c2d4 f11d d73f 7fc1 649f 37eb 98bf
00000600: d818 0798 30bc d33f 4063 ea98 215b d8bf
00000610: 9a08 8062 5109 d83f 23e1 81b5 4b0a dbbf
00000620: 6821 5c6d 2611 cabf 014d 37bf e418 d2bf
00000630: 0987 62c8 e126 e0bf 081a 9234 e3de d4bf
00000640: b0ec 90cf 754a babf 3564 3dd8 4943 dabf
00000650: 0118 68ab 439e be3f 54c1 c1bc 44bd cfbf
00000660: be12 8677 b9c4 d9bf f054 a263 2b22 d83f
00000670: ad71 8263 be6d d33f 14e5 2a14 1063 e0bf
00000680: 33ad 5be9 6ea6 e83f a4eb 45eb ec3c cabf
00000690: 3214 bddd a686 d73f 6577 629e 8320 b9bf
000006a0: 73d4 20a8 464d c93f 29a7 692f b79b d93f
000006b0: c55c 2af7 406e db3f fe8e 21ee afc5 d93f
000006c0: cd9a fb1b da1e db3f 8cba 3549 d7c4 d53f
000006d0: 703c d907 263a d73f e1bc a435 c49b d43f
000006e0: 9aba 03f0 0dd6 d7bf 429d f700 d5ca db3f
000006f0: af87 fb65 cba7 cd3f 6cc6 8f45 1335 80bf
00000700: f4ec 975a 4de8 ce3f 4369 26b8 8cfd b6bf
00000710: 2802 b989 e3cc bfbf 6403 c109 9c92 b8bf
00000720: 5004 51d0 4b35 a33f e077 9502 adfa dc3f
00000730: 043b 0256 c687 d03f 48e6 5de2 5413 cebf
00000740: 53ac 4b03 069b d63f 246a 6a6d 9f66 b9bf
00000750: 08d3 1b1a c872 d3bf 421f 2e0f a18b cf3f
00000760: 9fc9 5a61 49a8 da3f 4174 31c5 8128 ce3f
00000770: a5ea 0d12 86b4 d3bf 3031 40dd 32e3 d23f
00000780: 2422 7044 6c27 c8bf 917e d30c a616 d6bf
00000790: a982 8ae6 b2e6 c2bf e32e 0b3f c83e ab3f
000007a0: 4602 c46e 546c bebf bd3c 7c70 bb66 d03f
000007b0: 65e9 ac84 d1fb d6bf f5f9 2c53 8a43 df3f
000007c0: be2d 9054 9c22 d83f 9b50 da87 eb93 cebf
000007d0: 1590 0771 d976 cb3f 26ce 688e ccb1 cc3f
000007e0: 9622 31fd ab21 d9bf 516b 778c 4d61 d6bf
000007f0: 0073 cfc0 c3c1 dabf 7ef8 c7d8 e0fe b3bf

b5 f8 [1, 1]
0.16595100360121978
00000000: aa51 9aea e13d c53f

W5 f8 [1, 30]
-0.14029054511144148 -0.09036415602974546 1.0754316640488586 -0.709001152544089 -0.1698468347686971 0.4214351981087771 -1.130263729571751 -0.22389631468954968
-0.31573321453574876 -0.921334254800764 1.3159844130346054 -0.01642488173647305 0.14861652996736874 -0.10352258969327244 1.3806614907019488 0.10688530490416692
-0.40968810979163806 0.23774084601812429 0.04513183594977743 0.20587922450382734 0.1637150784994392 0.415623948934105 0.34715765482054856 -0.08549192651242254
0.6264480110535308 -0.8917983038009429 -0.968228372766022 0.822328996492141 0.2534896917156634 0.6312701081085439
00000000: 1d88 9863 0af5 c1bf b0de e0f6 1a22 b7bf
00000010: 68c3 22d5 f734 f13f f719 602f 23b0 e6bf
00000020: d490 5484 8abd c5bf afab 5056 cbf8 da3f
00000030: bdd9 a56b 8f15 f2bf 5aad a46a a2a8 ccbf
00000040: 9c49 ac15 f934 d4bf d5b8 a1f9 917b edbf
00000050: 5e78 00ac 450e f53f 2064 9827 afd1 90bf
00000060: d06b edcf dd05 c33f a83c 21d9 7480 babf
00000070: 6a95 d680 3017 f63f c083 fcd8 d55c bb3f
00000080: 805e 477a 5438 dabf 981d 49c3 4a6e ce3f
00000090: 8051 d31e 851b a73f 5cbb 151c 405a ca3f
000000a0: 6f32 029e 9df4 c43f 85ce 0631 9599 da3f
000000b0: f7a8 80bd d437 d63f 4061 7184 cce2 b5bf
000000c0: 2bd0 03b3 dc0b e43f 9e81 ae98 9c89 ecbf
000000d0: 0ddc 8211 bafb eebf 508f 4fe6 8450 ea3f
000000e0: 6eae f2d3 2c39 d03f 3698 a85e 5d33 e43f

p_b1_old f8 [30, 1]
6.644799442728265e-06 1.583064782075305e-05 -9.86764833676676e-05 4.091796826701554e-05 8.420650453251149e-07 2.3416350928858185e-05 0.0 3.7343726384981242e-06
-9.344309079324347e-05 -7.598652284822548e-06 0.0 0.0 -6.203424543032504e-07 -1.909163984068686e-06 0.0 -4.14997321780304e-05
4.716982545622051e-05 2.4892525725965504e-06 8.17406879932355e-05 -2.1832927238309595e-06 -0.00014672809045391516 3.161043293927444e-05 0.000200942793104485 3.3170144480983624e-05
9.818138811562061e-06 0.0 0.0 -5.646702682562173e-06 0.0001043143558028519 -5.371912306548003e-06
00000000: 0ae4 1890 ccde db3e b693 aad5 8199 f03e
00000010: f636 6713 11de 19bf 630b 28af ea73 053f
00000020: 0e22 0b9e 4841 ac3e 1e95 0562 c78d f83e
00000030: 0000 0000 0000 0000 309f b911 8153 cf3e
00000040: 1e33 7313 dc7e 18bf 78c7 b9a2 fdde dfbe
00000050: 0000 0000 0000 0000 0000 0000 0000 0000
00000060: d859 c17b b3d0 a4be 60ed f9ff e503 c0be
00000070: 0000 0000 0000 0000 ff79 a2f0 ffc1 05bf
00000080: 0de2 8ddc 06bb 083f d603 f312 a1e1 c43e
00000090: fad5 a453 866d 153f f8e2 4bde 9550 c2be
000000a0: 2da1 26b3 603b 23bf 102b 9b34 ae92 003f
000000b0: a684 1273 8556 2a3f 1231 6a7c 0564 013f
000000c0: 0672 2ab9 1297 e43e 0000 0000 0000 0000
000000d0: 0000 0000 0000 0000 663c 84d0 19af d7be
000000e0: 7fc7 98fc 6a58 1b3f 7225 d802 0c88 d6be

p_W1_old f8 [30, 2]
1.1182378927605652e-05 1.494092376880798e-05 4.8533435123486236e-06 8.738038268329373e-06 -4.284519112662345e-05 -5.324329669773041e-05 1.4084675782049873e-05 1.8633513670668937e-05
1.2598370818650129e-08 8.270629897568165e-07 1.4406653120421231e-05 6.062311280766565e-06 0.0 0.0 1.2773549373330391e-06 -9.522822263420165e-07
-4.92958289002083e-05 -5.541506053904259e-05 -5.04960150637997e-06 9.188670244164229e-06 0.0 0.0 0.0 0.0
6.33187374373919e-06 -5.531081362214447e-06 1.2831373382793186e-05 -4.616805360211728e-06 0.0 0.0 -9.424851277630662e-06 -1.7782984680246534e-05
2.1251498277968044e-05 2.157223735218328e-05 1.4651941251759034e-05 -3.8789582239748225e-06 4.245313000235536e-05 4.203605805662134e-05 4.046324194182731e-06 -1.883439352594021e-06
-3.866816819275924e-05 -7.566054701729502e-05 1.418452429384669e-06 6.311088120865552e-06 8.527666179366749e-05 9.702794191132304e-05 1.372605618373198e-05 2.755987501774765e-05
8.225108434171728e-06 7.02425304798348e-06 0.0 0.0 0.0 0.0 -7.535101368065839e-06 -6.615115518382854e-06
3.727175373489702e-05 4.467470789435229e-05 -3.8282726154239244e-06 1.5652971579189452e-06
00000000: 04f6 0675 7e73 e73e 998c 3bed 5855 ef3e
00000010: 6bdb 06e8 3c5b d43e 0465 c2d5 3253 e23e
00000020: 523d b48e 9576 06bf 0ef0 8fbe 31ea 0bbf
00000030: 1e59 7719 a789 ed3e e2d3 274f e589 f33e
00000040: 31aa fe10 070e 4b3e 1e62 8fbf 6ac0 ab3e
00000050: f291 f153 8336 ee3e cc41 a46f 5b6d d93e
00000060: 0000 0000 0000 0000 0000 0000 0000 0000
00000070: e0af 3c9b 326e b53e 1093 f6c2 0af4 afbe
00000080: ecf2 9cc8 5fd8 09bf 3f2c 55fb ae0d 0dbf
00000090: 6202 9ae4 f72d d5be f94b df38 2145 e33e
000000a0: 0000 0000 0000 0000 0000 0000 0000 0000
000000b0: 0000 0000 0000 0000 0000 0000 0000 0000
000000c0: 8171 a333 cc8e da3e ad4c 6711 f432 d7be
000000d0: 56cc 8287 cae8 ea3e 0c91 4fcb 415d d3be
000000e0: 0000 0000 0000 0000 0000 0000 0000 0000
000000f0: 6aeb 3bb2 edc3 e3be 587e eb66 95a5 f2be
00000100: bcb8 6dd7 a748 f63e 2cd7 e4dc c09e f63e
00000110: 4f5a d378 33ba ee3e 9f50 f0ea ff44 d0be
00000120: cfa8 9570 f641 063f 53f6 f3f4 fb09 063f
00000130: f890 1420 b5f8 d03e 1d47 e877 4f99 bfbe
00000140: 4e01 6c24 f445 04bf 376f d64c 7ed5 13bf
00000150: 8fb6 86f0 34cc b73e d8ba 75b1 7a78 da3e
00000160: 1657 e1e4 d15a 163f 1417 6759 6f6f 193f
00000170: c8a4 14cc 1ec9 ec3e 464e ac30 0ce6 fc3e
00000180: 796f 9e4b d23f e13e 61d1 c5f9 3b76 dd3e
00000190: 0000 0000 0000 0000 0000 0000 0000 0000
000001a0: 0000 0000 0000 0000 0000 0000 0000 0000
000001b0: 50ae 85e4 c09a dfbe 4068 9e1b edbe dbbe
000001c0: acf6 f3b4 878a 033f 03f2 6046 236c 073f
000001d0: f62e 5190 930e d0be b50b 126d e642 ba3e

p_b2_old f8 [30, 1]
-6.937251221260465e-05 -6.120891469754733e-05 -2.047951069730703e-05 2.5e-323 -1.4388927414565667e-05 5.046626632065697e-05 -0.00012364742596803635 0.0
7.544700886433311e-06 5.128541581473892e-06 -1.4567689935122418e-05 0.0 4.730502988293327e-06 3.2711363263434326e-05 4.841315076047635e-19 1.3029339289707236e-05
-1.2910761813667066e-05 -1.933367616093038e-06 2.6051553329974025e-05 -2.5798351353230414e-05 1.767591095901786e-05 1.7941289218282963e-05 0.0 0.0
0.0 -2.5298124018972366e-05 -8.684237654622059e-05 8.293032099796978e-05 -4.277186495119034e-06 2.1275570237594373e-06
00000000: 419c 4daf 822f 12bf 1be8 bb25 a90b 10bf
00000010: 3d1f 4942 6d79 f5be 0500 0000 0000 0000
00000020: 84ff 1c20 ff2c eebe d73e 0ab5 7775 0a3f
00000030: 065f 314d eb34 20bf 0000 0000 0000 0000
00000040: 380d 9396 0fa5 df3e a21e 8dc6 ba82 d53e
00000050: b8ee 260f f88c eebe 0000 0000 0000 0000
00000060: 5069 9dc2 56d7 d33e ecfd 25e2 7126 013f
00000070: 6f92 c528 7edc 213c bf04 a4c1 1253 eb3e
00000080: 5133 9a97 6913 ebbe 1b41 5b16 e037 c0be
00000090: 2b4b ed1c 2951 fb3e 7f2e a534 310d fbbe
000000a0: 8777 185a d788 f23e 6501 ce01 14d0 f23e
000000b0: 0000 0000 0000 0000 0000 0000 0000 0000
000000c0: 0000 0000 0000 0000 3c04 51d8 e986 fabe
000000d0: c061 2fab e4c3 16bf 070b ee10 5cbd 153f
000000e0: e472 4612 98f0 d1be c44c dbd7 e4d8 c13e
