NeuralNetworks/MLP_model_weights.npz (npz, 33974 bytes, 8 tensors)

W1 f8 [500, 2]
000000 d7 c6 cd 20 77 db af bf 86 83 b7 de 6c dc e5 3f
       -0.0622212626975746 0.6831573820055474
000010 b3 86 bf 0c b3 18 e1 3f 7f c7 3c 56 e0 eb e7 bf
       0.5342650650965964 -0.7475434955906478
000020 71 74 08 90 a9 8c a7 3f 1b d7 15 e9 e8 ff e1 3f
       0.045995043594509684 0.5624889900634317
000030 54 e4 a4 de 96 75 00 c0 ac 13 28 fd ba d8 f3 bf
       -2.0574166673728005 -1.240412701504492
000040 34 22 ec b6 6e 96 ec bf 3b a7 2d 67 91 4b eb 3f
       -0.8933633396819176 0.8529746070100609
000050 a3 5c 87 70 ca b0 be 3f 34 c1 6e 1d f0 e2 a8 3f
       0.11988511321338761 0.048606399147845286
000060 32 4b 8d 9e 13 df d6 3f 26 c0 26 db fb 34 ee bf
       0.3573655174597433 -0.9439677505779442
000070 18 fb 6f fd b1 f5 de 3f ff 5c e8 bb 4f b5 b3 3f
       0.48374604940174626 0.07698534333791328
000080 b6 6e 4f 8b 80 cc f0 3f be ff 83 ce c5 a0 d9 3f
       1.049927276783746 0.4004377857927429
000090 e7 2f a6 06 13 ef eb bf 44 c2 43 c7 7f 7a b5 3f
       -0.8729338769785472 0.08390043845043588
0000a0 a7 a8 27 03 91 12 cf bf 68 f5 e4 b4 56 b3 c6 bf
       -0.24275410322235766 -0.17734798271878138
0000b0 e5 60 09 30 78 db ec 3f 6b 27 46 1d 1e 9b e3 3f
       0.9017907083716891 0.6126852580793928
0000c0 42 45 37 3c 5a 6f aa 3f cd 41 c7 9e 2b 20 e2 bf
       0.05163080201203708 -0.566427049745522
0000d0 d8 62 81 0f 2d a4 c7 3f b6 4a f6 aa 26 84 e5 bf
       0.18469775445080105 -0.6723817195036961
0000e0 68 91 43 8f 0b 30 c2 3f c0 ac 67 10 31 97 e0 3f
       0.1420912217646546 0.5184560127649078
0000f0 fe 3a c1 80 28 06 fe bf 5b f4 e5 52 96 1e ee bf
       -1.8765034703716874 -0.941233789358772
000100 f2 02 e9 3a 36 20 bb 3f f0 31 74 35 b0 fd d4 3f
       0.10596026361691793 0.3279839059839835
000110 22 7e c8 2e 5c a3 e1 3f 74 1e 5f d9 73 79 f2 bf
       0.551191417096508 -1.1546514979435445
000120 32 60 f0 7d e7 62 d0 3f b0 94 1e dd 9e e1 eb bf
       0.2560366372940762 -0.8712915724505788
000130 a4 e7 c6 29 62 56 d1 bf 54 ca ea a9 df 96 e3 bf
       -0.2708974273660891 -0.6121671980566341
000140 0f ea 61 98 4a 59 dd 3f 61 ed 34 da 92 fa c1 bf
       0.458574913798345 -0.14045940069795917
000150 51 00 1b 48 be 73 d5 bf 92 dd 7c 27 43 c0 eb 3f
       -0.3351894096522346 0.8672195216412766
000160 00 98 c8 95 a4 b9 4e bf 40 d8 cc a2 4f 3f a9 3f
       -0.0009376577032227384 0.04931115019137211
000170 96 6b c0 da b5 41 d0 3f e3 40 1c a4 7b a4 d2 3f
       0.25401064264740947 0.29128924394991723
000180 d0 86 3a 6e 62 e0 b5 bf 12 9b 49 9d 3b e2 ef bf
       -0.08545508566978843 -0.9963663169881747
000190 6a 56 df 32 a7 61 eb bf 60 d0 a0 8f 56 08 a1 3f
       -0.855670546875172 0.03326673987649609
0001a0 9c 0d 8c 77 d9 4a d6 3f 2f c1 9c 55 b8 67 ee bf
       0.34831844973106185 -0.950161139689987
0001b0 88 56 a0 fb c7 c7 c5 bf b0 09 10 6f a0 50 c9 bf
       -0.17015933786813187 -0.19777303145390368
0001c0 22 46 11 08 c1 16 c8 3f c6 14 b0 62 05 d9 d6 3f
       0.18819439786834474 0.3569959129093373
0001d0 c8 e7 9f dd bb cd c3 bf cc cb d3 f3 e0 4f da bf
       -0.1547159988547817 -0.41112541018736404
0001e0 b8 c3 f1 e5 bf 87 f9 3f 08 87 5c 95 ae c9 e9 3f
       1.5956419927790488 0.8058693806853805
0001f0 df a2 2f b2 c2 99 d5 bf 3f 5d 15 91 05 12 d2 3f
       -0.3375097980593135 0.2823499600248915
000200 dc ec 67 59 12 bb ed 3f f1 dd a2 84 14 3b e7 bf
       0.9290858980379215 -0.7259619322348368
000210 11 ab 31 3d 62 97 ec bf bb 17 01 16 2a 32 e6 3f
       -0.8934794612117419 0.6936235837717882
000220 6a 50 82 45 33 8a e7 bf c0 c5 20 ec 1b 4c e9 bf
       -0.7356201512907437 -0.7905406581759777
000230 9f 3b 4e 53 a1 21 d0 3f 20 8e 24 b8 66 67 eb bf
       0.25205262313186866 -0.8563722225703181
000240 58 a3 18 44 8a 6f d9 bf 17 f4 dd d2 7e 71 d0 bf
       -0.39743286752723384 -0.2569272097824195
000250 0e a3 ab 39 30 2b b1 3f 4e ba b9 b5 e5 2c e8 bf
       0.06706525238008629 -0.7554806279493478
000260 af ce a9 fc 37 02 fd bf 59 2b 5b 20 54 76 e7 bf
       -1.8130416745815798 -0.733194411464278
000270 23 b4 55 63 45 f0 de bf e9 e3 1d 86 9c b6 e9 3f
       -0.483414980894681 0.80354143328361
000280 1c 39 e5 f4 d4 c5 e3 3f 45 b0 40 ee 9f 58 e7 3f
       0.6178993971932729 0.729568448388371
000290 f0 0d b8 2e 7c 7f b3 bf 38 2a 2a b0 ec e3 cf bf
       -0.0761640180644958 -0.2491432056597931
0002a0 6f 74 8d 2c f3 e1 f3 bf ee c1 af aa b0 bd cb bf
       -1.2426635494550984 -0.21672638258270588
0002b0 80 ca 66 01 49 24 d1 bf 00 90 95 40 4c c0 d7 bf
       -0.2678396714865485 -0.3711119299607617
0002c0 aa f9 01 b3 93 3b ef bf 40 91 aa b4 d7 04 e9 bf
       -0.9760225769276094 -0.7818411377561816
0002d0 0f 2f ec a4 16 be ff 3f 8e 94 b6 19 d7 cf ee 3f
       1.9839083139694969 0.9628711225710889
0002e0 30 d9 6c b8 13 95 d9 3f ec fb 4a 2a bc 65 d1 3f
       0.3997239399935948 0.2718344128624597
0002f0 fa 83 c6 79 14 d5 f1 bf e3 15 98 e9 d2 c9 ec bf
       -1.1145214802602355 -0.89963670371861
000300 f3 ab aa 38 a8 dc ce 3f 3d 1e a9 8a 4e 8a ed bf
       0.2411089207356266 -0.9231331546988667
000310 47 cc 6b c5 9c d1 cd bf d2 8b 86 71 8b 55 d7 3f
       -0.23295936240865187 0.3645962341926722
000320 30 97 1f e5 e0 8e d1 bf 10 b7 8f 11 5b 38 c7 3f
       -0.2743456113370142 0.18140734059800723
000330 fc 32 7b 2a 84 ca ea bf 58 e4 46 9e 66 08 da bf
       -0.8372212247573709 -0.4067627473519386
000340 51 c9 8f 3a 82 87 ea 3f f2 48 a8 36 aa b4 dc bf
       0.8290415900976688 -0.44852691018708335
000350 12 b2 f0 a7 e1 b3 d8 3f f9 0b a1 8f 58 17 e4 bf
       0.38597909355556326 -0.6278498463874477
000360 10 eb 36 65 54 b7 e8 3f 84 19 d0 11 7e 3e de 3f
       0.7723791100355317 0.47256423701801276
000370 d1 21 6f cc 58 b7 dc 3f e6 75 09 c9 e3 99 d0 bf
       0.44869060482281237 -0.2593926871539608
000380 80 97 59 24 31 d3 9f bf 50 00 1c 95 ab b3 d6 bf
       -0.031079070895791983 -0.35471620141470783
000390 94 8c 56 ca 62 e7 e3 bf 24 eb b9 2f 88 9f e2 3f
       -0.6219953491130519 0.5819741184380729
0003a0 bd 4f 52 54 5b cc e7 bf 3e 95 8b 1f bc 83 ec 3f
       -0.7436958929924838 0.8910809150808416
0003b0 6a 47 f3 e5 25 07 f1 3f 38 c8 40 71 4b b6 e0 3f
       1.0642451269563602 0.5222527706121189
0003c0 5d 77 be 57 de fc e7 bf ad 59 88 88 db 0c eb 3f
       -0.7496177400350735 0.8453195253994658
0003d0 98 84 4f 7a a5 4e c0 bf 22 37 96 ea 78 7c e7 bf
       -0.12740009758184523 -0.7339443761609099
0003e0 2a 75 ee 0b dc 85 f5 3f c2 09 e6 2e 2e d8 e3 3f
       1.3451805559228185 0.6201392093647018
0003f0 de b6 2c ec 15 0d e5 3f 54 90 30 cc 03 95 ea 3f
       0.657847367552417 0.8306902874069331
000400 43 b0 fe f7 9c 9d f4 bf 90 bc f9 b3 f6 4d e5 bf
       -1.2884797751712689 -0.6657670512339724
000410 d0 c6 6b 10 83 d1 b0 3f 50 1a a1 ed f0 dc d2 3f
       0.06569689894584063 0.29473517614352307
000420 d5 aa 3d 93 e9 0a f4 3f c0 8d 27 21 f7 03 e1 3f
       1.252664160880774 0.5317340514706572
000430 f0 43 61 81 df 50 b9 3f 00 08 69 f6 de 89 60 3f
       0.09889027508440029 0.002018866990767698
000440 c0 3e eb c5 42 d9 a2 bf e4 92 e6 e7 f5 da db bf
       -0.03681381860735433 -0.4352392925887172
000450 52 08 45 fa 5a df be 3f fb 08 9c 87 45 0f de 3f
       0.12059563264941289 0.4696821045219079
000460 77 ec 50 d5 9a b5 7a 3f e7 bc 72 f9 9b 2a ec bf
       0.006520848100133417 -0.8802013275179917
000470 78 b1 89 ce b3 c6 d4 bf 28 fa 90 94 b9 4f c4 3f
       -0.32462783021653463 0.15868301157202436
000480 3e 34 30 68 f2 88 d6 3f 16 4a 7d c6 84 6b b4 bf
       0.3521085755790557 -0.07976560445721534
000490 81 da d0 8f 72 10 e2 bf 77 d1 34 2b ea eb e1 3f
       -0.5645077523139009 0.5600481838105641
0004a0 90 18 70 62 f3 dd ee bf 0b 8c e6 0a a2 69 e6 3f
       -0.9645935938467733 0.7003946507360309
0004b0 e8 61 a6 b9 d3 a6 e8 bf 4d ae 62 f9 d2 72 e2 3f
       -0.7703646303153251 0.5765166159448626
0004c0 1f 91 c2 47 46 01 e9 3f a3 42 16 12 d5 38 ee 3f
       0.7814055825770402 0.944437537504275
0004d0 4a e2 c0 3f 8d b5 ed bf a8 f1 b6 bb e0 17 b3 bf
       -0.9284120793518664 -0.07458309729458412
0004e0 24 c4 b0 45 14 42 e7 bf c8 15 20 f5 f0 2e e1 3f
       -0.7268163071768226 0.53698013187448
0004f0 be 84 44 d0 57 1e ed bf c2 6b a2 cc 97 6f e7 bf
       -0.9099539821364926 -0.7323721882597669
000500 60 af 21 e9 d6 bc b7 3f 5c ef 6c 29 31 60 e3 3f
       0.09272521201790829 0.6054921921818095
000510 76 5e 85 c0 60 ad 81 3f 24 a2 83 91 3a 84 d3 3f
       0.008631473422311613 0.3049456044232406
000520 f8 c9 b3 45 89 62 e1 bf fc f4 26 7f 5a 10 e1 3f
       -0.5432783471463258 0.5332462771836215
000530 f5 a9 ae 9c c4 88 e1 3f 90 e8 f5 ad 8b cc d0 bf
       0.5479453144264982 -0.26248447407091025
000540 81 fe 33 e2 b9 bc f6 bf ba 04 73 69 26 f9 e7 bf
       -1.4210757099207572 -0.7491638240391219
000550 e4 b1 75 1b 10 2d e8 3f 5a 2a 54 cf 16 47 ea 3f
       0.7555008446047933 0.8211778687849105
000560 ac 70 1a e7 5b bd e3 bf 46 01 7c 22 8c 2b f0 3f
       -0.6168651117073032 1.010631689743677
000570 bd a5 d8 3d 23 23 e8 3f 89 45 a7 b3 99 9b a4 bf
       0.7542892654357086 -0.040249636822078
000580 62 4f 2d 2a 97 5b e3 bf 08 11 dd ef e9 cd ed bf
       -0.6049304794091592 -0.9313859639010227
000590 f8 10 71 6c fa bf ed 3f 83 d9 1b 97 93 d1 dd bf
       0.9296848409653924 -0.46591653591840315
0005a0 b3 4e f2 93 32 91 d8 3f b7 b6 65 bc 98 e4 e6 3f
       0.3838621563711328 0.7154048614153997
0005b0 ae 00 b9 bf e7 a6 56 bf f3 91 d2 fb cf de e9 3f
       -0.0013825667546285936 0.8084487837227797
0005c0 90 9b 99 e4 12 67 b7 bf d0 98 b0 42 2a 85 c8 bf
       -0.09141653138213557 -0.19156387573565903
0005d0 08 2c d2 45 7b b2 ee bf 40 e0 6b 67 d2 0a e8 3f
       -0.9592872966471768 0.7513210315655741
0005e0 e0 d7 3c 81 40 e3 bb bf 50 42 92 c1 26 91 e7 bf
       -0.10893633990494278 -0.7364686756792
0005f0 70 2b 72 06 80 b5 f1 bf 02 81 14 b8 94 ae dd bf
       -1.1068115474506293 -0.46378057457515365
000600 f0 3c 9e 70 a5 d4 b7 bf 0c 7f f2 74 de 45 e6 3f
       -0.09308847426858669 0.696028927242851
000610 ee b1 8b 25 53 7a b7 3f e9 53 15 fb b8 90 e4 bf
       0.09171027819292707 -0.6426663307162218
000620 78 8f 24 31 9e 25 f9 3f 01 42 0a 4d 58 fc e3 3f
       1.571684066738241 0.6245538239182339
000630 38 db 78 59 23 34 d8 3f 38 19 87 6c 8f aa d4 bf
       0.37818225610265044 -0.3229101714936351
000640 6a 9b 7c 2a d9 39 de 3f bd da d1 0e f8 35 e2 3f
       0.4722807803067811 0.5690880097816585
000650 ca 60 8b 87 55 de e9 bf 40 40 c6 1c 22 15 ae 3f
       -0.8083903930046514 0.05875498391390055
000660 95 53 3c 97 65 d6 d3 3f 0b 0e 5b 5a 39 c8 c0 3f
       0.3099607445631645 0.13111035262964807
000670 fa 84 09 3a 66 0f b6 bf f5 8b 16 8a 3e 13 db bf
       -0.0861724750225398 -0.42304957852519404
000680 70 c0 60 7a cc 66 b9 3f a1 9a 48 67 1c cd b4 bf
       0.09922483432524287 -0.08125474473545548
000690 3b 7a 1c a9 6c af a8 3f 43 62 3d 12 41 1b ea 3f
       0.04821338238092606 0.8158269268270221
0006a0 0e c1 db 79 7d c1 76 3f f1 66 96 99 81 ce cf bf
       0.005555620327627032 -0.24848957061185886
0006b0 96 ca a4 25 07 f6 d2 bf 94 a9 bb 68 91 99 ed 3f
       -0.2962663524259964 0.9249960942809587
0006c0 bc bb aa 14 13 b7 b7 bf 68 4f 43 0d a2 8a ea bf
       -0.09263724569858217 -0.8294229754487619
0006d0 50 b3 ba 70 d9 bf e7 3f bf f6 2d 8b 70 73 d4 bf
       0.7421691133255113 -0.31954587547066277
0006e0 90 f6 77 44 e4 7f e9 3f 29 25 50 2e 53 d4 e3 3f
       0.7968617760922871 0.6196685699989405
0006f0 02 3a 89 d9 9e bc f6 3f 66 26 5c 7f 75 62 ec 3f
       1.4210499284268967 0.8870189177989232
000700 a6 9a 24 09 ab 4b 88 bf 1b ba 50 99 61 68 db 3f
       -0.01186307546283889 0.4282459256382098
000710 24 fd 08 b3 93 cd e6 bf a8 d5 33 7c 06 75 c1 bf
       -0.7125948426036399 -0.1363838297326485
000720 e2 1a ab 85 dd 54 f7 3f 02 87 a6 15 84 c9 e3 3f
       1.458219072477441 0.6183491156445771
000730 5e 37 98 d5 12 b6 b3 bf f4 80 f3 6e 58 29 9d bf
       -0.07699697222434795 -0.02847803284828472
000740 a3 31 65 52 cd 10 df 3f f3 8e af 36 94 15 e6 3f
       0.4854005150453082 0.6901341503221076
000750 ac 5e a1 47 ce 3d e5 3f a4 d7 d2 b6 a8 56 dd bf
       0.6637946509390154 -0.45841424802653763
000760 4a 68 20 f8 4d d8 e5 3f 3d d0 31 2e e8 14 c4 3f
       0.6826543661329734 0.1568880296287051
000770 e7 3c 27 37 48 ec f2 bf 78 28 69 88 e1 1c d7 bf
       -1.1826860575127343 -0.36113775559773087
000780 bb ae f6 e5 dc fb e0 bf 22 46 e8 1f bf 31 d5 3f
       -0.5307449809528956 0.33116129032086594
000790 10 94 be cb c6 d4 d8 3f 4b 09 e8 df 66 68 d2 bf
       0.3879868497554648 -0.28762218347414564
0007a0 2f 05 15 fa 46 8e ed bf c1 d6 96 ba 95 87 d6 bf
       -0.923617828790304 -0.35202544423678367
0007b0 4d 8d dd 84 8f d8 b2 3f 2c 80 24 88 10 59 e0 bf
       0.07361695283684817 -0.5108721407923489
0007c0 fe c9 e2 55 1d 0e eb bf 50 60 97 46 b9 cf bf 3f
       -0.845472972627533 0.12426336263104187
0007d0 d4 80 11 9d 45 be d8 3f 72 92 e4 c3 60 2b e7 bf
       0.3866132768507786 -0.7240451646835722
0007e0 90 db 8b 0b 77 a6 db 3f 00 7d 56 2a ff c4 82 bf
       0.43203521850176063 -0.009164803962276924
0007f0 69 1c 1b a2 7d 64 a7 bf a3 af e9 91 e0 42 ef bf
       -0.04568855861503424 -0.9769137239322742

B1 f8 [500, 1]
000000 49 4b 2a 54 10 e9 a4 bf 12 b5 db 53 24 e6 e6 3f
       -0.04084063556105961 0.7155934942108237
000010 1c fd a4 eb 3c a4 ad 3f 08 c9 0e d6 cf e2 e6 3f
       0.05789366127509707 0.715186994630387
000020 82 99 ab 92 93 53 b2 bf 87 1f 36 8a 84 05 52 3f
       -0.07158777552431242 0.0010999483427855687
000030 98 04 ab 90 98 5f d2 3f b3 1c a9 cf e3 c9 c4 3f
       0.28708471420038384 0.16241119041135263
000040 9a 22 a0 c7 27 39 bb bf 71 b8 66 33 18 74 ce 3f
       -0.10634087203664891 0.23791792402102233
000050 19 5b 3f 6d 02 77 d7 3f 4b 35 35 bb 4a 79 e3 3f
       0.3666387621755561 0.6085561424639904
000060 90 a1 22 2d 79 10 e0 3f 06 05 36 97 f5 ac eb bf
       0.5020109063671487 -0.8648632005062218
000070 10 22 08 b9 a7 2b eb bf ea 37 c1 46 0b 18 be 3f
       -0.8490789998914483 0.11755438306246871
000080 a9 a4 71 5f 99 7e a9 3f 52 83 69 94 0e e6 d9 bf
       0.04979399957739734 -0.4046665620172024
000090 18 bd 83 0f 68 20 cd bf ee 48 22 72 19 00 ed bf
       -0.2275514674906638 -0.9062621335199574
0000a0 ac cf 19 bb 66 ac e6 3f 26 81 37 95 de a0 c9 3f
       0.708545079642581 0.20022184644677415
0000b0 34 94 3d a7 e5 4c eb bf 23 d3 78 ef 52 c6 e8 3f
       -0.853136850969014 0.7742094685732791
0000c0 ac e6 7a 51 04 49 d6 bf 90 58 eb 8e 3f 11 e5 bf
       -0.3482065959648064 -0.6583555022614451
0000d0 6d 8d 2f ad 4f f7 d4 3f b0 bf 2d 7c d9 af d7 bf
       0.3275946799532992 -0.3701080048258474
0000e0 2b 01 7d ab 89 e3 e8 3f 98 94 e5 f4 12 aa ec bf
       0.7777756070500222 -0.8957609923496817
0000f0 01 45 b5 b1 ec bd d8 bf 7a a8 dc 29 e5 66 d9 3f
       -0.38659207681946844 0.39690522277908935
000100 9c 70 bd d1 c1 09 dd 3f 13 0a c2 93 4c 7c e2 3f
       0.45372052652761297 0.5776732335946825
000110 6c 73 66 c3 a3 12 e8 bf 7e ec 3f fd 73 d1 e6 3f
       -0.7522753540430194 0.713068003300023
000120 16 aa f0 c9 df 46 e6 3f 40 27 75 48 2e 3a ea 3f
       0.6961516327040183 0.8196021475971307
000130 6e 02 1a a6 46 c5 c6 3f 3f 31 24 9b fc 5d d0 3f
       0.17789538488797824 0.2557364954998497
000140 a0 df 87 2b a4 05 51 bf 20 eb 0f 3a 85 92 a0 bf
       -0.0010389426444117125 -0.032367862069767606
000150 18 8f bd 5b 33 fa e0 3f 9a 65 f9 39 e3 bd e9 bf
       0.5305420676999999 -0.8044296390827868
000160 e8 eb 2d c8 11 76 d8 bf d6 dd 54 28 90 86 c2 bf
       -0.3822063879849211 -0.14473154038726815
000170 2a d7 12 83 93 50 db bf 04 4d 2e 77 f4 89 e8 3f
       -0.4267929821029265 0.7668402030707573
000180 ba 4e b5 10 d8 48 db 3f 8e 34 56 2c ed c1 da 3f
       0.42632104522384007 0.4180863316513034
000190 50 df ad 3d 68 8d e7 bf 26 12 75 92 3e 70 e3 bf
       -0.7360116200133948 -0.6074517117018032
0001a0 65 8c 4d 4f 95 98 e4 3f 77 3d 03 07 b9 17 e2 3f
       0.643625883949778 0.5653958451238584
0001b0 a6 69 eb d9 92 0c ef bf af c3 e1 93 0d 44 c2 3f
       -0.9702848678819478 0.14270181389613643
0001c0 b2 48 1d 55 84 26 e5 bf 52 0a ff 22 7e b8 e4 bf
       -0.6609517729177894 -0.6475210841675312
0001d0 9b d0 fb 30 b5 44 d3 3f f1 75 6b 48 b4 26 db bf
       0.3010685900073981 -0.42423731872790343
0001e0 47 9e 6d 12 aa ed d1 3f 7c 86 e9 78 63 a1 d0 bf
       0.28013088035229256 -0.2598503762038502
0001f0 b8 19 dd 20 5c 10 f6 bf 79 56 3d 73 55 23 ae bf
       -1.3789941104638341 -0.05886332542165191
000200 1e db 21 64 98 39 e6 3f 30 67 c4 6a 22 f8 e8 bf
       0.6945306735713961 -0.7802898488327852
000210 e8 eb 5b bc 14 2d f7 bf 2c 6a cf 63 e8 52 d0 bf
       -1.4485061033035382 -0.25506028887835686
000220 30 32 14 d6 dc 53 ce bf 6b ef c5 7a 7c 48 ca 3f
       -0.23693428471632805 0.20533710474762343
000230 88 61 73 8b 02 2f a4 3f 58 44 e4 e1 d6 a2 c9 bf
       0.039421157381812455 -0.2002819636332187
000240 48 4f 56 3e 75 52 e1 3f 4f ea ef e0 aa 96 e1 3f
       0.5413156716844947 0.5496420281700213
000250 1e 5c 56 a5 53 87 ee 3f 7e 3f 89 ba 87 b1 dd bf
       0.954019377636431 -0.46396058288973296
000260 9b 84 e7 f4 56 f3 e1 bf 0b a9 a1 f3 cd 49 e0 3f
       -0.560954550103037 0.5090093382289366
000270 79 50 91 0b a8 77 df bf d2 ae 37 29 b5 42 e9 bf
       -0.4916782486882379 -0.7893930249242322
000280 d0 bc 49 88 d1 97 e1 3f e1 78 59 d0 8a 90 e4 3f
       0.549782530009816 0.6426443166090189
000290 14 69 df f9 e1 c2 e0 bf 65 38 e2 90 9f 62 d0 3f
       -0.5237893944097629 0.2560194888000125
0002a0 20 ab a6 a5 14 6c f6 3f ac db db 35 f4 5b a1 3f
       1.4013868780845726 0.03390467793899829
0002b0 f5 63 cd 25 10 94 d6 3f 8b fb f6 a3 be 01 e4 3f
       0.352787053028407 0.6252129747807528
0002c0 28 e0 d5 97 d2 f8 cc bf 67 74 fb 03 85 a4 d7 3f
       -0.22634346402969752 0.3694164790047751
0002d0 5b c7 fd 9a 9c 14 e5 bf d4 5e da 22 89 b1 e8 bf
       -0.658766081540516 -0.7716718369219628
0002e0 4c ef b2 46 5c dd ea bf 3d 40 95 9c 74 b2 cb bf
       -0.8395215397681368 -0.21638353009848457
0002f0 f8 6f a8 d5 8d 2f d8 bf 2f d3 ca 84 01 fc e9 3f
       -0.3779024683478833 0.8120124429320635
000300 1a d0 8b ba 96 7d ec bf dc 36 63 86 be 1c ea 3f
       -0.8903306621055009 0.8160088181263876
000310 62 0c c9 73 16 9a f2 bf b0 44 39 a0 b4 a1 ed bf
       -1.162619068418984 -0.9259894494408822
000320 8a ea b7 77 c2 3c 92 3f f8 0d 63 56 86 7c d3 bf
       0.01780990462973845 -0.30447538791869944
000330 db 7b 97 0e 65 12 dd 3f 5f f6 8f 47 d5 fc b0 3f
       0.4542477266786002 0.06635792729499589
000340 b5 bd cf e7 c0 b7 e8 3f 3a 76 0c 3e 79 36 bf bf
       0.7724308517044195 -0.12192495121822669
000350 9c d8 1d b7 7f ab e1 3f b7 68 43 97 a6 94 bf bf
       0.5521849228378133 -0.12336198037101807
000360 66 4e df fb b4 ab ce 3f 9b f2 90 59 35 6d da 3f
       0.23961508081866895 0.4129155516309681
000370 2a e5 b1 d7 2e bb e5 3f 4b 0f 03 c0 31 f1 f2 bf
       0.6790994847098422 -1.1838853359667663
000380 da 83 5c 41 f4 58 c3 bf 4c db 12 fa 48 06 d1 bf
       -0.15115216437791795 -0.266008609974439
000390 e4 2e 56 69 09 09 d8 bf de 43 9a 8a 92 4f e3 3f
       -0.3755515602758648 0.6034634310800546
0003a0 6f 7e 5b 1d 39 f0 cc 3f ca 88 38 49 97 8b ec bf
       0.22608102735010813 -0.892039912232826
0003b0 24 85 8e 88 54 fa e6 bf 77 6c 3e 3a be 4f d4 3f
       -0.7180578868029994 0.3173671311175847
0003c0 6c 44 e9 3a eb 23 eb 3f 69 25 3f a8 ee a5 d0 3f
       0.8481346274003392 0.260127701094993
0003d0 42 24 56 f3 0b 46 f2 3f 7b 2c 6d e2 e5 b5 c3 3f
       1.1421012406665487 0.15398858600596896
0003e0 38 95 a6 a5 73 84 e3 bf e1 95 1e 14 c5 84 e2 3f
       -0.609918426071693 0.5787072556456075
0003f0 94 4b a5 f0 f1 8b eb bf 9a e3 13 b2 f1 ad ec 3f
       -0.8608331394301438 0.8962334135131755
000400 35 b5 76 fc 61 2c eb 3f 10 b0 bf 6a 41 02 cf bf
       0.8491678172046365 -0.24225633346884523
000410 74 a9 1b e5 8f f6 d2 bf 7e 25 3b ed 1e 56 e5 bf
       -0.2962989556678146 -0.6667627938669936
000420 7b b9 71 79 d1 5d d0 3f 0b bb d2 40 5e 59 d6 3f
       0.2557262121180412 0.3492046006239639
000430 8e 67 fb 5c a4 4e e9 3f 9e a2 f2 d1 0c 44 de 3f
       0.7908498588615076 0.4729034471770691
000440 27 ad da b3 aa b9 e3 3f f0 9e e8 c2 0d 90 e4 bf
       0.6164144051339563 -0.642584686928755
000450 4e 1d 84 d8 7f 4c ea bf a7 db b1 61 3b c4 cb 3f
       -0.8218383053617033 0.2169260241532502
000460 ac 29 5a 99 35 af ef bf 9d 4d 60 fb 9a 3e d8 3f
       -0.9901378626976132 0.3788211302609968
000470 16 ae 4a e4 0f 59 db bf 29 cd be fa 38 c4 fb bf
       -0.4273109177981679 -1.7354059023608193
000480 c8 7d bc e9 1d 8f e5 3f 3c 49 c1 25 f8 9b ed bf
       0.6737203183328626 -0.9252892243769462
000490 18 80 3e a4 4c 24 d7 bf af 38 c8 2f 7e 86 e5 3f
       -0.36159053840128896 0.6726675923580582
0004a0 54 c9 4b 5b fd f2 e8 bf 28 f3 72 66 8a 7e dd 3f
       -0.7796618254781529 0.46084842686450367
0004b0 8c b6 85 f6 d5 67 e3 bf ac e6 62 c3 48 8f e7 3f
       -0.6064252676857946 0.7362407508982947
0004c0 cf e9 07 49 47 05 d5 3f e6 e2 a3 67 ab 94 eb bf
       0.32844717151570263 -0.861898138448933
0004d0 04 77 d1 d1 15 6c ee bf ad 24 20 0d 6c 18 ca bf
       -0.9506939981472162 -0.20387030259033648
0004e0 d1 50 0b 31 a7 ae e4 3f 00 2d bd 6f 47 ce eb bf
       0.6463199575323647 -0.868930547943279
0004f0 30 e3 74 17 fc e0 dc bf 9c 38 34 6e fe f8 d2 bf
       -0.4512319783275869 -0.29644737970455437
000500 59 e6 bc 1c ae a3 c6 3f 34 0f 2c 6b 7a 34 ec bf
       0.1768701210328796 -0.881406030006906
000510 24 47 bf 61 03 62 f0 3f 43 9b a6 a5 62 a9 f0 3f
       1.0239290064095679 1.0413538428053506
000520 71 a2 97 9a b3 52 e7 bf 7e 54 47 89 45 0f e7 3f
       -0.7288454074269578 0.7206142121527959
000530 c8 44 9b bb 55 91 e5 bf 96 de e5 72 47 3a ed bf
       -0.6739910759153185 -0.9133641475773
000540 c2 ba d7 69 76 e9 dc 3f 64 e1 cb 1f 4f 9e f0 3f
       0.45174942337227375 1.0386496774718461
000550 56 d2 64 e7 c5 87 dd 3f 57 77 0b 5f fd ee e2 3f
       0.4614119300561347 0.5916735512107419
000560 90 5b a1 c6 52 14 d5 bf 64 25 ed 83 5d ec ed bf
       -0.32936543843737187 -0.9351031853376921
000570 92 52 b8 d4 91 61 e9 bf a8 b9 a6 92 38 09 c0 bf
       -0.7931603579223341 -0.1252814022131592
000580 7e d2 59 fc 9a 9e e5 bf 00 0f a3 59 6f 1b cb bf
       -0.6756110123374837 -0.21177474858097156
000590 a4 c3 3b ff 95 34 9c 3f b6 b9 33 9c de 16 e2 3f
       0.027544349387372727 0.5652916956731164
0005a0 a8 2f 0c e6 62 00 d0 bf f6 44 a3 16 6b 31 e2 bf
       -0.2500235792692771 -0.5685325090545621
0005b0 44 db 12 8a 22 18 fd 3f e6 9f e2 22 04 4d de 3f
       1.8183923142912173 0.47345069319498945
0005c0 30 d5 76 97 05 5e c3 bf fd 1b 00 db 6e 4d b2 3f
       -0.15130681892120768 0.07149403425874819
0005d0 0c d5 07 c6 ab 52 eb bf 0a d7 21 02 ef 7a e4 bf
       -0.8538416736397791 -0.6400065461773192
0005e0 93 3e c0 1c 7c 37 e9 3f 48 e4 5b 09 42 78 e5 bf
       0.7880230485479437 -0.670929926184848
0005f0 9c 7d 8a 2a c6 ef f3 3f 4c 0a e8 9f 61 23 db bf
       1.2460385953671453 -0.4240345059953696
000600 65 d3 6c 6d 12 b1 b3 3f 3d c0 70 dd 06 1f e1 bf
       0.07692065402518507 -0.5350374531753982
000610 42 cf e1 f6 d8 a4 e6 bf 98 f5 a0 24 be 27 d4 3f
       -0.7076229879298597 0.3149257047369587
000620 56 fe 75 c8 0d d4 f1 3f fb 5b 70 3e 3c 4f da bf
       1.1142709570412044 -0.41108614060925647
000630 60 36 39 87 26 1c b1 bf a6 5c 67 e0 4b 00 a7 bf
       -0.06683579255442273 -0.04492413629821472
000640 6c 5d d3 51 f2 d0 d5 bf 82 0e d5 b9 dd 55 ef bf
       -0.34087808600221225 -0.9792317037140068
000650 32 ad ab 9f ae 14 ea 3f be 90 f0 6d 89 8b f4 bf
       0.8150246733252173 -1.2840666098136775
000660 8c 7b 48 43 1d 4f be bf f0 bc 22 88 ac fa d6 bf
       -0.11839468853621166 -0.35904992384435186
000670 f6 3e 94 90 a9 fb e1 bf d8 14 c5 10 99 35 51 bf
       -0.561970503216769 -0.0010503763943046553
000680 30 3f ff c5 0d 5b e1 3f 7a 6d 9b 2c 2f 85 e5 bf
       0.5423649661188161 -0.672507845996207
000690 70 88 91 9f e5 c0 f0 3f 7d 56 31 61 86 d3 ec 3f
       1.0470939858573978 0.9008209131522588
0006a0 b0 25 69 46 a7 d3 c0 bf 78 b1 39 3f 32 13 71 3f
       -0.13145914972328177 0.004168697621576782
0006b0 0f 85 4b d1 a1 4a d1 bf 74 e9 81 dc 7b ef e6 3f
       -0.27018018187489273 0.7167338663851255
0006c0 0e fc 68 5a 38 be eb bf 2c f1 71 b2 8a 0c df 3f
       -0.8669702306577862 0.48514048982885316
0006d0 40 bd 1d b9 a6 62 c8 bf b7 55 e7 2b f1 94 e5 3f
       -0.19051059759974898 0.6744314057820507
0006e0 60 75 6c cb 18 1d e4 bf 53 a9 39 8d 6b 86 ea bf
       -0.6285518620604016 -0.8289087065034358
0006f0 6c ae 75 b3 1a a9 e4 bf d3 49 cd 24 a7 01 ec 3f
       -0.6456426148483394 0.8752017706668148
000700 16 29 10 49 80 5a ed bf 90 98 8c 88 14 e5 d8 3f
       -0.917297499371929 0.38898194632418726
000710 1c dd 84 e9 56 00 ee 3f fe 36 b1 eb 01 d2 e9 bf
       0.937541442958636 -0.8068856814731757
000720 28 3b 76 bb ff 43 da bf 72 b5 61 0e 25 20 e1 3f
       -0.4104003267938645 0.5351739197628105
000730 17 dc 5b 57 a8 38 ce bf d8 5c 99 de 6c b2 ea bf
       -0.2361040522152684 -0.8342804286611694
000740 cd 88 77 26 dd b5 ea 3f 41 46 08 68 64 ee d9 3f
       0.8347001792247056 0.4051753059330601
000750 f1 33 d1 3f 4d 2b d7 3f da d7 44 5c 56 84 e6 3f
       0.3620179293837387 0.7036544611098592
000760 a2 ba 60 bf 08 47 ef bf 7b 84 6f b1 f5 a8 e3 3f
       -0.9774211633537855 0.6143749681033478
000770 60 db c6 8a 58 85 cf bf 7b 35 73 e0 25 e2 ea 3f
       -0.24625689293108177 0.8401059516706221
000780 3e db e8 84 87 8a e2 bf 0a 9e 6b 08 46 f0 e9 bf
       -0.5794103237047705 -0.8105802692852546
000790 24 98 30 64 36 88 ef bf c2 60 83 7d 6f fa b9 bf
       -0.985377498324628 -0.10147759260451308
0007a0 3c 06 22 4b 6e e3 ee bf 21 db 1a 54 da 32 da 3f
       -0.9652625529708483 0.40935381139154187
0007b0 71 17 e7 6c 4d 1a cd 3f b6 5c a1 d2 b1 1e ed bf
       0.22736518685831755 -0.9099969018815475
0007c0 6c 9f d2 75 ca 04 de bf 50 0a 2c 79 a6 53 e3 3f
       -0.4690424109089608 0.60396121660626
0007d0 11 63 7b b1 7f 68 db 3f d0 1d a3 97 be fb cf bf
       0.4282531007025208 -0.24987013248595114
0007e0 97 15 b6 10 a8 c6 f8 bf 3f 70 7c 9c a2 cb c5 3f
       -1.5485001232894768 0.1702769531337953
0007f0 db fe d6 2e 55 cd e0 bf 36 a5 d0 a7 60 9c c6 3f
       -0.5250650324669225 0.17664726442425555

W2 f8 [1, 500]
000000 ed 6e 13 1d 40 b6 e4 bf 81 eb d5 bf 75 b3 d4 bf
       -0.6472473686112302 -0.32345336660335283
000010 99 3c e4 36 23 5d ce bf f6 9b 90 97 d5 2b 03 c0
       -0.23721733265162895 -2.3964034882551415
000020 1f d3 8c 8c e3 94 dc bf ed fb d7 62 d9 72 cd 3f
       -0.44658745503993375 0.23006741834976144
000030 88 f2 60 81 04 b0 ba bf 5f be 29 7b 1d 3c c0 bf
       -0.10424831541690527 -0.12683456910916655
000040 3f 9f b3 4b 87 46 f3 bf db d8 67 bb fd 93 e5 3f
       -1.2047188717933321 0.6743153248087553
000050 e7 1d b1 80 e7 02 e8 bf a7 03 6f a1 f2 9a e8 3f
       -0.7503545297158184 0.7689145234108893
000060 b5 72 e7 cb fa d4 bc 3f a0 0a fe 92 0a a2 a5 3f
       0.1126248119175653 0.042251902049448065
000070 cc 01 36 35 69 d3 e5 3f 6e 8f 56 39 82 72 00 c0
       0.682057002952257 -2.055912445024595
000080 b0 d4 f3 81 ba e0 e3 3f e4 8d 74 7c f3 cf ec bf
       0.6211826837667527 -0.9003846579329857
000090 fa 42 a6 0b b6 d4 ea 3f 4c e0 58 ea 7a a9 e1 3f
       0.8384657123116022 0.5519384934514249
0000a0 d9 7f fe e0 2f e6 d8 bf 99 3a ef ea a1 d1 e9 3f
       -0.38904950115283793 0.8068399036945549
0000b0 bc 0a 14 44 ac 39 ec 3f 7e 73 8c 44 a3 41 e2 3f
       0.8820401506094053 0.5705124224510738
0000c0 06 ab 1f 52 ea 18 ed 3f 8e 53 5c 62 79 0f ee bf
       0.9092914203623372 -0.9393889351946301
0000d0 ca a3 00 30 68 58 b5 bf 06 78 29 75 31 7f e6 3f
       -0.08338023349700943 0.70302651293946
0000e0 3d 48 cc d4 8a 4d b4 bf 7e c1 9c 56 2c c2 e7 3f
       -0.07930820174468152 0.7424527827879925
0000f0 f2 54 41 d4 c8 d1 f8 3f 0f 45 43 03 fb 10 c9 3f
       1.5512169162005276 0.1958307043010241
000100 f0 2c 43 79 97 62 d2 3f 32 71 a7 71 48 c8 e3 bf
       0.28726755945235904 -0.6181986064725946
000110 c6 f0 75 ac 7b 06 e8 bf 05 79 e1 0d ca 8e e9 bf
       -0.7507913940785549 -0.798680331335874
000120 8d 98 fe 96 91 3e ca 3f 89 14 a9 80 d1 66 bd bf
       0.2050344455030352 -0.114850133811233
000130 04 fd 47 bf aa 63 00 c0 c2 bf 40 ca 0e 8b dc 3f
       -2.0486655181736086 0.4459874129415732
000140 5d b9 36 1b 34 88 e0 3f 1a 87 47 7c fd d9 e4 bf
       0.5166264087218156 -0.6516101291019567
000150 f6 23 55 62 31 9b f4 bf 30 2a a3 d4 93 a3 d1 3f
       -1.28788889323391 0.2756089760338538
000160 88 e1 1e bf 9b b4 e2 3f 27 57 d7 79 40 25 fe bf
       0.5845469219994337 -1.884094692174992
000170 a2 39 75 38 1c ec e5 bf c9 05 2d f7 4e 63 f4 bf
       -0.6850720503514831 -1.2742452292735484
000180 0c 63 14 ec 56 38 d9 bf 74 ec 30 b5 42 e2 e3 3f
       -0.39406369261409746 0.6213696993721798
000190 f0 e8 a5 d8 92 68 de 3f 06 08 74 f5 a3 d4 ee 3f
       0.4751326671318017 0.9634570878990878
0001a0 58 3b 36 b1 b2 bb d6 3f f3 30 a9 5e 36 40 da bf
       0.35520617776721997 -0.4101692127631075
0001b0 86 09 c5 59 5e 12 f5 3f 3a 61 bd 47 15 e2 da bf
       1.3169845110538474 -0.4200490189155236
0001c0 60 91 06 b8 25 58 d2 bf 72 2f 89 63 b8 07 e4 3f
       -0.28663008662467426 0.6259424156246338
0001d0 63 9d c9 73 71 cd d3 bf 55 f3 27 e5 c4 e1 f1 bf
       -0.3094142561662549 -1.1176194144638505
0001e0 c2 7c 18 fb 9b 63 cd bf 4e 94 95 c7 9a 5b e8 bf
       -0.2296023345997807 -0.7611822031145807
0001f0 f9 05 15 da 64 b6 f9 bf 6f 80 92 aa 68 2a e7 bf
       -1.6070297736008554 -0.7239268619050686
000200 cd cf d1 a5 26 22 fa 3f 1c 9d 5e e0 05 c3 e4 bf
       1.633337638600085 -0.6488065130442098
000210 0d 2a b8 46 fe 90 ff 3f 84 f1 74 c3 92 b5 e2 3f
       1.9728987467266308 0.5846647088542771
000220 f4 7f ad c6 d5 e5 e7 bf a3 1a fa 36 71 10 e6 3f
       -0.7468060379433141 0.6895071100014615
000230 48 0f 2a b5 bb 80 cd bf 00 85 f6 95 7b e4 75 bf
       -0.23049112649834513 -0.005344851262095718
000240 5d d6 3b 3f 23 5c d1 3f 4a 3f 33 29 b8 d1 c9 bf
       0.2712486379162778 -0.20171262752273328
000250 59 a8 23 e4 a9 b0 e8 bf 4f c8 f0 59 9e 9c b9 3f
       -0.7715653854222736 0.10004605956854216
000260 48 b4 a6 fe 5b 18 e4 bf c1 78 d3 1e 4c 2a ec 3f
       -0.6279735540061973 0.880163250167037
000270 f8 27 67 b3 a0 b0 d4 bf 30 1a 74 aa de e5 d7 3f
       -0.3232805015546769 0.3734051384530259
000280 1a df a7 d1 58 e3 c8 3f db 87 aa d6 27 bc df 3f
       0.19443807828042098 0.49585910762300295
000290 8c 27 69 59 cf 40 ee bf 50 c0 94 31 bb 00 d4 bf
       -0.9454113718322659 -0.31254463045025194
0002a0 66 12 82 1f b6 f7 00 c0 7c ae cb 60 f3 d2 eb 3f
       -2.12095284095476 0.8695008173503562
0002b0 3f 16 34 f7 2d cb e8 3f 86 63 0c 34 94 30 b4 3f
       0.7748021915619531 0.07886625548088774
0002c0 b0 b8 b9 86 03 53 c1 bf ad 93 eb b0 c7 7a c0 3f
       -0.13534587934868147 0.12874694956476898
0002d0 45 f0 82 5f 20 2c de 3f d3 b4 da fe 8b 53 94 3f
       0.4714432652215275 0.019849955968926757
0002e0 cc 7d 49 a0 2f 1e e4 bf 31 b0 e7 b8 25 f4 e1 bf
       -0.6286848192793797 -0.5610531436373148
0002f0 78 11 5d 71 88 f1 c1 3f 93 f4 8c 14 f1 4e f3 bf
       0.1401835015805195 -1.2067728808172304
000300 a8 d1 fb 32 4b 2c d0 3f 5e 08 3e cc 3a 1d d0 bf
       0.2527034757506734 -0.2517840380243167
000310 56 9d 26 56 ed e0 fa bf 92 41 c0 d5 f8 7a e4 bf
       -1.6799138417498702 -0.6400112318824986
000320 b9 6a 4f bb 2b 8e e6 3f cc 8a da 4d bc 43 e2 bf
       0.7048548372652795 -0.5707685013370223
000330 ad 65 36 72 e2 7a d5 3f 9d 03 42 98 83 c8 ea bf
       0.3356252780300462 -0.8369768117701032
000340 1c 77 f3 69 35 6f e3 3f a7 49 dd 5e 46 8e d8 bf
       0.6073252744060684 -0.3836837698373991
000350 46 09 a9 6c 7d f7 9d bf c6 8d 1d 7b 50 15 bb bf
       -0.029264411694620372 -0.10579398160694273
000360 da 94 95 50 ba 04 d0 bf d6 12 d9 1c ef 81 e8 3f
       -0.250288561530693 0.7658610881267929
000370 25 80 98 2f 29 a0 da 3f 29 ab 93 e0 1e d6 f9 3f
       0.416025444488698 1.61477554059338
000380 d9 99 e5 a1 25 a6 e8 3f 0a f8 31 94 67 14 ee bf
       0.7702816164062894 -0.9399907965123486
000390 49 cf 59 68 07 b0 f8 3f 3f c1 2e e6 e6 90 e3 bf
       1.5429758144573091 -0.6114382262949575
0003a0 9f 4c 3a 5c 35 8a 8f bf 28 bf 2e 4a ab ef c2 3f
       -0.015400330426280027 0.1479391205043552
0003b0 ae 31 36 2c ad fc f0 3f 18 84 53 b2 60 81 ea 3f
       1.0616885878581388 0.8282931788381829
0003c0 41 a7 c5 f0 78 81 e3 bf 75 e0 fb 5c 63 a7 e1 bf
       -0.6095547392444375 -0.5516831222621607
0003d0 4f c9 09 c9 5a 47 f0 bf ea 1a 0c 64 f2 b0 d4 3f
       -1.0174205639892369 0.32329997797243826
0003e0 ae 16 38 2b 6b 59 e3 3f de a4 e0 74 71 68 dd 3f
       0.6046653598902674 0.4594997064001073
0003f0 c2 35 2c 14 b2 06 eb 3f c3 05 4a c7 3e 32 8d 3f
       0.8445673364637332 0.01425599141771528
000400 b2 5d d0 98 17 bf e2 bf 9e d9 f5 37 de ca e7 bf
       -0.5858266815802635 -0.743514165208399
000410 30 11 71 b5 b9 8b c7 bf d0 7e 51 36 2c f9 e9 bf
       -0.18395158156830282 -0.8116665898232558
000420 91 38 a3 27 ea eb e4 bf e0 09 73 b2 00 f9 f2 3f
       -0.6537981771632692 1.1857916804007047
000430 0c 2c e8 b8 bd f7 e1 bf aa 92 eb 9c 37 70 da 3f
       -0.5614918338263819 0.41309919666518147
000440 f8 d5 b2 db cf cf e6 bf a0 65 9b 7b ae c5 a5 3f
       -0.7128676691997375 0.042523815716502655
000450 76 43 2f 91 08 c8 eb 3f 2e 4f 4c c1 4e be c7 3f
       0.8681681476246996 0.1854952281797692
000460 c0 96 6f bb f9 71 9b bf 62 58 dd 58 7f fe cc bf
       -0.026801969590357855 -0.2265166458043409
000470 c5 e3 52 5e 5a 7e d0 bf cb b5 56 d2 87 e9 01 c0
       -0.2577119752054922 -2.239028590460952
000480 65 e9 4b 8e 8b 4b da 3f 8c 08 2f f5 74 49 ec bf
       0.41086090942521586 -0.883966902613126
000490 3c eb b3 45 9a 7a d1 bf e9 bf 8d af fd c9 f2 3f
       -0.2731080704394804 1.1743141992155819
0004a0 c0 72 d9 78 e4 03 c1 bf 82 38 67 1c f4 ad ca bf
       -0.1329312887272831 -0.20843364130854886
0004b0 be b1 41 42 73 ed ef bf d6 42 bb b1 02 91 ab bf
       -0.9977356237482622 -0.05384071750234447
0004c0 5f 26 26 41 14 20 f6 3f 8c de f6 0c e5 67 e3 bf
       1.3828318161853514 -0.606432462044681
0004d0 34 66 23 43 96 be cc 3f 1d 94 ea 7f a3 89 df bf
       0.2245662525008797 -0.4927757977660024
0004e0 21 c1 21 d7 93 f4 e0 3f d4 66 11 89 0a 89 d7 3f
       0.5298556520265586 0.36773932824654065
0004f0 1c e7 31 8b 50 f5 ee bf e2 d3 0f 9a f0 9d ec bf
       -0.9674456328059224 -0.8942797669429832
000500 24 47 ae 45 13 c1 e0 3f 2c a7 d0 b6 75 71 e2 3f
       0.5235687600090597 0.5763500757795774
000510 7c f3 5e d2 82 9d f0 bf 8e 62 49 41 b7 73 fd bf
       -1.038454839478816 -1.8407509374866637
000520 fe 63 e5 e5 5f 12 f4 3f 00 41 2c 6f 63 a5 b6 bf
       1.2544859867396094 -0.0884611269395954
000530 a8 6c 32 6e 8e 80 e9 bf 94 cb a0 19 f8 88 da 3f
       -0.7969429161343173 0.4146099329256512
000540 26 93 f7 63 00 ae 00 40 51 dd 8a 46 d6 d1 fb bf
       2.084961682312854 -1.7387297397197765
000550 3e 6f 3d 0b 0b 6a 00 40 e3 11 20 38 b7 10 d3 3f
       2.051778877079328 0.29789524537070927
000560 34 c6 93 32 99 e8 e3 3f aa c2 86 9e 21 6d ec 3f
       0.6221433627926616 0.8883216949671653
000570 e0 e0 84 7a 84 9d be 3f 84 f0 8b 4b 80 6f e4 bf
       0.1195910262221136 -0.6386109805603302
000580 3e 72 a7 39 96 27 ed bf 40 cc b9 bc ce 7c cd bf
       -0.9110823751503359 -0.2303713246834338
000590 27 40 bb c5 d9 8a c4 3f d1 03 38 44 61 a6 b9 bf
       0.16048738627296297 -0.10019500651834724
0005a0 60 39 97 4d 09 d0 a5 3f 56 82 29 b7 d6 39 e7 bf
       0.04260281631615004 -0.7258103921304364
0005b0 1a 99 06 42 c1 41 05 40 01 14 0c ee 10 b7 c4 3f
       2.657106891466481 0.1618367349948642
0005c0 60 20 2a a5 fa eb a4 3f b5 9f 27 e6 bc fa c3 3f
       0.040862877523125674 0.156089413051857
0005d0 b8 26 85 9b 14 ca e1 bf 0d f1 35 97 95 07 f7 bf
       -0.555918029546965 -1.4393516451519333
0005e0 62 dd 9f f8 76 8d cb bf 92 43 f7 f3 72 be e9 bf
       -0.21525466098658358 -0.8044981732328884
0005f0 59 ed 41 10 7f 7e f9 3f e0 df 20 55 ab dd bc 3f
       1.5933828959521945 0.112757404597573
000600 c6 eb 1e d3 fc 14 d8 3f c1 a3 58 f1 44 d5 e5 bf
       0.37628098122848674 -0.6822838510316772
000610 20 f9 c3 32 0e 38 e6 3f 56 44 7d 89 fb f1 e5 3f
       0.6943427077783646 0.6857888875330314
000620 cd 25 8f 33 71 3e f7 bf ce 58 84 5a 51 9a b1 bf
       -1.4527446760206317 -0.06876095256697853
000630 66 dc df 8b 27 a5 ee bf 58 de 20 73 71 06 e9 bf
       -0.9576604587481483 -0.7820365189172191
000640 e0 d5 66 51 e9 43 a0 3f b8 8c 4c a8 c4 99 d7 3f
       0.0317681228511153 0.36876026568843256
000650 34 eb 3c cf d1 93 d8 3f 41 f9 99 a4 c2 31 00 40
       0.38402219045717634 2.0242970332612065
000660 93 e4 04 7d 89 4d e3 bf 62 7a d7 52 8c 10 df 3f
       -0.6032149736194178 0.48538501825342995
000670 68 f6 47 ca 59 c6 cd bf c4 5b b6 62 d0 2e ef 3f
       -0.23261568428999913 0.9744646003699633
000680 c8 87 2f 27 66 6f ea 3f 36 e9 88 b3 04 9d e0 bf
       0.8260985150666267 -0.519167280820773
000690 e9 58 df ca 66 b0 f0 bf 3a 33 5f 78 bf df e3 bf
       -1.0430667805390448 -0.6210629797948066
0006a0 4c aa 3b 38 af ee da bf 2f ad 14 e4 3a 16 d4 3f
       -0.42081814280996777 0.31385681413185557
0006b0 e8 9a 00 90 43 d5 e4 bf 4d ac 24 2b d6 1d fd bf
       -0.6510331928774038 -1.8197843251498569
0006c0 08 ea d9 a1 fe 63 dc 3f fa 9c ee 09 49 21 cc 3f
       0.4436031895235435 0.21976578698124866
0006d0 28 e7 af 78 fa b3 ea 3f 13 29 4e 21 e7 2f c1 3f
       0.8344700200243311 0.13427437902675673
0006e0 84 5e 85 fa 58 64 e9 bf a8 72 78 fe 2d bf df bf
       -0.7934994595515978 -0.49604368067393034
0006f0 30 b1 0b 56 16 dc d6 bf 2b e2 dd 92 44 d5 f9 3f
       -0.3571830597200174 1.6145673500997286
000700 10 b6 23 a3 2b 67 bf bf e5 e2 8d 7b 66 9a cd bf
       -0.12266800625703689 -0.2312744239132122
000710 ad c0 94 81 9b 10 e5 bf 20 12 03 44 cc 3b c2 3f
       -0.6582772761230636 0.14244988747499665
000720 64 8e d2 05 93 88 ee 3f e7 6c de 6e 3c 1b e4 3f
       0.9541716684074797 0.6283247151763164
000730 38 26 e9 97 a2 8d c0 3f 64 d9 f8 42 78 63 db bf
       0.1293223611594827 -0.42794615307084016
000740 ee 31 df 07 f4 78 02 c0 25 9e b3 38 b4 91 c2 bf
       -2.309059201716301 -0.14507153290399902
000750 a0 c1 92 f6 ed 39 e3 bf 57 d4 f0 72 fb 4e c7 3f
       -0.6008214774974938 0.18209784614888022
000760 0c 15 78 fc f7 af eb bf a5 63 b6 b0 ad 20 ec bf
       -0.8652305537258669 -0.8789890719809718
000770 80 2f fe ce 7b 42 bc 3f 02 ce 12 b4 59 36 e7 3f
       0.11038945964372537 0.7253845707950293
000780 34 8e 86 71 61 14 d7 3f 46 a5 3b 6d 06 a8 e4 bf
       0.36061893545613377 -0.6455108769852493
000790 50 71 5a 95 b7 a7 ee bf 64 83 cb 55 d3 d0 f1 bf
       -0.9579732815796351 -1.1134827948919446
0007a0 08 e8 d6 2f 1c 52 cf bf e5 e2 c0 a2 b9 f8 c5 bf
       -0.24469330154335034 -0.1716529888815536
0007b0 f3 a8 8b 79 04 88 d9 3f 54 15 9b 0c 05 d0 eb 3f
       0.3989268481224279 0.8691430326659124
0007c0 98 76 af 30 df ee e0 bf 88 c7 97 52 17 c1 d4 3f
       -0.5291591597449097 0.32428534570419076
0007d0 62 22 06 1e 52 ea ec 3f 36 54 ad 15 63 27 e6 3f
       0.9036036096959601 0.6923079894428443
0007e0 ba 5f bc 83 34 b0 03 c0 7b 6f e8 76 82 93 da bf
       -2.4610376636373674 -0.4152532731256923
0007f0 43 c6 78 21 3c 97 de 3f b8 6a 79 a0 53 33 e5 3f
       0.477980644881516 0.6625154623282787

b2 f8 [1, 1]
000000 3e 1d 04 ce a1 e2 e5 bf
       -0.6839150451423064

p_b2_old f8 [1, 1]
000000 63 1a 0b f0 26 6e 71 3f
       0.0042554398539268205
