NeuralNetworks/MLP_model_weights.npz (npz, 16974 bytes, 4 tensors)

W1 f8 [500, 2]
000000 3e 33 ad 6c 9d a1 b7 3f 9b 02 3b 8c 39 b4 e5 3f
       0.09230979827152638 0.678250097167694
000010 29 ec fd f6 0f d4 e2 3f 8b 8e cb df 3d b5 cd 3f
       0.5883865188656091 0.23209355762002234
000020 cf 95 dd 05 cb f3 d6 bf 4e 93 a3 e9 21 1e e2 3f
       -0.3586299474030427 0.5661782801877082
000030 18 2d 21 01 a6 b8 f9 3f 29 a2 f6 37 ce 0d e4 3f
       1.6075801891445902 0.6266852467570675
000040 92 ac 4c 57 08 9a ee bf 6c 96 2c 7a 25 64 e5 3f
       -0.9563028054302711 0.6684749017919791
000050 28 4d a3 df 86 01 e1 3f b8 42 2c cf c5 32 e0 bf
       0.5314363830497415 -0.5061978384347503
000060 ff b4 ec a7 b3 5e 7f bf 7b a6 76 ef 1a 99 e2 3f
       -0.007658674031330691 0.5811896016140986
000070 24 b7 e3 e9 d3 4a ea bf ae b7 0a c4 27 b8 d0 3f
       -0.8216342514185482 0.2612399496527996
000080 ad 1c b5 6b fa 06 ed bf a3 65 06 19 1e 25 d6 bf
       -0.9071018317853451 -0.34601547664495963
000090 ac 83 00 e0 6f 5e dc 3f c4 c7 fc 49 fa 56 d4 3f
       0.44326397776790816 0.31780869698843284
0000a0 d4 b3 e5 84 98 bc d9 bf 4e df 88 8f 73 f9 ed bf
       -0.40213597276925594 -0.9367006114398266
0000b0 ef 78 8d 3b 79 c7 ef bf 49 d0 c4 c1 94 5e ee 3f
       -0.9930998004090535 0.9490455421969354
0000c0 d7 90 b1 bd ea 01 e5 3f f2 40 ec 9e 9b 45 e6 bf
       0.6564840035394138 -0.6959970573389269
0000d0 ba 36 ff e4 10 bb e8 bf f0 51 3e 81 05 dd d7 bf
       -0.7728352043720499 -0.3728650819914767
0000e0 50 33 18 07 82 b6 c9 3f f0 7b 6f ab 59 49 ba bf
       0.20088219973004096 -0.1026817363303818
0000f0 f5 e1 8b 9d 37 2e c4 bf 89 3a e0 74 c4 61 d8 3f
       -0.15766043846794245 0.38096724904691165
000100 23 77 5e 36 91 63 e0 3f c5 6e 94 f8 10 40 ea 3f
       0.5121542035956036 0.8203205924105182
000110 f1 7e 72 f3 c5 13 f6 3f 8b dd 69 b6 1e 3f d7 3f
       1.3798274526270087 0.3632275372869677
000120 2c b1 eb 22 67 a6 e2 3f e9 2f 5f e4 1b 0e e6 bf
       0.5828128511471156 -0.6892222843539432
000130 93 a5 60 39 6b bd 01 c0 1c 64 38 63 d0 3c ea bf
       -2.2174896700495963 -0.8199235856910749
000140 56 32 ff ca d6 18 e0 bf 3a b0 fa 61 e2 41 e7 bf
       -0.5030321087629754 -0.7267925180108314
000150 a2 93 55 7a be 97 e1 bf f8 75 9c c8 1c d3 d0 bf
       -0.5497734441129192 -0.2628852805226809
000160 0f da 1c be fe 3d e8 3f 56 4d e5 70 ef d1 e7 3f
       0.7575677598131864 0.7443768696779596
000170 9e cb e3 1e 73 58 c7 3f 57 9a 88 41 52 2a d7 3f
       0.18238677032749434 0.3619580879189121
000180 d0 1e 43 c7 21 02 d1 3f e0 92 e7 1b ad 11 dd bf
       0.26575512370298515 -0.4542038700586044
000190 a0 36 1d 9b b6 7d be bf aa 14 b6 70 40 97 e6 bf
       -0.1191057327934808 -0.7059633447066933
0001a0 e6 8a 16 15 2c 07 e6 3f 99 33 eb 30 42 96 cd bf
       0.6883755123020279 -0.23114802731143128
0001b0 0c c6 93 b4 ae 51 dd 3f a7 e2 af 4d 4f 00 e3 3f
       0.4581105006646744 0.593787814838909
0001c0 d4 81 c1 74 5f 2f d6 3f ed 87 15 7c 9d 0e e7 3f
       0.3466414108461582 0.7205340789334947
0001d0 52 0d a3 a2 83 ec e7 bf be 5a ae 7e c1 d3 e0 3f
       -0.7476213623525985 0.5258491014709177
0001e0 58 21 9a d2 2a 54 e9 bf 5e 61 91 14 57 b1 bc 3f
       -0.791524325687571 0.11208099605699348
0001f0 58 ca 38 e1 12 3b d3 3f 00 3c 1b ae 89 68 6e 3f
       0.3004805755073554 0.003711956888629242
000200 9c b8 89 b7 86 9d ec bf c8 f1 75 d9 15 7b eb bf
       -0.8942292771078146 -0.8587750670699785
000210 4a df 96 b8 2c 32 e9 bf 12 e8 cb 18 33 d0 ed bf
       -0.7873748402844083 -0.9316649898821672
000220 54 0d ff 9a 8f 26 e3 bf a0 f7 41 ba f6 50 d8 bf
       -0.598457148291724 -0.37994163693644545
000230 ea 50 60 f1 ce 77 e9 bf 6a 66 9a 52 36 2f e7 bf
       -0.7958750452403625 -0.7245132077543535
000240 e2 89 7a 08 d5 49 e8 bf 12 b3 8b ca 0d 4b e0 bf
       -0.7590127149199442 -0.5091618495913244
000250 ed 17 ef 8a 90 c3 91 3f 18 7e 73 d9 02 b9 e8 3f
       0.017347582321029554 0.7725843665211327
000260 f4 05 f4 cd 3a 9b 72 bf ae 3a 76 0f 53 62 eb 3f
       -0.004542569832894017 0.8557524969090389
000270 17 8d 51 1c de 48 f3 3f cb 9b 24 bc a3 eb da 3f
       1.2052899461930957 0.42063229916896877
000280 34 f0 ec 57 a5 02 e5 3f e3 23 a8 50 41 ed e2 bf
       0.6565729825301845 -0.591461808712776
000290 77 42 d3 d2 0f 0c db 3f 80 65 c2 9f 59 8d d1 bf
       0.42261119449998524 -0.2742523250722897
0002a0 42 da 70 fe d2 68 ad 3f 93 b9 ab 0e ef b9 e9 bf
       0.05744037013976257 -0.8039469992198057
0002b0 80 d5 8e 2e b6 99 96 3f 52 fd a6 f5 a8 3a e3 bf
       0.022070738403006995 -0.6009106443306484
0002c0 e0 75 28 f3 32 ea e4 bf a6 c9 b1 c3 58 18 d8 3f
       -0.6535887479000699 0.37648600683965083
0002d0 b4 92 0d f1 58 6f f9 3f 04 d4 a3 22 6e 21 e2 3f
       1.5896844307073197 0.5665808369218444
0002e0 30 e8 55 db 56 64 cd bf 10 d8 d0 4e c6 ae dd bf
       -0.22962461194748718 -0.46379239746909295
0002f0 cf 05 5f 8b 7c 7a e8 bf 0f 46 d4 6e 61 1b e6 3f
       -0.764951965531674 0.6908423580773063
000300 00 79 97 a2 79 b9 eb bf c8 68 a1 9c ff f1 c4 bf
       -0.8663910079592654 -0.16363520763372308
000310 e0 51 7f aa b1 26 cc 3f 1c a0 b0 92 e1 50 e7 bf
       0.21993084740701274 -0.7286231865919066
000320 9e db 62 a9 e6 da f8 3f c7 b0 1a 06 47 c0 ea 3f
       1.5534426323554054 0.8359713668083025
000330 83 90 c8 dc c0 30 fe 3f bf 0f 3d d5 05 f4 ec 3f
       1.8869026779512132 0.9047879376234887
000340 40 c6 43 73 b6 77 95 bf 5a 70 0d 52 1d fd e0 3f
       -0.020964480195237778 0.5308977701747708
000350 37 1b 07 ae bb fd dc 3f f4 f5 2e ff 74 a7 ee 3f
       0.4529866408815226 0.9579415306140491
000360 72 26 53 cc 7d 2b e9 bf a4 71 8f b3 8a fc da bf
       -0.786559008666883 -0.42166392836750277
000370 d3 fa 84 9e 4d 79 e5 3f 5a c2 fe 55 05 89 eb bf
       0.6710575195391705 -0.8604761771767457
000380 51 af 18 a0 73 e6 e1 3f af d9 23 e9 03 1c e5 3f
       0.559381306351023 0.6596698335186398
000390 94 44 04 44 f8 d0 e2 bf ca 37 6f 79 dd e9 e5 bf
       -0.5880090073061575 -0.6847979900137429
0003a0 01 ac 9a e7 24 ac df 3f 0e bc 58 2d 50 45 cc bf
       0.49488184564205545 -0.22086527074995427
0003b0 63 e1 4f c6 6f 2e b4 bf 8b 43 56 d5 68 26 e9 3f
       -0.07883356658556333 0.785938660310522
0003c0 78 86 9f b9 87 97 eb 3f 33 e7 bb 9c 31 b7 b1 3f
       0.8622473359539091 0.0692015655185088
0003d0 d1 fe 7d 20 ec 3c cd 3f e4 ba 9d 75 68 c7 e9 3f
       0.22842170321017943 0.8055918023290727
0003e0 b2 68 e2 db 94 63 ee bf 76 c5 e0 ad 74 69 e8 bf
       -0.9496559424035438 -0.7628730197958891
0003f0 d6 f1 62 42 04 48 ec 3f 42 cc 1e a8 67 e3 e8 3f
       0.8837910935031299 0.7777593883132641
000400 2c 8d 96 58 a9 2b d9 3f c9 a4 5f 36 01 22 ce bf
       0.3932898869627077 -0.23541274218522393
000410 5a 23 d3 85 e2 6e e1 bf 93 71 06 a3 f9 f1 dc bf
       -0.5447857488407906 -0.4522689907114678
000420 a6 b3 14 18 0b 23 ef 3f f3 ba 08 fb dc a8 e7 bf
       0.9730277510003489 -0.7393631842622582
000430 78 ef b7 5b 9e 9f d7 3f 18 6d f2 1b dd 56 d1 bf
       0.3691173453987555 -0.27092673997113215
000440 41 17 35 5c 4d 58 df 3f 3a 06 1c b5 f5 c7 e4 3f
       0.489764537855411 0.6494091546339356
000450 fc 61 bd ca 8e 5e 01 c0 05 d6 62 9a e9 bc f4 bf
       -2.1711707915349034 -1.296121218748682
000460 45 cb 95 a3 25 80 e0 bf ab 3e e3 b3 3c cd ce 3f
       -0.5156429476759078 0.24063833983972435
000470 4c 20 c3 ed 3f e1 d8 bf f8 31 aa ba 70 c7 e9 3f
       -0.3887481519600484 0.8055957456395495
000480 a6 97 e1 b6 26 32 e8 3f cf 55 bd 24 6e 8b e3 bf
       0.7561219760798294 -0.6107702939577225
000490 68 ca 31 75 05 39 c8 bf 64 1f f2 24 b4 df d6 bf
       -0.18924015257251203 -0.3574037895964379
0004a0 10 7d 16 4d 9d 23 da bf 68 64 45 65 cd bc cb 3f
       -0.40842373397931997 0.21669928974987163
0004b0 cb b1 ae 72 45 38 e9 3f a5 fb 79 77 3e 95 db bf
       0.7881190528765328 -0.4309841315043122
0004c0 b8 eb b1 58 72 e2 ed 3f 7c 32 f4 53 7c 19 c4 bf
       0.9338924152683523 -0.15702776049910827
0004d0 b2 93 35 4a 44 d2 e4 3f 5a 54 56 ea b2 b5 cf 3f
       0.6506673287773224 0.2477325100159387
0004e0 7c b0 8c 25 85 4b cb bf 97 79 8c 9b a4 e0 e7 3f
       -0.2132421906802654 0.7461722410260333
0004f0 01 43 25 65 91 2c a0 bf 0c b0 f9 c7 de f7 b3 bf
       -0.031590026471013395 -0.07800094968996535
000500 a0 27 82 14 1d 90 b0 3f c8 72 d7 5e dd 71 c0 bf
       0.06469899893468645 -0.12847487574517502
000510 e0 1c fa 05 80 2a eb bf 20 63 a4 1c fa e8 b3 bf
       -0.8489379994142858 -0.07777369689246116
000520 e7 f4 06 77 17 f7 e4 3f 84 d9 ed ae 62 bc dc bf
       0.6551625561475277 -0.448998137311172
000530 cb c8 84 bd db 43 d6 3f 06 9a ff ac d0 4d bb bf
       0.3478917456406065 -0.10665611480326484
000540 ff 07 2a a8 71 c9 d0 bf 96 ab f4 07 83 32 c7 bf
       -0.26229516432078975 -0.18122899902786277
000550 0c ae 79 40 a6 00 e1 3f f3 2d b5 eb 5b 9f eb 3f
       0.5313292750628889 0.8632030109087608
000560 50 34 cc 02 88 50 c3 bf a2 f1 ee 2f 06 42 b2 bf
       -0.15089512001614702 -0.0713199488663521
000570 48 2d f0 22 a6 e7 d8 bf 28 2c fd 8d 4a 20 e8 bf
       -0.3891387311166068 -0.7539418004247453
000580 68 04 0d c7 a3 cf e4 bf b8 87 31 6a 4e b0 c2 bf
       -0.6503466499053845 -0.14600544152477624
000590 96 63 4a ff 6f 9f ed bf 80 12 91 37 dd 51 b4 3f
       -0.9257125841278249 0.07937414747818572
0005a0 d0 99 2e f5 5a cc dd 3f f8 78 e8 f3 d1 2c ec 3f
       0.46559785789068275 0.880471207030296
0005b0 e9 04 d0 5f de a9 ed 3f bd 09 08 a2 21 30 f0 bf
       0.926985919126449 -1.0117508248664386
0005c0 80 0a 44 16 9b fd b2 3f a8 06 fa 04 06 3a cb bf
       0.07418221753690979 -0.2127082371044271
0005d0 14 9a 16 5c cc e2 ef bf e2 26 74 58 ab a0 e0 3f
       -0.9964353369330774 0.5196129539119421
0005e0 ba be 4a 47 5a ad d7 3f 15 4b e9 ca 7c 6a d8 3f
       0.36995560609919276 0.3814994794421847
0005f0 40 f0 c7 60 ac 13 f0 3f c5 24 1c 2e be 1e ec bf
       1.0048030643947783 -0.8787527943215073
000600 30 91 56 25 cf f1 eb bf 1f 43 5c a8 63 c0 e5 3f
       -0.8732677201519774 0.679735020474343
000610 74 d8 c8 c4 59 a4 df 3f 50 aa b4 cb fa 81 ca bf
       0.4944061681484364 -0.20709166475838225
000620 f0 f8 31 54 15 09 ba 3f c0 3f ea 51 9a 5a dd bf
       0.1017011004023265 -0.45865495681300317
000630 37 e9 5b de 87 66 ee bf 18 a9 16 f5 cd 4d d3 bf
       -0.9500159590673211 -0.3016238110964351
000640 58 9e 27 20 8c b4 d7 bf 66 eb c5 63 a4 d8 ef bf
       -0.370394736672528 -0.9951955746358692
000650 ae 43 de 73 30 56 d4 3f a0 32 37 fb c8 d3 b4 bf
       0.31776057543998604 -0.0813565839118362
000660 6a 7f 6e d8 d1 a6 da 3f e1 9a c1 e1 5c 90 bd bf
       0.4164318669881967 -0.11548405181529688
000670 a2 4f 91 c1 b6 d7 e6 bf 54 23 0b cd 55 6a ee 3f
       -0.7138322620980839 0.9504803662067425
000680 f1 8a c3 7e 43 20 00 c0 73 a9 9e 7f bd c9 f0 bf
       -2.0157537368225964 -1.0492529854915034
000690 61 85 8b f9 79 40 f4 3f 4b e5 de a8 c3 72 e3 3f
       1.2657413242198674 0.6077593134170142
0006a0 e6 69 73 1a a8 4f e4 bf cc 53 df 53 c6 c1 e7 bf
       -0.634723712598597 -0.7424041402942918
0006b0 c2 18 5c bc a7 2c e5 bf 94 37 9a 50 f1 bf ec bf
       -0.6617010764027997 -0.898430497576316
0006c0 d7 97 1f b7 c4 b3 eb bf 9a 3c 51 70 8b 65 d5 3f
       -0.8656943871144404 0.33432279556741096
0006d0 70 30 a6 b0 8d 49 e5 3f 0f ce 8b d9 ce 6b ba bf
       0.6652286958865385 -0.10320751963791273
0006e0 c5 58 16 99 10 18 c1 bf b0 f9 c6 fb 81 5b cb 3f
       -0.13354690051045828 0.2137300948506442
0006f0 8c 2c 3d 26 77 ce e5 bf 50 e5 40 72 7f ea c0 3f
       -0.6814532992224414 0.1321563060644544
000700 a0 dc 03 f8 64 49 d5 bf a6 60 df 15 e7 7b ee 3f
       -0.33260463924620787 0.9526248385618785
000710 91 93 aa 45 42 16 e9 3f 12 01 08 78 2c fd eb 3f
       0.7839671478910636 0.8746549934731169
000720 86 da 80 e0 84 a2 e2 bf 17 e8 c4 4d af b4 e9 3f
       -0.5823387512999296 0.8033062476090461
000730 3e a7 b1 67 c6 06 d3 bf 9c 24 66 e5 02 f9 be bf
       -0.2972885143886862 -0.12098711109696797
000740 26 5f 98 3f 7e 78 fc 3f ea 3f b6 06 59 21 e9 3f
       1.7794172748744557 0.7853207713214918
000750 f0 76 4d 6e 95 7d cf bf 08 8d 6c df 2e d6 d0 bf
       -0.24602001081341696 -0.2630726987719787
000760 4b be 23 83 38 2f ce bf 70 d4 b1 f9 6c e5 ca bf
       -0.23581606295873522 -0.2101265162670276
000770 db 7c ef ae 64 c1 c1 3f 2b d7 af 1d 7e d4 e3 3f
       0.1387143949677697 0.619689043028051
000780 a0 01 1a 4c 28 cb e8 3f af 76 72 e3 e3 18 a1 3f
       0.7747994886740805 0.033393022074262084
000790 ca ae a8 8f 46 1d ef bf 00 a1 fe 9c 62 69 81 bf
       -0.9723236852491592 -0.008501787582489317
0007a0 f5 10 07 36 6c 89 d6 3f f2 54 de 6b c3 e2 e4 3f
       0.3521376159299188 0.6526810747915575
0007b0 5b 9d 86 fd 36 ca eb 3f c6 75 2f 48 92 ab eb bf
       0.8684344245602164 -0.8646937761183657
0007c0 71 2c 16 09 e9 48 b1 3f ed 8a d6 1e f7 43 e7 3f
       0.06751877281037523 0.7270465471559341
0007d0 88 01 4a 87 ca 9d ca 3f c8 35 22 25 45 43 cf 3f
       0.20794040304100414 0.2442404204670494
0007e0 8f ba bf 11 65 88 01 c0 7c 04 01 18 1c d7 f4 bf
       -2.191599024451825 -1.3025170266776334
0007f0 80 b8 c4 55 ce 46 c5 bf 0c 7f 7c 45 eb 46 d4 3f
       -0.16622332752143976 0.31682855401776133

B1 f8 [500, 1]
000000 41 01 7a 5d 0d ed de 3f 1e 62 c4 35 63 68 da 3f
       0.483218518529629 0.4126213097638657
000010 4b ec 4c 33 ee 6b d9 bf 68 56 91 64 4f df f9 bf
       -0.3972125531178718 -1.6170190742899653
000020 8f 92 b7 2c ef f7 dc 3f 66 54 96 a3 48 45 ee bf
       0.4526327072801814 -0.9459574885428423
000030 0d d6 9c 38 4a c2 c3 3f 24 9b ef a1 33 fd be bf
       0.15436675800599212 -0.12105105117335008
000040 72 53 d6 73 a2 66 ea 3f 12 fb 90 e7 a5 e7 ee bf
       0.8250286352582477 -0.9657773516445067
000050 b4 07 c1 1b 15 7c d6 bf 9b aa df 3c 89 d8 e3 bf
       -0.35132339201311 -0.6201826275767702
000060 7c 1b 53 62 ec 1f e3 bf 78 4f 25 92 3c 8e d4 bf
       -0.5976468964007462 -0.3211814334110765
000070 38 a5 3a b9 a9 ae e7 bf cb ed 3e 7c 6c 7f cc 3f
       -0.7400711648707903 0.22263866488161307
000080 72 28 c8 f0 0d 26 ed bf 49 ec 9b a0 d6 41 e3 bf
       -0.9108953192492335 -0.6017869126220684
000090 94 6f df cb 95 2c e2 bf c5 c8 b8 39 1e c2 d0 3f
       -0.5679425222292473 0.261848026627501
0000a0 96 dd db b9 f4 48 e6 bf 66 a0 3c 0e ff 7a ef bf
       -0.6964057569556867 -0.9837641981184901
0000b0 72 87 2c e2 67 4c db bf 30 1b 31 4e b3 f1 e8 3f
       -0.4265384396295452 0.7795044448074346
0000c0 28 52 bc 0b 61 24 de bf c0 a4 fc 44 3b 75 9c bf
       -0.4709704031568287 -0.027790952764153998
0000d0 a7 6f a1 1f ea 1f da 3f 79 4a c8 ed d7 26 e1 3f
       0.40819790924956084 0.5359916347682222
0000e0 d2 a9 2c 76 4f de e3 3f 82 70 21 c4 af f2 e8 bf
       0.6208874996275944 -0.7796248274494391
0000f0 ff f3 9d 13 55 a1 e7 3f c0 2a 29 2c 99 b6 eb bf
       0.7384438880104652 -0.8660398352161209
000100 90 55 17 90 57 25 cc bf 48 e8 18 39 8d 87 e5 bf
       -0.219889588696486 -0.672796832578805
000110 2a f6 33 09 7a 07 e5 3f 80 e3 38 9e eb 2f 8d bf
       0.6571626834626774 -0.01425155712705517
000120 66 df 2f 54 84 e2 e0 bf e4 26 84 6a de c4 df 3f
       -0.5276509899403947 0.4963909187505193
000130 93 38 5c 2d c8 14 d8 bf e0 03 99 6a 4a 4e f7 bf
       -0.3762684290858342 -1.456613937756849
000140 c6 99 5d fc fb 4e c6 bf e5 c9 71 9b 27 ae d8 bf
       -0.1742854101423303 -0.3856295602810447
000150 b9 5d 5d c2 fe 0c cb 3f fe ee d0 94 3a b6 e0 bf
       0.2113340806051676 -0.5222447306218496
000160 f3 2f d8 42 41 ec d7 bf f2 a8 ea 48 b1 1d f3 bf
       -0.37379485633641635 -1.194749150114657
000170 40 92 b8 48 f0 02 d7 bf 81 14 d2 3d 6d e1 d7 bf
       -0.3595543584981762 -0.37313395535631605
000180 78 cc 7c aa 93 30 c9 bf 40 a3 f9 ae b8 59 cf bf
       -0.19679494690499033 -0.24492558044155466
000190 22 0b 90 81 0f ea b3 bf d5 c6 a1 f4 af 71 ef bf
       -0.07779023087645645 -0.9826278474776823
0001a0 3e 90 b9 6b ad ef ee bf e2 6c 32 e9 83 3c df bf
       -0.9667574981690519 -0.48806855939046845
0001b0 ec c3 1b c6 0c 5b e6 bf 36 88 35 35 70 e6 df 3f
       -0.6986144894891573 0.4984398383732044
0001c0 70 a3 f1 ea 20 fa e3 3f 46 46 3f da c7 67 e3 bf
       0.6242832745311784 -0.6064185392990076
0001d0 9f 4e 84 71 e3 21 e9 3f 80 78 26 0f 28 b5 d0 3f
       0.7853867737889749 0.2610569141342083
0001e0 bf 65 d8 f5 85 9d bd 3f 72 04 58 27 a6 67 e3 bf
       0.11568486454088765 -0.6064024704393332
0001f0 89 22 05 fc 44 90 f0 3f 56 e5 aa 59 81 7a ed bf
       1.0352220387013935 -0.9212042571372574
000200 89 0f 7f e3 44 3b de 3f d4 b6 e7 80 7e 4f eb 3f
       0.4723674985545974 0.8534538762739552
000210 ae 06 0e f2 f5 66 dd 3f 46 20 d0 59 b8 76 e0 bf
       0.45940922392046957 -0.5144922022018441
000220 a4 91 f8 66 7e 68 db 3f 0e a6 0d 37 d2 a4 f3 3f
       0.42825279289015783 1.2277395391960257
000230 e1 0c 74 fb b3 6e e5 3f 04 87 e5 c6 b9 4a ec bf
       0.6697635565946279 -0.8841217884730388
000240 45 63 68 ba 95 bd df bf 48 80 dd 83 a0 f8 ee bf
       -0.4959463425052955 -0.9678499770634597
000250 c0 be ce e0 0b 2e d2 bf 36 dd 9f cb d2 a0 e6 3f
       -0.2840604491602612 0.7071317650833524
000260 5c 0c 54 12 aa 84 de bf cc 2d dc 66 de 45 e9 bf
       -0.47684718885301947 -0.7897789010034386
000270 37 f2 71 8d f0 69 e7 3f ee 08 7b dd fd bb 40 3f
       0.7316820871925022 0.0005106916023225585
000280 80 44 a3 45 87 0b d8 bf 0c 50 1b 92 b2 b1 de bf
       -0.37570363808215035 -0.47959579723578893
000290 e9 3d 38 b8 01 31 bb 3f 02 17 2c 7b d0 2e e9 3f
       0.10621653316069736 0.7869646459300557
0002a0 e8 a4 d2 cc 6c 2c e3 3f f8 c3 7c cf d9 62 80 bf
       0.5991729736753344 -0.008001042980682257
0002b0 f4 ac fc 7d 66 0f d8 3f 92 06 34 38 bd 08 ee bf
       0.37593996337336866 -0.9385667894095653
0002c0 50 89 25 72 0f 1e d9 bf dc 5a 1a 79 fe 8d e4 bf
       -0.3924597372735166 -0.6423332562725039
0002d0 b5 24 03 50 b6 c4 c3 3f 96 51 d5 88 01 8d d7 bf
       0.15444067866181901 -0.36798132288574814
0002e0 e0 5f cd 8c d2 8f bf bf 82 75 21 de 62 eb e7 bf
       -0.12328830659441747 -0.7474836672296734
0002f0 d5 e2 31 e5 65 30 b2 3f 20 9e 06 f8 15 c5 c8 bf
       0.07105099530771082 -0.1935145817817423
000300 e6 8a dd b8 6f 10 e3 bf 9c 8c 26 c4 5a 77 ef bf
       -0.5957563982632024 -0.9833196478906703
000310 b0 6b d2 b9 e1 2f ef bf b3 42 8f 90 30 96 d0 3f
       -0.9745949391684601 0.25916685216092644
000320 00 ed 01 5f b9 cb 75 bf 15 92 88 75 9c e0 e5 3f
       -0.005321239572477099 0.6836683555198443
000330 85 df 9f 55 ba 81 e2 3f 80 d7 78 20 de fc ef bf
       0.5783359215119935 -0.9996176370830057
000340 90 3f fd f2 e2 d8 fa 3f fb 04 f8 56 e8 77 b5 bf
       1.6779508106010077 -0.08386089442503313
000350 10 df 4b af 65 d7 bd bf 32 bf 76 d0 cb 8f e8 bf
       -0.11656795053192703 -0.7675532409248034
000360 e8 7f f6 39 92 68 eb 3f c0 26 2d ce 9a b4 b8 3f
       0.856515038689392 0.09650580915072293
000370 52 5f 01 27 25 5d e9 3f 3a 01 d1 15 5e d2 ee bf
       0.7926202546904995 -0.9631796289541292
000380 9c 55 e6 38 91 89 eb bf 21 11 20 6f 3b dc d4 3f
       -0.8605428801844712 0.3259419045646315
000390 09 5f 57 83 23 78 ea 3f 8e c6 d9 10 7d d3 e4 3f
       0.827165371442761 0.6508164719691238
0003a0 88 46 ef b9 c0 ab f9 bf fd f0 46 8f 7d 6c e9 3f
       -1.6044318450043722 0.7944934652691981
0003b0 35 bf 6b 6c fe 9e e9 3f 86 ef 35 5a 1d 3a e8 bf
       0.8006584279628216 -0.7570940744330847
0003c0 6f cf 00 01 01 21 e4 3f b6 7e 2b 00 92 0e e1 bf
       0.629028799018199 -0.5330286029165652
0003d0 e6 2b 67 0f 23 4f df 3f 32 b6 b5 42 36 03 e4 3f
       0.4892051363391928 0.6253920844007494
0003e0 e7 a6 93 07 7a 64 e9 bf 2e 2a 0c b9 cb b2 e2 bf
       -0.7935152194961262 -0.5843256582459782
0003f0 2e 16 4e 0c 02 fe f1 3f 1c d9 24 5f 97 89 e9 bf
       1.1245136719384266 -0.7980458124427829
000400 ef 7f bb 59 85 72 e3 3f 1c b6 32 e8 5f a4 f9 bf
       0.6077296021066995 -1.6026305265653553
000410 1a 82 3b 07 35 22 e8 bf 4d f5 81 b2 45 cb c5 3f
       -0.75417567646588 0.17026587692445574
000420 25 33 b4 2a f1 e5 df 3f d8 62 57 46 c3 c1 d4 3f
       0.4984095494299246 0.32432634228966384
000430 00 c9 47 9f 64 bc ef bf 5d 29 14 bc f3 98 c3 bf
       -0.9917471991487048 -0.15310522731335655
000440 7f ca c1 a2 67 ac e8 bf 3c 1a 94 7d 81 ae e6 bf
       -0.7710455111358242 -0.7088019802766392
000450 ae 77 76 39 33 78 e6 3f b4 4e 66 8b c3 16 d1 bf
       0.7021728632278064 -0.26701439488645495
000460 5a e4 db 68 2b 68 ee bf 2b 14 1f 7f e0 19 f5 bf
       -0.9502160118128231 -1.3188176122359987
000470 0e 72 8e 43 e1 ad d1 3f a9 46 6b 3b 62 17 e6 bf
       0.27623778912837416 -0.6903544579056035
000480 bc 88 39 54 f1 be eb 3f 62 99 7d aa 51 34 de 3f
       0.8670584340109353 0.47194329881167196
000490 ee f9 49 67 ef 63 f7 3f 15 c4 4d 96 11 1e b3 3f
       1.4618982348180185 0.07467756194616045
0004a0 cd 97 90 2c 03 19 f1 3f 3c 6f df 55 e6 db e1 bf
       1.068606542664827 -0.5580932309344244
0004b0 28 35 97 a6 b5 cf d3 bf 0c 0f a4 a2 cc 9c ec bf
       -0.30955258625620496 -0.8941405464724723
0004c0 ba 91 9a 4d d4 02 f4 bf c0 71 8b 0c b4 20 eb bf
       -1.2506907493017096 -0.8477421040548094
0004d0 74 9f 4e 6e cb ca d4 bf 71 03 2e 85 87 48 e2 bf
       -0.32487760326556914 -0.5713536835829541
0004e0 cb f3 9f b9 5b 08 e5 3f cc f2 68 a4 04 7c a7 bf
       0.6572703004345554 -0.04586805827100235
0004f0 8b 2a 75 73 84 3b e9 3f 85 3b 92 6f 6c 2e fb bf
       0.7885153059990712 -1.698833881211358
000500 f8 a8 bd 10 96 03 dc 3f c9 0c 04 ae 75 59 f7 3f
       0.4377188838467556 1.4593407437794659
000510 c7 55 a4 24 7a d1 eb bf 95 4f 71 45 73 3f c6 bf
       -0.8693209376967211 -0.17381134882691343
000520 db cf 89 bb 13 7d f2 bf ff 9e fe 51 9b 02 f1 bf
       -1.1555363965717251 -1.0631364062227815
000530 d0 a0 3d 10 50 9b e5 3f 40 f6 2f 71 09 16 e0 bf
       0.6752090756608826 -0.5026900492372945
000540 1c 9f 31 c4 23 9f d3 3f 03 d8 0f 5f 63 50 dd 3f
       0.3065881172137652 0.45803150447261504
000550 b6 14 45 af 34 5a ed 3f 5a 4c 90 53 66 f2 e4 bf
       0.9172614501227574 -0.654589808664592
000560 29 29 4c 8c 77 88 d1 bf 30 c9 17 fb 69 b6 cb bf
       -0.27395428372314484 -0.21650433311840223
000570 e4 28 65 be a4 8d d0 bf de e5 32 68 61 9c e7 bf
       -0.2586452349975288 -0.7378394160397723
000580 34 28 bb 60 72 6a d4 bf 98 f0 41 ca 67 3f e7 3f
       -0.3189969963683581 0.7264899206488904
000590 9a 3d d2 1c 6f b0 e0 bf 10 c2 45 6c 15 1d c2 bf
       -0.5215373576083266 -0.14151256357901376
0005a0 26 b2 40 7e 89 49 ef bf 2a 2c 69 5e 25 c9 e2 3f
       -0.9777266946671872 0.5870539516412283
0005b0 83 aa 82 0a 33 16 d4 3f 0f 17 e7 78 b0 53 d0 3f
       0.3138549425736203 0.2551079922380816
0005c0 50 bc dd de 84 0e e1 3f 2c e2 d4 0b 21 ee d1 3f
       0.5330223420004447 0.2801592460196243
0005d0 7d 1c 61 c4 ef cc e4 bf e3 c5 3e 71 19 10 c0 3f
       -0.6500166736158374 0.12549131421614765
0005e0 ee df 08 13 50 da e8 3f f5 f0 8b ae 3f b6 e9 3f
       0.7766495105524862 0.8034971627344293
0005f0 ac b1 70 02 49 85 e1 3f 6f a4 2f 09 99 4d e4 3f
       0.5475201652202961 0.6344723872581549
000600 87 a8 ef b9 29 76 fa bf 9b 5a 41 cd 68 86 d7 3f
       -1.6538483870631653 0.36757869762861056
000610 78 ea d8 36 a9 cc ea 3f fa 02 01 cf 64 ce b1 3f
       0.8374830313908452 0.06955556920821584
000620 40 52 f9 40 01 7f d1 bf 30 fc 24 f3 8e c1 eb bf
       -0.27337676377399944 -0.8673777340808382
000630 2c 71 4a 05 47 c9 da 3f 85 4e ae f5 ad 61 e3 bf
       0.4185349990527978 -0.605673770757179
000640 3a 36 40 0b d4 76 f5 bf da 2d 4f 05 d2 6d e0 bf
       -1.3415108146176764 -0.5134058097550522
000650 54 e1 61 5f 44 38 ee bf 56 8b bb ee 40 c3 f2 3f
       -0.9443685400902191 1.1726693463794695
000660 43 3d 58 12 92 d4 e9 3f 0a 15 db e3 6f 6f e4 bf
       0.8071985586447358 -0.6386031580265421
000670 5e 7e 9f 5b 41 c5 d4 3f ee 9c c5 e8 c3 da b4 bf
       0.3245395083194803 -0.08146309311779351
000680 8d 99 f0 b1 52 e8 e1 3f 52 92 bc 3b 6a 29 ce 3f
       0.5596097445857581 0.235638884704843
000690 77 58 db bc e7 b9 c4 bf a1 51 a1 34 5f ad d8 3f
       -0.1619233772423205 0.38558178081191313
0006a0 a3 a9 ad e7 e7 e1 eb 3f 1b a2 df 20 f7 07 e6 3f
       0.8713264012306364 0.6884723321973668
0006b0 90 d5 4b 0b 0d 3b e0 bf f0 6e 7d 81 71 59 dd bf
       -0.5072083683614199 -0.45858419080262447
0006c0 58 d4 99 7d b5 93 e7 bf 6a 5f 36 12 e5 0b e6 3f
       -0.7367808774130351 0.6889520030699547
0006d0 cc ef 0c dc 87 2f c7 3f df 0f 68 2e 82 99 d8 bf
       0.1811380218949793 -0.384369416540947
0006e0 d6 70 b8 1f b9 12 e9 3f 85 84 1c 3d e1 2f e3 3f
       0.7835355395832504 0.599594706876943
0006f0 85 e4 4b 30 d5 c0 d8 3f 54 2c 16 1c 6f 89 e3 bf
       0.3867695781369281 -0.6105266140524557
000700 cd 24 55 67 26 89 e6 3f a0 ed 1c d5 18 cd b8 3f
       0.7042419450964644 0.09687953188852427
000710 7d 8e 95 14 d3 29 db 3f 99 40 53 9e 45 39 d3 bf
       0.42442776689697564 -0.300370602240045
000720 31 4f ce a9 40 b7 ea 3f cf f2 79 56 77 d1 a6 bf
       0.8348697010537532 -0.04456685000056881
000730 14 72 8a 2a 90 56 e3 bf d6 63 9e 6f e3 71 d8 3f
       -0.604316790664202 0.38195119762673124
000740 63 45 1d 07 62 d1 c3 bf 1d a1 83 78 04 58 e3 3f
       -0.1548273596513737 0.6044943193237803
000750 1c 95 88 5b 5b 15 a1 bf 48 46 41 3a e8 46 d9 3f
       -0.03336606495239833 0.39495282830202827
000760 65 e8 d8 13 ae 71 e7 bf 90 6e 62 13 c4 e7 e8 bf
       -0.7326269519464971 -0.7782917383769519
000770 6b c7 37 77 03 e7 e6 3f c2 3c 96 75 69 3f ec bf
       0.7156998947595928 -0.8827407166117143
000780 7f b6 39 e9 ec 33 e1 bf f0 c9 78 d5 05 02 d4 3f
       -0.5375885539230721 0.31262346121653106
000790 01 cc 89 53 52 53 d8 3f 78 0b bc 74 7f c8 c3 3f
       0.3800855460933122 0.15455620956353378
0007a0 86 ad 8f b3 16 fa d8 bf e9 98 7c ee 61 5e ed 3f
       -0.390264201500678 0.9177713067954559
0007b0 29 e8 1b ab 2d 64 e2 3f 8c 6e be 90 70 a5 e3 3f
       0.5747288076374889 0.6139452769306941
0007c0 d0 b5 18 3e 3a 4b d0 bf e3 b3 98 0f 45 b1 ed bf
       -0.2545915228282327 -0.9278893761271515
0007d0 04 c5 65 4a 75 b1 ea 3f ee 64 f6 b7 8d 76 e6 bf
       0.834162373836222 -0.7019718735711231
0007e0 c1 9c 55 72 89 2f e7 3f 6c a8 3e 82 bc d3 e0 3f
       0.7245528443426325 0.5258467239230078
0007f0 e8 2f 97 28 a6 89 db bf 44 03 f1 84 8f 53 db bf
       -0.43027643169329943 -0.4269751356369407

W2 f8 [1, 500]
000000 19 c8 57 47 3f 07 de 3f 51 a1 5e f7 1c 25 d4 bf
       0.4691923329074839 -0.3147652068824032
000010 4a 23 13 d7 c3 7d eb bf f0 38 2c b4 97 4c ff bf
       -0.8591021729163029 -1.9561993635175519
000020 77 7f e0 a2 20 97 e7 3f 20 25 58 dd 8c c1 e0 3f
       0.737198179358514 0.5236267398005658
000030 01 a7 52 76 e2 d6 e0 3f e7 78 c3 51 8a 54 e1 bf
       0.5262310324662566 -0.5415698620743371
000040 63 bc 84 ce 85 4a f5 3f a0 81 f2 a6 34 41 d3 bf
       1.3306940142754449 -0.3008548384041436
000050 ec b6 0d bd e4 81 e1 3f 33 a2 d2 51 6b fb 95 bf
       0.5471061413242899 -0.021466900700632684
000060 46 c1 1e 5c da 35 d2 3f 12 f2 f6 18 ab 55 ef bf
       0.28453692432505695 -0.9792075622168019
000070 52 d9 52 1e 99 89 ee bf 3e ba 1d 9c cb 1e e1 bf
       -0.9542966453798647 -0.5350091981070546
000080 5f 06 fa f3 02 80 e1 3f f3 f4 3b 04 29 2d f4 bf
       0.5468764081162582 -1.2610254445456206
000090 e5 6a 00 81 4d 15 c5 bf e4 94 98 3d 7f 81 03 c0
       -0.164712608326986 -2.4382309734524927
0000a0 24 3a 38 3f 64 9a d9 3f 6a a6 78 3b 6f 2f e5 bf
       0.4000483147982854 -0.662040344385969
0000b0 90 4f 5c 8b 55 1c ec 3f 97 96 8b ac 94 b7 e7 bf
       0.8784587594877724 -0.7411597604775179
0000c0 98 b0 18 74 e3 a2 d9 3f d0 a4 29 7c 2e 0a d0 bf
       0.40056692445319575 -0.2506214344526372
0000d0 2f b6 d1 e4 45 07 dc 3f 64 ff f9 0d d3 d6 d8 3f
       0.4379439100801816 0.38811184277436994
0000e0 5b c6 6b 93 f2 4d c2 bf 58 dd c9 2e b8 89 e1 bf
       -0.1430037708119468 -0.5480614580000447
0000f0 5e ed 8b b0 86 1c de bf 18 ca 4a 95 ce c9 ee 3f
       -0.470491096886425 0.9621346393453818
000100 56 c2 9b cf 89 ed e5 3f 9e 35 e9 09 6a bd ec bf
       0.6852463774540165 -0.8981218522618979
000110 32 fb a9 c7 0d 88 e9 bf e8 5a 9f ef 46 3d ed bf
       -0.7978581332862176 -0.9137301139952259
000120 18 8c d0 99 0b 9d e1 bf 4b 24 36 ca a0 8d e7 bf
       -0.550420570773329 -0.7360385846560659
000130 6d 71 19 45 ec 48 ba 3f c8 4c e8 c6 ba 4d f9 bf
       0.10267521559712174 -1.5814769525357395
000140 87 d0 b0 a0 a0 7a eb 3f ed b9 16 d0 e6 7e d3 3f
       0.8587191713800316 0.3046204597584666
000150 b0 62 71 70 28 58 db 3f 58 f4 15 81 1c 45 e8 bf
       0.42725573521378646 -0.7584364434438937
000160 de 64 5d d0 e4 60 a1 3f f4 bd fe ae cf 32 fd bf
       0.033942366061362014 -1.824905093740992
000170 18 8c cf d2 cd 33 d7 3f 43 cf 37 d1 2d 45 d4 3f
       0.36253686511025895 0.31672234946676187
000180 e6 bc 13 6e 6a 32 e4 3f 48 29 26 18 77 66 d6 bf
       0.631154265398348 -0.3500039802389847
000190 8b 6e 5b a6 c8 0d f7 bf df 1b f8 60 82 ac ff 3f
       -1.4408651827169787 1.9796165263994607
0001a0 74 1d 98 f7 c8 db e1 3f 9b f5 98 ac 7c 4b e4 bf
       0.5580792270492752 -0.6342147227330089
0001b0 b0 4a b2 db 76 80 b4 bf 35 71 4b 76 ca e1 e5 3f
       -0.08008520950014986 0.683812361759499
0001c0 d5 f5 73 ae 7c 0d e8 3f 40 77 57 59 74 9e d3 bf
       0.7516463668140952 -0.3065462944485837
0001d0 b8 62 b1 c1 ae a2 cb bf c5 1a 55 4b c1 f1 bc 3f
       -0.21590218026792285 0.11306388940020458
0001e0 a1 9d 2a 9f 86 d7 dd 3f 8f 6f 58 a3 9a 19 de 3f
       0.4662796549186741 0.4703127474947388
0001f0 78 47 22 0f 5c d3 f2 bf 37 65 ba 60 87 16 f0 bf
       -1.1766014662902915 -1.0055002001229931
000200 98 6b c5 f9 4a 2f e4 bf 7b 36 bf 7c a1 d5 e2 bf
       -0.6307730558722708 -0.5885779797042255
000210 5c 46 0f d3 51 b2 d8 3f 40 ec 06 c5 1d 65 b6 3f
       0.38588376628204 0.08748041210394408
000220 b1 31 e7 86 f4 ad e0 3f a8 48 91 e3 64 f1 03 40
       0.5212347636057101 2.4928682116233922
000230 59 9b 6d 3d 19 53 d8 3f 00 36 5a 14 89 d3 e6 3f
       0.3800719356426519 0.7133222005374478
000240 ff 03 bb 55 33 32 e6 bf c0 ba 76 65 fc 84 e8 3f
       -0.6936279940056237 0.766233633204898
000250 60 cb 5b b2 53 99 cc 3f d3 57 b4 17 13 fc b0 3f
       0.22342916687883996 0.0663463528511266
000260 d6 e2 c8 3c b0 eb e2 3f f4 37 88 bc bc 46 e6 bf
       0.5912705599976913 -0.6961349184291508
000270 de ce 0e 7a 28 8f d0 bf 44 a7 7e ba 52 70 de bf
       -0.25873767776213963 -0.4756056615102475
000280 ba ae ad 20 7f 0f ec 3f 80 ea e8 2d b2 09 c4 bf
       0.8768916738749433 -0.15654589883509473
000290 d7 57 87 12 b6 78 d3 bf 8c 52 56 fe 54 d2 de bf
       -0.30424262818757825 -0.4815876468431177
0002a0 da ea 5f 3a 56 bf dd 3f 6c 37 b9 8f b6 dd e7 3f
       0.4648032732072075 0.7458145911311767
0002b0 a1 66 49 b9 34 d3 de bf 20 43 cd 28 42 1a a8 bf
       -0.4816409882965705 -0.047075335961045406
0002c0 0c 40 95 77 c2 6f d9 bf cc 97 8a 98 39 76 e1 3f
       -0.3974462669184511 0.5456817607234767
0002d0 a6 1a 1d 46 9a 26 e2 3f 7f e1 5b 80 a1 a9 e0 bf
       0.5672122353942839 -0.5207068926820709
0002e0 30 2f c2 b8 b1 0c b2 bf 28 12 e9 bc b9 fa e5 3f
       -0.07050619850832329 0.6868561448723698
0002f0 9e 78 61 16 d5 5c bf bf ae 91 78 0f 37 ed d7 3f
       -0.12251025959401082 0.3738534594615669
000300 10 da fc 53 81 2c df 3f d8 e9 06 10 c7 fa dd bf
       0.4870913810913473 -0.4684312492860534
000310 ea 3b 66 45 3a 1f ea bf 9a 22 05 ed 7b ec f2 3f
       -0.8163119655090416 1.1827353724094452
000320 40 6d 2d 58 cd b3 c2 bf 49 8e bf 2d a9 4b 73 3f
       -0.14611212544955698 0.004710827688515781
000330 72 4f 1a 4a e0 fa ab 3f 22 4c f0 d8 5b 7d e7 bf
       0.05464840797972571 -0.7340525853236424
000340 28 5b 58 50 4c 68 02 40 12 a9 c6 4d 18 92 f4 bf
       2.300926807114042 -1.2856677091718365
000350 44 ca 3d 6d d6 c7 d2 3f f8 1d 03 c3 5f e4 d9 bf
       0.29344711940862944 -0.4045638470092565
000360 3e 44 a5 15 e3 5b d9 bf 15 29 4d e9 36 21 de bf
       -0.3962333403952164 -0.47077725203838955
000370 49 34 67 27 38 c2 e5 bf d0 ca 63 02 40 a6 da bf
       -0.6799584168999299 -0.4163970969522497
000380 ad 7e da 22 78 14 be 3f 23 a9 1c ea 0e bb d3 3f
       0.11749983645358482 0.30829213011260687
000390 73 52 c7 3c d5 fe e7 bf 16 e3 5d 39 d6 fd cf 3f
       -0.7498575388986651 0.2499339847670618
0003a0 11 02 58 80 5f be 02 40 22 4e 0d 23 24 0b ac bf
       2.3429555918558056 -0.05477250030403648
0003b0 c2 cb 34 86 1d 15 d9 bf 03 f6 36 14 5a 88 c5 3f
       -0.3919137774093394 0.16822362887425876
0003c0 1a 4b 7e f3 53 34 e3 3f 48 1b c4 ce 64 ba d4 3f
       0.6001376872758073 0.32387657348629206
0003d0 8d fc f1 16 a6 0e e7 bf 1a 33 99 79 09 0d dd 3f
       -0.7205381820821387 0.4539207160458304
0003e0 a6 91 52 55 d0 06 ec 3f d6 26 d1 08 de 4a e3 bf
       0.875831762929512 -0.6028890773970612
0003f0 90 9d 98 24 10 21 05 40 d0 ad 5d a5 d0 ec dd bf
       2.6411440714907215 -0.46757904194848
000400 c7 c4 b7 77 44 e3 c6 3f 7b e0 78 f9 2a f8 01 40
       0.1788106522140309 2.246175717355127
000410 1a 4d 93 0d c1 2c e0 3f 22 b6 d7 aa ac 89 e9 bf
       0.5054631486076773 -0.7980559670228937
000420 a3 5f 34 12 36 24 d1 3f b2 c5 f9 5a eb d0 d1 bf
       0.2678351571826118 -0.2783764255937867
000430 aa 0b b2 3a 5a a4 ec bf 88 b7 28 cd fa c8 ea 3f
       -0.8950625559231089 0.837033653928061
000440 17 85 01 71 a0 ef ff bf 40 66 e1 8a c3 dc ec 3f
       -1.996002618245546 0.9019487106808768
000450 65 4f ef 39 70 7c cc bf c8 2f dd 15 b5 56 c7 3f
       -0.22254755810592566 0.1823335987813819
000460 9c b3 e3 3c cd 86 e4 3f 5f 11 31 fa 16 86 00 c0
       0.6414552869078878 -2.0654735132431337
000470 8d 99 29 e8 5f 05 e6 3f 77 a3 9b 2f 9b 65 e4 bf
       0.6881560835288824 -0.6374030999987629
000480 11 8d b4 75 2b 37 ee bf d2 03 59 5a 93 1e 00 40
       -0.9442345904284669 2.0149294908919524
000490 7f 73 58 d5 42 1d fa 3f 22 c4 9b b6 60 a6 da 3f
       1.6321438154038501 0.41640489418847626
0004a0 06 7a 56 66 e3 62 f6 3f fd e9 51 9f 16 55 f0 3f
       1.3991426465578356 1.0207735274731242
0004b0 38 ea ed a0 0e c5 c2 3f 60 d9 c7 49 51 d2 bf 3f
       0.1466387067592494 0.12430294085775051
0004c0 21 1d d3 10 22 45 03 40 f8 5f e8 bd d1 6a c8 3f
       2.408756381457025 0.19075986645543686
0004d0 cf cf 23 5c 05 f6 de 3f 04 db f7 04 6f c8 e7 3f
       0.48376592634235477 0.7432170006785275
0004e0 9b 33 59 f5 af 78 e2 3f 3e b3 a8 47 79 c7 e9 bf
       0.577232340999774 -0.8055998229589034
0004f0 13 66 89 2f 8f 74 f4 bf 88 b9 02 4f 4c ce 05 c0
       -1.2784568650153048 -2.725731484671261
000500 f3 15 12 ea bd 8f d5 bf da 82 2e 0d 2f 22 04 c0
       -0.3368983064504782 -2.5166913060969422
000510 72 09 dd b5 ad de ed bf 5b dd 94 6a 30 c9 d5 bf
       -0.9334324409503962 -0.3404046097598063
000520 10 e5 d6 1c 1f fb f1 3f 4e 96 2d fa 89 32 f9 3f
       1.1238089682140675 1.5748386166173023
000530 5e e6 c6 da d4 29 e6 3f 90 79 0d ef 56 5d e6 3f
       0.6926063797938686 0.6988939923283386
000540 95 f9 72 be 06 10 e8 bf 9e 29 59 38 83 56 e3 3f
       -0.7519563407620803 0.604310617499596
000550 bd cd 55 3a b7 71 03 c0 c8 8d d0 13 b8 8d c2 3f
       -2.4305252606806946 0.14494992225182401
000560 22 7f 47 46 f6 10 ed 3f ea 18 c7 a2 28 d1 ea 3f
       0.9083205578462847 0.838032071995966
000570 60 ed 18 fd fa 44 bf 3f a0 86 ca 07 2b cd e0 3f
       0.12214630774626789 0.5250449325723885
000580 3e 83 be 11 55 de e0 bf 5b 2c 29 8a cd 75 a8 3f
       -0.5271401735845769 0.04777376472028357
000590 dc 51 64 3e 80 6c d8 bf 60 b2 4d 6c 77 e0 c1 3f
       -0.3816223725600858 0.1396626738382052
0005a0 58 5e 0b d7 70 d3 cd bf 17 42 85 e0 f5 98 b6 3f
       -0.2330151605626607 0.08827149135073174
0005b0 f5 4e a4 3e f1 83 e1 bf ac 9b 53 fd 39 32 e0 bf
       -0.5473562453721273 -0.5061311672005693
0005c0 0c 63 a4 ff c6 a8 c3 3f 28 59 27 18 ed 18 da bf
       0.15358817560697735 -0.407771371448137
0005d0 e8 21 c3 19 2d 27 ea bf 7f 7b 9b 85 47 5c d8 3f
       -0.8172822478455233 0.38063228652566033
0005e0 3c b8 7a ab 45 16 d2 bf db 77 81 b1 1a 92 e1 bf
       -0.2826093840220698 -0.5490849940213097
0005f0 80 a4 7e 3b 95 9f d7 3f 58 49 66 3e 5e c3 e3 3f
       0.36911516962079105 0.6175986498586026
000600 fe c2 80 45 96 61 ff 3f 24 9d 3a e7 1c ef e1 bf
       1.9613249506912207 -0.5604385868254309
000610 03 0e b3 e6 6c af d6 3f 06 bc c5 b0 a9 1f ca 3f
       0.35445711640588246 0.20409127360787255
000620 88 6c 34 6a 60 6a eb bf cc e7 f1 a4 ee 46 e2 3f
       -0.8567354273140078 0.5711587163525507
000630 a2 bc 55 51 74 09 d6 3f 8a e6 25 d8 ae c2 ea bf
       0.34432704871046316 -0.8362650128976423
000640 af db 95 b9 6b 16 f8 bf c0 ef 18 26 fe 22 9c 3f
       -1.5054738282612836 0.02747723681953551
000650 b8 f2 2c 1b 0a c3 ce bf 6b 23 11 40 21 70 f2 bf
       -0.24032713248188542 -1.1523754599204163
000660 a5 bc 76 cf a1 29 d4 bf f4 58 82 87 1f 26 e6 bf
       -0.3150410200132206 -0.6921537062324021
000670 a1 0e 54 3d a2 d2 fa 3f 4c c9 ae d4 eb 2f ef bf
       1.6764242549551585 -0.9745997575721872
000680 59 e6 24 e1 b1 32 e7 3f 13 8f 14 cb b9 9d 04 c0
       0.7249383351656419 -2.5770145288132738
000690 52 00 bb b6 fa 85 c6 bf 9e 0d be f2 1d 30 d5 3f
       -0.17596372530352028 0.3310618277102665
0006a0 6a 1d ff ce 6a 81 02 c0 07 8a df 6a fe 4d e4 3f
       -2.313192002449502 0.6345207297675309
0006b0 ea e5 ae a7 2c 9f e6 3f be 4a 96 de 39 ca e7 3f
       0.706930472856752 0.7434357974437587
0006c0 a4 78 9d a3 48 be ea 3f 2a f8 73 c8 fa 8c e2 bf
       0.8357279964073041 -0.579709426412369
0006d0 42 26 fe d9 14 d2 d3 3f 6e b7 0f 0e d0 6d eb 3f
       0.309697354205671 0.8571548723827911
0006e0 3f 75 f6 6a 1c 41 e3 3f c3 e7 57 fc 95 d6 c2 bf
       0.6016981209865334 -0.1471736414094363
0006f0 9e c2 9f 03 52 f7 e4 3f 80 53 47 ba b8 3e b2 3f
       0.6551904745848167 0.07126955554788417
000700 6a a5 72 7b 45 7d d1 3f 2a b5 69 5d bf 05 cf bf
       0.27327096038296494 -0.24236290036371005
000710 29 49 86 5a c0 86 ca 3f 9e 8c 1b 79 f6 ab e1 3f
       0.20723728580612402 0.5522415509589285
000720 0b 2b d2 a5 18 73 b4 3f ac f1 a1 c6 82 11 e7 bf
       0.07988122986186512 -0.7208875541251039
000730 52 cf d4 b3 0d b7 ed bf c2 15 26 89 e5 1e e6 3f
       -0.9285954010324338 0.6912715605437187
000740 b3 c3 27 51 62 73 c5 3f b1 74 fe 7d 13 94 93 bf
       0.16758374178564636 -0.019119553151189354
000750 d7 70 86 df 93 4b e2 bf 91 bd 2c 01 56 3b e4 3f
       -0.5717257848478096 0.6322431586212806
000760 bf 6f 8d 33 61 9e ef bf 50 cb 87 26 3b 38 c6 3f
       -0.9880834586033344 0.1735910356652206
000770 5b b9 75 08 12 42 c7 3f fa 2a d2 e2 5e 54 ea 3f
       0.181703809862891 0.8227991514298474
000780 e2 de ce ee ab 1c e3 bf 4d 64 38 1a 59 1d aa 3f
       -0.5972499527187802 0.051005157900541144
000790 63 43 d1 45 55 fb c4 3f 73 83 f9 60 13 66 e5 3f
       0.16392007741026324 0.6687104124103896
0007a0 8f c8 44 ae 04 03 ee bf 71 cb d6 e8 3e 07 dd 3f
       -0.9378684428868541 0.45356724489391015
0007b0 ce db 1c af 87 d5 f2 bf 30 f3 5c 59 8f b8 e4 3f
       -1.1771313515034652 0.6475292916653412
0007c0 4c b8 e0 c1 7e 81 ee bf 29 21 76 d8 de 09 f2 3f
       -0.9533075129199999 1.1274097877049576
0007d0 a9 4c e8 e5 91 63 02 c0 c0 21 e3 3c 89 03 b3 bf
       -2.2986181222455184 -0.07427270637993555
0007e0 75 c7 50 39 33 55 cf 3f 89 1d e1 09 e4 fe ba 3f
       0.24478760050402185 0.10545182458110082
0007f0 b6 19 18 5b 87 05 e7 bf 26 4e f6 5d 42 66 ea bf
       -0.7194248942549197 -0.824982818145547

b2 f8 [1, 1]
000000 04 d4 a9 6b c1 2f c8 3f
       0.1889573836994317
