NeuralNetworks/MLP_model_weights.npz (npz, 16974 bytes, 4 tensors)

W1 f8 [500, 2]
00000000: 4a13 5b4d 149e b73f 8059 acda bdb3 e53f
00000010: f39d 00ed 5bd4 e23f 5bdc 5c05 8ab6 cd3f
00000020: eba8 4d3c 92fd d6bf 4f4e c10b 0f14 e23f
00000030: bd66 3204 d4b7 f93f 5857 b0cb 9e0a e43f
00000040: 292b d91b 2f97 eebf dc8f 04a3 c362 e53f
00000050: 284d a3df 8601 e13f b842 2ccf c532 e0bf
00000060: 418b ea94 289e 7fbf a12f c92f 9098 e23f
00000070: 73c8 65a4 2f4c eabf b714 03e4 3fae d03f
00000080: 3db8 f229 8804 edbf fcd2 99c2 ae2a d6bf
00000090: ac83 00e0 6f5e dc3f c4c7 fc49 fa56 d43f
000000a0: d4b3 e584 98bc d9bf 4edf 888f 73f9 edbf
000000b0: 2652 031b 34c7 efbf b6f4 c885 8c5f ee3f
000000c0: 8e96 c313 f500 e53f 8f4b b1e0 8045 e6bf
000000d0: ba36 ffe4 10bb e8bf f051 3e81 05dd d7bf
000000e0: 5033 1807 82b6 c93f f07b 6fab 5949 babf
000000f0: f255 f759 332c c4bf bd4c f1a6 de62 d83f
00000100: d202 5e31 f16b e03f f500 fe9a db46 ea3f
00000110: 5494 2cce 0116 f63f 8bf4 3ec2 c24d d73f
00000120: 8285 ca8c c1a6 e23f fc4a 4fd8 1a0e e6bf
00000130: 694e 6d98 1bbe 01c0 46af 986e f637 eabf
00000140: 5632 ffca d618 e0bf 3ab0 fa61 e241 e7bf
00000150: a293 557a be97 e1bf f875 9cc8 1cd3 d0bf
00000160: 5447 76ff 4939 e83f b6a3 631b 90d3 e73f
00000170: 3324 0963 3e5b c73f 9b13 ab38 d92b d73f
00000180: d01e 43c7 2102 d13f e092 e71b ad11 ddbf
00000190: a036 1d9b b67d bebf aa14 b670 4097 e6bf
000001a0: 13c5 6177 c206 e63f 7527 ea0f 1098 cdbf
000001b0: 9cda 048f f350 dd3f ec45 b1ff e8ff e23f
000001c0: beef e38a a42f d63f d8c4 b83d c30e e73f
000001d0: 520d a3a2 83ec e7bf be5a ae7e c1d3 e03f
000001e0: 6471 30ec b750 e9bf 442a 1362 30b7 bc3f
000001f0: 58ca 38e1 123b d33f 003c 1bae 8968 6e3f
00000200: 9cb8 89b7 869d ecbf c8f1 75d9 157b ebbf
00000210: 4adf 96b8 2c32 e9bf 12e8 cb18 33d0 edbf
00000220: d18e 2e5c 6d20 e3bf 6334 f2cd e151 d8bf
00000230: ea50 60f1 ce77 e9bf 6a66 9a52 362f e7bf
00000240: e289 7a08 d549 e8bf 12b3 8bca 0d4b e0bf
00000250: b9fd 9128 c3d9 913f c5e1 81fb c4b9 e83f
00000260: ac21 35c8 59d5 73bf a5c8 0781 2f62 eb3f
00000270: 3d4b 5de8 964b f33f 118f e823 08f5 da3f
00000280: 529b 3c9d e704 e53f 7c8a 79dd cef1 e2bf
00000290: 02c9 15a4 450b db3f 41db c19a fe8c d1bf
000002a0: 9fde a936 10a2 ad3f e5c9 9d11 0fb6 e9bf
000002b0: 80d5 8e2e b699 963f 52fd a6f5 a83a e3bf
000002c0: 9c1e 09f3 32ea e4bf 63b7 762d 6418 d83f
000002d0: 29af d9ce 6f6f f93f da74 65b5 1a1c e23f
000002e0: 30e8 55db 5664 cdbf 10d8 d04e c6ae ddbf
000002f0: a3c2 f967 bd79 e8bf 0295 d9d5 4a1a e63f
00000300: 0079 97a2 79b9 ebbf c868 a19c fff1 c4bf
00000310: e051 7faa b126 cc3f 1ca0 b092 e150 e7bf
00000320: 1d5a 59eb 76db f83f 773f e980 c4c1 ea3f
00000330: 4c43 acdb 522e fe3f c405 1661 affa ec3f
00000340: 40c6 4373 b677 95bf 5a70 0d52 1dfd e03f
00000350: bf7d ea5f eaf6 dc3f 5d17 a1f4 ddb0 ee3f
00000360: 7226 53cc 7d2b e9bf a471 8fb3 8afc dabf
00000370: f541 970c 4276 e53f c29b 84fd 7686 ebbf
00000380: 25d7 715e bee5 e13f 1dc0 31bf 3d1b e53f
00000390: 9444 0444 f8d0 e2bf ca37 6f79 dde9 e5bf
000003a0: 7b48 621e 8dac df3f f835 3056 6c44 ccbf
000003b0: 3c37 adb9 492f b4bf cf92 c00b 4b26 e93f
000003c0: ef0d c547 1797 eb3f 973d 9922 5ab3 b13f
000003d0: 0149 73c1 bd09 cd3f 7f03 b65c 78c0 e93f
000003e0: 9fd5 0df7 e26d eebf 3d91 f90b a668 e8bf
000003f0: 5789 c708 bc41 ec3f b9cb 3ea7 8fe6 e83f
00000400: b43b 06af d92c d93f c5f5 49cd 671f cebf
00000410: da73 d27f cc6a e1bf 0ca3 5008 a1eb dcbf
00000420: 83dd fd5d c523 ef3f 0b4a 0f3d 79a4 e7bf
00000430: 78ef b75b 9e9f d73f 186d f21b dd56 d1bf
00000440: 4ed3 7dfd 5157 df3f af0f 174c 6cc7 e43f
00000450: d155 039b 145f 01c0 189c 8aea e6ba f4bf
00000460: 5fc2 bc4e 8180 e0bf ad90 17d8 abcb ce3f
00000470: 4c20 c3ed 3fe1 d8bf f831 aaba 70c7 e93f
00000480: 9fa9 96da e432 e83f bd15 72fd 4d8a e3bf
00000490: 68ca 3175 0539 c8bf 641f f224 b4df d6bf
000004a0: 107d 164d 9d23 dabf 6864 4565 cdbc cb3f
000004b0: 7613 c678 3538 e93f ff39 da68 6195 dbbf
000004c0: 590d 2285 ede3 ed3f 7b7d 8696 aaff c3bf
000004d0: ff4b af6d e9cf e43f 85c4 c345 55ad cf3f
000004e0: c7f2 9e5a 8b4a cbbf 8998 b7df e8e0 e73f
000004f0: 0143 2565 912c a0bf 0cb0 f9c7 def7 b3bf
00000500: a027 8214 1d90 b03f c872 d75e dd71 c0bf
00000510: e01c fa05 802a ebbf 2063 a41c fae8 b3bf
00000520: d33c 0c41 fbfc e43f 89ad 9686 cda3 dcbf
00000530: f271 d920 c444 d63f 678b c37e d849 bbbf
00000540: b88d ffe2 51ca d0bf 7ed3 804c 6d34 c7bf
00000550: 4c9e 0964 f2ff e03f a82a 9f48 979e eb3f
00000560: 594d 5747 b74e c3bf 3e5e ef10 0e3e b2bf
00000570: 482d f022 a6e7 d8bf 282c fd8d 4a20 e8bf
00000580: 6804 0dc7 a3cf e4bf b887 316a 4eb0 c2bf
00000590: 9663 4aff 6f9f edbf 8012 9137 dd51 b43f
000005a0: 90dd b267 49cb dd3f d96a cc6a 3c2c ec3f
000005b0: c72c ed74 bda2 ed3f 2760 e99d 4132 f0bf
000005c0: 800a 4416 9bfd b23f a806 fa04 063a cbbf
000005d0: 149a 165c cce2 efbf e226 7458 aba0 e03f
000005e0: 25f0 e86d 95ad d73f abc4 1473 bd6a d83f
000005f0: c55e a5d4 4715 f03f 4e92 8471 e11d ecbf
00000600: 0863 0d36 c6f1 ebbf 79b1 1524 c4bd e53f
00000610: 74d8 c8c4 59a4 df3f 50aa b4cb fa81 cabf
00000620: f0f8 3154 1509 ba3f c03f ea51 9a5a ddbf
00000630: a254 eb2f 9865 eebf 654e 5c57 cd48 d3bf
00000640: 589e 2720 8cb4 d7bf 66eb c563 a4d8 efbf
00000650: 2284 a83a 2e56 d43f e694 76bc d2d3 b4bf
00000660: 9ac6 3d87 b7a6 da3f a5b2 83ff cf90 bdbf
00000670: a24f 91c1 b6d7 e6bf 5423 0bcd 556a ee3f
00000680: 9cfd f987 8623 00c0 575c fd45 85c2 f0bf
00000690: 87ed 9b7e 0041 f43f 6349 4852 4d73 e33f
000006a0: e669 731a a84f e4bf cc53 df53 c6c1 e7bf
000006b0: c218 5cbc a72c e5bf 9437 9a50 f1bf ecbf
000006c0: c7c8 189f 3eb4 ebbf a7b2 c566 5766 d53f
000006d0: bc5c 0680 ff49 e53f 663e 5392 9063 babf
000006e0: ba09 5b6f 8015 c1bf c9fb c74f 4f5e cb3f
000006f0: 8c2c 3d26 77ce e5bf 50e5 4072 7fea c03f
00000700: 596b fd6f 2f4a d5bf 9b42 cff0 f578 ee3f
00000710: 4350 f9f6 f715 e93f d8f7 4039 dbfc eb3f
00000720: 8d0c 09f8 cfa1 e2bf 38fd 7d13 75b5 e93f
00000730: a840 78f8 3e07 d3bf c744 e11d 12fb bebf
00000740: 097a 7802 3a79 fc3f 694e a7a2 de23 e93f
00000750: d436 e68e 607d cfbf e027 a1f8 11d6 d0bf
00000760: c2f1 fd55 be2d cebf b6e7 8d8a cfe3 cabf
00000770: db7c efae 64c1 c13f 2bd7 af1d 7ed4 e33f
00000780: 0b85 ef92 97ca e83f 74b3 1750 000f a13f
00000790: caae a88f 461d efbf 00a1 fe9c 6269 81bf
000007a0: 4c2d 58e8 c78a d63f ee30 9b78 81e3 e43f
000007b0: ed82 f6aa 79c9 eb3f 9d65 5cfd a9af ebbf
000007c0: 712c 1609 e948 b13f ed8a d61e f743 e73f
000007d0: 8801 4a87 ca9d ca3f c835 2225 4543 cf3f
000007e0: e70c 213a 0386 01c0 a1e3 2564 87da f4bf
000007f0: 80b8 c455 ce46 c5bf 0c7f 7c45 eb46 d43f
0.09225584877556262 0.6781911154710514 0.588422739882786 0.2321331525979272 -0.35922675980567814 0.5649485807029552 1.607379928964675 0.6262964227960124
-0.9559550804054641 0.6683061775152015 0.5314363830497415 -0.5061978384347503 -0.00771919109561986 0.5811234410589244 -0.8218000613108088 0.2606353499107387
-0.9068032092379849 -0.3463551426314522 0.44326397776790816 0.31780869698843284 -0.40213597276925594 -0.9367006114398266 -0.9930668380353083 0.9491636860835999
0.6563668619171084 -0.6959843052412554 -0.7728352043720499 -0.3728650819914767 0.20088219973004096 -0.1026817363303818 -0.15759889500502272 0.38103452971445134
0.5131765331462594 0.8211496379081199 1.3803728154828336 0.36412114114120503 0.582855963690392 -0.6892217850493974 -2.2178260715825684 -0.8193313751303115
-0.5030321087629754 -0.7267925180108314 -0.5497734441129192 -0.2628852805226809 0.7569932927601521 0.744575551504673 0.1824720367024227 0.3620513013268522
0.26575512370298515 -0.4542038700586044 -0.1191057327934808 -0.7059633447066933 0.6883251506498332 -0.231203086634476 0.4580658814115084 0.593739032172548
0.3466578823424661 0.7205520825865745 -0.7476213623525985 0.5258491014709177 -0.7911033261366751 0.11217024225622035 0.3004805755073554 0.003711956888629242
-0.8942292771078146 -0.8587750670699785 -0.7873748402844083 -0.9316649898821672 -0.597708396952351 -0.379997683638811 -0.7958750452403625 -0.7245132077543535
-0.7590127149199442 -0.5091618495913244 0.017432259894574396 0.7726769363644556 -0.004842138968634318 0.8557355423092942 1.205954463647415 0.4212055540722171
0.6568487235098053 -0.5920175862959947 0.4225629904168643 -0.274230624323014 0.05787707011489584 -0.8034739822454041 0.022070738403006995 -0.6009106443306484
-0.653588747672035 0.3764887279493136 1.5897062378016449 0.5659307043930781 -0.22962461194748718 -0.46379239746909295 -0.7648608237050961 0.6907095124012417
-0.8663910079592654 -0.16363520763372308 0.21993084740701274 -0.7286231865919066 1.5535802071877989 0.8361532705111888 1.8863094883892755 0.9056012054645
-0.020964480195237778 0.5308977701747708 0.45257052771372835 0.9590902116694725 -0.786559008666883 -0.42166392836750277 0.6706857915797274 -0.860164160873744
0.5592948765395006 0.659575341631356 -0.5880090073061575 -0.6847979900137429 0.4949066921918825 -0.22083811005033716 -0.078846557456214 0.7859244565521183
0.8621937181237039 0.06914294571583067 0.22685977884118105 0.8047448931466618 -0.9509138894342647 -0.7627744897731997 0.8830242320512224 0.7781446711072625
0.3933624467107919 -0.23533341907379515 -0.5442869659924512 -0.4518816548539213 0.9731165729307779 -0.7388273422787405 0.3691173453987555 -0.27092673997113215
0.4897046065810188 0.6493436323294101 -2.1714260206597165 -1.2956303750777405 -0.5156866586531342 0.24059055377359098 -0.3887481519600484 0.8055957456395495
0.7562126416499274 -0.6106328916654814 -0.18924015257251203 -0.3574037895964379 -0.40842373397931997 0.21669928974987163 0.7881114348279954 -0.43099246253487417
0.9340732193235609 -0.1562398180949279 0.6503798620491351 0.24747720629196493 -0.21321241307113878 0.746204792926407 -0.031590026471013395 -0.07800094968996535
0.06469899893468645 -0.12847487574517502 -0.8489379994142858 -0.07777369689246116 0.6558815260376839 -0.4474977316228537 0.34794715125988696 -0.10659554571934181
-0.26234862487600763 -0.18128744349965226 0.5312435106142828 0.863109247054429 -0.15083971961449086 -0.0712593833298962 -0.3891387311166068 -0.7539418004247453
-0.6503466499053845 -0.14600544152477624 -0.9257125841278249 0.07937414747818572 0.4655326378519584 0.8803999029072102 0.9261157306404123 -1.0122696083472051
0.07418221753690979 -0.2127082371044271 -0.9964353369330774 0.5196129539119421 0.3699697087611205 0.38151489485160067 1.0051954561694612 -0.8786475388665822
-0.8732634597500644 0.6794148163585724 0.4944061681484364 -0.20709166475838225 0.1017011004023265 -0.45865495681300317 -0.9499016700671243 -0.3013184884195879
-0.370394736672528 -0.9951955746358692 0.31776004532190616 -0.08135716534760071 0.41642559249076216 -0.11549091327806112 -0.7138322620980839 0.9504803662067425
-2.0173464415708633 -1.047490380665996 1.2658696122806263 0.6078249556615386 -0.634723712598597 -0.7424041402942918 -0.6617010764027997 -0.898430497576316
-0.8657525164947167 0.3343714240680051 0.6652829647527123 -0.10308173725501887 -0.13346867978368754 0.21381560702863414 -0.6814532992224414 0.1321563060644544
-0.3326529115344577 0.9522657111466118 0.7839317153652775 0.8746162527311254 -0.5822524876060854 0.8034005528169592 -0.2973172594511291 -0.12101853589526278
1.7795963379390989 0.7856286217524487 -0.2460137079000818 -0.2630658081076245 -0.23577098082377118 -0.21007723107669357 0.1387143949677697 0.619689043028051
0.7747304792248156 0.03331757524197246 -0.9723236852491592 -0.008501787582489317 0.35222051324736436 0.6527716975774902 0.8683441485519247 -0.8651933620887352
0.06751877281037523 0.7270465471559341 0.20794040304100414 0.2442404204670494 -2.1904358426414663 -1.3033517753631048 -0.16622332752143976 0.31682855401776133

B1 f8 [500, 1]
00000000: cb9a ddab 56ec de3f 5e16 79f7 dd68 da3f
00000010: ea50 1818 3286 d9bf b9a8 9c38 bcdf f9bf
00000020: d908 2756 b90e dd3f 6654 96a3 4845 eebf
00000030: 5e86 c447 b0c0 c33f e41b ec2a b10a bfbf
00000040: 220a a712 3f68 ea3f 12fb 90e7 a5e7 eebf
00000050: b407 c11b 157c d6bf 1893 fbff 7fd7 e3bf
00000060: 4108 263c ef20 e3bf 784f 2592 3c8e d4bf
00000070: 38a5 3ab9 a9ae e7bf 4283 867e 0d81 cc3f
00000080: 5cb5 52b5 5a1b edbf 71c3 c997 cc32 e3bf
00000090: 1ceb 5828 3b2c e2bf 4982 b5ac fec7 d03f
000000a0: 96dd dbb9 f448 e6bf 66a0 3c0e ff7a efbf
000000b0: dea9 4dd7 0147 dbbf 83cf 2dc3 43f2 e83f
000000c0: 2852 bc0b 6124 debf c0a4 fc44 3b75 9cbf
000000d0: c291 4490 3f1f da3f a19d 4464 8c26 e13f
000000e0: 4ff1 b166 6bde e33f 8270 21c4 aff2 e8bf
000000f0: f87e 51d2 82a4 e73f c02a 292c 99b6 ebbf
00000100: 9055 1790 5725 ccbf 48e8 1839 8d87 e5bf
00000110: 20ae 59a6 450a e53f 80e3 389e eb2f 8dbf
00000120: 66df 2f54 84e2 e0bf 99b3 e053 fdc5 df3f
00000130: b459 e5b1 d814 d8bf 0604 5cce 9449 f7bf
00000140: 44a7 2565 8427 c6bf f617 d6b5 14af d8bf
00000150: 79ad 8e62 a042 cb3f feee d094 3ab6 e0bf
00000160: b6cd 98c6 35ec d7bf 0b93 fdc3 381c f3bf
00000170: 4092 b848 f002 d7bf dd7c 1a39 c7e3 d7bf
00000180: 78cc 7caa 9330 c9bf 40a3 f9ae b859 cfbf
00000190: 36e4 8aca 3103 b4bf 76c9 ab90 e168 efbf
000001a0: 3e90 b96b adef eebf 05b7 6247 d02b dfbf
000001b0: ecc3 1bc6 0c5b e6bf 2b6c 7bd9 9ef1 df3f
000001c0: 7431 bd91 8ef9 e33f 4646 3fda c767 e3bf
000001d0: c62b b78e 0d22 e93f 21fd 0819 fcb4 d03f
000001e0: 2be3 6498 af9a bd3f ad7b ebaa 5b77 e3bf
000001f0: e01a d100 968a f03f bff4 df7f 9b7f edbf
00000200: 351c e0b8 3a3c de3f fdff bcbe 4952 eb3f
00000210: a617 f9dc 2f72 dd3f 4620 d059 b876 e0bf
00000220: 869d 4d74 b367 db3f 6385 5211 7ea6 f33f
00000230: ccad abf6 696e e53f 0487 e5c6 b94a ecbf
00000240: 2911 919d 56bf dfbf 4880 dd83 a0f8 eebf
00000250: c0be cee0 0b2e d2bf c62b a6eb c5a0 e63f
00000260: b7df 7566 7483 debf 81a8 e1fb d846 e9bf
00000270: 7e12 1106 236a e73f ee08 7bdd fdbb 403f
00000280: 8044 a345 870b d8bf 0c50 1b92 b2b1 debf
00000290: 800d b7bb 04b4 bb3f b578 d55a 2e2f e93f
000002a0: ce9b fc42 122c e33f 7019 4012 2987 80bf
000002b0: afa0 cc2d 2210 d83f 9206 3438 bd08 eebf
000002c0: 5089 2572 0f1e d9bf dc5a 1a79 fe8d e4bf
000002d0: 3a87 f290 fcc2 c33f a9df e602 5296 d7bf
000002e0: e05f cd8c d28f bfbf 8275 21de 62eb e7bf
000002f0: 0f9b ac1e 2531 b23f 1132 d36c 809f c8bf
00000300: 51e1 d6f7 1113 e3bf 9c8c 26c4 5a77 efbf
00000310: b06b d2b9 e12f efbf b1d3 86ef c996 d03f
00000320: 00ed 015f b9cb 75bf 45a2 6096 9be0 e53f
00000330: 865f 14bb af81 e23f 80d7 7820 defc efbf
00000340: 5594 ae43 1cd8 fa3f 9a18 a13b 13b2 b5bf
00000350: 10df 4baf 65d7 bdbf 32bf 76d0 cb8f e8bf
00000360: a7cc 6069 0568 eb3f 1b8c f2bc e3bb b83f
00000370: 0abc e4aa a95d e93f 3a01 d115 5ed2 eebf
00000380: 39f0 0bb4 9b8c ebbf 0d37 3a7d c3db d43f
00000390: edb2 f6a7 b578 ea3f 72b7 5364 4cd3 e43f
000003a0: 5df4 3615 34ac f9bf 880d 6440 886c e93f
000003b0: 7e2a b9cc 4a9f e93f 86ef 355a 1d3a e8bf
000003c0: e323 2527 8c20 e43f b67e 2b00 920e e1bf
000003d0: 6095 98f2 3b50 df3f ba7c 117f b2fe e33f
000003e0: e7a6 9307 7a64 e9bf 2e2a 0cb9 cbb2 e2bf
000003f0: e41d 7fd3 4200 f23f 1cd9 245f 9789 e9bf
00000400: 3a69 1ccb f46c e33f bd94 a665 8ea4 f9bf
00000410: 1a82 3b07 3522 e8bf ce8e 242e f1d7 c53f
00000420: b445 0380 40b9 df3f 2610 2bdf 53ba d43f
00000430: 00c9 479f 64bc efbf f8f7 ea62 76a7 c3bf
00000440: 405c 5a01 ebb3 e8bf 3c1a 947d 81ae e6bf
00000450: 228d 9e9f 5e78 e63f b44e 668b c316 d1bf
00000460: 5ae4 db68 2b68 eebf 6b42 1f3e 3817 f5bf
00000470: 7439 d644 d5ac d13f 33b6 334f f909 e6bf
00000480: 705a 9a6d 46bc eb3f f7cc f026 0e28 de3f
00000490: 09e2 f9d9 6c60 f73f 1b83 cdc7 2025 b33f
000004a0: 6ec3 1fe8 4915 f13f 1d87 9cbf 77e5 e1bf
000004b0: 2835 97a6 b5cf d3bf 0c0f a4a2 cc9c ecbf
000004c0: e28a 96b2 d4fb f3bf c071 8b0c b420 ebbf
000004d0: 3082 5ffe 58c8 d4bf 7350 35cb 1153 e2bf
000004e0: 06a4 9351 eb07 e53f a29c 690b 75b2 a7bf
000004f0: db21 4a27 843e e93f 52d1 2eb1 8433 fbbf
00000500: 97bf 1667 1904 dc3f b2f5 1585 c75d f73f
00000510: 2f80 eb7d 78cf ebbf f7f7 68e7 30f3 c5bf
00000520: 57c1 2f9b 9b80 f2bf a508 23c7 71ff f0bf
00000530: e17b 782e c99a e53f af93 45eb 0d1b e0bf
00000540: 1d03 ec7f ed78 d33f ffaa 02f7 774f dd3f
00000550: 5de0 8a46 ae5e ed3f 5a4c 9053 66f2 e4bf
00000560: c653 f769 2790 d1bf 58eb 7b98 9ebd cbbf
00000570: e428 65be a48d d0bf dee5 3268 619c e7bf
00000580: 4722 26e1 7f81 d4bf 44b8 4c8e ad41 e73f
00000590: 9a3d d21c 6fb0 e0bf 10c2 456c 151d c2bf
000005a0: 26b2 407e 8949 efbf c975 ed36 14c9 e23f
000005b0: f534 0749 0e20 d43f 3726 d5a5 9a4a d03f
000005c0: 2795 fc21 c60e e13f 9aba 6eff bfee d13f
000005d0: 7b3d c90a 7acd e4bf 09ae 45dc f00e c03f
000005e0: 2d11 3d29 87da e83f 961f cf80 fab9 e93f
000005f0: 6138 3221 d380 e13f ec6d 13bf 204d e43f
00000600: 2ee1 4472 fb74 fabf 55ff fe45 4387 d73f
00000610: 2882 f532 64cc ea3f df9f cc08 27cd b13f
00000620: 4052 f940 017f d1bf 30fc 24f3 8ec1 ebbf
00000630: e15a 8409 c1c8 da3f 854e aef5 ad61 e3bf
00000640: 1327 02e0 1176 f5bf da2d 4f05 d26d e0bf
00000650: 54e1 615f 4438 eebf 7dd1 2ace a3c2 f23f
00000660: 512b b779 cfd4 e93f 0a15 dbe3 6f6f e4bf
00000670: d1e0 bf55 fbc5 d43f 8ce7 ab7e 77d6 b4bf
00000680: 675b 5f81 c5e7 e13f e082 94d6 c903 ce3f
00000690: d47a 7493 e6a1 c4bf a282 774a 5e9d d83f
000006a0: c039 7573 d1d4 eb3f b36e 6870 8a08 e63f
000006b0: 90d5 4b0b 0d3b e0bf f06e 7d81 7159 ddbf
000006c0: 58d4 997d b593 e7bf eeb2 060f 560c e63f
000006d0: d9c0 ffa9 e90a c73f 3ab1 cfb7 3eab d8bf
000006e0: e19e 2506 6f15 e93f c1e4 07f5 fd2f e33f
000006f0: b9a4 630b d6bf d83f 542c 161c 6f89 e3bf
00000700: eaca bd39 f188 e63f 2123 3abe 92ce b83f
00000710: 4752 31bb cc2d db3f a061 13b5 5243 d3bf
00000720: eb19 8722 31b7 ea3f 2119 7a23 61e6 a6bf
00000730: 1472 8a2a 9056 e3bf 578b d7ca 9d84 d83f
00000740: 2cbc 1282 aecc c3bf 46e7 bb76 bf57 e33f
00000750: 073b df87 4d29 a1bf 7a8d 6d01 f245 d93f
00000760: 20aa a2ea b770 e7bf 906e 6213 c4e7 e8bf
00000770: 4c2a ae1f e0e6 e63f c23c 9675 693f ecbf
00000780: 75ef 6806 fd35 e1bf dd39 21c3 c601 d43f
00000790: 25d1 5674 a343 d83f cf33 519b 7b05 c43f
000007a0: 33bb 4a70 d52b d9bf 40ca 80f7 d45c ed3f
000007b0: 86fd 559d 8065 e23f b639 a071 f2a4 e33f
000007c0: d0b5 183e 3a4b d0bf 9733 a2a6 53bd edbf
000007d0: 5ab2 bade 15ba ea3f ee64 f6b7 8d76 e6bf
000007e0: 74c4 857a d12e e73f 95af 1108 a8d3 e03f
000007f0: e82f 9728 a689 dbbf 4403 f184 8f53 dbbf
0.48317496093515605 0.41265057723317067 -0.3988156543066582 -1.6171228610424306 0.4540236798603821 -0.9459574885428423 0.154317889254389 -0.12125689790637711
0.8252253879839524 -0.9657773516445067 -0.35132339201311 -0.6200561523115509 -0.5977703261162405 -0.3211814334110765 -0.7400711648707903 0.22268837621688858
-0.9095891515222934 -0.5999510731327132 -0.5678993022951064 0.26220671526065026 -0.6964057569556867 -0.9837641981184901 -0.42620893502922097 0.7795733272637196
-0.4709704031568287 -0.027790952764153998 0.40815724457413805 0.5359556158409086 0.6209008222354359 -0.7796248274494391 0.738831911829009 -0.8660398352161209
-0.219889588696486 -0.672796832578805 0.65750391474052 -0.01425155712705517 -0.5276509899403947 0.4964593237989959 -0.37627236721655355 -1.4554641781726345
-0.17308096827337682 -0.385686090063586 0.21297077953691337 -0.5222447306218496 -0.37379211801745826 -1.19439007338332 -0.3595543584981762 -0.3732774789477398
-0.19679494690499033 -0.24492558044155466 -0.07817374415289255 -0.9815528703314118 -0.9667574981690519 -0.4870491692662287 -0.6986144894891573 0.4991223453377553
0.624213490149073 -0.6064185392990076 0.7854068553364122 0.26104643292269897 0.11564156981047506 -0.608320077731937 1.0338344604403389 -0.9218270776324501
0.4724261098312497 0.8537949300152828 0.460094419282877 -0.5144922022018441 0.42820440633519075 1.2281475712446415 0.6697282617364464 -0.8841217884730388
-0.49605336558694774 -0.9678499770634597 -0.2840604491602612 0.7071256258508292 -0.4767733574476511 -0.789898387866984 0.7317061537256249 0.0005106916023225585
-0.37570363808215035 -0.47959579723578893 0.10821561415564496 0.7870094083880504 0.5991298015913971 -0.008070298070390364 0.37598471138563644 -0.9385667894095653
-0.3924597372735166 -0.6423332562725039 0.15438801839359845 -0.368549826463545 -0.12328830659441747 -0.7474836672296734 0.07106239317782247 -0.19236760438651904
-0.5960779038060001 -0.9833196478906703 -0.9745949391684601 0.2592034186484922 -0.005321239572477099 0.6836679398593978 0.5783308652780625 -0.9996176370830057
1.6777613300157743 -0.08474846082489976 -0.11656795053192703 -0.7675532409248034 0.8564478929678402 0.09661696780180799 0.7926834428561744 -0.9631796289541292
-0.8609140888725114 0.3259133074687817 0.8272350578823456 0.6507932624351567 -1.6045418575952433 0.7944985635407855 0.8006948469640773 -0.7570940744330847
0.6289730801155397 -0.5330286029165652 0.4892721051313256 0.6248409730723303 -0.7935152194961262 -0.5843256582459782 1.125063730390928 -0.7980458124427829
0.6070503203402844 -1.6026748629313226 -0.75417567646588 0.17065253022257426 0.49568188191650653 0.32387253564616214 -0.9917471991487048 -0.1535480483052536
-0.771962645189781 -0.7088019802766392 0.7021935575070624 -0.26701439488645495 -0.9502160118128231 -1.318168871559602 0.27617389414162763 -0.6887175127901116
0.8667328015024633 0.4711947803763929 1.4610413088504421 0.0747852790641556 1.0676974360796652 -0.5592612020884392 -0.30955258625620496 -0.8941405464724723
-1.248982141122433 -0.8477421040548094 -0.32472824898835295 -0.572640320674067 0.6572167008681624 -0.04628339542687711 0.7888813750624267 -1.700077716942435
0.4377501970984609 1.460395355097131 -0.8690760096906213 -0.1714841012889676 -1.1563983976339693 -1.0623643664153317 0.6751447589521115 -0.5033025355484052
0.3042558430898213 0.457975379201045 0.9178077104361467 -0.654589808664592 -0.27442345951322655 -0.2167242283392976 -0.2586452349975288 -0.7378394160397723
-0.3204040240021055 0.7267673281946903 -0.5215373576083266 -0.14151256357901376 -0.9777266946671872 0.5870457718662517 0.3144565308728738 0.254553472467339
0.5330534614373946 0.28019714302619436 -0.6500826082864671 0.12545595889547226 0.7766757779541301 0.8039524570276508 0.546975674473071 0.6344150287581534
-1.6535601104388422 0.36763078532748256 0.8374501223843867 0.06953662838770878 -0.27337676377399944 -0.8673777340808382 0.41850305489917444 -0.605673770757179
-1.3413256407097307 -0.5134058097550522 -0.9443685400902191 1.1725194981964642 0.8072278382545425 -0.6386031580265421 0.3245838487050721 -0.08139750330511059
0.559542420082704 0.23449061372323055 -0.16119081687880643 0.38460500023033195 0.869728780273185 0.6885425754039346 -0.5072083683614199 -0.45858419080262447
-0.7367808774130351 0.6890058797340239 0.18002053070768545 -0.3854519648582656 0.7838664169366575 0.5996084008940202 0.3867087470267268 -0.6105266140524557
0.7042165878068236 0.09690205711571 0.42467039375813836 -0.30098407443213127 0.8348622965211779 -0.044726405697519185 -0.604316790664202 0.3830942612532246
-0.15468388892392804 0.6044614142440217 -0.03351824077218706 0.39489412440726535 -0.7325095732424565 -0.7782917383769519 0.7156830424076559 -0.8827407166117143
-0.5378403783029017 0.31260842376368975 0.3791283260464005 0.15641732295844554 -0.3933003994560977 0.9175820192379618 0.5748904297797004 0.6138851374869805
-0.2545915228282327 -0.929361176925897 0.8352155065709426 -0.7019718735711231 0.7244651215570586 0.5258369596099209 -0.43027643169329943 -0.4269751356369407

W2 f8 [1, 500]
00000000: d494 ddda f004 de3f 0525 ca12 5427 d4bf
00000010: 179d 2094 427f ebbf f2a6 f38a c24b ffbf
00000020: be40 8cca 2f99 e73f 2025 58dd 8cc1 e03f
00000030: 382e 4208 2dd6 e03f a93d c295 9754 e1bf
00000040: c6fd 7300 8d4a f53f a081 f2a6 3441 d3bf
00000050: ecb6 0dbd e481 e13f 6f14 3d70 3607 96bf
00000060: 711d b987 2935 d23f 12f2 f618 ab55 efbf
00000070: 52d9 521e 9989 eebf 1b08 e879 351f e1bf
00000080: 7aad 78d6 3e80 e13f e5da fae1 132d f4bf
00000090: 8077 e79d 5915 c5bf 7da0 cd7d cb81 03c0
000000a0: 243a 383f 649a d93f 6aa6 783b 6f2f e5bf
000000b0: cf6b d877 5818 ec3f 728f 1610 b8b8 e7bf
000000c0: 98b0 1874 e3a2 d93f d0a4 297c 2e0a d0bf
000000d0: 69b3 1cc2 d405 dc3f 0b3f 701f ecd3 d83f
000000e0: 2df0 a1f9 1c54 c2bf 58dd c92e b889 e1bf
000000f0: 5fc9 9e10 411b debf 18ca 4a95 cec9 ee3f
00000100: 56c2 9bcf 89ed e53f 9e35 e909 6abd ecbf
00000110: a0b7 ec35 fa85 e9bf e85a 9fef 463d edbf
00000120: 188c d099 0b9d e1bf a9b8 217f d18e e7bf
00000130: 2964 503b 8041 ba3f 84a9 7eec 174c f9bf
00000140: 00cc c805 7f7d eb3f 7190 9b91 a87e d33f
00000150: 7e8a 5f50 dc57 db3f 58f4 1581 1c45 e8bf
00000160: 7790 d08d e560 a13f c00c 5196 1931 fdbf
00000170: 188c cfd2 cd33 d73f 4a5b 54e9 973f d43f
00000180: e6bc 136e 6a32 e43f 4829 2618 7766 d6bf
00000190: 4ebb dca0 e80e f7bf 2dfc 583e 88a9 ff3f
000001a0: 741d 98f7 c8db e13f 1bd2 2b4a da50 e4bf
000001b0: b04a b2db 7680 b4bf d8c2 305a aadf e53f
000001c0: 8e1e f440 ce0b e83f 4077 5759 749e d3bf
000001d0: bb9a 4867 07a6 cbbf fb21 4a9b 48ea bc3f
000001e0: a3cf 712d 95d5 dd3f 24ff 9cf5 081e de3f
000001f0: f2e5 151d 43d2 f2bf d63c deff 5317 f0bf
00000200: 3995 26dc c72f e4bf ee2d 350d 77d3 e2bf
00000210: b10a 069e 8cb2 d83f 40ec 06c5 1d65 b63f
00000220: 9e14 26c3 7fac e03f 7166 440c bdf1 0340
00000230: 27ce 4835 8e52 d83f 0036 5a14 89d3 e63f
00000240: 3e55 3468 a532 e6bf c0ba 7665 fc84 e83f
00000250: 60cb 5bb2 5399 cc3f 3a2d eb6b 61f5 b03f
00000260: b1eb 5198 d4eb e23f 6e0f f12c e744 e6bf
00000270: 810c b649 6891 d0bf 44a7 7eba 5270 debf
00000280: baae ad20 7f0f ec3f 80ea e82d b209 c4bf
00000290: ca8e b87d 6a79 d3bf 4769 3150 f7d3 debf
000002a0: 2fbb 60fe 4abf dd3f 2eaf 4768 54dc e73f
000002b0: 29c3 42e6 58d3 debf 2043 cd28 421a a8bf
000002c0: 0c40 9577 c26f d9bf cc97 8a98 3976 e13f
000002d0: 0fdb 4cc1 2325 e23f e464 78e5 7fa8 e0bf
000002e0: 302f c2b8 b10c b2bf 2812 e9bc b9fa e53f
000002f0: d469 24ac 3263 bfbf 0d42 86b8 bef0 d73f
00000300: 3eee 4c4a 812b df3f d8e9 0610 c7fa ddbf
00000310: ea3b 6645 3a1f eabf fd09 d175 d2eb f23f
00000320: 406d 2d58 cdb3 c2bf 6daf a9df 77ed 723f
00000330: 3dc5 cab8 75ef ab3f 224c f0d8 5b7d e7bf
00000340: 6b3e 1ba6 3a69 0240 2aa9 2153 fa92 f4bf
00000350: 44ca 3d6d d6c7 d23f f81d 03c3 5fe4 d9bf
00000360: de2f 9518 435c d9bf 57b3 c39d 6422 debf
00000370: 97ad 61cb eac2 e5bf d0ca 6302 40a6 dabf
00000380: 6ecb 9e57 da10 be3f b20f e078 48b7 d33f
00000390: c3ec 89d5 bdff e7bf 8b27 7ea2 79fd cf3f
000003a0: 5ec6 9c6a 04bf 0240 ca7c ea42 c50c acbf
000003b0: 9be6 33fd 7415 d9bf 03f6 3614 5a88 c53f
000003c0: 0f81 a0c5 1533 e33f 481b c4ce 64ba d43f
000003d0: e2ef 4488 0610 e7bf 125f c58f 5e0d dd3f
000003e0: a691 5255 d006 ec3f d626 d108 de4a e3bf
000003f0: efdb 91f4 6820 0540 d0ad 5da5 d0ec ddbf
00000400: 47b7 80a7 19e2 c63f a44e c14e 4ff8 0140
00000410: 1a4d 930d c12c e03f 1c14 a713 898a e9bf
00000420: fdaa 7f20 3323 d13f ca92 2021 aed2 d1bf
00000430: aa0b b23a 5aa4 ecbf f513 ce58 d2c8 ea3f
00000440: 10a4 32d7 43f1 ffbf 4066 e18a c3dc ec3f
00000450: 37f1 66a0 157f ccbf c82f dd15 b556 c73f
00000460: 9cb3 e33c cd86 e43f 2208 63c4 da84 00c0
00000470: ce04 f501 f103 e63f c003 30dc 2366 e4bf
00000480: 90d2 c5e3 b534 eebf 526b aa63 341e 0040
00000490: 3c8c 6ed7 1c1e fa3f e03a 9e8d 73a5 da3f
000004a0: 4264 821b 3163 f63f bb55 15ea 5e54 f03f
000004b0: 38ea eda0 0ec5 c23f 60d9 c749 51d2 bf3f
000004c0: 397a 63b0 4044 0340 f85f e8bd d16a c83f
000004d0: 7e08 0332 19f3 de3f c5ca b360 b7c5 e73f
000004e0: 5160 0cf4 e377 e23f d991 06e2 c4c8 e9bf
000004f0: 5592 8387 ff74 f4bf 550e 23d5 e8cc 05c0
00000500: 3a41 41bf e990 d5bf edc2 a5fe ad21 04c0
00000510: 0cb4 4294 afde edbf 75f2 35ed f5c5 d5bf
00000520: 9fc6 9bb3 76fb f13f a773 0f65 5e32 f93f
00000530: bb04 5897 fe28 e63f 5908 9b60 c65c e63f
00000540: a4de 4620 1211 e8bf 4304 1316 1956 e33f
00000550: b08c 9c8e c672 03c0 c88d d013 b88d c23f
00000560: 9d88 eb66 d50f ed3f 6a42 c409 27d1 ea3f
00000570: 60ed 18fd fa44 bf3f a086 ca07 2bcd e03f
00000580: e8c6 1ce3 f9de e0bf e5d8 6c1f 7957 a83f
00000590: dc51 643e 806c d8bf 60b2 4d6c 77e0 c13f
000005a0: 585e 0bd7 70d3 cdbf 5eed f521 5193 b63f
000005b0: 6355 cf45 6283 e1bf cae2 5113 c032 e0bf
000005c0: 2d42 3789 63a9 c33f 2cfd f1c7 3c1a dabf
000005d0: c8f3 0613 2d27 eabf d5fc c5f8 ff5b d83f
000005e0: 0776 9169 e216 d2bf bb9f d653 6991 e1bf
000005f0: 9a0a cd99 1c9f d73f 491f 0330 fdc2 e33f
00000600: c380 f51c 9463 ff3f 68f7 7bb1 26f0 e1bf
00000610: c2c7 93f5 70ae d63f e03d f749 321c ca3f
00000620: 886c 346a 606a ebbf cce7 f1a4 ee46 e23f
00000630: f6cc bcf9 b805 d63f 8ae6 25d8 aec2 eabf
00000640: e6fa 4b81 4915 f8bf c0ef 1826 fe22 9c3f
00000650: b8f2 2c1b 0ac3 cebf a8de 0418 816e f2bf
00000660: eeef 760b 292a d4bf f458 8287 1f26 e6bf
00000670: a422 9eae 51d1 fa3f 3fdd 7394 8830 efbf
00000680: da52 6933 0532 e73f eaba 9283 d09d 04c0
00000690: c085 2946 6194 c6bf 949f dcde 302d d53f
000006a0: 89ac 4914 2282 02c0 d33f ad4d 714d e43f
000006b0: eae5 aea7 2c9f e63f be4a 96de 39ca e73f
000006c0: a478 9da3 48be ea3f 44bf 569e c88d e2bf
000006d0: 16a7 c784 58ce d33f 3dc1 f8ac b06d eb3f
000006e0: 2f73 c790 4340 e33f b777 ec7a b0d9 c2bf
000006f0: 87f5 a773 def5 e43f 8053 47ba b83e b23f
00000700: dac8 dff1 337b d13f 6a20 5b4c 9907 cfbf
00000710: f6c8 0251 6587 ca3f 9235 8ec6 30ab e13f
00000720: e83c 0509 fd6f b43f 86ec 615b bf12 e7bf
00000730: 52cf d4b3 0db7 edbf bbb6 7ce9 6c20 e63f
00000740: 347c 9a92 966e c53f 8de0 df45 72bc 93bf
00000750: 9102 ccf6 8a4c e2bf f607 0cc7 1b3a e43f
00000760: 2773 daa2 4a9e efbf 50cb 8726 3b38 c63f
00000770: cd67 3297 2e3e c73f fa2a d2e2 5e54 ea3f
00000780: efd4 9223 861d e3bf 04b1 1c8b 0b1c aa3f
00000790: 5954 7117 2cf7 c43f 5eeb 5e47 f664 e53f
000007a0: d563 871c 4804 eebf 230a 006a 4408 dd3f
000007b0: aeed fbe5 f0d5 f2bf 053e f687 2fb8 e43f
000007c0: 4cb8 e0c1 7e81 eebf 3774 6acb d609 f23f
000007d0: 76e9 a219 e363 02c0 c021 e33c 8903 b3bf
000007e0: e479 2f90 b451 cf3f c784 f2e7 91f4 ba3f
000007f0: b619 185b 8705 e7bf 264e f65d 4266 eabf
0.46905156491841393 -0.3149004157535987 -0.8592846768487189 -1.9559960773280491 0.7374495464337298 0.5236267398005658 0.5261445199298072 -0.5415761876083042
1.3307008760165089 -0.3008548384041436 0.5471061413242899 -0.021511889076709808 0.2844947648449852 -0.9792075622168019 -0.9542966453798647 -0.5350596791252004
0.5469049633879159 -1.2610052897777504 -0.16471405229725278 -2.438376410329566 0.4000483147982854 -0.662040344385969 0.8779718723993656 -0.7412987055035798
0.40056692445319575 -0.2506214344526372 0.437855901301012 0.3879347140327673 -0.1431919306668318 -0.5480614580000447 -0.4704134619052151 0.9621346393453818
0.6852463774540165 -0.8981218522618979 -0.7976046612945886 -0.9137301139952259 -0.550420570773329 -0.7361838801423534 0.10256196449371714 -1.581077503020965
0.8590693581558071 0.30460561961650173 0.4272375855345344 -0.7584364434438937 0.03394238811623123 -1.8244872924558848 0.36253686511025895 0.31638143335424174
0.631154265398348 -0.3500039802389847 -1.4411398204499224 1.9788896975949328 0.5580792270492752 -0.6348697136550671 -0.08008520950014986 0.6835529099972417
0.7514411228775815 -0.3065462944485837 -0.2160043005289561 0.11294988433122193 0.4661610549730943 0.47058319078131405 -1.176333535781279 -1.0056953425262711
-0.6308326053446428 -0.5883136041606443 0.3858977835845208 0.08748041210394408 0.5210570155619683 2.4930363615392754 0.38003878787569295 0.7133222005374478
-0.6936823878519716 0.766233633204898 0.22342916687883996 0.06624421009762652 0.5912878966331531 -0.6959110143438758 -0.25887496183731434 -0.4756056615102475
0.8768916738749433 -0.15654589883509473 -0.30428564336237385 -0.4816873820433511 0.4648005947264435 0.7456457173079565 -0.4816496132507831 -0.047075335961045406
-0.3974462669184511 0.5456817607234767 0.5670336509127497 -0.5205687982408134 -0.07050619850832329 0.6868561448723698 -0.12260739042941476 0.3740689088818108
0.48703033691319664 -0.4684312492860534 -0.8163119655090416 1.1825737573823283 -0.14611212544955698 0.004620998627256384 0.05456130867731666 -0.7340525853236424
2.3013813950599817 -1.2858832595180254 0.29344711940862944 -0.4045638470092565 -0.39625623131428067 -0.4708491841000088 -0.6800435993476864 -0.4163970969522497
0.11744465483824992 0.30806171230528456 -0.7499684496573525 0.24992294725626282 2.343270142468824 -0.05478493158192917 -0.3919346306498512 0.16822362887425876
0.599985967626738 0.32387657348629206 -0.7207062398442725 0.4539410022748466 0.875831762929512 -0.6028890773970612 2.640825186444537 -0.46757904194848
0.17877503088805666 2.2462450173132584 0.5054631486076773 -0.7981610664215881 0.26777342008305977 -0.27848389849740995 -0.8950625559231089 0.8370143637154103
-1.996402588478535 0.9019487106808768 -0.2226283105100124 0.1823335987813819 0.6414552869078878 -2.064870390197954 0.6879811323380183 -0.6374682713068225
-0.9439343880354318 2.0147483621962374 1.6323517241769556 0.416348350809967 1.39921675439679 1.0205983299141355 0.1466387067592494 0.12430294085775051
2.4083265095098594 0.19075986645543686 0.4835875500103909 0.742885292884545 0.5771350637978775 -0.8057579435886125 -1.2785640042794928 -2.725053467876743
-0.33696979214893796 -2.5164451498352407 -0.9334333320344981 -0.34020755925283847 1.1238924995381365 1.5747970531149151 0.6925042110380198 0.6988250624492692
-0.7520838385016373 0.6042600089205127 -2.4310427800679335 0.14494992225182401 0.9081828127057353 0.8380313101534516 0.12214630774626789 0.5250449325723885
-0.5272187648572215 0.047542367063600634 -0.3816223725600858 0.1396626738382052 -0.2330151605626607 0.08818537787549505 -0.5472880710100693 -0.5061951043454311
0.1536068363189015 -0.4078514053907891 -0.8172822353004614 0.3806152276446942 -0.2826467543544315 -0.5490004193752535 0.3690864088022551 0.6175523698557096
1.961811173554495 -0.5605653254021776 0.35439704878001177 0.20398548709498154 -0.8567354273140078 0.5711587163525507 0.34409927738597845 -0.8362650128976423
-1.5051970530182017 0.02747723681953551 -0.24032713248188542 -1.1519785822146478 -0.3150732624014826 -0.6921537062324021 1.6761032887463125 -0.974674501368021
0.724855995572024 -2.577057865062092 -0.17640319753540545 0.3308832336792815 -2.313541563509322 0.6344534413456081 0.706930472856752 0.7434357974437587
0.8357279964073041 -0.5798075764232427 0.309469346683373 0.8571399095872391 0.6015947177616904 -0.1472683525288951 0.6550132998378765 0.07126955554788417
0.2731447088291482 -0.24241939762419246 0.2072569509087498 0.5521472814595418 0.07983380766130532 -0.7210385117354157 -0.9285954010324338 0.691458183316818
0.16743738325473745 -0.019273553385545972 -0.571843606972907 0.6320933234821939 -0.9880726986626528 0.1735910356652206 0.18158514387761074 0.8227991514298474
-0.5973540015026212 0.05099521706719837 0.16379309792196997 0.6685744661293531 -0.9380226666645465 0.45362959243371587 -1.177231691718457 0.647483602095179
-0.9533075129199999 1.1274021097117506 -2.2987730028955253 -0.07427270637993555 0.2446809486418281 0.10529434120919055 -0.7194248942549197 -0.824982818145547

b2 f8 [1, 1]
00000000: 30b0 fa25 b62c c83f
0.1888644872136651
