NeuralNetworksV3/weights_(30,30,30,30)_hidden.npz (npz, 28150 bytes, 18 tensors)

b1 f4 [30, 1]
000000 29 26 fd bb ff 64 b0 bd 37 2d 07 3f 67 1a 59 3c
       -0.0077254963 -0.086130135 0.5280337 0.013250924
000010 f6 d9 40 be 4d 8f 5a bd 17 d7 8f be 37 e5 fe bd
       -0.18833145 -0.05335932 -0.28093788 -0.12446063
000020 f5 87 99 be 13 9e f8 bd db f5 26 bf 1f a8 31 be
       -0.2998654 -0.12139525 -0.65218896 -0.1734929
000030 a2 a8 b5 be 65 73 56 3f 32 e3 5f 3e 20 f5 24 3f
       -0.3548022 0.8376983 0.21864012 0.6443653
000040 78 84 41 3f 8e 15 16 3f 4b 04 6a 3e 8d cd 90 3e
       0.75592756 0.5862664 0.228532 0.28281823
000050 11 b4 25 3d 2b 93 25 be 09 9b aa be 5d 42 73 3e
       0.040454928 -0.16169421 -0.33321407 0.23755784
000060 f4 8a de be 12 c2 9a be 51 77 fe be 78 0d 4e be
       -0.43465388 -0.3022619 -0.49700406 -0.20122325
000070 2c 1c ba be e5 24 1c 3f
       -0.36349618 0.60993797

W1 f4 [30, 2]
000000 35 13 19 3f d5 6e 18 3f 12 5c a9 3d eb 6a 7c be
       0.5979493 0.59544116 0.08269514 -0.24650161
000010 b1 c1 40 bd bf 5d b1 be 7f 1f 2c 3f 2e 9f 23 3f
       -0.04705972 -0.34641835 0.6723556 0.63914764
000020 c0 4c 8f be 8c 5a bb be 05 11 0e 3f 14 36 9c 3e
       -0.27988243 -0.3659252 0.5549472 0.30510008
000030 2a d2 67 be 29 24 07 bf 54 9f 94 be 1b 65 98 3d
       -0.22638765 -0.5278955 -0.29027808 0.07441159
000040 39 cb ef 3d dc 7b 62 3f ca ff f3 3e bd f8 ca bd
       0.117086835 0.88470244 0.4765609 -0.09910724
000050 c6 1e 6b 3f 1c 06 3b 3e 5a 2a 1b 3f 85 41 47 3f
       0.9184383 0.1826405 0.606115 0.7783435
000060 36 53 db 3b 05 8c 9b be d6 05 01 bf 7f 2e 37 be
       0.006693269 -0.30380264 -0.5039953 -0.1788883
000070 89 21 d0 be 21 08 f4 3e 76 53 e5 3d 20 0e 00 3d
       -0.40650585 0.47662452 0.111975595 0.03126347
000080 ae 58 50 bf 9c 91 93 3e 27 9c 00 bf 72 e2 c2 3e
       -0.81385314 0.2882203 -0.5023827 0.3806339
000090 73 d8 84 bd 44 70 d5 bd 05 fe 74 3f 63 2c e9 3e
       -0.06486597 -0.104218036 0.95700103 0.45541677
0000a0 99 cb 37 3f ce 71 a0 3e 7e 8a 46 3c 5b 80 ec be
       0.7179504 0.31336826 0.01211798 -0.46191677
0000b0 2e fa 7c 3d aa 24 af be 20 06 80 bc c5 24 0c bf
       0.061762027 -0.3420766 -0.01562792 -0.54743606
0000c0 ea 19 82 3e 4a 43 7f 3d 96 01 df be 4b b6 9e 3e
       0.25410396 0.06232003 -0.43555897 0.30998453
0000d0 f2 e1 f1 3e f0 af 83 be a1 15 b4 be 28 4e ad be
       0.47242695 -0.25720167 -0.35172752 -0.3384869
0000e0 01 5c a7 3e be 53 15 3e 2f 20 81 3e 18 d9 13 3e
       0.3268738 0.14582726 0.25219867 0.14438283

b2 f4 [30, 1]
000000 b5 68 5e be 1a 8f b6 3e 25 7b b1 3d 2c e2 b7 be
       -0.2171963 0.35656053 0.08666066 -0.35914743
000010 73 d7 4d 3e bd 58 e4 be 68 b5 0b 3e 1b 16 45 be
       0.20101719 -0.44598952 0.1364342 -0.19246714
000020 6c 56 91 be 8e 20 54 be 0a 70 89 be 76 ed a4 3d
       -0.28386247 -0.20715544 -0.26843292 0.080531046
000030 a4 f3 03 bf 3e 88 e2 be 4b bc a8 3e 0c a0 2f bc
       -0.5154364 -0.4424457 0.32956156 -0.0107193105
000040 cc 99 f6 3e a1 f6 0e be 66 75 b1 be 98 19 ec 3e
       0.48164213 -0.13961269 -0.3465988 0.46113276
000050 49 56 38 be 55 43 4f 3e 15 a9 23 bf 1c 78 4d be
       -0.18001665 0.20240529 -0.63929874 -0.2006535
000060 03 2d 66 be c5 65 90 be 00 6c b0 3e f1 72 9a bc
       -0.22478108 -0.28202644 0.34457397 -0.018853636
000070 a9 6e 86 be 60 b4 89 be
       -0.26256302 -0.26895428

W2 f4 [30, 30]
000000 5e a6 8c 3e 61 f0 e3 3e 10 47 a2 3e b4 a1 07 3f
       0.27470678 0.44519332 0.3169484 0.52981114
000010 52 36 8c 3e b7 4f 5e bd c8 a3 e7 be 11 15 ab be
       0.27385193 -0.05427524 -0.45242143 -0.3341451
000020 c2 af 04 bf 89 98 9d be 87 b5 17 be 41 83 0b 3f
       -0.51830685 -0.30780438 -0.14815341 0.5449715
000030 65 8c 8d 3e 15 8b af ba 28 3f 09 3d 6d 21 f7 3e
       0.27646175 -0.001339289 0.033507496 0.4826769
000040 74 9c 9e be c1 ec 9a be c3 1c 99 3b c4 c9 25 3f
       -0.3097874 -0.30258754 0.004672618 0.64760995
000050 6b 6c ec 3e 06 09 ac be 2d 1e c8 be 93 a4 ac be
       0.46176466 -0.33600634 -0.39085522 -0.3371931
000060 e0 a0 1b bd 09 cc 15 bc 2d d1 c7 be 04 eb 9c 3e
       -0.03799522 -0.009142884 -0.39026776 0.30648053
000070 97 c3 d0 3e 7d 5c a2 be 26 1b 6c be a0 20 ca 3e
       0.40774223 -0.31711188 -0.23057231 0.39478016
000080 2e a2 24 be c0 2f 86 3e a3 2b 05 3d 7a bd 9d 3e
       -0.16077492 0.26208305 0.03251232 0.30808622
000090 66 d4 c4 be d4 81 9d be e1 91 fb be 2d 10 96 be
       -0.38443297 -0.30763113 -0.49134734 -0.29309216
0000a0 6a 88 77 be 97 12 9e 3e df 20 2a 3d e4 60 d4 be
       -0.24173132 0.30873558 0.041535255 -0.41480172
0000b0 07 ff aa 3e 29 88 b1 be 3a 80 e3 be fa a6 20 bf
       0.33397695 -0.34674194 -0.44433767 -0.62754786
0000c0 79 48 a9 3c 69 ce 0d 3f 73 ea 08 3f 11 2b 38 be
       0.02066444 0.5539308 0.5348274 -0.17985179
0000d0 76 62 9a 3e 1e 6a 06 3f 20 ad e7 3d bf 63 59 3e
       0.30153245 0.5250567 0.11312318 0.21229456
0000e0 a9 fa 40 3e 24 be dd 3d 48 73 0c 3f a5 7a 9a 3e
       0.1884562 0.10827282 0.54863405 0.30171695
0000f0 9c f7 33 be 8d c1 34 3e 8d 48 a3 be e9 84 49 be
       -0.17574924 0.17651959 -0.3189129 -0.19679607
000100 1b d0 b3 3e cc 50 dc 3e e7 ea 75 bd 2c ab a2 be
       0.3511971 0.43030393 -0.060038473 -0.3177122
000110 f4 fc d3 3e 06 b1 4a be 67 e4 f7 be 88 dd dd be
       0.41403925 -0.19794092 -0.48416445 -0.43333077
000120 9b 6b b8 3e 28 45 d2 3e 47 10 b4 be 87 fb 82 be
       0.36019596 0.41068387 -0.3516867 -0.25582525
000130 44 ec e2 3e 26 03 dd be c2 9b 9e 3e 2d 49 da bd
       0.4432088 -0.43166465 0.3097821 -0.106584884
000140 84 65 b7 be 85 4f c8 3e b7 e5 0c be cd d6 0b bf
       -0.35819638 0.3912317 -0.13759504 -0.54624635
000150 54 09 cf bd 11 bc bd 3d 93 6a e5 3e a1 b8 db bd
       -0.10109201 0.092643864 0.44807872 -0.107285745
000160 b2 cb 75 3d 04 3d c2 3d 0e 39 45 3e cc 8f a5 3e
       0.060008712 0.09484294 0.19260046 0.3233627
000170 a8 08 b7 3e be 7a dd 3e 0b 1b 0a 3e fb c0 48 3e
       0.35748792 0.43257707 0.13486879 0.19604866
000180 7f 14 52 3e f2 5b dd 3e 33 34 02 3e 4c cd a9 bc
       0.20515631 0.4323421 0.12715225 -0.020727776
000190 56 32 39 be 17 c5 29 3e a7 57 16 be 20 ac c2 3a
       -0.18085608 0.1657909 -0.14681874 0.0014852323
0001a0 c1 99 97 3d 63 f6 bd bd b0 89 1c bf 6c 8a bf 3e
       0.07402373 -0.0927551 -0.61147594 0.37410295
0001b0 27 81 d1 be ef 75 10 3f 07 82 c1 3e 37 e7 7a 3e
       -0.40918848 0.5642995 0.37794515 0.24502264
0001c0 8e f6 56 3e a3 c7 be be b5 88 7f 3d 0b e4 c7 be
       0.2099249 -0.37261686 0.062386233 -0.3904117
0001d0 4b 92 8e 3e 5e f4 c8 3e 49 1c da 3e 53 a8 15 3f
       0.27845988 0.39248937 0.42599705 0.5845997
0001e0 83 4f 93 bd 8f ad 43 3e 85 4f ff be 89 f3 0a be
       -0.071929 0.19109176 -0.49865356 -0.13569464
0001f0 86 e7 e4 3c 7d 01 ea 3e be 8d 88 3e 9b ba a3 be
       0.02794243 0.4570426 0.2667064 -0.31978306
000200 36 84 a6 be ae 09 df 3e 37 9a bb 3e 2a 38 ad 3c
       -0.32522744 0.43562073 0.36641094 0.021144945
000210 74 91 c6 be 4b e5 d9 bd e1 bf b6 be fe de de be
       -0.38782847 -0.10639437 -0.35693267 -0.43529505
000220 c6 89 44 be c4 20 b6 bd 2d 05 7b 3e 30 cd 04 be
       -0.19193181 -0.08892968 0.24513693 -0.12968898
000230 67 90 46 be 0c e9 ff 3d d3 a4 db 3e 93 67 ac be
       -0.19391023 0.12495622 0.42899188 -0.3367277
000240 bd c2 5a 3c 7f e9 4d be fd 27 0f be 98 e6 32 bd
       0.013352093 -0.20108603 -0.13980098 -0.043676943
000250 fa 8a a7 3e 72 4d eb 3e 4d 39 6b 3e 89 7b be 3e
       0.32723218 0.45957524 0.22971077 0.37203625
000260 e2 90 0c bf 7b df a8 3e fd 89 bb 3e f8 fd f7 3e
       -0.54908574 0.32983002 0.36628714 0.4843595
000270 7c b3 34 bd 50 79 90 3e 10 62 ba 3e 10 89 2a bf
       -0.044116482 0.28217554 0.3640294 -0.6661539
000280 b6 db 56 bd bf 01 07 3f 64 db 9c 3e be d7 c7 be
       -0.052455626 0.5273704 0.30636132 -0.39031786
000290 c1 17 a7 be 8c a6 de 3e 77 fe 5e be da ae a8 3e
       -0.3263531 0.4348644 -0.21776758 0.329459
0002a0 06 61 de be 02 ae ab be b8 6e 93 3e 6a 7b aa 3e
       -0.43433398 -0.33531195 0.2879541 0.33297282
0002b0 38 2a 09 bc ca 25 db bd 75 1a c3 3d e3 92 0e 3e
       -0.008371882 -0.10700567 0.09526531 0.1392322
0002c0 8a fc b4 be 05 6f bf be 1d 55 bf be 72 dd eb bd
       -0.35348922 -0.3738939 -0.37369624 -0.11516847
0002d0 77 ab f6 be 88 d2 0c 3e cf 17 51 be f6 a5 ee be
       -0.48177692 0.13752186 -0.20419239 -0.46610993
0002e0 92 e4 9d 3e 26 71 b9 be 2f 47 e8 be 47 2f 21 be
       0.30838448 -0.36219138 -0.4536681 -0.15740691
0002f0 78 43 50 bc 3f 12 8d be 78 fd 22 bd 1e 42 93 be
       -0.012711398 -0.27552983 -0.039792508 -0.2876138
000300 d7 c8 c8 be 9b 3e da 3e 6a 07 88 3e f3 9d 11 3f
       -0.3921573 0.4262589 0.26568156 0.56881636
000310 e8 fd b9 bd 6a 4c 1a 3d a6 8e 32 3d 5d 74 d8 3e
       -0.09081632 0.03767053 0.04359307 0.42276278
000320 7b 4a e5 3e 78 ec dc bd cb e2 c5 3d 61 96 3c 3d
       0.44783387 -0.1078729 0.09662398 0.04604185
000330 82 08 20 be c4 ef 1a 3e a3 d2 ee be 1f ed f8 3e
       -0.15628245 0.15130526 -0.46645078 0.4861841
000340 2a 5a 0b 3f 5b 0a 85 3d 73 2d 1f be eb 1f 92 3e
       0.54434454 0.06496116 -0.15544681 0.28539976
000350 9b a2 7a 3e 52 40 81 3e 92 de 4d 3e 00 a7 f1 bd
       0.24476092 0.25244385 0.20104435 -0.11799431
000360 0f 9b 72 bd ce ff 87 3d 02 99 cb 3d 2e df 77 be
       -0.059229907 0.06640588 0.09941293 -0.2420623
000370 10 5a 1f 3f 7c b9 46 be 99 e7 f3 bd 3c 6a 04 3f
       0.622468 -0.19406694 -0.11909408 0.517246
000380 57 f1 4e bd 9f d8 b8 3e ae c3 a7 be 25 3b e7 3e
       -0.05052313 0.3610277 -0.3276648 0.4516231
000390 41 19 9a 3e 61 55 a4 be 7e e8 2a be a2 ef 0c be
       0.30097392 -0.3209639 -0.16690251 -0.13763288
0003a0 7b 6a c8 3e a0 a6 48 3e 51 df d1 3e c1 d3 1a 3e
       0.39143738 0.19594812 0.4099069 0.1511984
0003b0 71 5e 5d 3c 02 88 ca 3e b0 b3 21 bf da 79 6c 3e
       0.013511286 0.3955689 -0.63164806 0.23093358
0003c0 14 59 9e be d8 33 be bd d2 b7 cc be e8 73 a1 be
       -0.30927336 -0.09287232 -0.39983994 -0.31533742
0003d0 2c d7 ec be 57 af 06 3e 69 72 94 be aa 04 a7 bd
       -0.46257913 0.13152824 -0.28993538 -0.081551865
0003e0 ef 61 fb 3d 14 f4 f9 3e 4d 1d 69 be eb 91 83 bd
       0.12274539 0.4881903 -0.22765084 -0.06424316
0003f0 87 e1 66 be 22 09 fb bd e9 4f bd 3d 15 35 ef 3e
       -0.2254697 -0.12257601 0.09243757 0.46720186

b3 f4 [30, 1]
000000 f1 79 81 3e f2 1a e7 3e 7e 77 cd 3e 07 46 7d 3e
       0.25288346 0.45137745 0.40130228 0.24733745
000010 dd b9 a9 3d 5c e6 11 be c9 b1 22 3e 61 f1 79 3d
       0.08287404 -0.14248031 0.15888132 0.061021212
000020 3c 82 e9 3e 0e 62 f3 3e 43 d6 89 3e 55 df 0f 3f
       0.45607173 0.47535747 0.2692128 0.5620015
000030 78 e0 04 bf b4 da 57 be 62 03 95 be 88 ff de 3e
       -0.5190501 -0.21079522 -0.29104143 0.4355433
000040 42 64 24 3f 72 c5 76 3c d9 62 1c 3f 39 39 97 be
       0.6421548 0.015061723 0.6108833 -0.29535845
000050 df 28 02 bf b2 6e 06 3f 58 25 1f 3d 21 e2 cd 3e
       -0.50843614 0.5251266 0.038853973 0.40211585
000060 99 3b 04 3f 31 0f 53 3e fa aa 83 3e 76 ca 0e 3f
       0.5165344 0.20611264 0.25716382 0.5577768
000070 20 7b c2 bd 75 5f b5 bd
       -0.094961405 -0.088560976

W3 f4 [30, 30]
000000 88 b1 d0 be 7c 4f d4 be e7 2a fa 3d 63 29 ce be
       -0.40760446 -0.41466892 0.12215214 -0.4026595
000010 a8 1f 85 be dd 27 50 be fa 4c 4a bd d4 52 86 3d
       -0.26000714 -0.20327707 -0.049389817 0.06558767
000020 47 d7 e0 be aa a2 51 be d4 05 33 3e d0 2b b4 bd
       -0.43914244 -0.20472208 0.17482692 -0.08797419
000030 45 f1 9d 3c c2 f6 83 3d 7f 5d ea be 1c 2a 80 3d
       0.019280085 0.0644355 -0.45774457 0.06258032
000040 a8 52 cb be cb 3a 63 ba fd 2c ef 3e ff 68 dc be
       -0.397115 -0.00086681236 0.4671401 -0.43048856
000050 52 70 b7 3d 9a 9b b5 be 15 b9 b4 3e 80 01 94 be
       0.0895697 -0.35470277 0.35297456 -0.28907394
000060 f6 9c 87 be 38 57 d6 3e 96 f1 64 3e 5d 40 77 3e
       -0.2648694 0.41863418 0.22357783 0.24145646
000070 0f 1b 4a 3e b9 87 9f bd a3 09 c8 be 63 9f a4 3e
       0.19736885 -0.07789559 -0.39069852 0.32152852
000080 01 00 93 bd 09 de 0f be 62 10 d8 ba 5f 91 c8 3e
       -0.07177735 -0.14049543 -0.0016484375 0.3917341
000090 83 d5 b7 be 27 27 b4 3d 3b ad 1d 3e 08 f2 d3 be
       -0.35905084 0.0879653 0.15398113 -0.41395593
0000a0 28 fc 48 3e 6d c6 32 be 49 80 c6 be 5c c3 bc be
       0.1962744 -0.17458506 -0.3876975 -0.36867797
0000b0 8d b4 06 3e f4 43 c7 be 20 e0 6d bd 7b 78 72 be
       0.13154812 -0.38919032 -0.05807507 -0.23678772
0000c0 0a 6c 90 bd 40 03 d7 be de a1 b5 be eb 24 00 be
       -0.07051857 -0.41994667 -0.35475057 -0.12514083
0000d0 9a b3 8d bc 21 25 02 bf 1d ba 8b 3e 0d e3 b2 3d
       -0.017297555 -0.50837904 0.2729043 0.08734713
0000e0 a2 af 3d bd 51 92 63 be 97 cd 82 3e bc 3f b1 be
       -0.046310075 -0.22223784 0.25547478 -0.34618938
0000f0 d8 b2 e7 bc 1f 0d 4c 3b 39 1f 5e 3d 31 6f 1f be
       -0.028283522 0.003113575 0.054228995 -0.1556976
000100 b3 8e 1e be 04 92 d0 3d 11 fa a4 3e 22 19 78 be
       -0.15484123 0.101841 0.32222036 -0.24228337
000110 96 72 4c be 57 06 01 be 20 5a 0d bf 17 56 e8 be
       -0.19965586 -0.12600075 -0.55215645 -0.4537818
000120 55 1d 20 be 4f 69 9b be 75 8e 07 3f 0b cf 81 bc
       -0.1563619 -0.30353782 0.5295175 -0.015845796
000130 cb 00 04 3e ae c8 53 bd f9 86 12 3d 22 81 24 be
       0.12890927 -0.051705055 0.03577325 -0.16064885
000140 57 15 2b bd a1 7f fd 3d 81 1d 39 3d 24 0b aa bd
       -0.041768398 0.12377859 0.045194153 -0.08302906
000150 f6 22 b1 3e b7 43 a4 3e 7e 1e 02 3e 06 79 93 3e
       0.34596986 0.32082912 0.12706944 0.2880327
000160 39 fa c5 3e 38 12 7a be ff 13 cc be 99 5e ed be
       0.38667467 -0.24421012 -0.39859006 -0.46361235
000170 f9 c8 c7 3d 86 0f 2c be 5f 4e 7e 3d 55 08 63 3e
       0.09755129 -0.16802797 0.06208646 0.22171147
000180 bf 5b 0f 3b 4c f8 df 3e 8a 6d d4 3e 50 80 69 bc
       0.0021874753 0.43744123 0.41489822 -0.0142517835
000190 8a ac 25 be ef 15 12 be 47 65 f7 3e 3c 03 93 3e
       -0.161791 -0.1426618 0.48319456 0.28713405
0001a0 fd 51 06 3f c3 a3 c8 3e 1a 62 9e 3e 62 43 9e be
       0.52468854 0.3918744 0.3093422 -0.30910784
0001b0 1c 32 5a be 71 ec 25 be 2d fd 35 bf c8 85 15 bf
       -0.21308178 -0.16203476 -0.7108944 -0.5840726
0001c0 93 b1 d6 bc 1e 80 d9 be 1b 5d 23 be 01 94 bb bc
       -0.02620772 -0.42480558 -0.15953486 -0.022897722
0001d0 02 f1 05 3f ca f6 b3 be a9 61 df 3e 78 f5 81 3e
       0.52320874 -0.35149223 0.43629196 0.2538259
0001e0 27 9f fe bc a9 a2 c2 3c 9d 10 e2 3e 6f 86 49 3e
       -0.03108175 0.023759203 0.441533 0.19680189
0001f0 e6 fd 1f 3e ba a4 2f 3e 60 18 bb be 8e d9 71 be
       0.15624198 0.17152682 -0.36542034 -0.23618147
000200 a7 f9 79 3e 16 22 f9 3e 1a 3c 0b 3f 0c 2f d1 bd
       0.24411641 0.48658818 0.5438858 -0.102140516
000210 c8 5f bd be ed f6 eb 3d 77 c2 8e be c5 1f d6 3e
       -0.36987138 0.11521707 -0.2788274 0.41821113
000220 44 3e 82 be 95 e0 10 be fb 58 8d bd c8 ec a8 3e
       -0.2543813 -0.14148171 -0.06901737 0.3299315
000230 c4 68 a4 be 69 24 d8 3e 29 07 3f be d1 d0 46 bd
       -0.3211118 0.4221528 -0.18655075 -0.048538987
000240 65 de 22 be 13 83 67 3e e3 33 ae be c7 85 13 be
       -0.1590515 0.22608595 -0.3402396 -0.14406501
000250 3c 94 46 bd cf 71 9b be a3 f1 7a 3d cb a9 ea be
       -0.04848121 -0.30360267 0.0612656 -0.45832667
000260 c6 5a 9a 3e 3f 01 71 bd 81 8b ec 3e 70 d0 6d 3e
       0.3014738 -0.05883908 0.46200183 0.23224044
000270 e4 8a 89 3e c2 c0 c0 3d 28 b0 a0 be e8 95 05 bf
       0.26863778 0.09411766 -0.31384397 -0.52181864
000280 0e 28 63 be 96 1a b6 3e e3 69 4e 3e cf 5a df 3e
       -0.22183248 0.35567158 0.2015758 0.4362397
000290 1f b1 14 be ec 48 e9 3e 06 09 90 be b2 7e ed 3e
       -0.14520691 0.45563447 -0.28131884 0.46385723
0002a0 03 5e c9 be 99 bb a8 3e 8a 57 01 3d 8b 2f ce 3c
       -0.39329538 0.32955626 0.031577624 0.025169155
0002b0 64 33 9d 3d 21 7b 0f 3e 0b 0c c2 3c b2 cf b2 3d
       0.076758176 0.14011814 0.023687383 0.08731021
0002c0 2c 26 17 3c e9 a3 79 3e 75 33 ba 3e 2b e8 f7 bd
       0.0092254095 0.24378933 0.36367384 -0.121048294
0002d0 c0 99 0c 3f f2 9a 14 3f 7c 7f 07 3f 6e 9d 01 3e
       0.54922104 0.5804893 0.529289 0.12657711
0002e0 bf 77 9a be 3b bf a7 3e 07 87 a5 3e c5 3a c4 3e
       -0.30169484 0.32763085 0.3232958 0.38326088
0002f0 fc b8 4e 3d a1 f0 f3 3e a3 6e d1 3d d9 5d 99 3e
       0.050469384 0.47644523 0.102261804 0.29954413
000300 11 de 88 bc 0b 7c 33 3e a4 d8 1a 3e 24 3f dc 3e
       -0.016707452 0.17527787 0.15121704 0.43016922
000310 9c 32 d6 3c f7 6a 5e bd d9 7a 69 3e b7 7c 7c 3e
       0.02614718 -0.05430123 0.22800769 0.2465695
000320 65 2f 0a bc 00 02 48 be 37 b1 a0 be 73 6d b5 3e
       -0.008434151 -0.19532013 -0.31385204 0.35435066
000330 65 c0 86 be b6 21 fd bc bd 51 49 bd 6e 3a f6 3e
       -0.2631866 -0.030899864 -0.049150217 0.48091453
000340 56 e5 40 be fb f2 bc 3d 3e 43 be be 91 92 ad be
       -0.18837485 0.09226032 -0.37160677 -0.33900884
000350 38 c4 05 3d 40 67 93 ba 4e c2 35 3d 27 d6 41 be
       0.032657832 -0.0011245981 0.044374757 -0.18929349
000360 e9 b7 7c 3e 33 e5 ca 3e d9 a4 59 3d e1 9f 93 be
       0.24679531 0.3962799 0.053135727 -0.28832915
000370 92 38 08 bf 59 f2 de 3e 12 b6 15 3e 3c 1b be be
       -0.5321132 0.43544272 0.14620236 -0.37130153
000380 d0 2b a2 3e cc b1 fa 3e ac c2 dd 3e ea 96 ad 3e
       0.3167405 0.48963773 0.43312585 0.339042
000390 7b f8 b8 3e ec 91 81 bc 0c 07 e3 3e 18 ae ca bd
       0.36127076 -0.015816651 0.44341314 -0.09896487
0003a0 c0 83 90 be 34 3d 01 bf cf 19 a7 3e 91 9f 98 3e
       -0.28225517 -0.50484014 0.32636878 0.2980924
0003b0 8e 51 71 be 47 e5 f6 3e 85 9b 84 bd af f4 5a 3e
       -0.23566267 0.482218 -0.064749755 0.21382402
0003c0 c2 9c 7d be 97 f4 c6 3e 6a c1 4e 3e 34 5e 08 be
       -0.2476683 0.38858482 0.20190969 -0.13317186
0003d0 99 5b ef be f0 0f fe 3e 67 b2 7d bd a1 42 0a bf
       -0.4674957 0.49621534 -0.061937716 -0.5400792
0003e0 0f b5 58 3e 57 8c 7d be 40 6c 05 be 1d a6 81 3d
       0.21162818 -0.24760567 -0.13029575 0.06330512
0003f0 ad 45 a3 3e da 26 97 bd 93 ef e0 3e f8 0a ce 3e
       0.31889096 -0.07380457 0.4393278 0.40242743

b4 f4 [30, 1]
000000 4d 65 ee be 83 0c c5 3e 99 bb b0 be 5c e6 d1 3e
       -0.4656166 0.38486108 -0.34518126 0.40996063
000010 64 98 27 3e 18 6c ff bd 7d 3a dd 3d e3 a4 67 3e
       0.16366726 -0.12471789 0.108021714 0.22621493
000020 53 99 61 3e 38 46 99 3e ea 71 09 bc cc 16 5a 3c
       0.22031145 0.29936385 -0.008388976 0.013311099
000030 8a bd cc 3e df 40 d0 be a5 24 0c 3f 7c 63 a8 3e
       0.39988357 -0.40674493 0.54743415 0.328884
000040 a6 bf 1b 3e f5 57 68 bd 2c 71 be be b8 2c cf be
       0.15209827 -0.056724507 -0.37195718 -0.40463805
000050 fb 9e 88 be 8e fa fd bd 20 0b 8d 3c e6 0d bd 3e
       -0.26683792 -0.12401305 0.017217219 0.36924666
000060 0c f6 61 3e be a1 d1 be 87 01 bd be aa 8f 47 be
       0.22066516 -0.40943712 -0.36915228 -0.19488397
000070 a7 f2 07 3e 04 9f f8 bd
       0.13276158 -0.12139705

W4 f4 [30, 30]
000000 51 99 d3 3e ae 4d 83 be e6 26 b6 be 81 81 b8 3d
       0.4132791 -0.25645202 -0.35576552 0.09009076
000010 3e 0c 64 3e 93 c2 a7 3e 77 3d 02 3f c4 52 d8 3e
       0.22270295 0.32765636 0.5087504 0.42250645
000020 61 13 87 3e f7 f1 d6 be 3e de ed be f3 bb c9 bd
       0.26381972 -0.4198148 -0.4645862 -0.098503016
000030 7c ff 27 be c3 d6 31 bd f9 77 c5 bd 56 0b 84 be
       -0.16406053 -0.043417703 -0.096420236 -0.257899
000040 4c 30 94 be e6 ad 6f 3d 76 16 7f be 89 a2 af 3e
       -0.28943098 0.05851545 -0.24910912 0.34303692
000050 0f 9b d1 3d 1a b8 ee be f1 b3 76 3e f4 da a4 bd
       0.10234653 -0.46624833 0.2409208 -0.080495745
000060 e6 48 31 be 18 fd ce bc b8 ba d8 3e 8a fb 97 be
       -0.17312965 -0.025267169 0.42329955 -0.29684097
000070 3e fe 68 3e 6f 01 e2 3e 55 7c 78 3e 7b e6 80 3e
       0.22753236 0.4414172 0.24266179 0.25175843
000080 17 e4 13 be b9 d2 a1 3e bc 3d 3e 3d ed 40 ac 3e
       -0.14442478 0.3160608 0.046445593 0.33643284
000090 54 ca ea bb 29 cf 9c be 97 2a a3 3e a5 1a ee bd
       -0.0071652327 -0.306268 0.3186843 -0.11626176
0000a0 c8 aa a5 bd 46 50 00 3f bf e6 fe be 7e 35 9a be
       -0.080892146 0.5012249 -0.4978542 -0.30118936
0000b0 cc 5c e5 3e 46 01 80 be 29 aa aa be cc fc d7 3d
       0.4479736 -0.25000972 -0.33332947 0.10546264
0000c0 a2 f8 ba 3e 99 ce ee 3d 9f 55 64 be eb 61 c9 3e
       0.36517817 0.11660499 -0.22298287 0.39332518
0000d0 26 9d 5d be 5a 7b 3c 3d 87 a1 f8 bd f1 9b 82 bd
       -0.21641979 0.046016075 -0.12140184 -0.063774
0000e0 c2 e6 ff 3e 59 88 e7 3e fc f4 1e 3e ba 75 09 3f
       0.49980742 0.45221213 0.15523142 0.5369526
0000f0 94 57 cb be 3b ca eb be 12 3f 85 3e c2 85 1f be
       -0.39715254 -0.46052727 0.2602468 -0.15578368
000100 ae 6c 27 be 09 73 da be 06 d8 dc be b3 6a 00 3f
       -0.16350052 -0.4266589 -0.43133563 0.5016281
000110 cf a2 3b be be 7d ec be 4e 77 d1 bc 09 6f 87 3d
       -0.18323825 -0.46189684 -0.025569584 0.06612975
000120 7e 73 ff 3e 00 c8 2b bd aa 56 54 3e 68 5f 3f 3e
       0.498928 -0.04193878 0.20736185 0.18688738
000130 63 77 c6 be 34 bf 1d be 01 eb dc 3e f4 50 a2 3e
       -0.3876296 -0.1540497 0.43148044 0.31702387
000140 ab d5 db 3d b7 bd de 3e eb f4 be bd fe e6 d4 bc
       0.10734113 0.43504116 -0.09324058 -0.025989052
000150 5d 6f c5 3d b2 de 63 3c 21 c7 ed bd 3c 22 a0 be
       0.096403815 0.013908075 -0.116102464 -0.3127612
000160 9d ae d5 be fc 96 da 3e 2e 6b e4 be b3 40 97 be
       -0.41734782 0.42693317 -0.44613022 -0.2954155
000170 4f 7d 35 bf d5 91 37 be b4 48 f0 3d 4e 84 ce 3e
       -0.7089433 -0.17926724 0.11732617 0.40335315
000180 1f e2 62 3e 7c 50 b5 3e d4 12 ae be 0d 31 bc be
       0.22156571 0.35412967 -0.3399874 -0.36756173
000190 7b 35 da 3e da 7c 19 3f 55 25 43 bc b4 0a ab be
       0.42618927 0.59956133 -0.011910756 -0.33406603
0001a0 72 c0 47 3e 2b 08 2c 3e fb 3e 49 3e 2e ea 10 be
       0.19507006 0.16799991 0.19652931 -0.14151832
0001b0 89 16 3d bf 34 de b7 be b3 2a 9a 3d 7f 7a 14 3f
       -0.7386251 -0.35911715 0.075276755 0.57999414
0001c0 b0 43 fd be f4 b5 8f be a0 23 8c be 64 59 21 3b
       -0.49465704 -0.28068507 -0.2737093 0.0024619931
0001d0 74 6c 2e bf d1 d4 c3 3e 50 7d a3 be 08 db 09 3f
       -0.68134236 0.38248304 -0.31931543 0.5384984
0001e0 83 42 ca 3e 5f f1 77 3d 48 0e 03 3e 8f c7 eb bd
       0.3950387 0.060532924 0.12798417 -0.11512672
0001f0 88 1c db be 41 8e 87 3e 5d 93 3d be 1e 68 94 be
       -0.42795205 0.2647572 -0.18513246 -0.28985685
000200 72 15 cd 3e 05 7b 3a be 1d ae 89 3e 83 ce 0a bf
       0.40055424 -0.1821099 0.2689065 -0.5422136
000210 a0 05 94 bd ee ce 4a be 82 02 4a 3e 62 47 bf 3e
       -0.072276354 -0.198055 0.19727519 0.37359148
000220 70 2d 96 3e bf e2 e3 be a8 73 6b bd 50 98 1d be
       0.2933154 -0.4450893 -0.057483345 -0.15390134
000230 cc ce 21 3e 6d 87 44 be d8 dc bf bd d7 eb 50 be
       0.15801543 -0.19192286 -0.093682945 -0.20402466
000240 f7 40 ac be 6e cb de 3c 9c e1 de 3e 67 67 cc 3e
       -0.33643314 0.027196612 0.435315 0.3992264
000250 17 ee 16 be 4f db 76 be b6 36 8f 3c 77 2f 1b be
       -0.14739262 -0.24107097 0.017482143 -0.15154825
000260 f6 8b 63 3e ef 6c 4e be 0c 12 54 bd 76 be 90 3e
       0.2222136 -0.20158742 -0.051775023 0.2827031
000270 5f af e7 be 35 e6 9a be 6c d5 a4 3e e3 ca a5 3e
       -0.45250985 -0.3025376 0.32194078 0.32381353
000280 78 2f a4 be 76 51 b1 bd e3 b0 bb be 5e bc 03 3d
       -0.32067466 -0.086581156 -0.3665839 0.032162063
000290 d2 b6 ad 3e ce 5d df bd 67 65 28 3e ed ed 44 3e
       0.33928543 -0.10906564 0.16444932 0.19231386
0002a0 c2 19 a2 3e f1 44 e4 3e 04 02 96 be 44 49 fd be
       0.31660277 0.44583848 -0.29298413 -0.4946996
0002b0 fb 28 51 3c 92 d2 e8 be d4 88 9c be e5 61 7c be
       0.012766118 -0.45473152 -0.30573142 -0.24646719
0002c0 d6 c9 0b be d2 c4 73 be 60 8d 61 3e 48 12 c6 3e
       -0.13651213 -0.2380555 0.22026587 0.38685822
0002d0 7c bc eb 3e 6c 9e fd be 5f cf 75 be db ed 11 be
       0.4604224 -0.4953493 -0.24004887 -0.14250891
0002e0 87 33 4f 3c 70 20 37 3e 65 99 76 be 8e 80 d3 be
       0.012646562 0.17883468 -0.24081953 -0.41309017
0002f0 49 44 9b 3e 1c 6a a6 3e 95 be 16 3e 4c b5 90 bd
       0.30325535 0.3250283 0.14721139 -0.0706583
000300 40 21 10 bc 31 89 39 bd 70 2d 2f 3d 97 09 5b 3e
       -0.00879699 -0.04529685 0.042767942 0.21390377
000310 a4 1f e0 3c 78 d9 79 3e e6 b5 30 3e e4 4e 2d bc
       0.027358837 0.24399364 0.17256889 -0.010577891
000320 49 3a 9d be bd e4 5b 3d bc 03 8d 3e ae b5 65 be
       -0.3070853 0.05368494 0.27541912 -0.22432587
000330 94 37 13 3e 2f da 0f be 49 21 c1 be 9b 62 d4 3e
       0.1437667 -0.14048074 -0.37720707 0.4148148
000340 d0 13 e1 be 8f 45 71 be 8c fc 8b 3e f6 47 3c 3e
       -0.43960428 -0.23561691 0.27341115 0.18386826
000350 71 e5 c2 3e d6 54 16 bf 45 d6 c5 bd 87 1d ea be
       0.38065675 -0.587232 -0.09660009 -0.45725653
000360 f4 e6 4e be 27 63 76 3e 93 45 0b 3f a6 d8 96 3e
       -0.20205289 0.24061261 0.54403037 0.29462165
000370 a9 76 f4 bd a6 a4 a7 be 0d 76 91 3e 7f 91 9d 3e
       -0.11936695 -0.32742804 0.28410378 0.30775067
000380 11 ca 65 bc fe 99 00 bf 7d 4f b6 3d b1 63 9a be
       -0.014025227 -0.50234973 0.0890188 -0.30154184
000390 4c 31 df 3e 6c 0a 81 be f9 56 b6 3d 00 ea 01 bd
       0.43592298 -0.25203264 0.089033075 -0.0317173
0003a0 c5 01 74 be fd 36 44 3e 86 c5 ac 3e 70 c1 cb bd
       -0.238288 0.19161601 0.33744448 -0.09949005
0003b0 3a 22 60 bd fa 9d b4 3e e8 16 7c be 03 20 12 be
       -0.05472014 0.35276777 -0.24618113 -0.14270024
0003c0 37 a9 1e 3e d6 8c e6 3e 36 f0 89 3d 6e 34 ef be
       0.15494238 0.45029324 0.0673527 -0.46719688
0003d0 36 8b a1 bc b2 f1 6b 3e 65 f7 46 be 46 a2 36 be
       -0.019719701 0.23041418 -0.19430311 -0.1783534
0003e0 e9 b0 df 3e 25 14 7c 3e ff 07 91 3e 41 01 ea be
       0.4368966 0.2461706 0.28326413 -0.45704082
0003f0 63 73 db be d6 22 63 3e 2b 4e 96 3d 25 7e 71 3e
       -0.4286147 0.22181258 0.07339128 0.23583277

W5 f4 [1, 30]
000000 61 27 4f 3f cb 98 de 3d 2d 84 a3 3c cf fb 8f bf
       0.8091946 0.10868987 0.019960487 -1.1248721
000010 e1 02 de 3d 81 a3 78 be 68 7e 69 be fc ca 8d 3f
       0.10840393 -0.24281122 -0.22802126 1.1077571
000020 79 1a c8 3e c6 3b 3f 3f b8 44 7c be 8e eb c4 3e
       0.39082697 0.7470058 -0.24635589 0.38460964
000030 f1 ab 98 3f 8c 33 83 3f 23 81 88 bf a1 07 a2 3e
       1.1927472 1.0250106 -1.0664409 0.31646445
000040 20 9a 38 3e 42 75 7f bf a3 39 bc 3c 67 37 8d be
       0.18027544 -0.99788296 0.022976702 -0.2758133
000050 01 30 34 bf 8b 32 0e 3e 10 80 af 3f 25 7a 5e be
       -0.7038575 0.13886468 1.3710957 -0.21726282
000060 87 b7 fd 3e db f9 9b 3d 6a c3 09 bf 58 32 ea 3e
       0.49554083 0.076160155 -0.53813803 0.45741534
000070 09 cc 98 bf eb e6 b4 be
       -1.1937267 -0.35332426

p_b1_old f4 [30, 1]
000000 da 3e 3f b8 00 00 00 00 54 95 84 b8 91 0e ce 37
       -4.5596484e-05 0.0 -6.322065e-05 2.4563897e-05
000010 00 00 00 00 51 10 3f 38 00 00 00 00 00 00 00 00
       0.0 4.5553144e-05 0.0 0.0
000020 f6 82 02 38 f4 da 00 39 ed b3 a5 b7 ee 3c 05 38
       3.1116382e-05 0.00012288598 -1.9753317e-05 3.1766416e-05
000030 00 00 00 00 d5 ba e2 b6 b3 41 19 b8 fa 99 91 b7
       0.0 -6.757075e-06 -3.653923e-05 -1.7357048e-05
000040 dc db 9b b7 f9 ee 7b b8 db 32 46 37 4e 40 88 37
       -1.857982e-05 -6.0065624e-05 1.181356e-05 1.6242408e-05
000050 43 2d 86 b7 00 00 00 00 00 00 00 00 06 af 7c b8
       -1.5995121e-05 0.0 0.0 -6.0244485e-05
000060 00 00 00 00 6c d1 86 37 00 00 00 00 00 00 00 00
       0.0 1.6071564e-05 0.0 0.0
000070 ac 13 a7 b6 60 3c a5 b6
       -4.979278e-06 -4.9244118e-06

p_W1_old f4 [30, 2]
000000 33 ad b9 36 15 94 c8 37 00 00 00 00 00 00 00 00
       5.5335927e-06 2.3910814e-05 0.0 0.0
000010 1a 32 8d 38 36 f7 e4 b8 a5 b8 0b 37 54 bb 65 b8
       6.732736e-05 -0.00010917934 8.3280365e-06 -5.4772318e-05
000020 00 00 00 00 00 00 00 00 93 15 a7 b7 72 c0 28 37
       0.0 0.0 -1.9917998e-05 1.00583875e-05
000030 00 00 00 00 00 00 00 00 00 00 00 00 00 00 00 00
       0.0 0.0 0.0 0.0
000040 63 35 61 b8 fe 69 45 b8 6b 7e 59 b7 54 47 8e b7
       -5.36939e-05 -4.7067173e-05 -1.2963642e-05 -1.6960934e-05
000050 48 1e 60 b8 40 8d 05 b9 00 86 7d b8 2f 8a 7e 38
       -5.3433963e-05 -0.00012736488 -6.0444698e-05 6.0687013e-05
000060 00 00 00 00 00 00 00 00 f9 fc 1f 38 e4 d5 2c b8
       0.0 0.0 3.8144153e-05 -4.1207197e-05
000070 e1 5a b7 38 ff 88 e2 b7 f8 78 f1 b7 a9 75 9d 38
       8.7430475e-05 -2.7005093e-05 -2.878577e-05 7.508259e-05
000080 0d 69 83 b8 59 87 98 37 f8 98 10 b6 31 fa 7a 38
       -6.266134e-05 1.8182838e-05 -2.1546712e-06 5.9837654e-05
000090 a8 8f 82 36 fc 8e 77 b7 14 44 02 b8 9a 06 c4 b6
       3.8910257e-06 -1.4755638e-05 -3.1057818e-05 -5.8420237e-06
0000a0 de e8 75 37 8f 97 80 b8 00 00 00 00 00 00 00 00
       1.4657357e-05 -6.1317456e-05 0.0 0.0
0000b0 00 00 00 00 00 00 00 00 7f 61 5e 37 57 26 f2 b7
       0.0 0.0 1.3254931e-05 -2.8866501e-05
0000c0 00 00 00 00 00 00 00 00 d4 50 db 33 51 af 86 37
       0.0 0.0 1.0212685e-07 1.6055683e-05
0000d0 00 00 00 00 00 00 00 00 00 00 00 00 00 00 00 00
       0.0 0.0 0.0 0.0
0000e0 0d 40 76 b8 ec b9 24 36 a2 70 a7 37 ef 2e 18 38
       -5.8710622e-05 2.4546125e-06 1.99604e-05 3.6283334e-05

p_b2_old f4 [30, 1]
000000 2a 22 82 b6 bc 70 13 38 6b 3f 63 36 7a 06 db b7
       -3.878279e-06 3.5152523e-05 3.386255e-06 -2.610985e-05
000010 27 6e 8d 37 14 7e 02 38 49 8f ec 36 c9 f4 05 b8
       1.6859804e-05 3.1111835e-05 7.0500287e-06 -3.1937645e-05
000020 93 a2 24 37 00 00 00 00 a1 87 35 38 12 c0 16 b7
       9.813014e-06 0.0 4.3280077e-05 -8.985417e-06
000030 00 00 00 00 00 00 00 00 22 c9 8c 37 03 79 a0 b7
       0.0 0.0 1.678296e-05 -1.9129837e-05
000040 74 77 58 b8 f2 54 93 37 64 14 f7 37 62 7b 12 b7
       -5.1609662e-05 1.7563321e-05 2.945419e-05 -8.731005e-06
000050 4e f1 ed 37 5f 82 06 b7 87 ba 11 37 d6 24 22 37
       2.8364968e-05 -8.017377e-06 8.686103e-06 9.664529e-06
000060 00 00 00 00 00 00 00 00 92 52 be 37 00 00 00 00
       0.0 0.0 2.2688215e-05 0.0
000070 1c e4 76 b7 bd d7 81 36
       -1.47158535e-05 3.869615e-06

p_W2_old f4 [30, 30]
000000 5c f6 d0 36 00 00 00 00 ca d8 56 b7 32 24 c5 36
       6.227563e-06 0.0 -1.2805869e-05 5.875271e-06
000010 00 00 00 00 8f 96 29 b6 00 00 00 00 00 00 00 00
       0.0 -2.52706e-06 0.0 0.0
000020 48 86 cd 37 fc 0c 29 b8 c7 f6 0a 37 8a 6f 80 37
       2.4500434e-05 -4.0304833e-05 8.282898e-06 1.5310728e-05
000030 00 00 00 00 2a 84 2e 36 f9 a9 d3 37 80 33 89 b6
       0.0 2.600495e-06 2.523231e-05 -4.0889136e-06
000040 a7 c7 82 37 86 97 be 37 fa c2 43 b6 bc 2e 0a b7
       1.5590178e-05 2.2720324e-05 -2.9170756e-06 -8.236322e-06
000050 a7 89 d9 b6 00 00 00 00 00 00 00 00 a2 bc f6 b7
       -6.483129e-06 0.0 0.0 -2.9413324e-05
000060 00 00 00 00 8e 0b be b3 00 00 00 00 00 00 00 00
       0.0 -8.849666e-08 0.0 0.0
000070 6d 54 7c 37 66 f1 64 b6 09 3b 93 b7 00 00 00 00
       1.5040027e-05 -3.411516e-06 -1.7551256e-05 0.0
000080 65 7b a6 37 aa 24 9f b7 00 00 00 00 48 c7 96 b7
       1.9846202e-05 -1.897135e-05 0.0 -1.7974191e-05
000090 00 00 00 00 00 00 00 00 c0 cf 31 37 3b ef 48 b7
       0.0 0.0 1.0598393e-05 -1.1976629e-05
0000a0 e8 df ad 37 c1 c2 b0 b7 00 00 00 00 96 ef 38 38
       2.0727472e-05 -2.1071524e-05 0.0 4.409215e-05
0000b0 15 a7 0d b7 c1 b2 a2 37 75 b8 58 38 4f 41 14 38
       -8.443157e-06 1.9395144e-05 5.1670202e-05 3.5346773e-05
0000c0 99 0f 26 37 4a a2 95 b7 3c f4 a2 b7 00 00 00 00
       9.898003e-06 -1.7837756e-05 -1.9425635e-05 0.0
0000d0 00 00 00 00 30 82 09 38 00 00 00 00 00 00 00 00
       0.0 3.2784592e-05 0.0 0.0
0000e0 00 00 00 00 00 00 00 00 bb 18 13 b7 39 ff 6c 37
       0.0 0.0 -8.767641e-06 1.412612e-05
0000f0 0e dc 2b 36 00 00 00 00 da d3 01 35 4d 73 46 36
       2.5609074e-06 0.0 4.836453e-07 2.9571413e-06
000100 00 00 00 00 54 8e 92 33 00 00 00 00 00 00 00 00
       0.0 6.824544e-08 0.0 0.0
000110 00 00 00 00 00 00 00 00 00 00 00 00 00 00 00 00
       0.0 0.0 0.0 0.0
000120 00 00 00 00 91 b7 ea 35 2a ce 0e 36 84 93 20 36
       0.0 1.7487783e-06 2.1279652e-06 2.3927723e-06
000130 43 2b 43 36 02 4b 45 36 8b 47 b5 34 ad 3a 67 36
       2.9082446e-06 2.9398948e-06 3.3765932e-07 3.4455836e-06
000140 72 0a ff 35 00 00 00 00 00 00 00 00 f1 e1 a1 b5
       1.900202e-06 0.0 0.0 -1.2061192e-06
000150 00 00 00 00 00 00 00 00 00 00 00 00 00 00 00 00
       0.0 0.0 0.0 0.0
000160 00 00 00 00 73 92 3c 36 b1 9f 8d b7 00 00 00 00
       0.0 2.8099428e-06 -1.6882872e-05 0.0
000170 b0 53 de b6 41 1a 9f b7 00 00 00 00 26 57 35 b7
       -6.625858e-06 -1.8966502e-05 0.0 -1.08087315e-05
000180 00 00 00 00 00 00 00 00 ae 0b 3c b7 01 3d a3 b6
       0.0 0.0 -1.1208393e-05 -4.8648803e-06
000190 24 a9 39 37 9a 14 cc 36 00 00 00 00 fc 92 66 b7
       1.106624e-05 6.082072e-06 0.0 -1.3743291e-05
0001a0 04 0f 59 b7 a0 e6 9a b7 e8 59 e2 b7 5c 79 97 b7
       -1.2937704e-05 -1.8465624e-05 -2.6983165e-05 -1.8057115e-05
0001b0 f6 6d 60 b6 68 46 d2 b7 0c 10 67 b7 00 00 00 00
       -3.3442607e-06 -2.5066736e-05 -1.3772409e-05 0.0
0001c0 00 00 00 00 9f ab a5 37 00 00 00 00 9c 4f b1 b3
       0.0 1.974945e-05 0.0 -8.256686e-08
0001d0 00 00 00 00 00 00 00 00 98 eb 19 37 a6 a6 b0 b7
       0.0 0.0 9.174364e-06 -2.1058437e-05
0001e0 e8 4c 39 37 00 00 00 00 6a 7a 19 b6 d4 03 45 37
       1.1044765e-05 0.0 -2.287003e-06 1.1743006e-05
0001f0 00 00 00 00 2c e1 7f 35 00 00 00 00 00 00 00 00
       0.0 9.532257e-07 0.0 0.0
000200 fc e7 4f 37 65 26 58 b7 d2 91 9f b7 2a e4 71 37
       1.23921745e-05 -1.2883543e-05 -1.902218e-05 1.4417843e-05
000210 00 00 00 00 a3 b5 84 37 8e 0f 7e 35 49 0c 2b 37
       0.0 1.5820207e-05 9.464501e-07 1.0195255e-05
000220 50 d9 ad 37 0e 3d 01 38 be 64 ab 35 fa 87 b9 36
       2.0724401e-05 3.081286e-05 1.2769813e-06 5.5292594e-06
000230 bd d2 95 34 00 00 00 00 00 00 00 00 1a 70 3f b7
       2.7906745e-07 0.0 0.0 -1.1410588e-05
000240 00 00 00 00 00 00 00 00 00 00 00 00 00 00 00 00
       0.0 0.0 0.0 0.0
000250 78 df ce 36 68 f6 3d 37 f8 fe 98 36 00 00 00 00
       6.1652936e-06 1.1322649e-05 4.5596353e-06 0.0
000260 23 75 90 36 77 f5 9a 36 00 00 00 00 44 d5 e7 b6
       4.305171e-06 4.6181335e-06 0.0 -6.909164e-06
000270 00 00 00 00 00 00 00 00 b5 3d b6 37 c7 63 5c 37
       0.0 0.0 2.1724825e-05 1.3136253e-05
000280 97 d2 dd 37 17 15 d4 36 00 00 00 00 b0 74 11 38
       2.6443317e-05 6.3205475e-06 0.0 3.4679368e-05
000290 74 6b 1e 38 c0 52 95 37 c7 e7 7b 38 34 72 4c 38
       3.777021e-05 1.7800718e-05 6.0058923e-05 4.874375e-05
0002a0 06 f9 a8 36 15 14 4b b6 85 55 12 b7 00 00 00 00
       5.0357803e-06 -3.0261047e-06 -8.72219e-06 0.0
0002b0 00 00 00 00 81 6e 00 b6 00 00 00 00 a4 ff 9d 32
       0.0 -1.9137808e-06 0.0 1.8393457e-08
0002c0 00 00 00 00 00 00 00 00 aa 76 2f b6 d1 0e 8d 37
       0.0 0.0 -2.6146104e-06 1.681541e-05
0002d0 6c 72 7c 36 00 00 00 00 54 23 a6 36 da c7 94 36
       3.7617529e-06 0.0 4.9512983e-06 4.4340095e-06
0002e0 00 00 00 00 5a 11 ad 36 00 00 00 00 00 00 00 00
       0.0 5.1578218e-06 0.0 0.0
0002f0 82 bc 98 36 7e b8 92 37 be 5f 30 b8 92 ef c2 b6
       4.551898e-06 1.7490467e-05 -4.2050837e-05 -5.80954e-06
000300 00 00 00 00 f8 47 97 35 ca a0 8a 36 33 7e bd 36
       0.0 1.1271322e-06 4.131439e-06 5.6473305e-06
000310 b1 12 bd 36 76 d7 68 b6 2c 0c bd 35 85 d2 2f 37
       5.634815e-06 -3.4696109e-06 1.408514e-06 1.0479828e-05
000320 01 02 e4 36 00 00 00 00 00 00 00 00 d0 e7 5d 38
       6.795163e-06 0.0 0.0 5.29064e-05
000330 00 00 00 00 8d 3d ee 33 00 00 00 00 00 00 00 00
       0.0 1.1093935e-07 0.0 0.0
000340 6a 37 54 b7 cb 2b d7 36 30 26 a4 35 00 00 00 00
       -1.2649087e-05 6.4125975e-06 1.2230066e-06 0.0
000350 e5 64 02 b7 08 4b 09 36 00 00 00 00 94 44 f0 36
       -7.772095e-06 2.0458265e-06 0.0 7.160541e-06
000360 00 00 00 00 00 00 00 00 da 53 91 b6 13 40 36 b8
       0.0 0.0 -4.3310984e-06 -4.3451855e-05
000370 bc a8 16 38 aa 69 fc 37 00 00 00 00 9e a4 1e b8
       3.5919933e-05 3.0089945e-05 0.0 -3.7823447e-05
000380 e8 75 1d 37 10 d2 95 b7 d9 db 8f b8 2c ce 44 b8
       9.385381e-06 -1.7860002e-05 -6.859721e-05 -4.6922054e-05
000390 b2 0a d1 b6 78 77 0d 37 9a b8 54 37 00 00 00 00
       -6.2299305e-06 8.432071e-06 1.2679166e-05 0.0
0003a0 00 00 00 00 21 92 53 b8 00 00 00 00 34 f3 77 b4
       0.0 -5.0442413e-05 0.0 -2.3092144e-07
0003b0 00 00 00 00 00 00 00 00 4e b5 1b 38 74 13 83 b7
       0.0 0.0 3.7123733e-05 -1.5625475e-05
0003c0 ee 0c 6c 23 00 00 00 00 d0 3e ad 36 9e 2c 34 34
       1.2796324e-17 0.0 5.163114e-06 1.6780038e-07
0003d0 00 00 00 00 00 00 00 00 00 00 00 00 00 00 00 00
       0.0 0.0 0.0 0.0
0003e0 00 00 00 00 00 00 00 00 00 00 00 00 00 00 00 00
       0.0 0.0 0.0 0.0
0003f0 00 00 00 00 1f b4 09 37 c0 7b 11 36 b9 3f d4 36
       0.0 8.207774e-06 2.1678716e-06 6.3255106e-06

p_b3_old f4 [30, 1]
000000 00 00 00 00 72 1c 47 b6 55 41 4c b7 0f 1f 02 b8
       0.0 -2.9669868e-06 -1.2174559e-05 -3.102334e-05
000010 00 00 00 00 00 00 00 00 a4 65 83 35 85 fa cd b6
       0.0 0.0 9.789842e-07 -6.1386404e-06
000020 3f d8 c1 37 3b db 3f 37 10 c6 f2 36 be 19 4c 37
       2.310809e-05 1.1435531e-05 7.2352195e-06 1.2165341e-05
000030 00 00 00 00 82 56 47 37 40 3f 71 34 7a 48 c0 37
       0.0 1.1881466e-05 2.2467884e-07 2.2921933e-05
000040 40 96 8b 35 33 5a 81 b7 c3 5f e8 37 ab 6f 31 b6
       1.0400036e-06 -1.542e-05 2.7701148e-05 -2.6440055e-06
000050 00 00 00 00 20 08 bc 35 00 00 00 00 c2 f7 32 35
       0.0 1.4009456e-06 0.0 6.66707e-07
000060 d6 de 95 b6 dd a9 6d 37 6d 96 d2 37 a9 de 93 b6
       -4.4664876e-06 1.416585e-05 2.5103998e-05 -4.4068624e-06
000070 00 00 00 00 00 00 00 00
       0.0 0.0

p_W3_old f4 [30, 30]
000000 00 00 00 00 00 00 00 00 00 00 00 00 00 00 00 00
       0.0 0.0 0.0 0.0
000010 00 00 00 00 00 00 00 00 00 00 00 00 00 00 00 00
       0.0 0.0 0.0 0.0
000020 00 00 00 00 00 00 00 00 00 00 00 00 00 00 00 00
       0.0 0.0 0.0 0.0
000030 00 00 00 00 00 00 00 00 00 00 00 00 00 00 00 00
       0.0 0.0 0.0 0.0
000040 00 00 00 00 00 00 00 00 00 00 00 00 00 00 00 00
       0.0 0.0 0.0 0.0
000050 00 00 00 00 00 00 00 00 00 00 00 00 00 00 00 00
       0.0 0.0 0.0 0.0
000060 00 00 00 00 00 00 00 00 00 00 00 00 00 00 00 00
       0.0 0.0 0.0 0.0
000070 00 00 00 00 00 00 00 00 7c f0 a4 b6 00 00 00 00
       0.0 0.0 -4.915577e-06 0.0
000080 f8 65 57 35 35 d1 f0 36 00 00 00 00 00 00 00 00
       8.0242125e-07 7.1769123e-06 0.0 0.0
000090 0d a2 e3 b6 84 dd 7a b6 b2 14 b7 32 00 00 00 00
       -6.7839924e-06 -3.7381842e-06 2.1313415e-08 0.0
0000a0 00 00 00 00 00 00 00 00 00 00 00 00 00 00 00 00
       0.0 0.0 0.0 0.0
0000b0 99 41 50 b7 f3 e9 17 b6 e1 16 30 36 90 1e 28 37
       -1.2413039e-05 -2.263693e-06 2.623936e-06 1.0020696e-05
0000c0 a8 d8 ff b5 65 aa 83 35 a8 50 8c b1 84 bd e0 b6
       -1.9062036e-06 9.809852e-07 -4.083706e-09 -6.6977827e-06
0000d0 00 00 00 00 db 03 16 b5 00 00 00 00 00 00 00 00
       0.0 -5.5884965e-07 0.0 0.0
0000e0 df 5d 55 b6 00 00 00 00 00 00 00 00 e4 0d 5e b4
       -3.1794114e-06 0.0 0.0 -2.0680415e-07
0000f0 6f 81 aa b7 c0 23 aa 37 80 07 bb 35 53 7d 30 b7
       -2.0325851e-05 2.0282227e-05 1.3934769e-06 -1.0519597e-05
000100 26 6a 17 38 85 c7 1b 38 6c 8c aa b7 55 94 a5 b7
       3.6100064e-05 3.7140697e-05 -2.0330968e-05 -1.9738605e-05
000110 2f cd 1d 33 00 00 00 00 90 ec 39 37 e2 25 43 37
       3.6741024e-08 0.0 1.1081938e-05 1.1631726e-05
000120 00 00 00 00 00 00 00 00 fc b1 9f b6 f7 cf 4c b6
       0.0 0.0 -4.7592894e-06 -3.051942e-06
000130 09 5c ca b7 5f d8 f4 b6 3e d0 c2 36 e0 08 e6 35
       -2.4123134e-05 -7.2969556e-06 5.805893e-06 1.7138918e-06
000140 42 cb 4c b7 00 48 fb 31 82 08 b0 37 e0 ab a9 b4
       -1.2206672e-05 7.313247e-09 2.0984797e-05 -3.1603759e-07
000150 00 00 00 00 00 00 00 00 fb b4 31 b7 00 00 00 00
       0.0 0.0 -1.059216e-05 0.0
000160 ef 88 07 b6 dc ef 20 37 91 dc 3d 38 d6 5b 90 38
       -2.0196273e-06 9.59259e-06 4.526653e-05 6.883561e-05
000170 86 b7 39 b6 51 1a 85 37 00 00 00 00 89 3c b9 38
       -2.7673973e-06 1.586709e-05 0.0 8.832763e-05
000180 d5 ed 0f b8 74 a7 40 b8 98 55 9b b3 00 00 00 00
       -3.4315355e-05 -4.593232e-05 -7.2333194e-08 0.0
000190 4b 19 b1 38 6f ee 19 38 00 00 00 00 00 00 00 00
       8.444729e-05 3.67001e-05 0.0 0.0
0001a0 dc bd 43 b8 76 f4 07 37 fe ea 01 b8 4f 71 a2 b7
       -4.6668443e-05 8.103545e-06 -3.097485e-05 -1.9364668e-05
0001b0 c6 b6 5c 37 08 09 66 b6 c3 e1 6d 38 41 7e 9c 38
       1.3155577e-05 -3.4277928e-06 5.671546e-05 7.462176e-05
0001c0 00 00 00 00 94 25 96 38 00 00 00 00 00 00 00 00
       0.0 7.159557e-05 0.0 0.0
0001d0 c1 80 92 b8 00 00 00 00 0f 45 d1 36 03 2f 34 38
       -6.985805e-05 0.0 6.236725e-06 4.2959127e-05
0001e0 00 00 00 00 00 00 00 00 00 00 00 00 00 00 00 00
       0.0 0.0 0.0 0.0
0001f0 00 00 00 00 00 00 00 00 00 00 00 00 00 00 00 00
       0.0 0.0 0.0 0.0
000200 00 00 00 00 00 00 00 00 00 00 00 00 00 00 00 00
       0.0 0.0 0.0 0.0
000210 00 00 00 00 00 00 00 00 00 00 00 00 00 00 00 00
       0.0 0.0 0.0 0.0
000220 00 00 00 00 00 00 00 00 00 00 00 00 00 00 00 00
       0.0 0.0 0.0 0.0
000230 00 00 00 00 00 00 00 00 00 00 00 00 00 00 00 00
       0.0 0.0 0.0 0.0
000240 00 00 00 00 00 00 00 00 00 00 00 00 00 00 00 00
       0.0 0.0 0.0 0.0
000250 00 00 00 00 00 00 00 00 00 00 00 00 00 00 00 00
       0.0 0.0 0.0 0.0
000260 00 00 00 00 00 00 00 00 00 00 00 00 00 00 00 00
       0.0 0.0 0.0 0.0
000270 00 00 00 00 00 00 00 00 00 00 00 00 00 00 00 00
       0.0 0.0 0.0 0.0
000280 00 00 00 00 00 00 00 00 00 00 00 00 00 00 00 00
       0.0 0.0 0.0 0.0
000290 00 00 00 00 00 00 00 00 00 00 00 00 00 00 00 00
       0.0 0.0 0.0 0.0
0002a0 00 00 00 00 00 00 00 00 00 00 00 00 00 00 00 00
       0.0 0.0 0.0 0.0
0002b0 00 00 00 00 00 00 00 00 00 00 00 00 00 00 00 00
       0.0 0.0 0.0 0.0
0002c0 00 00 00 00 00 00 00 00 00 00 00 00 00 00 00 00
       0.0 0.0 0.0 0.0
0002d0 d8 f0 09 37 0f f7 a3 37 97 69 8a b5 e0 9f c2 b7
       8.221912e-06 1.954616e-05 -1.0312532e-06 -2.320105e-05
0002e0 a5 13 9c b6 4e 1e 51 b7 80 63 95 37 5a de 36 37
       -4.651449e-06 -1.2464427e-05 1.7808517e-05 1.0899816e-05
0002f0 e0 3e e8 b2 00 00 00 00 ef c7 46 37 52 11 05 37
       -2.7036947e-08 0.0 1.184827e-05 7.93145e-06
000300 00 00 00 00 00 00 00 00 d3 47 a1 37 6f 65 d0 36
       0.0 0.0 1.9226141e-05 6.2106915e-06
000310 9e f6 ce b7 2e 2e 2f b8 60 a8 47 37 9c 05 ab b5
       -2.4671954e-05 -4.176626e-05 1.1900527e-05 -1.2742125e-06
000320 75 98 7d b7 69 f5 d4 37 ed b0 0c b6 b2 cb 80 36
       -1.5115472e-05 2.5386647e-05 -2.096461e-06 3.8384105e-06
000330 00 00 00 00 00 00 00 00 e4 2e 26 36 00 00 00 00
       0.0 0.0 2.4763222e-06 0.0
000340 06 d0 0e 36 4e e4 bf 36 94 4c e4 37 86 9c 97 37
       2.1280734e-06 5.7188217e-06 2.7215377e-05 1.807349e-05
000350 d3 21 02 b3 90 a7 0f 38 00 00 00 00 0a 2e cd b6
       -3.0298747e-08 3.424991e-05 0.0 -6.1148357e-06
000360 23 74 55 b7 bc 68 82 36 51 1e 18 b0 00 00 00 00
       -1.27228295e-05 3.8864946e-06 -5.534036e-10 0.0
000370 79 31 0f 38 32 09 87 36 00 00 00 00 00 00 00 00
       3.413993e-05 4.024384e-06 0.0 0.0
000380 0d a2 1a b8 68 b7 9a 36 e9 a2 22 38 85 85 1c 38
       -3.6867383e-05 4.610909e-06 3.877553e-05 3.7317648e-05
000390 e9 79 8d 36 af 1d 48 b3 92 9b c7 37 36 34 f5 b6
       4.2163197e-06 -4.6593126e-08 2.3795092e-05 -7.307647e-06
0003a0 a7 04 30 38 49 00 26 38 00 00 00 00 00 00 00 00
       4.1966003e-05 3.957775e-05 0.0 0.0
0003b0 79 43 71 b7 00 00 00 00 06 97 08 b5 8e f1 70 b6
       -1.4380429e-05 0.0 -5.0883716e-07 -3.590339e-06
0003c0 08 83 bc b6 d0 c7 4a b7 a6 12 2c 36 00 f9 8b b3
       -5.6180907e-06 -1.2086661e-05 2.5640852e-06 -6.517985e-08
0003d0 94 e6 96 37 33 d4 e5 b7 50 3c 9b b7 c7 c7 ac 38
       1.7988765e-05 -2.739774e-05 -1.8505525e-05 8.2388106e-05
0003e0 db 06 90 33 00 00 00 00 90 5b ab 38 07 fc db b7
       6.7067695e-08 0.0 8.17097e-05 -2.6224194e-05
0003f0 00 00 00 00 00 00 00 00 e0 92 df 37 4b 8b d3 b7
       0.0 0.0 2.6652066e-05 -2.5218023e-05

p_b4_old f4 [30, 1]
000000 19 b9 d4 36 a9 95 c4 34 00 00 00 00 68 10 4e b7
       6.3396405e-06 3.6616737e-07 0.0 -1.2282377e-05
000010 97 d6 50 36 00 00 00 00 41 de 1b 37 2c 78 24 b6
       3.1119323e-06 0.0 9.2904675e-06 -2.4507854e-06
000020 06 76 a9 37 4e e2 28 36 00 00 00 00 00 00 00 00
       2.0201329e-05 2.5165677e-06 0.0 0.0
000030 fa fe 69 b7 09 bc 67 36 ad 7c 1e b6 1f 18 8f 35
       -1.3947249e-05 3.4531133e-06 -2.3616406e-06 1.066135e-06
000040 a8 07 23 35 f4 5b d3 b6 00 00 00 00 00 00 00 00
       6.0733373e-07 -6.298995e-06 0.0 0.0
000050 b7 a3 eb 36 00 00 00 00 96 fd 9a 36 57 79 44 b5
       7.0226047e-06 0.0 4.619079e-06 -7.319226e-07
000060 00 00 00 00 00 00 00 00 6e 53 f3 b5 8b d4 ce 35
       0.0 0.0 -1.8129192e-06 1.5410054e-06
000070 d6 f0 86 b6 a3 ff 65 36
       -4.021548e-06 3.427246e-06
