NeuralNetworksV3/weights_(30,30,30,30)_hidden.npz (npz, 28150 bytes, 18 tensors)

b1 f4 [30, 1]
00000000: a2d3 36bb bd16 b0bd c6fa ff3e 3c7f ef3c
00000010: 6e9c 4fbe 1ed8 70bd d06e 93be d423 01be
00000020: b598 84be a582 c9bd d2e4 1ebf 3394 2cbe
00000030: 897d c7be 1c08 583f a2ee 363e ad68 3f3f
00000040: 9536 4e3f 9497 143f 56a6 783e 2afa 8d3e
00000050: e901 883d 0cf1 16be 72a3 c0be b845 743e
00000060: b748 d4be ddf7 a3be 742e e8be 4aea 3ebe
00000070: b1c8 b6be b898 223f
-0.002789714 -0.08598087 0.49996012 0.029235475 -0.20274517 -0.058799855 -0.2879548 -0.12611324
-0.25897756 -0.098393716 -0.620679 -0.16853409 -0.38962963 0.84387374 0.17864469 0.747691
0.80552036 0.5804379 0.24282202 0.27729923 0.06640989 -0.1474039 -0.376247 0.2385472
-0.41461727 -0.32025042 -0.4534794 -0.18644062 -0.3569999 0.6351428

W1 f4 [30, 2]
00000000: 7f19 1a3f b551 203f 6f88 b23d 31f1 66be
00000010: 1b8d 29bc ce3a adbe 1b20 313f ab9e 1f3f
00000020: bf92 8fbe 19a4 cbbe a9c2 103f 1d4e ad3e
00000030: 2272 75be bebd fabe f019 97be 2028 963d
00000040: 2100 963d 505e 5c3f 306e cb3e 1979 d8bd
00000050: 1755 663f e575 143e baaa 183f d7f9 583f
00000060: 002b d63b fac5 9fbe bc0e e6be 7217 3dbe
00000070: 383d acbe 66f7 e23e bb87 de3d eda4 833d
00000080: 8fdf 58bf c435 753e 88a9 0ebf 63a4 d13e
00000090: 2168 8dbd b92e 00be d2dc 823f beb6 e83e
000000a0: e074 3f3f 1b30 a73e c08a 493c 82ca e2be
000000b0: c04e 7d3d aec4 abbe 1d21 5abc bc4f 1abf
000000c0: 7890 863e 3067 813d 622f e6be ce48 a53e
000000d0: d032 e23e 62c2 7abe 88ab b4be f980 a4be
000000e0: ec29 a63e 22c8 0a3e 6f4d 7d3e 1f9e 373e
0.60195154 0.62624675 0.08717429 -0.22552945 -0.010348584 -0.33833927 0.69189614 0.62351483
-0.28041646 -0.39773634 0.5654703 0.33848658 -0.2396932 -0.48972887 -0.29511976 0.07331872
0.07324243 0.8608141 0.39732504 -0.105699725 0.89973587 0.14498098 0.5963551 0.84756225
0.0065358877 -0.31205732 -0.44933116 -0.18465975 -0.33640456 0.44329375 0.10865732 0.064279415
-0.84716123 0.23946291 -0.55727434 0.4094573 -0.06904627 -0.12517823 1.0223639 0.4545192
0.7478771 0.3265389 0.012301147 -0.44295126 0.06184268 -0.33548492 -0.013313559 -0.60277915
0.26282096 0.063185096 -0.44958025 0.32282108 0.44179392 -0.24488214 -0.35287118 -0.32129648
0.3245386 0.13552907 0.2473657 0.17931412

b2 f4 [30, 1]
00000000: b478 5bbe 7449 ac3e 479a a03d ec47 acbe
00000010: 92a8 6e3e fa6b c7be a3ff 1a3e 8b4f 49be
00000020: c8b9 bbbe 4f12 7dbe e80b 74be 6cc9 af3d
00000030: 6ed7 f7be bc81 f6be 70c8 b63e 143f 78bb
00000040: baaf 023f 3d1b 0bbe 5759 a7be b6df 003f
00000050: 2428 4bbe 0b2c 4f3e 4538 2bbf 60bc 45be
00000060: f0cf 49be 944b 98be 095d ac3e c0bd a4bc
00000070: afd3 8ebe 50e7 80be
-0.21432763 0.3364979 0.07841926 -0.33648622 0.23306492 -0.38949567 0.1513658 -0.1965925
-0.36665177 -0.24714015 -0.23832667 0.0858334 -0.48406547 -0.48145854 0.35699797 -0.0037879394
0.5104939 -0.1358461 -0.32685348 0.50341356 -0.19839531 0.20231645 -0.66882735 -0.1931014
-0.19708228 -0.29745162 0.3366473 -0.020110011 -0.27895877 -0.25176477

W2 f4 [30, 30]
00000000: 7cab 973e 78fe d63e c6d5 893e 4538 f53e
00000010: 6ee0 803e bbd6 87bd 4188 f6be 8f7f adbe
00000020: dfb4 f9be 0cd9 acbe d66e 1fbe 53d2 183f
00000030: 424c 863e 5397 11bb ee2f 293d dab0 f33e
00000040: 0e41 b3be 33be 91be bb9e de3b 845c 253f
00000050: bf4f f53e 376f aebe 9107 e8be 4370 b6be
00000060: 78af 19bd ae48 1dbc 8088 e8be a46b 9a3e
00000070: 7cc9 c13e 6f56 a1be b0cb 6abe 5bf9 cf3e
00000080: 4f0b 36be 3659 863e 4008 e93c 1813 9e3e
00000090: 3ff2 d8be c2bb 8ebe e832 eebe 9c15 9abe
000000a0: f818 48be b32f 933e 8068 193d 6fa9 c4be
000000b0: 2650 9b3e d3fc abbe 9011 e0be d73b 29bf
000000c0: 4e59 823c cbfc 173f a69e 0e3f 20c9 3cbe
000000d0: 1092 a23e a913 043f 58ca eb3d 2474 5a3e
000000e0: 3865 4f3e 10b8 f83d 463d 103f 9384 9f3e
000000f0: bf4e 3cbe dcb3 223e 8828 a3be 293a 4bbe
00000100: f4a7 9e3e 6ae1 dc3e b82a 73bd 1c4f a8be
00000110: 22ab d43e 2a04 40be b52a ebbe a60c e6be
00000120: 68bd bd3e 5db5 cf3e 3c04 bdbe 379c 87be
00000130: 96ce cd3e 6004 bcbe 63fb aa3e 963a d7bd
00000140: 413d ccbe 341e cc3e 7232 2cbe b040 f5be
00000150: 3436 c6bd 20bf b53d 2889 d93e d824 c6bd
00000160: 605f 6f3d 04cc b43d 7ecd 3a3e 04e9 b03e
00000170: 1764 c13e 3599 da3e 0053 173e 04e7 243e
00000180: fc41 573e 1c09 c43e b413 073e d34e 29bc
00000190: d8c4 2ebe aab5 1f3e 4a0c 23be 201a 37bc
000001a0: c600 853d 784c e0bd f0d9 10bf 0fc1 a93e
000001b0: 83e9 dcbe a84a 153f a3d4 c43e a404 8b3e
000001c0: f0b6 633e 59d4 babe 3075 753d 73ff cebe
000001d0: 9acf 873e a2d2 c13e 4cc3 c03e 8b39 143f
000001e0: dc3a 89bd 8489 373e 2389 ebbe def1 06be
000001f0: c06d e73c bdf2 ee3e ece7 7a3e d8f6 a7be
00000200: deab a2be 0874 cc3e c2c6 be3e ec6d dc3c
00000210: 105d d5be 4056 d1bd 3679 babe 4326 debe
00000220: da6f 3fbe 71f1 87bd 24c9 873e f955 f8bd
00000230: 3ab0 49be 308e 073e 940f c33e b8d7 b7be
00000240: 806f 573c 057e 3ebe 0c42 10be 0089 2bbd
00000250: c846 b63e 430c ec3e 5705 5c3e dca3 bd3e
00000260: 4e9e 09bf 4789 9a3e f060 bc3e 477f df3e
00000270: 908c 46bd 0090 963e b786 b23e 6311 18bf
00000280: cb0e eebc aead e63e 7ce9 9b3e 2316 b8be
00000290: 7d54 97be b738 d43e 3e45 59be 0bc7 b83e
000002a0: 1769 d7be becf b1be fcc9 903e 9614 b83e
000002b0: c0cb 1abc e41f f7bd 0882 c23d d0bd 1c3e
000002c0: c1be c2be f45d aabe 29ee c1be 0d8c dabd
000002d0: 865d d8be 7bd3 123e 1a21 5bbe 8e1f ebbe
000002e0: 4234 9f3e 1cad a9be a0cc ecbe f815 19be
000002f0: 4af0 bfba 920b 93be 12af 89bd df62 9fbe
00000300: 70ca b6be 8828 d93e 1f0e 8e3e 30bd 0e3f
00000310: 396a 86bd 0a94 2e3d 4d37 1c3d e842 cf3e
00000320: e467 d53e 1c1e c4bd c8c9 cb3d 43e6 a13d
00000330: 8ea4 26be 50db 103e 4ba3 edbe ccee ed3e
00000340: 3bcf 043f b200 883d b314 33be 2800 8b3e
00000350: 8a7e 863e c19c 673e 5c58 633e e867 0bbe
00000360: d884 85bd 005b 913d 93a4 9c3d 6e80 72be
00000370: 4afd 183f c841 47be 84ba ddbd 2fdd 013f
00000380: 8729 15bd 4dea d53e 17f9 a6be 0c65 ee3e
00000390: b379 ba3e e355 a9be 1802 2ebe 2859 eabd
000003a0: 8ee9 ae3e 87ea 383e 5e1e db3e ab66 173e
000003b0: 805a 5e3c a442 c03e f973 15bf 5881 693e
000003c0: da42 a1be a008 debd 61e5 c2be 5010 bebe
000003d0: 34f7 edbe 00fb f73d 29ba a5be b867 a8bd
000003e0: 680c f63d bc9b f43e bccd 83be 1826 70bd
000003f0: 70b2 42be 6c93 ecbd 68ff bf3d 6e72 e23e
0.2962302 0.4199102 0.2692091 0.47894493 0.25171226 -0.066327535 -0.48150828 -0.33886382
-0.48770806 -0.33759344 -0.15569624 0.5969593 0.26230055 -0.002221544 0.041305475 0.47595865
-0.3501057 -0.28465423 0.0067938245 0.6459429 0.47912404 -0.34069225 -0.45318273 -0.35632524
-0.037520856 -0.009599848 -0.4541664 0.30160248 0.37849033 -0.31511256 -0.22929263 0.4061993
-0.17777751 0.26239938 0.028446317 0.30873942 -0.4237232 -0.27877623 -0.46523213 -0.30094612
-0.19540775 0.2874733 0.037453175 -0.38410518 0.30334586 -0.33591327 -0.437634 -0.66106933
0.015911724 0.59370106 0.5571083 -0.18436098 0.31752062 0.515925 0.115132034 0.21333367
0.20253456 0.12144482 0.56343496 0.31155834 -0.18389414 0.15888923 -0.3186686 -0.19846405
0.30987513 0.43140727 -0.05936691 -0.32872856 0.41536814 -0.18751588 -0.4593102 -0.44931525
0.37058568 0.40568057 -0.36917293 -0.2648637 0.40196675 -0.36722088 0.33394918 -0.10509221
-0.39890483 0.39866793 -0.16816118 -0.47900915 -0.09678307 0.08874345 0.42487454 -0.09674996
0.058440566 0.088279754 0.18242452 0.34552777 0.37771675 0.42695013 0.14777756 0.1610375
0.21021265 0.382882 0.1319111 -0.010333735 -0.17067277 0.15596643 -0.15922657 -0.011175662
0.06494288 -0.10952085 -0.56582546 0.33155105 -0.43146905 0.5831704 0.3844348 0.27151978
0.22237754 -0.36490133 0.05992621 -0.40429267 0.26525575 0.37856013 0.37649 0.57900304
-0.0670068 0.17923552 -0.46003065 -0.13178203 0.028250575 0.4666957 0.24502534 -0.32805514
-0.3177175 0.39932275 0.37261015 0.026907884 -0.41672564 -0.10221529 -0.36420602 -0.43388566
-0.18695012 -0.06637848 0.26520646 -0.12125773 -0.19696131 0.13237834 0.38097823 -0.35906768
0.013149142 -0.1860276 -0.14087695 -0.0418787 0.35600877 0.46103105 0.21486412 0.37039077
-0.5375718 0.3018286 0.36792707 0.43651792 -0.048473895 0.29406738 0.34868404 -0.5940153
-0.029059788 0.45054382 0.30451572 -0.3595439 -0.29556647 0.4144952 -0.2121782 0.36089358
-0.42072365 -0.34728807 0.28279102 0.35953206 -0.009447992 -0.120666295 0.09497458 0.15306783
-0.3803616 -0.33274806 -0.37877014 -0.10671244 -0.42258853 0.14338486 -0.21399346 -0.45922512
0.31094557 -0.33139884 -0.46249866 -0.14949787 -0.0014643755 -0.28719765 -0.06722845 -0.3113012
-0.35701323 0.42413735 0.2774515 0.5575743 -0.06563229 0.04262165 0.038138676 0.40480733
0.41680825 -0.095760554 0.09950596 0.07905247 -0.1627371 0.14146161 -0.46413645 0.4647125
0.5187871 0.066407576 -0.17488365 0.27148557 0.26268417 0.2261839 0.22201675 -0.13613856
-0.065194786 0.07097435 0.076485775 -0.23681805 0.5976149 -0.19458687 -0.10826591 0.50728124
-0.036416557 0.4178032 -0.32611915 0.46561468 0.36420974 -0.3307334 -0.16992986 -0.114427865
0.34162563 0.18058215 0.42796606 0.14785258 0.013571382 0.37550843 -0.58380085 0.22803247
-0.31496316 -0.10841489 -0.38065627 -0.3712182 -0.46477664 0.12108421 -0.3236859 -0.08222908
0.12014085 0.47775066 -0.257429 -0.05863008 -0.19013381 -0.11551556 0.09374887 0.44227928

b3 f4 [30, 1]
00000000: 6413 7a3e 88b4 ef3e b930 e53e acdf 693e
00000010: b05c ad3d 44a3 17be 4888 253e ec05 423d
00000020: 4ae1 fd3e ea91 e63e 8cd3 893e 8551 0f3f
00000030: 9297 f8be 4c6b 55be b4a6 9fbe 05b2 eb3e
00000040: 20e5 273f 64ac 5e3c 84e7 133f 3447 9cbe
00000050: 6e57 f6be 8100 fb3e 2093 163d da57 df3e
00000060: 1179 033f 1a6c 633e cfa3 873e a30e 1f3f
00000070: a83e d7bd 686c b0bd
0.2442146 0.46817422 0.44763735 0.2283923 0.08464944 -0.14808375 0.16165268 0.04736893
0.49585944 0.450332 0.2691921 0.55983764 -0.4855314 -0.20841712 -0.31181872 0.46034256
0.6558399 0.013590906 0.5777514 -0.30523074 -0.4811358 0.49023822 0.036761403 0.43621713
0.5135661 0.22209206 0.26492164 0.6213171 -0.105099976 -0.08614427

W3 f4 [30, 30]
00000000: 8c4a c7be ae6d ccbe 4cd9 103e 529c d5be
00000010: ce81 8ebe a01d 4abe 1034 47bd 201c 8b3d
00000020: 060b d8be 2ebc 52be 8c9b 323e e480 9cbd
00000030: 20b7 ac3c d089 983d c3db d6be b077 853d
00000040: a243 cdbe 002a 63ba fcb5 f93e 697c e2be
00000050: 8019 a83d 926b acbe fa3c ac3e f1be 9cbe
00000060: ae24 8bbe 06c7 eb3e b870 643e 8c9a 7e3e
00000070: 3452 5f3e 7472 abbd 27a4 bcbe e2c9 ae3e
00000080: 255e 91bd d09d 0ebe 0020 d0ba aab9 d53e
00000090: 08d8 c4be 2952 c03d 74ff 143e a032 d5be
000000a0: 4884 4e3e a38b 26be f4d6 c6be fedf b9be
000000b0: 879b 003e 852a cbbe 5e6d 5cbd dfed 50be
000000c0: 2ec2 92bd 17b1 d5be 181b b9be a0c3 05be
000000d0: 505a a1bc 770b 03bf 44cb 983e b866 b73d
000000e0: b009 3dbd 1e75 6bbe de75 813e 8f25 b6be
000000f0: f087 21bd 42f4 0a3d 778e 6e3d edff 31be
00000100: b4a1 dfbd 27cd 153e 931e 9f3e 592f 95be
00000110: 88f8 4abe 4473 00be 1bcf 14bf b141 fabe
00000120: 8667 35be 00a3 9dbe 2e72 0a3f fec3 40bc
00000130: 9278 a83d 6b93 58bd db52 2e3d 352b 30be
00000140: 8af6 6fbd 4dcf 043e becb bd3d 7515 88bd
00000150: fdc9 aa3e 9486 ae3e da4b ca3d 6c3f a13e
00000160: b21a da3e 49e2 6fbe b119 b1be 3dfd d0be
00000170: fe2b b83d b1f4 30be 5744 823d 7fd4 903e
00000180: a112 8bbc 19d8 e13e c270 d33e 0075 66bc
00000190: f040 1dbe df43 0dbe 8c96 fb3e c26e 9d3e
000001a0: 873b e43e fe0a d83e 23a7 9a3e 4ae1 adbe
000001b0: 2bdc 4fbe 970d 29be bd60 44bf 94f8 11bf
000001c0: d08d d8bc 6097 dcbe ad89 19be 0013 b3bc
000001d0: be82 f43e 228d bbbe 0baf de3e 53b5 923e
000001e0: 907b 00bd 8062 cb3c b6f6 ce3e b4f3 573e
000001f0: a0b1 223e e40f 383e b3fb a9be 5eb9 4dbe
00000200: 4079 6b3e 2a22 f93e 1aec fb3e e853 bdbd
00000210: a64e acbe 1412 003e 8d3c 97be 7289 f73e
00000220: b633 88be f887 01be f815 94bd 3246 9f3e
00000230: 1c6d a8be 8a64 ce3e 38a7 3bbe 3053 4fbd
00000240: d02d 33be fcfd 803e 4146 babe 54d7 16be
00000250: 28da 2dbd 2ac7 9bbe c07b 7a3d 17bf e9be
00000260: d2d1 933e b8a9 7dbd 8e36 fa3e 6c55 6a3e
00000270: 3059 883e 5099 cc3d 260d afbe cf05 edbe
00000280: d2ea 5abe 0ed9 bd3e e8ed 533e 6e49 b83e
00000290: 16ee 1dbe 2ad2 e53e 6c31 95be e8e3 f43e
000002a0: fa97 c7be a25f a43e 5068 043d c06f d43c
000002b0: 9872 893d f41a 173e c016 ac3c a0de ac3d
000002c0: c068 173c 0059 753e a878 b33e 7478 f7bd
000002d0: c048 0a3f d448 0e3f 1158 ec3e 96c3 033e
000002e0: 7bca a1be 872d 943e 11f6 ac3e dcdb b13e
000002f0: 1047 4f3d 5fa1 e63e 7c0f c43d 22c0 9b3e
00000300: c089 8abc cc38 203e 9b6d 273e 7a21 ea3e
00000310: c93e 113d 9859 81bd 03f8 613e 2e3b 6e3e
00000320: b4be dfbb edc0 23be b12c 98be 134a c33e
00000330: acf8 73be f81b 05bd 9d23 54bd 108e f83e
00000340: a0bb 24be fd9f d43d 230e bebe 23c8 a3be
00000350: 78fb 083d 6192 2abc b8a7 3e3d d986 2dbe
00000360: 2146 7e3e d6d6 d53e 40b5 793d ad8e 83be
00000370: a0db 01bf 46f9 e43e 9ce1 113e 260b a5be
00000380: 92e7 993e b135 f93e bfc8 dd3e 7faa a33e
00000390: 1bcb c73e 5f61 84bc be2c df3e 2811 fdbd
000003a0: 2b58 99be 5fbf 01bf 0b8c aa3e 4c68 a43e
000003b0: 523b 78be d232 e93e fa83 83bd 5eef 513e
000003c0: 7de1 89be c42a c33e ed76 443e 46b1 21be
000003d0: 6a4e efbe 827d 0c3f 26a4 b6bd 8a71 fdbe
000003e0: 545c 623e a9ea 80be cbe9 53bd 43dc 083d
000003f0: 9083 bc3e 58d1 a9bd 45fb d23e 7fbe d63e
-0.38924062 -0.3992743 0.14145392 -0.41720825 -0.27833408 -0.19737864 -0.048633635 0.06792474
-0.4219591 -0.20579597 0.17442149 -0.076417714 0.021083415 0.07448161 -0.4196454 0.06516969
-0.40090662 -0.0008665621 0.48771656 -0.44235542 0.08207989 -0.3367582 0.3364027 -0.30614427
-0.27176422 0.4605028 0.22308624 0.24863642 0.21808702 -0.083714396 -0.36843988 0.341384
-0.07098035 -0.13927388 -0.0015878677 0.41743213 -0.3844607 0.09390671 0.14550573 -0.41640186
0.20167649 -0.16264205 -0.3883587 -0.36303705 0.12559329 -0.39680877 -0.05381524 -0.2040324
-0.07165943 -0.4173667 -0.36153483 -0.13062906 -0.019696385 -0.5118937 0.2984258 0.08955139
-0.046151817 -0.22993895 0.25285238 -0.3557553 -0.03943628 0.03392435 0.058241334 -0.17382784
-0.10919514 0.1462904 0.31078014 -0.29137686 -0.1982137 -0.1254397 -0.5812852 -0.48878244
-0.17715272 -0.30788422 0.54080474 -0.011765478 0.08226122 -0.052874964 0.042559486 -0.17203982
-0.058584727 0.12969704 0.09267376 -0.066447176 0.3335723 0.3408705 0.09877749 0.314937
0.42598492 -0.23426165 -0.34589913 -0.40818205 0.08992766 -0.17280842 0.06360691 0.28287122
-0.016976656 0.44110182 0.41296965 -0.014065981 -0.15356803 -0.13795422 0.49138296 0.30748564
0.44576666 0.42195886 0.3020564 -0.33960944 -0.20298831 -0.1650909 -0.7671011 -0.57019925
-0.026434809 -0.4308424 -0.14993925 -0.021859646 0.47755998 -0.36631113 0.43492922 0.28653964
-0.03136784 0.024827242 0.404226 0.21089059 0.15888071 0.17974812 -0.33199844 -0.20090243
0.22995472 0.48658878 0.4920357 -0.092445195 -0.33653754 0.12506896 -0.29538384 0.4834705
-0.26601952 -0.12649524 -0.07230753 0.31108242 -0.32895744 0.4031108 -0.18325508 -0.050616443
-0.17497945 0.25193775 -0.36381724 -0.14730579 -0.04244438 -0.30425388 0.061153173 -0.45653602
0.28871018 -0.061929435 0.48869747 0.22884148 0.26630545 0.099901795 -0.3418972 -0.46293494
-0.2137864 0.37079662 0.20696223 0.35993522 -0.15422854 0.44886905 -0.29139268 0.4783013
-0.38983136 0.32104212 0.032326043 0.025932193 0.0671131 0.14756376 0.021006942 0.084409
0.009241283 0.23959732 0.3505299 -0.120835215 0.5401726 0.55579877 0.4616094 0.12867579
-0.31599793 0.28940985 0.33781484 0.34738052 0.05060488 0.4504499 0.09573266 0.30420023
-0.016911387 0.15646666 0.16350405 0.45728666 0.035460267 -0.06315917 0.22067265 0.23264763
-0.0068281535 -0.15991564 -0.29721597 0.38142452 -0.2382533 -0.032497376 -0.051791776 0.48545885
-0.16087198 0.10382078 -0.3712016 -0.3198863 0.033442944 -0.010410876 0.046546668 -0.16945972
0.2483144 0.4176547 0.06096387 -0.2569479 -0.50725746 0.4472143 0.1424622 -0.32235068
0.30059487 0.48673776 0.4331722 0.31966016 0.39022145 -0.016159711 0.43588823 -0.12356788
-0.2995008 -0.50682634 0.3330997 0.32110822 -0.24241379 0.45546585 -0.06421657 0.20501468
-0.26929846 0.38118565 0.19185992 -0.1579028 -0.46739513 0.5487901 -0.089180276 -0.49500686
0.22105533 -0.25179031 -0.051736634 0.033413183 0.36819124 -0.08291882 0.41207328 0.41942212

b4 f4 [30, 1]
00000000: dd17 02bf 569b bf3e df51 b2be 8788 c23e
00000010: beb5 3e3e 4c8f e5bd a849 cd3d d8d3 8b3e
00000020: f559 6b3e 446b 973e a3b0 06bc 8368 733c
00000030: 0ac0 e13e e436 d8be 579b 083f b3f7 b73e
00000040: 5fbd 243e 6afe 62bd 2836 a6be 2712 d8be
00000050: 3632 8ebe 4088 00be f321 5e3c d002 d53e
00000060: e8d7 433e 9cd4 e8be fec5 bbbe 19d2 4abe
00000070: cbdf 0a3e ed1c e8bd
-0.5081766 0.374232 -0.34828088 0.37994787 0.18624017 -0.11208972 0.100238144 0.2731006
0.22983535 0.29574025 -0.008220824 0.0148564605 0.44091827 -0.42229378 0.5336203 0.35931167
0.16087864 -0.05541841 -0.32463193 -0.4220135 -0.27772683 -0.12551975 0.013557899 0.41603708
0.1912533 -0.45474708 -0.36674494 -0.19806708 0.13561933 -0.11333642

W4 f4 [30, 30]
00000000: 4cc9 d83e 9539 92be 5364 a6be c8d3 c93d
00000010: 843f 6e3e 8eb1 ac3e af55 ea3e 087d d23e
00000020: 9ff6 843e d67a ecbe 434d dcbe c44a dbbd
00000030: a4a0 2fbe 0135 45bd dca4 bcbd dbf1 8fbe
00000040: e414 7dbe 2ed5 693d e0b3 7dbe 6483 bb3e
00000050: 88b1 c33d 6f74 ecbe 742d 6f3e e54e 87bd
00000060: b11a 27be 72bb 7bbc 044f d83e ec3f 9cbe
00000070: 8072 6b3e a8a7 f43e ecab 853e e6d8 7b3e
00000080: 07c6 07be f30b bf3e 4002 293d d656 a93e
00000090: 1ea5 d1bb 9e0d aabe 1ff9 b73e 2257 fcbd
000000a0: 4e60 97bd 0cfa e93e a670 d2be 8be6 95be
000000b0: b782 d13e 58a8 82be 5c06 a8be 12d9 ef3d
000000c0: 746d c03e ac6c ce3d 3afa 6cbe d7f6 b53e
000000d0: a860 53be 1503 463d f23f e9bd 1cb9 5cbd
000000e0: b804 fd3e 24cd da3e acb2 243e be9a fb3e
000000f0: e6d9 c4be 3748 f6be 6e65 8a3e a40f 18be
00000100: f0e5 22be 7f0d dcbe f30d cebe 5233 ff3e
00000110: 0a1f 45be 2bf9 fdbe 70eb ccbc fc5d 6f3d
00000120: 52ec e03e b55f 20bd 9213 533e d60b 4e3e
00000130: f9af debe 4e7a 25be 80e8 e93e a811 a83e
00000140: 28c7 ed3d aca9 e63e 880f c3bd 0a1f d8bc
00000150: ea8f bf3d feb5 5c3c 004e d7bd 4e3b 9ebe
00000160: 3bb7 e0be 8869 e03e 41a1 d8be eb97 8ebe
00000170: b8ba 27bf 2317 3bbe 08d8 e13d 3877 d23e
00000180: 6944 773e 735b a83e 9e43 96be b424 cabe
00000190: fd04 d33e 9534 1d3f 60aa 48bc ccc8 b5be
000001a0: 27f7 513e f84f 123e c30c 383e 57a9 03be
000001b0: b917 26bf f6c4 cbbe d0d7 8f3d adec 123f
000001c0: 0fe4 cabe 7ee7 8dbe 2e81 92be f3eb cdbc
000001d0: e2f6 17bf c345 b63e 6422 a7be 54d3 fc3e
000001e0: c891 b83e a902 853d 453e 063e fc4b f4bd
000001f0: 2650 dfbe b4a3 903e 6e31 2fbe 8abf 84be
00000200: 7df0 e03e 001f 3fbe ec8d 983e 8783 01bf
00000210: 4479 a7bd 4de6 4bbe 6443 503e 260c da3e
00000220: 1e77 943e a171 f8be f09c 7cbd 3593 1fbe
00000230: a069 223e 6d7a 52be 3871 d4bd f7d6 54be
00000240: 5208 aabe cdb4 d33c f468 e23e 454d bb3e
00000250: 7cb5 19be 84bf 7abe c05f 923c cc5d 1dbe
00000260: 20df 7b3e 06a7 2cbe 487b 43bd 7096 943e
00000270: c5ae edbe c0f8 aabe 7448 9f3e a88d af3e
00000280: 30b9 a8be 3869 a2bd 3615 aabe 2047 ef3c
00000290: 4a8f a33e dccd bebd 9ca6 113e 6416 3c3e
000002a0: 8a55 a43e d818 e43e da6e 94be 62ac e0be
000002b0: 004c 533c 6eb9 d5be f0a3 95be 6661 80be
000002c0: 2c90 fcbd d0b4 78be 7031 613e 9eac d63e
000002d0: cc46 db3e 8d54 f3be d8bd 76be 1f77 21be
000002e0: 40c1 2f3c 98e8 3b3e 0115 7dbe f593 dbbe
000002f0: a7ea 953e 693f b63e d919 0c3e 0186 9fbd
00000300: 00d3 19bc d5a2 26bd ebf0 223d 471e 513e
00000310: 5bf2 8a3c 7d88 813e b5de 253e 8cb0 38bc
00000320: c8a6 9dbe 0466 5e3d 5e9e a33e 8988 69be
00000330: 0e66 113e 34cd 19be b5ca c3be d3a8 cd3e
00000340: 8da6 e2be 4154 83be f259 8f3e 0ab3 363e
00000350: 5029 b83e f739 1cbf 5cfd d1bd f281 fbbe
00000360: e51a 52be 4371 8c3e 5432 0b3f 2a23 953e
00000370: 7011 00be 5d2f b6be 9f08 933e 92ff 973e
00000380: 8b59 cbbc ee99 04bf 521d ec3d 2cc0 a1be
00000390: 88bd c53e 30e2 81be 88bb b93d 4508 62bd
000003a0: 3073 79be 55f1 4f3e c6fc c43e c561 92bd
000003b0: 830f 7bbd 1387 b83e 3ee7 77be 9c21 1ebe
000003c0: d0d8 353e 25bc e03e 5fd1 8d3d 5443 eabe
000003d0: 3006 a8bc 606f 683e ca70 52be c538 3bbe
000003e0: ec01 d73e 8685 723e af1d 983e c935 fdbe
000003f0: a5ed d7be 85ab 883e 93e4 903d 4043 7f3e
0.42341077 -0.28559557 -0.32498416 0.09854847 0.23266417 0.33729213 0.45768496 0.41111016
0.25969407 -0.46187466 -0.43027696 -0.1070762 -0.17151123 -0.04814625 -0.09211132 -0.2811421
-0.24715 0.05708807 -0.24775648 0.3662368 0.09555346 -0.46182582 0.23357183 -0.06606845
-0.16318776 -0.015364515 0.42247784 -0.3051752 0.22992897 0.47784162 0.26107728 0.24594459
-0.13259135 0.37313804 0.04126191 0.33074063 -0.0063978573 -0.33213514 0.35932252 -0.12321307
-0.073914155 0.45698583 -0.4110157 -0.29277453 0.4092004 -0.2551906 -0.32817352 0.11711325
0.37583506 0.10079321 -0.23142329 0.35539886 -0.2064234 0.048342783 -0.1138915 -0.05388747
0.49417663 0.42734635 0.16083783 0.49141496 -0.38447493 -0.4810197 0.2703051 -0.14849716
-0.15908027 -0.42979047 -0.40245017 0.49843842 -0.19250122 -0.49604163 -0.02501461 0.05843924
0.43930298 -0.039153773 0.20612934 0.20121703 -0.4349363 -0.16159937 0.45685196 0.3282597
0.11610252 0.45051324 -0.09524447 -0.026381988 0.09353621 0.013471125 -0.10512924 -0.3090462
-0.43889794 0.43830514 -0.42310527 -0.2785028 -0.65519285 -0.18270545 0.11027533 0.41106582
0.2414719 0.3288227 -0.29348463 -0.39481127 0.41214743 0.6140836 -0.012247652 -0.35504758
0.20504437 0.14288318 0.17973618 -0.12857567 -0.6487995 -0.39798707 0.07023585 0.5739239
-0.3962712 -0.27715677 -0.2861418 -0.025136923 -0.5936109 0.356001 -0.32643425 0.4937998
0.36048722 0.06494648 0.13109691 -0.11928555 -0.43615836 0.28249896 -0.171087 -0.25927383
0.43933478 -0.1866417 0.29795778 -0.5059132 -0.081774265 -0.19912072 0.20338207 0.42587394
0.2899713 -0.48524192 -0.061673105 -0.15583499 0.15860605 -0.20554514 -0.10373157 -0.20785128
-0.33209473 0.025843048 0.44220698 0.3658239 -0.15010637 -0.2448712 0.017867923 -0.15367812
0.24596834 -0.1686059 -0.047724992 0.29021025 -0.464224 -0.33392906 0.31109965 0.34287763
-0.32953787 -0.07930225 -0.33219308 0.02920872 0.31945258 -0.09316608 0.14223713 0.18367916
0.3209651 0.44550204 -0.28990823 -0.43881518 0.012896538 -0.41743034 -0.29226637 -0.2507431
-0.12332186 -0.24287724 0.21991515 0.4192857 0.4282745 -0.47525445 -0.24095857 -0.15768097
0.010727227 0.18350446 -0.24715044 -0.4288632 0.29280588 0.35595253 0.13681735 -0.07789231
-0.009388685 -0.040682632 0.03978054 0.20421706 0.016961267 0.25299445 0.16198237 -0.011272561
-0.30791306 0.05429651 0.31956762 -0.2280599 0.14199087 -0.15019685 -0.3824059 0.40167865
-0.44267693 -0.25650218 0.2799831 0.17841735 0.3596902 -0.6102595 -0.102534026 -0.49122578
-0.20518072 0.27430162 0.5437367 0.2912839 -0.12506652 -0.3558301 0.28717515 0.29687172
-0.02482297 -0.5179738 0.1152903 -0.31591928 0.38621163 -0.2536788 0.09068972 -0.055183668
-0.24360347 0.20306905 0.384741 -0.07147554 -0.06129409 0.36040553 -0.24209306 -0.15442508
0.17758489 0.43893543 0.069247 -0.45754492 -0.020510763 0.22698736 -0.20550838 -0.18283375
0.41993654 0.23683748 0.29710147 -0.49455097 -0.42173496 0.2669336 0.07074847 0.24927998

W5 f4 [1, 30]
00000000: 759c 243f 6d7e 7d3d 9c72 8b3c 24d9 8cbf
00000010: 8839 c83d d840 7abe 7941 53be d429 913f
00000020: 5ee9 b83e bbc0 3f3f 0e51 6ebe 69c4 b33e
00000030: 4243 963f e0bf 7a3f 3f1a 9abf f288 ab3e
00000040: b095 633e 8a5b 83bf e08f b93c bcef 92be
00000050: 2eda 09bf 3c11 183e 2e16 ab3f 280e 84be
00000060: b830 e13e 203b a53d 6f59 16bf cf39 fc3e
00000070: 7c6a 8dbf 130c b8be
0.64301234 0.061888147 0.017022423 -1.1003766 0.09776598 -0.24438798 -0.20630445 1.134089
0.36115545 0.7490346 -0.23273107 0.35110787 1.1739275 0.9794903 -1.203926 0.33502918
0.2222507 -1.026231 0.022651613 -0.28698528 -0.5384854 0.14850324 1.3366144 -0.2579205
0.43982482 0.08067918 -0.58730215 0.49262854 -1.1048121 -0.35946712

p_b1_old f4 [30, 1]
00000000: 988d 6b35 0000 0000 7cbd d3b6 3c33 8636
00000010: 0000 0000 b626 0eb6 0000 0000 0000 0000
00000020: 2069 8836 0806 0938 1c88 7338 e14e 9f36
00000030: 0000 0000 9b60 8b36 d3fc 1cb8 240d 2936
00000040: 8776 8836 d050 1737 84f1 0636 6803 21b7
00000050: e03e dcb6 0000 0000 0000 0000 e8a3 7bb6
00000060: 0000 0000 0000 0000 0000 0000 0000 0000
00000070: 743b 4337 f60c 0337
8.775037e-07 0.0 -6.310349e-06 3.9994757e-06 0.0 -2.1182182e-06 0.0 0.0
4.065354e-06 3.2668962e-05 5.8062476e-05 4.747752e-06 0.0 4.153769e-06 -3.742876e-05 2.5190611e-06
4.0669142e-06 9.019117e-06 2.0108137e-06 -9.597141e-06 -6.5638305e-06 0.0 0.0 -3.749732e-06
0.0 0.0 0.0 0.0 1.1636748e-05 7.811226e-06

p_W1_old f4 [30, 2]
00000000: c092 c937 2594 15b8 0000 0000 0000 0000
00000010: e7bb 1d37 d433 38b7 e2b8 6f37 7fb5 02b8
00000020: 0000 0000 0000 0000 c4e0 52b6 cf84 1237
00000030: 0000 0000 0000 0000 0000 0000 0000 0000
00000040: 2a42 f236 343f 21b8 acbe c5b8 ab99 02b8
00000050: 761b b7b8 5f02 e1b5 a380 bfb7 4abc 7ab6
00000060: 0000 0000 0000 0000 44d6 d436 8fb5 fab6
00000070: 7541 7538 813a 42b7 9201 bab7 20d7 9c37
00000080: c680 e4b6 d7fc 18b7 97a0 73b7 c48f 6936
00000090: 393b d736 19e6 94b7 6472 f536 881b 3237
000000a0: 943d 4db7 e9de b637 0000 0000 0000 0000
000000b0: 0000 0000 0000 0000 9a5a 3c37 1520 b236
000000c0: 0000 0000 0000 0000 0000 0000 0000 0000
000000d0: 0000 0000 0000 0000 0000 0000 0000 0000
000000e0: 0810 01b7 9a32 14b7 e087 16b7 7c0e b937
2.4029403e-05 -3.566234e-05 0.0 0.0 9.401679e-06 -1.0979322e-05 1.42885565e-05 -3.1163447e-05
0.0 0.0 -3.142327e-06 8.7332e-06 0.0 0.0 0.0 0.0
7.2198645e-06 -3.8444254e-05 -9.4292074e-05 -3.113753e-05 -8.731235e-05 -1.6764496e-06 -2.2828875e-05 -3.7362502e-06
0.0 0.0 6.343036e-06 -7.471717e-06 5.8473513e-05 -1.1576923e-05 -2.2173659e-05 1.8696825e-05
-6.8099207e-06 -9.118775e-06 -1.4521319e-05 3.4803388e-06 6.4143937e-06 -1.7750122e-05 7.314886e-06 1.0616037e-05
-1.2233289e-05 2.1799891e-05 0.0 0.0 0.0 0.0 1.1226768e-05 5.308548e-06
0.0 0.0 0.0 0.0 0.0 0.0 0.0 0.0
-7.692732e-06 -8.833269e-06 -8.972333e-06 2.2060463e-05

p_b2_old f4 [30, 1]
00000000: 564d 9b35 50de 7335 1ff0 cdb5 6959 7535
00000010: dcfa 1c37 013b 8537 52a7 abb6 8823 a737
00000020: 0000 0000 0000 0000 8a38 1537 c6cf 3936
00000030: 0000 0000 0000 0000 0ef3 9fb7 c790 98b5
00000040: 0662 abb6 db7f 1c36 5c43 9436 6de6 8636
00000050: 4c13 b736 2e3a ccb6 732e cdb7 24ea 7e37
00000060: 0000 0000 0000 0000 7d6e a8b6 0000 0000
00000070: bbbb a4b7 31e1 9d36
1.1570908e-06 9.084806e-07 -1.5343575e-06 9.139972e-07 9.356732e-06 1.5882311e-05 -5.115676e-06 1.9924497e-05
0.0 0.0 8.894256e-06 2.7688088e-06 0.0 0.0 -1.9067458e-05 -1.1367018e-06
-5.1076086e-06 2.3320233e-06 4.4185854e-06 4.0203363e-06 5.4560714e-06 -6.086447e-06 -2.4459534e-05 1.5194095e-05
0.0 0.0 -5.0196527e-06 0.0 -1.9637742e-05 4.7051803e-06

p_W2_old f4 [30, 30]
00000000: bb75 c335 0000 0000 fa34 a8b6 60db a033
00000010: 0000 0000 e76b 45b6 0000 0000 0000 0000
00000020: b401 f037 db6f 07b8 6d0f f0b7 a40c 1a36
00000030: 0000 0000 d674 9d36 959c 9237 8415 a134
00000040: be45 4537 c04e 8737 11dc 54b5 8a5b fdb6
00000050: 6005 c2b6 0000 0000 0000 0000 f454 efb7
00000060: 0000 0000 0000 0000 0000 0000 0000 0000
00000070: 7929 9837 00e7 1732 afb6 3b37 0000 0000
00000080: 693f 9db6 87d9 3f37 0000 0000 0459 e036
00000090: 0000 0000 0000 0000 d5b4 d436 df86 c535
000000a0: 00d5 4138 4f8a 8937 0000 0000 6d79 5eb6
000000b0: 9027 5fb7 7eb9 0336 ae42 8b36 5d72 ab36
000000c0: 0ed7 fab5 3dc0 2837 dcb6 ef36 0000 0000
000000d0: 0000 0000 cc14 0fb8 0000 0000 0000 0000
000000e0: 0000 0000 0000 0000 7444 26b7 1820 8636
000000f0: b994 8635 0000 0000 d0ce 5135 d9cb d135
00000100: 0000 0000 3bc9 7d34 0000 0000 0000 0000
00000110: 0000 0000 0000 0000 0000 0000 f0f5 0431
00000120: 0000 0000 e0a0 63b6 1e28 9bb6 7003 45b5
00000130: 7d32 06b7 0591 dbb6 6232 79b4 ff51 8c36
00000140: f93f 5d36 0000 0000 0000 0000 47e1 2236
00000150: 0000 0000 0000 0000 0000 0000 0000 0000
00000160: 0000 0000 5a5a 4db4 ce88 99b6 0000 0000
00000170: cdcc 5736 630b 95b6 0000 0000 3683 a6b6
00000180: 0000 0000 0000 0000 3281 9bb5 eda1 0436
00000190: 6538 a836 9456 00b7 0000 0000 ae23 fb35
000001a0: 5b18 3436 54d8 8934 5fbb ffb6 0f6d 5fb6
000001b0: 78c6 9e35 9acc 29b6 ee50 01b6 0000 0000
000001c0: 0000 0000 967f af36 0000 0000 0000 0000
000001d0: 0000 0000 0000 0000 9ac2 3e37 1e44 31b5
000001e0: a83d 8936 0000 0000 37c4 07b6 de0d 4d36
000001f0: 0000 0000 0c7a e9b5 0000 0000 0000 0000
00000200: 86d3 c536 7a1f 12b7 4e6b 83b7 e42f ee36
00000210: 0000 0000 b4f4 3037 1f62 30b6 898f e236
00000220: aca0 ac37 4c8d b537 9d4b 4135 4612 38b6
00000230: f966 64b6 0000 0000 0000 0000 1d28 04b7
00000240: 0000 0000 0000 0000 0000 0000 0000 0000
00000250: 1029 6b36 fc2b cb36 aba6 f7b6 0000 0000
00000260: f77f cf36 f2f7 0eb7 0000 0000 4860 1bb7
00000270: 0000 0000 0000 0000 738a c4b4 d432 b437
00000280: 06da a537 63f1 10b7 0000 0000 4500 ac37
00000290: 3502 5c37 dc4f 2c37 fcf6 f737 11ff b537
000002a0: 585a 9336 9fe2 41b7 2fc2 32b7 0000 0000
000002b0: 0000 0000 7d0d 24b7 0000 0000 0000 0000
000002c0: 0000 0000 0000 0000 a824 9db6 d346 de36
000002d0: f4a1 1037 0000 0000 7f2a 26b7 4ee8 ff36
000002e0: 0000 0000 ec2f ab36 0000 0000 0000 0000
000002f0: 0ccd 9137 2076 3eb6 8def 26b8 50d0 4e37
00000300: 0000 0000 08e2 97b6 4f8b af36 8656 60b6
00000310: 87eb 6837 353a 3537 8349 64b6 485e 48b4
00000320: 383e e734 0000 0000 0000 0000 99d2 fd37
00000330: 0000 0000 0000 0000 0000 0000 0000 0000
00000340: 342d 5fb7 0d8b bfb5 0029 fbb6 0000 0000
00000350: 5a16 b337 68ec 9bb6 0000 0000 c16d 07b7
00000360: 0000 0000 0000 0000 3e65 01b8 e3e7 2337
00000370: 5a11 7036 fd0b 6cb7 0000 0000 800a 5437
00000380: 309c b437 c68c 7f37 a0ca acb7 3086 82b7
00000390: d376 fc36 3a41 6837 7c71 ff36 0000 0000
000003a0: 0000 0000 b023 18b8 0000 0000 0000 0000
000003b0: 0000 0000 0000 0000 54ed 0638 ee15 4e37
000003c0: 0000 0000 0000 0000 0000 0000 0000 0000
000003d0: 0000 0000 0000 0000 0000 0000 0000 0000
000003e0: 0000 0000 0000 0000 0000 0000 0000 0000
000003f0: 0000 0000 0000 0000 0000 0000 0000 0000
1.4562896e-06 0.0 -5.0129574e-06 7.490485e-08 0.0 -2.9418095e-06 0.0 0.0
2.8611023e-05 -3.229068e-05 -2.8617413e-05 2.2955146e-06 0.0 4.692566e-06 1.747747e-05 3.0004242e-07
1.1758353e-05 1.6129925e-05 -7.9296393e-07 -7.550644e-06 -5.7822763e-06 0.0 0.0 -2.853058e-05
0.0 0.0 0.0 0.0 1.8139124e-05 8.84188e-09 1.1188603e-05 0.0
-4.6863465e-06 1.1435134e-05 0.0 6.686083e-06 0.0 0.0 6.339144e-06 1.4716896e-06
4.6213157e-05 1.6396078e-05 0.0 -3.3151257e-06 -1.3301047e-05 1.9628492e-06 4.1502853e-06 5.1095108e-06
-1.8689041e-06 1.0058339e-05 7.1440427e-06 0.0 0.0 -3.4113225e-05 0.0 0.0
0.0 0.0 -9.910309e-06 3.9972474e-06 1.0027062e-06 0.0 7.815952e-07 1.5631041e-06
0.0 2.3635668e-07 0.0 0.0 0.0 0.0 0.0 1.9348327e-09
0.0 -3.3919277e-06 -4.62403e-06 -7.339322e-07 -7.998778e-06 -6.543591e-06 -2.3208261e-07 4.1818707e-06
3.2968803e-06 0.0 0.0 2.427101e-06 0.0 0.0 0.0 0.0
0.0 -1.9124982e-07 -4.5756815e-06 0.0 3.2156706e-06 -4.4418716e-06 0.0 -4.9624605e-06
0.0 0.0 -1.1586001e-06 1.9763786e-06 5.0133553e-06 -7.649553e-06 0.0 1.8711341e-06
2.6836267e-06 2.5675638e-07 -7.621405e-06 -3.329307e-06 1.1829679e-06 -2.5302056e-06 -1.9269605e-06 0.0
0.0 5.2302594e-06 0.0 0.0 0.0 0.0 1.1370192e-05 -6.603676e-07
4.090096e-06 0.0 -2.023078e-06 3.0555452e-06 0.0 -1.7395373e-06 0.0 0.0
5.895682e-06 -8.709607e-06 -1.5666385e-05 7.098528e-06 0.0 1.0547392e-05 -2.6283158e-06 6.7520346e-06
2.0578816e-05 2.1642678e-05 7.2008135e-07 -2.7428773e-06 -3.4034585e-06 0.0 0.0 -7.877153e-06
0.0 0.0 0.0 0.0 3.504163e-06 6.054992e-06 -7.3805763e-06 0.0
6.183978e-06 -8.521589e-06 0.0 -9.261137e-06 0.0 0.0 -3.660858e-07 2.148134e-05
1.9771058e-05 -8.639271e-06 0.0 2.0504123e-05 1.3113536e-05 1.0270593e-05 2.9559706e-05 2.1695656e-05
4.391459e-06 -1.1556461e-05 -1.0654839e-05 0.0 0.0 -9.778302e-06 0.0 0.0
0.0 0.0 -4.683232e-06 6.6243606e-06 8.6207765e-06 0.0 -9.904265e-06 7.626636e-06
0.0 5.101776e-06 0.0 0.0 1.738083e-05 -2.8380964e-06 -3.9800583e-05 1.2327058e-05
0.0 -4.526464e-06 5.231624e-06 -3.3428964e-06 1.3883116e-05 1.0801993e-05 -3.4017437e-06 -1.8660751e-07
4.3072373e-07 0.0 0.0 3.0258017e-05 0.0 0.0 0.0 0.0
-1.33023605e-05 -1.4271078e-06 -7.485156e-06 0.0 2.1348871e-05 -4.6468813e-06 0.0 -8.072181e-06
0.0 0.0 -3.0850286e-05 9.769547e-06 3.5772887e-06 -1.4069487e-05 0.0 1.2638629e-05
2.1530403e-05 1.5231961e-05 -2.0598352e-05 -1.5559694e-05 7.524018e-06 1.3843464e-05 7.6128035e-06 0.0
0.0 -3.627286e-05 0.0 0.0 0.0 0.0 3.216912e-05 1.2283663e-05
0.0 0.0 0.0 0.0 0.0 0.0 0.0 0.0
0.0 0.0 0.0 0.0 0.0 0.0 0.0 0.0

p_b3_old f4 [30, 1]
00000000: 0000 0000 199e f135 45bb fab7 6a3c 75b6
00000010: 0000 0000 0000 0000 f0c9 bc36 80a2 8cb6
00000020: faed bc35 9c2b 1eb6 9e43 8ab6 f0c9 23b6
00000030: 0000 0000 c72d 93b5 601b 6136 48b6 40b5
00000040: 8e17 9f37 f6a4 4e36 4826 c633 33b3 6db6
00000050: 0000 0000 f122 7435 0000 0000 f233 4336
00000060: 7e00 24b6 5cf3 82b6 8e6d 9bb5 bcd4 f8b6
00000070: 0000 0000 0000 0000
0.0 1.8001912e-06 -2.9889527e-05 -3.654301e-06 0.0 0.0 5.6263452e-06 -4.1912426e-06
1.4076352e-06 -2.3569219e-06 -4.120592e-06 -2.4406436e-06 0.0 -1.0965676e-06 3.3543547e-06 -7.179083e-07
1.8965246e-05 3.0792412e-06 9.227057e-08 -3.542006e-06 0.0 9.094793e-07 0.0 2.90875e-06
-2.443819e-06 -3.9026327e-06 -1.1580285e-06 -7.4157415e-06 0.0 0.0

p_W3_old f4 [30, 30]
00000000: 0000 0000 0000 0000 0000 0000 0000 0000
00000010: 0000 0000 0000 0000 0000 0000 0000 0000
00000020: 0000 0000 0000 0000 0000 0000 0000 0000
00000030: 0000 0000 0000 0000 0000 0000 0000 0000
00000040: 0000 0000 0000 0000 0000 0000 0000 0000
00000050: 0000 0000 0000 0000 0000 0000 0000 0000
00000060: 0000 0000 0000 0000 0000 0000 0000 0000
00000070: 0000 0000 0000 0000 edd8 1235 0000 0000
00000080: 5aaa 1736 e10b ee35 0000 0000 0000 0000
00000090: 1346 8236 923c 5136 0000 0000 0000 0000
000000a0: 0000 0000 0000 0000 0000 0000 0000 0000
000000b0: 1996 2e36 d4ad 5636 4a8b a9b5 eed7 09b5
000000c0: 96fb bcb4 b8ac 2836 300f 0435 8227 3ab6
000000d0: 0000 0000 419d 5632 0000 0000 0000 0000
000000e0: 3da1 1037 0000 0000 0000 0000 8318 bc36
000000f0: 53e1 7437 6230 0638 ee05 8536 a4b0 8eb6
00000100: b7db c337 9650 f837 5590 1eb8 3cda c3b7
00000110: 0000 0000 0000 0000 8770 e237 864c 9237
00000120: 0000 0000 0000 0000 99d1 3ab8 a3f0 8d36
00000130: b458 37b8 eeb9 89b7 66b4 d0b6 3c56 9636
00000140: be09 c736 4d5f 6337 65ef a138 7de2 8537
00000150: 0000 0000 0000 0000 387a 5fb8 0000 0000
00000160: 3ece 0f37 e0eb 46b6 e731 80b6 59f0 2b37
00000170: 43b5 0fb7 1ebf d6b6 0000 0000 fd0b 7538
00000180: 929f 55b7 3124 a0b7 0000 0000 0000 0000
00000190: 1573 da37 1c99 3e37 0000 0000 0000 0000
000001a0: 9a25 93b6 f393 24b8 fc19 3e37 6e00 0fb7
000001b0: 3aaf 00b8 0732 23b7 4815 2834 e167 1d38
000001c0: 0000 0000 4486 93b6 0000 0000 0000 0000
000001d0: 84fb d4b7 0000 0000 0bab 93b7 d001 af35
000001e0: 0000 0000 0000 0000 0000 0000 0000 0000
000001f0: 0000 0000 0000 0000 0000 0000 0000 0000
00000200: 0000 0000 0000 0000 0000 0000 0000 0000
00000210: 0000 0000 0000 0000 0000 0000 0000 0000
00000220: 0000 0000 0000 0000 0000 0000 0000 0000
00000230: 0000 0000 0000 0000 0000 0000 0000 0000
00000240: 0000 0000 0000 0000 0000 0000 0000 0000
00000250: 0000 0000 0000 0000 0000 0000 0000 0000
00000260: 0000 0000 0000 0000 0000 0000 0000 0000
00000270: 0000 0000 0000 0000 0000 0000 0000 0000
00000280: 0000 0000 0000 0000 0000 0000 0000 0000
00000290: 0000 0000 0000 0000 0000 0000 0000 0000
000002a0: 0000 0000 0000 0000 0000 0000 0000 0000
000002b0: 0000 0000 0000 0000 0000 0000 0000 0000
000002c0: 0000 0000 0000 0000 0000 0000 0000 0000
000002d0: d119 7636 2437 6eb7 1734 5fb6 9e27 2f36
000002e0: 1a4d 77b6 58b5 18b8 88d8 df36 a26c bd36
000002f0: 0000 0000 0000 0000 f992 a1b6 130f d2b5
00000300: 0000 0000 0000 0000 fe72 6d36 2afe eeb6
00000310: 9a82 5f37 0050 f535 5e95 6b36 c119 7db6
00000320: 144b 88b5 593c cd36 4a21 84b7 b477 63b6
00000330: 0000 0000 0000 0000 7626 dbb4 0000 0000
00000340: 3a8d efb6 ab7e 75b6 12d5 82b6 c2bf 0537
00000350: db2c 1933 bcc3 a136 0000 0000 a4de a837
00000360: 0fde 40b6 daf8 9536 0000 0000 0000 0000
00000370: 249d 9337 784b a2b5 0000 0000 0000 0000
00000380: 260b a4b7 ebe9 9936 a049 e636 6212 5537
00000390: 2eb9 e535 a9e9 e932 90d4 41b6 6ba0 57b7
000003a0: 5584 a437 0825 4d37 0000 0000 0000 0000
000003b0: 84c2 d736 0000 0000 af4f cfb3 5644 a235
000003c0: dda5 3eb7 4786 d8b7 9e1e eb36 06b4 f2b7
000003d0: 40a2 5337 967f 3d37 1d11 c1b7 490f 7938
000003e0: 0000 0000 0000 0000 750c d538 24fb bbb7
000003f0: 0000 0000 0000 0000 4824 87b6 b5ca 6c37
0.0 0.0 0.0 0.0 0.0 0.0 0.0 0.0
0.0 0.0 0.0 0.0 0.0 0.0 0.0 0.0
0.0 0.0 0.0 0.0 0.0 0.0 0.0 0.0
0.0 0.0 0.0 0.0 0.0 0.0 5.4704907e-07 0.0
2.259991e-06 1.7735839e-06 0.0 0.0 3.8824596e-06 3.1178683e-06 0.0 0.0
0.0 0.0 0.0 0.0 2.6015389e-06 3.1989666e-06 -1.263202e-06 -5.1350696e-07
-3.5200782e-07 2.5134486e-06 4.919593e-07 -2.7739156e-06 0.0 1.2492195e-08 0.0 0.0
8.62061e-06 0.0 0.0 5.60569e-06 1.4595996e-05 3.199315e-05 3.964399e-06 -4.2524935e-06
2.3348124e-05 2.960143e-05 -3.7804555e-05 -2.3347435e-05 0.0 0.0 2.6993699e-05 1.744019e-05
0.0 0.0 -4.454106e-05 4.2301413e-06 -4.371321e-05 -1.6418253e-05 -6.219884e-06 4.4803874e-06
5.9317963e-06 1.3552443e-05 7.721669e-05 1.5960302e-05 0.0 0.0 -5.328117e-05 0.0
8.571484e-06 -2.9641596e-06 -3.8205067e-06 1.0248355e-05 -8.5656675e-06 -6.399946e-06 0.0 5.8423717e-05
-1.2732942e-05 -1.909034e-05 0.0 0.0 2.6041214e-05 1.1360531e-05 0.0 0.0
-4.385319e-06 -3.9238435e-05 1.13309325e-05 -8.523564e-06 -3.068077e-05 -9.727205e-06 1.5653961e-07 3.752846e-05
0.0 -4.396572e-06 0.0 0.0 -2.538949e-05 0.0 -1.7603414e-05 1.3039044e-06
0.0 0.0 0.0 0.0 0.0 0.0 0.0 0.0
0.0 0.0 0.0 0.0 0.0 0.0 0.0 0.0
0.0 0.0 0.0 0.0 0.0 0.0 0.0 0.0
0.0 0.0 0.0 0.0 0.0 0.0 0.0 0.0
0.0 0.0 0.0 0.0 0.0 0.0 0.0 0.0
0.0 0.0 0.0 0.0 0.0 0.0 0.0 0.0
0.0 0.0 0.0 0.0 0.0 0.0 0.0 0.0
0.0 0.0 0.0 0.0 3.6671884e-06 -1.4198744e-05 -3.325991e-06 2.6100092e-06
-3.6850747e-06 -3.6408514e-05 6.6711254e-06 5.6452855e-06 0.0 0.0 -4.815284e-06 -1.5650606e-06
0.0 0.0 3.5382686e-06 -7.1225413e-06 1.3322244e-05 1.8277206e-06 3.5104672e-06 -3.7714929e-06
-1.015464e-06 6.1165015e-06 -1.5751128e-05 -3.3895312e-06 0.0 0.0 -4.0819913e-07 0.0
-7.139196e-06 -3.6581575e-06 -3.8991066e-06 7.972065e-06 3.5663884e-08 4.8209604e-06 0.0 2.0130836e-05
-2.8739485e-06 4.469516e-06 0.0 0.0 1.759694e-05 -1.2091905e-06 0.0 0.0
-1.9555515e-05 4.586987e-06 6.863105e-06 1.2700069e-05 1.7115724e-06 2.7231026e-08 -2.8882969e-06 -1.2852349e-05
1.9611945e-05 1.2227574e-05 0.0 0.0 6.430144e-06 0.0 -9.653683e-08 1.2089829e-06
-1.1363501e-05 -2.5811734e-05 7.00711e-06 -2.8932478e-05 1.2614357e-05 1.1294984e-05 -2.3015362e-05 5.938046e-05
0.0 0.0 0.00010158952 -2.2409084e-05 0.0 0.0 -4.027537e-06 1.4113893e-05

p_b4_old f4 [30, 1]
00000000: 4833 e035 c8ca 30b4 0000 0000 2136 6bb5
00000010: 46ea 09b6 0000 0000 9724 04b6 207e 4ab6
00000020: d2ad bab4 a156 38b6 0000 0000 0000 0000
00000030: ccdc 7ab6 29e3 2eb6 e035 4736 8e47 6fb5
00000040: ccbb 1eb5 8665 b636 0000 0000 0000 0000
00000050: 65c9 8cb6 0000 0000 72a7 6eb6 b535 3835
00000060: 0000 0000 0000 0000 72b9 d135 c6eb afb5
00000070: 5844 4536 b284 9fb4
1.6704225e-06 -1.6465049e-07 0.0 -8.762309e-07 -2.0550956e-06 0.0 -1.969083e-06 -3.017376e-06
-3.477167e-07 -2.7468561e-06 0.0 0.0 -3.7381424e-06 -2.6060245e-06 2.968467e-06 -8.9138564e-07
-5.9132867e-07 5.4358416e-06 0.0 0.0 -4.1957705e-06 0.0 -3.556223e-06 6.8623496e-07
0.0 0.0 1.5625685e-06 -1.3107135e-06 2.9395069e-06 -2.9712606e-07

p_W4_old f4 [30, 30]
00000000: 0000 0000 0000 0000 80c4 d7b4 0000 0000
00000010: 0000 0000 0000 0000 e7ac 98b6 22a0 c2b4
00000020: 3eef d8b7 0000 0000 652c b337 0000 0000
00000030: 0000 0000 042e 98b7 8f49 d136 0000 0000
00000040: 0000 0000 2998 d4b7 0000 0000 0000 0000
00000050: 0000 0000 ccdc 5a37 0000 0000 3fd8 c937
00000060: a50e 8a37 0c93 0f36 0000 0000 71b0 1f37
00000070: 0000 0000 0000 0000 0000 0000 15ab 66b4
00000080: 1351 89b5 0755 d9b4 0000 0000 0000 0000
00000090: 5674 74b4 dd4f a834 940a 11b6 cad5 c734
000000a0: da94 18b5 7eda d2b4 0000 0000 b12f 2334
000000b0: e838 8731 b2c5 2633 9472 2936 f6fd 0333
000000c0: 7f61 1ab5 e3bf 81b4 0000 0000 2ccc 5ab5
000000d0: 0000 0000 85ab 1635 524b 7134 c561 3535
000000e0: a52b 1b34 f513 16b5 0000 0000 0000 0000
000000f0: 0000 0000 0000 0000 0000 0000 0000 0000
00000100: 0000 0000 0000 0000 0000 0000 0000 0000
00000110: 0000 0000 0000 0000 0000 0000 0000 0000
00000120: 0000 0000 0000 0000 0000 0000 0000 0000
00000130: 0000 0000 0000 0000 0000 0000 0000 0000
00000140: 0000 0000 0000 0000 0000 0000 0000 0000
00000150: 0000 0000 0000 0000 0000 0000 0000 0000
00000160: 0000 0000 0000 0000 0000 0000 c02c 8036
00000170: d19a 9837 5c87 f136 0000 0000 0000 0000
00000180: 9e52 6ab7 d90d bbb6 a16e 0b38 6915 deb6
00000190: ad62 1137 c053 ea36 0000 0000 fb1c 73b7
000001a0: ce69 8db6 3857 39b5 0c50 3cb8 1cd6 76b7
000001b0: 8491 2b37 f731 9036 0000 0000 d486 4337
000001c0: 0000 0000 daa7 96b7 6ab2 cfb6 ee6e aab7
000001d0: 4372 2cb6 2787 3d37 0000 0000 0000 0000
000001e0: 0000 0000 c2c4 dfb4 7a30 81b6 5fe3 b1b6
000001f0: 0000 0000 0000 0000 53c2 08b6 35e3 58b6
00000200: 65b3 a2b5 637f 03b5 32d4 65b6 5e11 6fb6
00000210: 0000 0000 4ff4 27b6 7c0f acb5 8c5f 0bb6
00000220: bef2 a1b6 8d0d f033 a7d7 5ab6 c261 5cb4
00000230: 0000 0000 5de4 7eb6 0000 0000 926f 2ab6
00000240: d0b1 83b6 b2c5 44b6 aeec 1eb5 a20b c4b6
00000250: 0000 0000 0000 0000 0000 0000 0000 0000
00000260: 0000 0000 0000 0000 0000 0000 0000 0000
00000270: 0000 0000 0000 0000 0000 0000 0000 0000
00000280: 0000 0000 0000 0000 0000 0000 0000 0000
00000290: 0000 0000 0000 0000 0000 0000 0000 0000
000002a0: 0000 0000 0000 0000 0000 0000 0000 0000
000002b0: 0000 0000 0000 0000 0000 0000 0000 0000
000002c0: 0000 0000 0000 0000 0000 0000 0000 0000
000002d0: 0000 0000 0832 bcb4 ad8c 6bb6 a7aa b6b6
000002e0: 0000 0000 0000 0000 c083 29b6 c28b 34b6
000002f0: 3ec5 a6b5 5403 bdb5 c68a 1cb6 5b8a 7ab6
00000300: 0000 0000 999d cab5 6e59 cfb4 3fb4 4fb6
00000310: 3b11 a3b6 0000 0000 6bf3 44b6 b5be e1b4
00000320: 0000 0000 9c75 87b6 0000 0000 6815 07b6
00000330: 19b3 62b6 6495 1eb6 efc4 8bb5 52c0 afb6
00000340: 0000 0000 0000 0000 0000 0000 0b1a 84b6
00000350: 9447 9db7 77ed f8b6 0000 0000 0000 0000
00000360: b7fd 8bb6 12c8 c036 b520 26b8 3de3 e436
00000370: 80c3 2eb7 da81 f1b6 0000 0000 f8e9 3a36
00000380: e009 9b33 4d05 3f35 0115 4238 8230 1735
00000390: 24d3 30b7 e59c 94b6 0000 0000 c09a 7ab7
000003a0: 0000 0000 ad93 2c37 9d30 8a36 88c0 4f37
000003b0: c8ba 3136 28e4 2bb7 0000 0000 0000 0000
000003c0: 0000 0000 dd0f 14b6 ba52 a5b6 80f9 8cb5
000003d0: 0000 0000 0000 0000 8b26 0cb5 0865 6f36
000003e0: 23bf 49b7 77bc 9235 cf5a 47b5 bcc2 e9b5
000003f0: 0000 0000 8ca0 5136 5a22 d135 5c78 9cb4
0.0 0.0 -4.0189843e-07 0.0 0.0 0.0 -4.5500815e-06 -3.6251828e-07
-2.5860612e-05 0.0 2.1359136e-05 0.0 0.0 -1.814124e-05 6.2372487e-06 0.0
0.0 -2.5343224e-05 0.0 0.0 0.0 1.3045221e-05 0.0 2.4061765e-05
1.6457701e-05 2.1394253e-06 0.0 9.5182195e-06 0.0 0.0 0.0 -2.1482658e-07
-1.0230891e-06 -4.0481265e-07 0.0 0.0 -2.2766594e-07 3.1350547e-07 -2.161284e-06 3.722219e-07
-5.684102e-07 -3.9274522e-07 0.0 1.5197908e-07 3.9354866e-09 3.882969e-08 2.5249656e-06 3.073179e-08
-5.7511346e-07 -2.4167738e-07 0.0 -8.150844e-07 0.0 5.612895e-07 2.2472275e-07 6.757003e-07
1.4451378e-07 -5.5908396e-07 0.0 0.0 0.0 0.0 0.0 0.0
0.0 0.0 0.0 0.0 0.0 0.0 0.0 0.0
0.0 0.0 0.0 0.0 0.0 0.0 0.0 0.0
0.0 0.0 0.0 0.0 0.0 0.0 0.0 0.0
0.0 0.0 0.0 3.819907e-06 1.8191904e-05 7.1981176e-06 0.0 0.0
-1.3966723e-05 -5.5746464e-06 3.3243214e-05 -6.618608e-06 8.665648e-06 6.983493e-06 0.0 -1.4490676e-05
-4.2144447e-06 -6.904479e-07 -4.4897242e-05 -1.4712594e-05 1.0226275e-05 4.297351e-06 0.0 1.1654298e-05
0.0 -1.7959555e-05 -6.189851e-06 -2.0317235e-05 -2.5696506e-06 1.12967455e-05 0.0 0.0
0.0 -4.1680147e-07 -3.850143e-06 -5.3014805e-06 0.0 0.0 -2.037869e-06 -3.231876e-06
-1.2122151e-06 -4.8986675e-07 -3.4247173e-06 -3.5623884e-06 0.0 -2.5027146e-06 -1.2819505e-06 -2.076823e-06
-4.826433e-06 1.1178336e-07 -3.2610058e-06 -2.0524661e-07 0.0 -3.7981874e-06 0.0 -2.5396916e-06
-3.9248043e-06 -2.932135e-06 -5.9204e-07 -5.8426094e-06 0.0 0.0 0.0 0.0
0.0 0.0 0.0 0.0 0.0 0.0 0.0 0.0
0.0 0.0 0.0 0.0 0.0 0.0 0.0 0.0
0.0 0.0 0.0 0.0 0.0 0.0 0.0 0.0
0.0 0.0 0.0 0.0 0.0 -3.505413e-07 -3.5099613e-06 -5.443889e-06
0.0 0.0 -2.525965e-06 -2.690344e-06 -1.2425369e-06 -1.4082566e-06 -2.3326588e-06 -3.7333436e-06
0.0 -1.509604e-06 -3.8621823e-07 -3.095032e-06 -4.8597844e-06 0.0 -2.9347964e-06 -4.2048273e-07
0.0 -4.037005e-06 0.0 -2.0129028e-06 -3.3780873e-06 -2.3630791e-06 -1.0413622e-06 -5.2377954e-06
0.0 0.0 0.0 -3.9369384e-06 -1.874919e-05 -7.4186205e-06 0.0 0.0
-4.172059e-06 5.745337e-06 -3.9607945e-05 6.8213835e-06 -1.0416727e-05 -7.1974764e-06 0.0 2.7852348e-06
7.219546e-08 7.116076e-07 4.6272766e-05 5.632247e-07 -1.05395775e-05 -4.4290086e-06 0.0 -1.4937192e-05
0.0 1.0286382e-05 4.11838e-06 1.2382989e-05 2.6483776e-06 -1.0245516e-05 0.0 0.0
0.0 -2.2062952e-06 -4.927014e-06 -1.0503427e-06 0.0 0.0 -5.221015e-07 3.5672583e-06
-1.2025036e-05 1.0932698e-06 -7.426542e-07 -1.7416528e-06 0.0 3.1236877e-06 1.5581711e-06 -2.9144837e-07

p_W5_old f4 [1, 30]
00000000: a3d4 58b8 b4f7 3db8 0000 0000 88f0 1737
00000010: f491 a6b6 0000 0000 a148 5f35 8392 57b7
00000020: f462 aeb7 d2b9 a1b6 0000 0000 0000 0000
00000030: 9e97 d2b7 27a0 e0b7 c70f 18b7 7f87 1bb5
00000040: 48e2 9c37 ae55 2d38 0000 0000 0000 0000
00000050: cce8 0e39 0000 0000 0b83 6fb5 adc0 f2b7
00000060: 0000 0000 0000 0000 35bf a1b5 ea52 fe37
00000070: f7fc df37 8506 b536
-5.1696446e-05 -4.5291803e-05 0.0 9.056304e-06 -4.9641767e-06 0.0 8.317966e-07 -1.2849111e-05
-2.0788495e-05 -4.8198062e-06 0.0 0.0 -2.5104553e-05 -2.6777458e-05 -9.0635795e-06 -5.793917e-07
1.870202e-05 4.132621e-05 0.0 0.0 0.00013628899 0.0 -8.922513e-07 -2.893837e-05
0.0 0.0 -1.2051083e-06 3.031777e-05 2.6701468e-05 5.3949793e-06
